tested_policies/go2/2025-10-06_13-21-21_go2_5asymm/exported/policy.onnx (onnx, 273175 bytes, 8 tensors)

actor.0.weight f4 [128, 260]
0.11764684 -0.32689 0.6889686 -0.056878213 -0.06541948 -0.1294706 -0.016779214 0.6364189
-0.14713036 -0.18183553 0.43107402 0.16656308 -0.3050664 -0.7219153 0.6061566 0.02759955
0.01838893 -0.3767438 -0.51452273 -0.3408083 -0.4523771 0.12776703 -0.46043482 -0.48944005
0.056834485 -0.05162345 0.035649657 0.051024843 0.018975953 0.023318246 -0.0124902055 0.00017991343
0.01818309 -0.04711987 0.00026564428 -0.0045785774 -0.19193947 -0.11701026 0.19730017 -0.048157245
-0.056081943 -0.0057620364 -0.017603422 -0.11970741 0.17595229 -0.01617421 -0.15421629 -0.0045214016
-0.18522027 0.25084993 0.21977004 -0.095448986 -0.08259557 -0.4379724 0.098469794 -0.07465677
0.13225053 0.025625182 0.08488611 0.5706494 -0.08322238 -0.3313416 0.46511897 0.13586265
-0.29511067 -0.66776663 0.632535 0.042770997 0.09261253 -0.31067187 -0.40241566 -0.20562918
-0.6118999 -0.12656419 -0.43630844 -0.5222213 0.15648866 -0.060868338 0.0038106805 0.08277427
0.011379826 -0.01831513 -0.099741906 0.025897602 -0.018058833 0.06622025 -0.09805202 -0.06932318
-0.12302357 -0.09064951 -0.116366625 -0.21823063 0.045710377 -0.072336614 -0.03292733 0.035085917
0.28266564 0.013757549 0.04446798 -0.100325115 -0.16701818 0.1918051 0.12282111 -0.20779106
-0.1272164 -0.7349474 0.09487284 0.004837491 0.03218834 -0.07800275 0.07424997 0.5668291
-0.11154868 -0.44221488 0.59458506 0.2289605 -0.16158137 -0.65286404 0.60930616 0.054383032
0.1629604 -0.331968 -0.44774884 -0.30085713 -0.74267757 -0.15390868 -0.3853196 -0.64098334
-0.0033149228 -0.054017957 -0.029239316 -0.009420249 0.018477596 -0.045793716 -0.1156043 -0.0070848553
-0.05505085 -0.030229498 0.035117697 0.0347847 -0.13579652 0.013328767 0.009345238 -0.124093965
-0.044801667 -0.067738526 -0.22947432 0.0858052 0.30309185 0.08189474 0.082370594 0.036966186
-0.18116385 0.041734133 0.104878105 -0.17156449 -0.30649236 -0.8720644 -0.3568565 -0.002454413
-0.047891926 -0.113896616 0.13953073 0.47477606 -0.14932941 -0.64881235 0.7379802 0.19506794
-0.18656322 -0.5995324 0.50700563 -0.03967446 0.13384137 -0.37463927 -0.48410136 -0.1336845
-0.6885446 -0.2871763 -0.51722014 -0.66749996 -0.07655629 -0.037637655 0.1117921 0.042509604
-0.008142418 -0.10494041 -0.06362861 0.029115072 -0.10702901 -0.13366167 -0.081453554 -0.05477267
-0.1471339 0.027000358 -0.15279664 -0.15536423 -0.106772155 0.14021902 0.013928852 -0.0056050853
0.32181302 0.09938732 0.010794496 0.18780285 -0.041968737 -0.0798786 -0.14241678 -0.07765659
-0.38113925 -0.89543843 -3.1755097 -1.333773 0.73050284 0.10673033 0.15227744 0.57357633
-0.17537512 -0.7669056 1.0271868 0.31904593 -0.16658351 -0.7348751 0.58023036 -0.047012784
0.21161392 -0.31954047 -0.43175003 -0.30305547 -0.8631724 -0.53631985 -0.4657344 -0.42746648
-0.08051545 -0.21433991 -0.040512107 -0.22175397 -0.0458919 -0.08384138 -0.0898747 0.07379894
-0.1849174 0.048414297 0.053101644 -0.48555112 -0.19653332 -0.04804453 -0.045657348 0.06894491
0.08001679 0.008729521 0.15913182 -0.18802774 0.022374462 -0.15383098 -0.13983649 0.17687884
00000000: d4f0 f03d 205e a7be 3f60 303f 21f9 68bd
00000010: a6fa 85bd f193 04be 9074 89bc 59ec 223f
00000020: 57a9 16be 1833 3abe bcb5 dc3e 838f 2a3e
00000030: aa31 9cbe 71cf 38bf 142d 1b3f 7418 e23c
00000040: 62a4 963c 90e4 c0be c3b7 03bf 6d7e aebe
00000050: f99d e7be 5cd5 023e 1dbe ebbe e397 fabe
00000060: 47cb 683d 1c73 53bd 6005 123d 6dff 503d
00000070: 7573 9b3c e805 bf3c b8a3 4cbc 25a7 3c39
00000080: b4f4 943c c400 41bd 2c46 8b39 e407 96bb
00000090: c88b 44be 13a3 efbd 0e09 4a3e 8840 45bd
000000a0: 2eb6 65bd 77cf bcbb 0d35 90bc 2929 f5bd
000000b0: d62c 343e c77f 84bc e0ea 1dbe 4428 94bb
000000c0: 62aa 3dbe 676f 803e 660b 613e c27a c3bd
000000d0: de27 a9bd eb3d e0be 88aa c93d a6e5 98bd
000000e0: af6c 073e e7eb d13c c5d8 ad3d 1416 123f
000000f0: 7f70 aabd 9ba5 a9be 1324 ee3e 941f 0b3e
00000100: bf18 97be c1f2 2abf d0ed 213f a430 2f3d
00000110: a3ab bd3d 6210 9fbe 6d09 cebe 7590 52be
00000120: 79a5 1cbf 0b9a 01be d263 dfbe 4cb0 05bf
00000130: 903e 203e 1451 79bd 9cbc 793b 8e85 a93d
00000140: 7372 3a3c 9d09 96bc 7c45 ccbd 3527 d43c
00000150: 1ef0 93bc 7c9e 873d 7fcf c8bd 50f9 8dbd
00000160: c8f3 fbbd 73a6 b9bd a051 eebd da77 5fbe
00000170: ce3a 3b3d 3825 94bd cfde 06bd 40b6 0f3d
00000180: 8db9 903e 5867 613c 0e24 363d 4177 cdbd
00000190: d006 2bbe 8e68 443e a289 fb3d 2ec7 54be
000001a0: 0445 02be 8325 3cbf b14c c23d d183 9e3b
000001b0: ecd7 033d e8bf 9fbd 5e10 983d b61b 113f
000001c0: a273 e4bd fd69 e2be ba36 183f 9f74 6a3e
000001d0: 9675 25be 1922 27bf 7dfb 1b3f bec0 5e3d
000001e0: 17df 263e b6f7 a9be 563f e5be f209 9abe
000001f0: 1e20 3ebf 3d9a 1dbe 9c48 c5be 7c17 24bf
00000200: 2d3f 59bb ef41 5dbd 4a87 efbc 6357 1abc
00000210: 545e 973c 3192 3bbd f2c1 ecbd 1328 e8bb
00000220: 007d 61bd daa3 f7bc 93d7 0f3d 677a 0e3d
00000230: 3e0e 0bbe e760 5a3c c51c 193c fa24 febd
00000240: f481 37bd 7fba 8abd 51fb 6abe a3ba af3d
00000250: db2e 9b3e 6eb8 a73d eab1 a83d db69 173d
00000260: 0483 39be 69f1 2a3d 55ca d63d 9aae 2fbe
00000270: 91ec 9cbe 9d3f 5fbf e5b5 b6be 38da 20bb
00000280: 532a 44bd a142 e9bd 25e1 0e3e d915 f33e
00000290: cfe9 18be 9118 26bf 45ec 3c3f e4bf 473e
000002a0: 6e0a 3fbe f57a 19bf 1fcb 013f b081 22bd
000002b0: b60d 093e b8d0 bfbe 22dc f7be 97e4 08be
000002c0: 7544 30bf c608 93be 8a68 04bf 47e1 2abf
000002d0: 8bc9 9cbd f129 1abd 42f3 e43d 8d1e 2e3d
000002e0: c767 05bc ffea d6bd b74f 82bd bb82 ee3c
000002f0: 0732 dbbd 9bde 08be 1fd1 a6bd 4f59 60bd
00000300: 45aa 16be db2f dd3c b976 1cbe cd17 1fbe
00000310: 5cab dabd 9395 0f3e d735 643c ddaa b7bb
00000320: adc4 a43e 948b cb3d 66db 303c 644f 403e
00000330: 69e7 2bbd 6497 a3bd b4d5 11be 6b0a 9fbd
00000340: af24 c3be 743b 65bf 8d3b 4bc0 13b9 aabf
00000350: 3c02 3b3f 6e95 da3d 9eee 1b3e e6d5 123f
00000360: 8995 33be ed53 44bf db7a 833f fd59 a33e
00000370: de94 2abe c620 3cbf fa89 143f 7a90 40bd
00000380: 52b1 583e cf9a a3be 570e ddbe 162a 9bbe
00000390: def8 5cbf 424c 09bf bd74 eebe e3dc dabe
000003a0: 49e5 a4bd ec7b 5bbe 06f0 25bd 7913 63be
000003b0: 25f9 3bbd 08b5 abbd 3a10 b8bd e623 973d
000003c0: fd5a 3dbe 124e 463d 1c81 593d 289a f8be
000003d0: 0840 49be 57ca 44bd 3303 3bbd fd32 8d3d
000003e0: d8df a33d 4406 0f3c 74f3 223e 588a 40be
000003f0: a64a b73c de85 1dbe 4c31 0fbe ba1f 353e

actor.0.bias f4 [128]
0.14796793 0.14169228 -0.8530857 0.029867481 -0.17654832 -0.091504194 -0.10416936 0.14901903
-0.1642126 0.037449975 -0.2604777 0.23188002 0.0060923025 -0.388559 -0.26060602 -0.070627466
-0.061844856 -0.10309375 0.14782585 0.22464374 0.03692491 -0.14809813 0.09555614 -0.06717194
-0.26986533 0.1225705 -0.097287424 -0.061424248 -0.058758046 -0.009565218 0.11084928 -0.016666666
-0.3361652 -0.16394764 0.055262357 -0.1906604 -0.27652025 0.20366868 0.21666285 0.1687861
-0.018972576 -0.043676976 0.004149441 0.09610589 0.13257784 -0.3322434 -0.0019248262 -0.1703503
0.20205805 -0.7698967 0.15271017 -0.10541209 -0.027654173 -0.082541496 -0.09858493 -0.31595373
-0.18033266 0.08936572 -0.16614698 0.14877133 0.046663124 0.106878355 -0.14109662 0.028933639
-0.3828046 -0.028988138 -0.10273326 0.049060274 0.113988556 0.05191012 -0.18619557 0.0953565
-0.18999715 -0.37005612 -0.042879555 -0.055095043 0.21994318 -0.5021472 -0.14001592 -0.2120928
0.015808703 -0.36797577 0.07098651 0.15298843 0.03215262 0.0015291512 -0.20589314 -0.020662785
-0.12711872 -0.010520183 0.01140163 0.09169602 -0.3419875 0.009761967 0.04640498 0.015817216
0.120264836 -0.2620292 -0.1423395 -0.12582126 -0.08964557 0.11555562 -0.31017986 -0.09274631
-0.087599635 -0.18048501 -0.091218926 -0.13069159 0.035423122 -0.078652345 0.19535328 -0.5212269
-0.13805598 -0.357228 0.0019781962 -0.1681791 0.083414 -0.2045124 -0.24875337 -0.11423149
0.09794888 0.13078837 -0.093776345 -0.5597314 0.087895624 -0.28895658 0.027559528 -0.0782583
00000000: e884 173e c817 113e d363 5abf a6ac f43c
00000010: 15c9 34be 8d66 bbbd bf56 d5bd 7298 183e
00000020: 5927 28be 2565 193d 555d 85be f571 6d3e
00000030: f0a1 c73b 35f1 c6be 276e 85be 22a5 90bd
00000040: 0851 7dbd d122 d3bd a95f 173e 0209 663e
00000050: 933e 173d 09a7 17be f0b2 c33d 7191 89bd
00000060: ca2b 8abe 3e06 fb3d a13e c7bd fe97 7bbd
00000070: 47ac 70bd 6fb7 1cbc f304 e33d 8888 88bc
00000080: d81d acbe e4e1 27be c85a 623d 7b3c 43be
00000090: 1094 8dbe 868e 503e dedc 5d3e 43d6 2c3e
000000a0: 606c 9bbc a1e6 32bd 09f8 873b 2ad3 c43d
000000b0: 7cc2 073e cf1b aabe 734a fcba 4f70 2ebe
000000c0: 4ee8 4e3e f317 45bf 0e60 1c3e 4be2 d7bd
000000d0: 018b e2bc 840b a9bd e5e6 c9bd b0c4 a1be
000000e0: 20a9 38be 6005 b73d 6f22 2abe 8357 183e
000000f0: d521 3f3d 0ae3 da3d a27b 10be 3d06 ed3c
00000100: f7fe c3be 8878 edbc d165 d2bd 6df3 483d
00000110: d572 e93d b59f 543d 0daa 3ebe 454a c33d
00000120: 9d8e 42be ff77 bdbe 79a2 2fbd 57ab 61bd
00000130: c938 613e b88c 00bf 5560 0fbe db2e 59be
00000140: 4181 813c 5267 bcbe 6061 913d 00a9 1c3e
00000150: 77b2 033d cd6d c83a a7d5 52be 0045 a9bc
00000160: 692b 02be d85c 2cbc e7cd 3a3c 1fcb bb3d
00000170: fc18 afbe a8f0 1f3c 2613 3e3d 1b93 813c
00000180: 694d f63d b128 86be 72c1 11be 4ad7 00be
00000190: 1998 b7bd 6da8 ec3d e5cf 9ebe c7f1 bdbd
000001a0: 7067 b3bd 10d1 38be fdd0 babd 04d4 05be
000001b0: d617 113d 7b14 a1bd b10a 483e 206f 05bf
000001c0: 8c5e 0dbe 97e6 b6be a0a4 013b 2437 2cbe
000001d0: f6d4 aa3d b36b 51be 34b9 7ebe 33f2 e9bd
000001e0: 6c99 c83d 63ed 053e d00d c0bd 8f4a 0fbf
000001f0: 9f02 b43d 1ef2 93be 85c4 e13c e345 a0bd

actor.2.weight f4 [128, 128]
-0.43418854 -0.072429284 0.16711476 -0.08767229 -0.20877858 -0.12761013 0.06420916 0.04099066
0.27112028 0.20341718 0.0621601 0.056309745 0.15899073 -0.03359622 0.07906639 -0.0077656778
-0.021026308 -0.07361436 -0.15790887 0.031827252 0.05643638 0.055912536 -0.20459995 0.060825
0.20375374 0.06461077 -0.26724884 -0.10340365 -0.1799226 -0.3312237 0.15495466 0.09590598
-0.32662943 0.06947565 -0.16656727 0.3466831 0.16895297 0.072947465 -0.17556976 -0.2943439
-0.2367217 -0.20005403 0.06682345 -0.0023482605 -0.22276981 -0.1118472 0.15568633 0.0019529355
-0.19800813 -0.027503049 0.17674835 0.037499342 -0.3782228 -0.13972582 0.50314826 -0.1323605
0.372254 0.17682752 0.03290629 -0.21227367 -0.26823285 -0.12989378 0.14134656 -0.3012865
0.097111925 0.09160139 0.004613429 -0.045703873 -0.12214138 -0.20077671 0.28194207 0.30310157
0.28935322 -0.0016769735 0.006653108 -0.13486977 -0.13287316 0.0071767857 0.11766973 0.07357136
0.08484253 -0.18156749 -0.14342587 -0.18617827 -0.36707377 -0.11074568 -0.04924239 0.12891418
0.054815706 -0.13115253 0.037129022 -0.24057958 -0.13899277 -0.038955092 -0.15369447 -0.07041981
-0.14953285 0.11375839 -0.2424128 -0.8114091 0.0674147 0.080795385 -0.13119918 -0.043135557
-0.16182505 0.1489913 -0.14991477 0.17931426 -0.18223175 -0.022771435 0.005328687 -0.19791566
0.10635401 0.014866309 0.22006164 0.29625192 0.26040173 0.076161414 0.06667066 -0.09707051
0.011605314 0.053668026 0.015130632 -0.03842944 -0.36213443 0.13603814 -0.40506965 -0.12916403
-0.114096195 -0.04092344 -0.040696193 -0.052826405 0.12128945 -0.07320571 0.038602006 -0.34469658
-0.45213068 0.19874233 0.02937409 -0.5412577 -0.33719337 0.077131756 -0.1979134 0.02340367
0.07839117 0.0021266327 -0.007443944 -0.39024377 -0.10909036 0.049104452 -0.13086466 0.03627885
-0.22729914 -0.036477916 -0.25765926 -0.10544791 -0.115333594 0.08880476 -0.21952076 -0.24963342
0.09486833 0.031569485 0.32476604 -0.04539843 -0.075782664 -0.051356424 0.042902943 -0.28430635
0.49740982 0.055617318 -0.097593114 -0.0012043556 -0.04426379 0.0040797223 -0.025913402 -0.04629574
0.258954 -0.030915303 0.30842066 -0.1300874 -0.014819032 -0.0110230865 0.013482118 -0.025829867
0.07967675 0.312609 0.16056997 -0.26734537 -0.0050993483 0.018244138 -0.072685935 -0.148999
0.12054304 -0.027262984 -0.018108068 -0.23799561 -0.06613252 0.1514522 0.01083317 0.110479616
0.0017956225 0.21653004 -0.10765961 0.097311705 0.1890563 0.022648985 0.053453922 -0.102099076
-0.08683332 0.26250213 0.29362547 0.007231114 -0.023997353 0.051674075 0.048818067 -0.058394093
0.076281056 0.2569171 0.04022238 -0.23266359 -0.40947998 -0.24736753 0.10272231 -0.08553
0.11220762 -0.31509653 -0.1490425 0.04022457 0.030412138 -0.15482394 -0.19840084 -0.15558761
-0.10349787 -0.13564411 -0.15466525 0.017507337 -0.093835615 -0.17619939 0.14980336 0.1119027
0.031500816 0.022408782 0.06678733 -0.11745779 0.35547185 0.13854814 0.14513457 0.10864335
0.12656814 -0.097562075 -0.24653888 0.22083241 0.17307481 -0.06468324 0.05500723 -0.15854424
00000000: f64d debe ce55 94bd 2220 2b3e 888d b3bd
00000010: 0dca 55be 3bac 02be 1880 833d d3e5 273d
00000020: 47d0 8a3e 984c 503e 979b 7e3d 0ca5 663d
00000030: 77ce 223e 319c 09bd 8fed a13d 3a77 febb
00000040: 5d3f acbc 20c3 96bd ddb2 21be 4b5d 023d
00000050: d529 673d 8b04 653d a682 51be a323 793d
00000060: d2a4 503e a752 843d d7d4 88be 4bc5 d3bd
00000070: a13d 38be 2796 a9be 6fac 1e3e 5b6a c43d
00000080: f93b a7be 4049 8e3d 9c90 2abe 7380 b13e
00000090: 0202 2d3e 7b65 953d 8fc8 33be 3eb4 96be
000000a0: 2c67 72be f7da 4cbe bcda 883d 46e5 19bb
000000b0: c51d 64be 2510 e5bd 3d6c 1f3e a4f9 ff3a
000000c0: a5c2 4abe 134e e1bc 85fd 343e e998 193d
000000d0: 6ba6 c1be 4914 0fbe 53ce 003f 8389 07be
000000e0: 1498 be3e 4612 353e bfc8 063d 455e 59be
000000f0: d155 89be e002 05be 27bd 103e 3942 9abe
00000100: 9ee2 c63d 8299 bb3d 3f2c 973b fc33 3bbd
00000110: 4325 fabd 6998 4dbe b65a 903e 2130 9b3e
00000120: 1b26 943e e5cd dbba 5102 da3b 4d1b 0abe
00000130: e70f 08be 3e2b eb3b d4fc f03d 95ac 963d
00000140: ecc1 ad3d d4ec 39be 3bde 12be 84a5 3ebe
00000150: 18f1 bbbe a2ce e2bd 63b2 49bd 1402 043e
00000160: 6f86 603d d94c 06be 9a14 183d 7e5a 76be
00000170: 1f54 0ebe 608f 1fbd 1562 1dbe 4338 90bd
00000180: 241f 19be 29fa e83d 103b 78be 82b8 4fbf
00000190: b810 8a3d 0d78 a53d 1459 06be e9ae 30bd
000001a0: 77b5 25be 2d91 183e 4283 19be 289e 373e
000001b0: f69a 3abe 298b babc 449c ae3b 67aa 4abe
000001c0: 22d0 d93d d291 733c d757 613e 55ae 973e
000001d0: 6053 853e 84fa 9b3d a18a 883d e7cc c6bd
000001e0: 3724 3e3c 01d3 5b3d 78e6 773c 3068 1dbd
000001f0: af69 b9be 954d 0b3e 4a65 cfbe 9343 04be
00000200: 44ab e9bd 569f 27bd 0db1 26bd 8060 58bd
00000210: 9a66 f83d e0ec 95bd 231d 1e3d 127c b0be
00000220: ac7d e7be 1c83 4b3e eea1 f03c dd8f 0abf
00000230: 9ca4 acbe 41f7 9d3d cfa9 4abe 0eb9 bf3c
00000240: 8d8b a03d fa5e 0b3b 54ec f3bb 08ce c7be
00000250: c46a dfbd c021 493d 6301 06be 2299 143d
00000260: 1bc1 68be de69 15bd eaeb 83be 13f5 d7bd
00000270: 0534 ecbd 45df b53d 0dca 60be e79f 7fbe
00000280: 544a c23d 014f 013d bc47 a63e b4f3 39bd
00000290: f133 9bbd 1d5b 52bd ffba 2f3d 9a90 91be
000002a0: 80ac fe3e fcce 633d e6de c7bd 78db 9dba
000002b0: f34d 35bd 31af 853b 5848 d4bc 9aa0 3dbd
000002c0: 9e95 843e 1742 fdbc 50e9 9d3e a235 05be
000002d0: 86cb 72bc 2d9a 34bc 1ae4 5c3c 2899 d3bc
000002e0: 902d a33d 490e a03e 746c 243e 7ee1 88be
000002f0: 6f18 a7bb bb74 953c 5ddc 94bd 3293 18be
00000300: 45df f63d 9f56 dfbc 5f57 94bc 1fb5 73be
00000310: 7d70 87bd 4916 1b3e 9c7d 313c 2343 e23d
00000320: 185b eb3a 0dba 5d3e a47c dcbd 5c4b c73d
00000330: fa97 413e 5d8a b93c 80f2 5a3d 5219 d1bd
00000340: abd5 b1bd ae66 863e 1456 963e fbf2 ec3b
00000350: 1996 c4bc 32a8 533d 74f5 473d a52e 6fbd
00000360: 3e39 9c3d a38a 833e 39c0 243d 5d3f 6ebe
00000370: 5ca7 d1be ea4d 7dbe 1360 d23d 5a2a afbd
00000380: 1ccd e53d 5554 a1be 999e 18be 85c2 243d
00000390: e022 f93c 2b8a 1ebe 9729 4bbe 5c52 1fbe
000003a0: b1f6 d3bd 4ae6 0abe 9160 1ebe 8c6b 8f3c
000003b0: e32c c0bd 9d6d 34be 0d66 193e 3e2d e53d
000003c0: 0007 013d 9f92 b73c ccc7 883d b68d f0bd
000003d0: 6800 b63e 90df 0d3e 289e 143e 6880 de3d
000003e0: 149b 013e a0ce c7bd b074 7cbe e421 623e
000003f0: 863a 313e a678 84bd 434f 613d 6c59 22be

actor.2.bias f4 [128]
-0.024697492 -0.045870353 0.017735295 -0.08826856 -0.11150732 -0.62346005 -0.17297715 -0.5504309
-0.17045234 -0.16608414 0.09610411 0.086421944 -0.14838246 -0.5189386 -0.1725193 0.0020305845
-0.39764035 -0.17554612 -0.09525741 -0.37326777 -0.32094386 -0.27881607 -0.06198104 -0.18828268
-0.12952438 0.114147164 -0.25979033 -0.044724446 -0.06260538 -0.14906682 -0.13415584 -0.35005552
-0.21059261 -0.21945389 -0.18050534 0.056390725 -0.37878853 -0.18188386 -0.09181626 -0.57986444
-0.7358959 -0.06011155 -0.050096326 -0.15224558 -0.24230699 -0.08412446 0.0025733607 -0.20297253
-0.5541027 -0.22917873 -0.22856149 -0.49022254 -0.039231606 -0.14999518 0.3657093 -0.12687254
0.12216212 0.06150128 -0.24174954 0.033579204 0.02358009 -0.31052896 -0.2545616 -0.03510555
-0.120942056 0.08328535 -0.71416 -0.3320853 -0.12822798 -0.4273789 0.14390598 -0.110556364
-0.110716335 -0.019484678 -0.23526171 -0.28276256 0.13732658 -0.73578733 -0.09000524 -0.22697853
-0.7235066 -0.17430274 -0.24247122 -0.28521585 0.10280048 -0.2569861 -0.48903835 -0.18616953
-0.0592109 -0.11818712 -0.24928562 -0.230166 -0.09871343 -0.26869783 -0.15990442 -0.32373938
-0.28854677 -0.16471198 0.51100963 0.04097871 0.019764338 -0.36417198 -0.17438124 -0.18734397
-0.38244003 -0.5901671 -0.16123267 0.019882701 -0.1320774 -0.27540675 -0.18399402 -0.55420595
-0.2299343 0.030550653 -0.4510674 -0.18011265 -0.1349709 0.06568279 0.08560943 -0.16296883
-0.28245193 -0.123796 -0.07785131 -0.27875093 -0.3615487 -0.64814544 -0.055835847 -0.4036867
00000000: 6552 cabc 8de2 3bbd 9c49 913c 26c6 b4bd
00000010: f35d e4bd 149b 1fbf ec20 31be 0ae9 0cbf
00000020: 0f8b 2ebe f611 2abe 3bd2 c43d fdfd b03d
00000030: 92f1 17be 29d9 04bf e6a8 30be 8e13 053b
00000040: 8497 cbbe 5dc2 33be 5116 c3bd f41c bfbe
00000050: c152 a4be fbc0 8ebe d5df 7dbd 2dcd 40be
00000060: 0aa2 04be fdc5 e93d 3d03 85be fb30 37bd
00000070: 4037 80bd f9a4 18be 2660 09be 7a3a b3be
00000080: 97a5 57be 85b8 60be 64d6 38be f6f9 663d
00000090: 92f0 c1be c33f 3abe 2a0a bcbd ff71 14bf
000000a0: ac63 3cbf 8737 76bd ce31 4dbd 44e6 1bbe
000000b0: 531f 78be 7249 acbd d4a5 283b 08d8 4fbe
000000c0: add9 0dbf d4ad 6abe 060c 6abe 73fe fabe
000000d0: 52b1 20bd 5698 19be 403e bb3e e0ea 01be
000000e0: 2230 fa3d c4e8 7b3d 318d 77be 598a 093d
000000f0: 082b c13c a7fd 9ebe e655 82be d6ca 0fbd
00000100: 78b0 f7bd 8291 aa3d 31d3 36bf 1607 aabe
00000110: 324e 03be 68d1 dabe 175c 133e 606b e2bd
00000120: 3fbf e2bd 559e 9fbc 72e8 70be 41c6 90be
00000130: 579f 0c3e 8f5c 3cbf ab54 b8bd 0f6d 68be
00000140: bb37 39bf 6b7c 32be 604a 78be d007 92be
00000150: 0f89 d23d af93 83be 3c63 fabe 3aa3 3ebe
00000160: 2187 72bd 170c f2bd bb44 7fbe a3b0 6bbe
00000170: 442a cabd c392 89be fcbd 23be 2bc1 a5be
00000180: 67bc 93be 42aa 28be 87d1 023f 4bd9 273d
00000190: d2e8 a13c c074 babe ff90 32be 19d7 3fbe
000001a0: 2ecf c3be 3115 17bf 2d1a 25be 0ce1 a23c
000001b0: 4c3f 07be 1d02 8dbe ee68 3cbe 71e0 0dbf
000001c0: e673 6bbe 5d45 fa3c 4ef2 e6be 736f 38be
000001d0: d035 0abe b384 863d ff53 af3d 4de1 26be
000001e0: 8a9d 90be c288 fdbd 8270 9fbd 71b8 8ebe
000001f0: e91c b9be dcec 25bf 21b4 64bd 06b0 cebe

actor.4.weight f4 [128, 128]
-0.015351361 0.29620054 -0.13406776 -0.2291731 0.092630185 0.16017745 -0.18146355 0.09949025
-0.004130124 -0.07253367 -0.14480126 0.053112347 0.004526134 -0.1302627 -0.12520665 0.053133823
0.16670538 0.056569904 0.01375482 0.055896524 -0.088511564 0.015487109 -0.1606125 0.06769333
-0.11319853 -0.026126511 0.044691652 -0.024025537 0.10720727 -0.06772196 -0.054876104 -0.05220309
-0.13593468 0.07329291 -0.2658484 -0.26481202 0.003304355 -0.16092986 -0.08370505 -0.050081525
-0.010382965 -0.20583203 0.020485407 -0.011906695 0.059245512 0.10392519 -0.014568588 0.07214375
0.018709935 0.116698585 -0.07347724 0.13498862 0.032384917 -0.08896274 0.03255453 -0.09671927
-0.21720733 0.13134359 0.06757918 0.046044532 0.017806537 -0.39264333 -0.13208078 0.13174883
-0.1839238 -0.110166386 0.06306515 0.060060225 0.1653461 0.0036284428 0.05100126 0.13975593
0.079019874 -0.06956154 -0.055414133 -0.12586607 -0.1496597 0.095534675 -0.103496164 0.08418108
0.09502535 0.00470179 -0.075369574 -0.06761377 -0.114147 0.10281453 0.07521219 -0.15548655
-0.06007194 0.055177893 -0.07195456 0.16269098 0.17474954 0.05901279 0.16496488 0.20124397
0.14135133 -0.08229315 -0.03885387 -0.24913238 0.11502058 -0.26860014 0.019644527 0.028471554
0.10946573 0.109536745 0.06466516 0.104830585 -0.043520395 0.025522348 -0.19240095 0.06857451
-0.20053975 -0.14110117 -0.05005189 -0.29952738 0.08420099 -0.037930824 -0.26556888 -0.0049047144
0.10105259 -0.102268994 -0.103304334 0.076826565 0.15457244 -0.07794384 -0.17120211 0.062198345
-0.13833508 0.0875411 -0.06393117 -0.01299393 -0.0071775056 0.030986443 -0.041836437 0.24853955
-0.024312163 0.107180215 -0.0033243024 -0.48877513 0.03564261 0.09338904 0.08278308 -0.033588976
0.18017328 0.041068546 0.11384229 0.07839018 0.05202973 0.25127307 -1.0286303 -0.16178262
0.107825235 0.05088123 -0.1545715 -0.00376709 0.10988455 -0.02360449 -0.12219563 -0.052077245
0.16138154 -0.012452793 0.1134299 0.023185257 0.033927448 -0.036730744 -0.08396604 0.15366013
0.156139 -0.06851595 -0.12263958 0.037040252 0.039537672 0.028819764 -0.036239758 -0.12171451
0.045536157 -0.35361582 -0.15627351 0.110770665 0.0036148948 -0.17999364 0.04570102 -0.0055489205
-0.05567245 0.010391221 0.08599222 -0.0033292954 -0.023275068 -0.0040998766 0.046107665 -0.025676014
-0.084275976 0.17253111 -0.013270042 0.080387786 -0.07033144 -0.014164073 0.050620668 0.08725797
-0.11688122 0.0085037025 -0.12002673 -0.06959463 0.08668326 0.21099707 -0.5899706 -0.15440781
0.12735751 -0.11990061 -0.13052736 0.09393749 0.09735262 0.09655377 0.08912401 -0.07379661
-0.2821161 -0.021803197 -0.20546985 0.09653613 -0.09486413 0.18746158 0.014675003 0.07171564
0.03890303 0.1201525 0.012373227 0.020924157 -0.011022971 0.039831627 0.11989899 0.05617919
0.09639814 0.102853455 0.14839616 -0.01250364 -0.0029659402 0.024913197 -0.2874132 0.09770107
0.16606359 -0.081589304 -0.20166874 0.10121327 -0.11503478 -0.1275339 -0.35724404 -0.10509169
0.20035776 0.008930968 0.05286418 0.12115695 0.061420593 0.0034263972 -0.04925362 0.11075145
00000000: 4684 7bbc 99a7 973e 0f49 09be 5aac 6abe
00000010: e5b4 bd3d 8f05 243e 95d1 39be 8bc1 cb3d
00000020: fe55 87bb 888c 94bd c846 14be 558c 593d
00000030: f74f 943b 9663 05be 2c36 00be daa2 593d
00000040: d1b4 2a3e d8b5 673d e65b 613c c1f3 643d
00000050: 8d45 b5bd a5bd 7d3c 9a77 24be cda2 8a3d
00000060: a2d4 e7bd 4407 d6bc 980e 373d 34d1 c4bc
00000070: 7c8f db3d d0b1 8abd c4c5 60bd e8d2 55bd
00000080: 7632 0bbe 981a 963d 481d 88be 7195 87be
00000090: e18d 583b ccca 24be 8e6d abbd 4922 4dbd
000000a0: 501d 2abc a2c5 52be 03d1 a73c 4c14 43bc
000000b0: 6cab 723d bbd6 d43d 16b1 6ebc 1ac0 933d
000000c0: 9445 993c abff ee3d 3c7b 96bd 753a 0a3e
000000d0: 0ca6 043d 1932 b6bd e657 053d c114 c6bd
000000e0: 996b 5ebe ef7e 063e f466 8a3d 3199 3c3d
000000f0: 04df 913c 8c08 c9be 2f40 07be 2ae9 063e
00000100: 8556 3cbe ea9e e1bd 4d28 813d b601 763d
00000110: 7d50 293e 2bcb 6d3b b2e6 503d 2e1c 0f3e
00000120: 2cd5 a13d 4876 8ebd eef9 62bd 09e3 00be
00000130: 6440 19be afa7 c33d ccf5 d3bd 2167 ac3d
00000140: a79c c23d 7911 9a3b 5d5b 9abd 1779 8abd
00000150: e7c5 e9bd 6d90 d23d d908 9a3d de37 1fbe
00000160: ff0d 76bd 3702 623d ea5c 93bd 7798 263e
00000170: 8bf1 323e 65b7 713d 8eec 283e e612 4e3e
00000180: 67be 103e 5089 a8bd 3c25 1fbd 8f1c 7fbe
00000190: e98f eb3d f585 89be 8fed a03c 2d3d e93c
000001a0: 922f e03d cd54 e03d 2b6f 843d 6bb1 d63d
000001b0: 7142 32bd 3e14 d13c c104 45be cb70 8c3d
000001c0: 4b5a 4dbe d37c 10be 3603 4dbd a75b 99be
000001d0: 9271 ac3d 5a5d 1bbd a5f8 87be bab7 a0bb
000001e0: a9f4 ce3d 6872 d1bd 3991 d3bd 3f57 9d3d
000001f0: 3d48 1e3e 05a1 9fbd 9b4f 2fbe b1c3 7e3d
00000200: b6a7 0dbe c048 b33d 58ee 82bd 7ee4 54bc
00000210: 4831 ebbb 48d7 fd3c af5c 2bbd 2781 7e3e
00000220: 4d2a c7bc 4d81 db3d 8adc 59bb bc40 fabe
00000230: fcfd 113d c142 bf3d 2d8a a93d 9894 09bd
00000240: 587f 383e 7e37 283d 2626 e93d 088b a03d
00000250: 201d 553d dda6 803e 28aa 83bf 58aa 25be
00000260: 7ad3 dc3d d668 503d fe47 1ebe 48e1 76bb
00000270: 270b e13d 345e c1bc b441 fabd f34e 55bd
00000280: 3441 253e cd06 4cbc ef4d e83d 02ef bd3c
00000290: 82f7 0a3d fa72 16bd 63f6 abbd 1559 1d3e
000002a0: e7e2 1f3e 1752 8cbd 762a fbbd 85b7 173d
000002b0: 41f2 213d 6d17 ec3c 2470 14bd 7545 f9bd
000002c0: 1f84 3a3d 220d b5be 2a06 20be bbdb e23d
000002d0: dfe7 6c3b 4150 38be fe30 3b3d b8d3 b5bb
000002e0: cc08 64bd f13f 2a3c b01c b03d 4f30 5abb
000002f0: 5bab bebc 4258 86bb 64db 3c3d 8156 d2bc
00000300: e298 acbd ffab 303e 976a 59bc 5aa2 a43d
00000310: ee09 90bd 6e10 68bc 9e57 4f3d 4eb4 b23d
00000320: 6c5f efbd 1d53 0b3c 93d0 f5bd a187 8ebd
00000330: fe86 b13d 9e0f 583e 5008 17bf 151d 1ebe
00000340: 026a 023e 738e f5bd f7a8 05be 4c62 c03d
00000350: cf60 c73d fcbd c53d a686 b63d ad22 97bd
00000360: 8571 90be 9e9c b2bc b066 52be bcb4 c53d
00000370: 2048 c2bd eef5 3f3e 6c6f 703c a6df 923d
00000380: c958 1f3d 8412 f63d 13b9 4a3c 2369 ab3c
00000390: b199 34bc 7d26 233d 9a8d f53d 261c 663d
000003a0: 636c c53d d5a4 d23d 2af5 173e 11dc 4cbc
000003b0: 3860 42bb c316 cc3c d327 93be 8017 c83d
000003c0: 930c 2a3e 4b18 a7bd 4082 4ebe e748 cf3d
000003d0: 5b97 ebbd 3f98 02be b1e8 b6be 503a d7bd
000003e0: 962a 4d3e 3253 123c 1c88 583d 2321 f83d
000003f0: 2994 7b3d 688d 603b 2abe 49bd a8d1 e23d

actor.4.bias f4 [128]
-0.07435839 -0.21202885 -0.72871774 -0.027842196 -0.06309358 -0.511442 -0.23905487 -0.12991042
-0.29071233 -0.30422622 -0.10018008 -0.18980499 -0.1571997 -0.38058436 -0.041352533 -0.25889
-0.2467861 -0.06993781 -0.13218157 -0.08315683 -0.022753261 -0.041921563 -0.032073826 -0.18285874
-0.1598362 -0.0865444 -0.085693106 -0.15807663 -0.2938365 -0.19882932 -0.33228472 -0.14742844
-0.18708046 -0.10117264 -0.75364584 -0.1380977 -0.33861426 -0.0048121284 -0.57473695 -0.12597172
-0.08774609 -0.29238427 -0.1996088 -0.18228458 -0.1040395 -0.36767483 -0.17680074 -0.21360153
-0.17531268 -0.38879246 -0.19798131 -0.08305846 -0.26120228 -0.22665489 -0.26530242 -0.31280956
-0.19647746 -0.16905613 -0.14560449 -0.19918305 -0.22627285 -0.17429666 -0.12094727 -0.10411286
-0.21710847 -0.32265833 -0.0012279077 -0.14136785 -0.14246309 -0.2149139 -0.17099988 -0.31471875
-0.045846794 -0.15251778 -0.3337012 -0.18038937 -1.0346915 -0.12784308 -0.15589125 -0.25770873
-0.06963882 -0.3630779 -0.0992937 -0.2784598 -0.093689226 -0.10380852 -0.2110581 -0.23412617
-0.22386141 -0.061304588 -0.18804608 -0.18151648 -0.25845096 -0.24267633 -0.25292808 -0.17849691
-0.1153533 -0.27003962 -0.18863904 -0.06947703 -0.11663965 -0.2608181 -0.17086975 -0.09355092
-0.13774686 -0.2802189 -0.30534947 -0.2227169 -0.18389757 -0.32501033 -0.20394479 -0.88973814
-0.1993588 -0.28144103 -0.19344041 -0.24968982 -0.13137582 -0.19962156 -0.10609785 -0.8820431
-0.07949162 -0.39699665 -0.32113656 -0.12659185 -0.103491805 -0.546598 -0.19627135 -0.22253156
00000000: 3649 98bd 171e 59be 3f8d 3abf 5115 e4bc
00000010: 3537 81bd dded 02bf cdca 74be 3d07 05be
00000020: 3fd8 94be 8ac3 9bbe 372b cdbd 3d5c 42be
00000030: f5f8 20be f4db c2be 4661 29bd 3b8d 84be
00000040: 7fb5 7cbe 8e3b 8fbd 9b5a 07be 214e aabd
00000050: 0c65 babc f2b5 2bbd d85f 03bd 523f 3bbe
00000060: 1aac 23be 313e b1bd de7f afbd d7de 21be
00000070: bd71 96be ea99 4bbe 3921 aabe 7bf7 16be
00000080: 0592 3fbe 9a33 cfbd efee 40bf 7c69 0dbe
00000090: d95e adbe 0faf 9dbb f621 13bf bbfe 00be
000000a0: 39b4 b3bd 64b3 95be 4066 4cbe cfa8 3abe
000000b0: a912 d5bd e03f bcbe 410b 35be 5cba 5abe
000000c0: 2b85 33be ce0f c7be 9dbb 4abe 8e1a aabd
000000d0: 4ebc 85be 3818 68be b8d5 87be 9328 a0be
000000e0: 6331 49be 0d1d 2dbe 5819 15be a4f6 4bbe
000000f0: 12b4 67be d37a 32be 34b3 f7bd 2039 d5bd
00000100: af51 5ebe 7933 a5be bff1 a0ba bcc2 10be
00000110: d8e1 11be 6412 5cbe 981a 2fbe d122 a1be
00000120: d9c9 3bbd 9f2d 1cbe e2da aabe feb7 38be
00000130: c570 84bf 4ce9 02be f5a1 1fbe 66f2 83be
00000140: cc9e 8ebd 59e5 b9be 7f5a cbbd 4892 8ebe
00000150: 23e0 bfbd 9099 d4bd 9d1f 58be c5be 6fbe
00000160: ed3b 65be 851a 7bbd 278f 40be 75df 39be
00000170: af53 84be 2580 78be ca7f 81be e5c7 36be
00000180: 5a3e ecbd a242 8abe 982a 41be f949 8ebd
00000190: c5e0 eebd f389 85be 7bf8 2ebe a097 bfbd
000001a0: 830d 0dbe da78 8fbe c456 9cbe e60f 64be
000001b0: a54f 3cbe c167 a6be e7d6 50be e1c5 63bf
000001c0: b724 4cbe 0a19 90be 3e15 46be b0ae 7fbe
000001d0: 6287 06be 9869 4cbe d449 d9bd 94cd 61bf
000001e0: 81cc a2bd 2543 cbbe 036c a4be 4ba1 01be
000001f0: 83f3 d3bd d9ed 0bbf 5bfb 48be 50df 63be

actor.6.weight f4 [12, 128]
0.011271586 0.12194145 0.0006607966 -0.010568867 -0.0044517736 -0.021090906 -0.03457817 0.03393521
-0.010255682 0.005521638 -0.046877827 0.021718267 -0.0082380995 0.016183201 -0.024803795 0.043407038
-0.036870066 0.004640593 0.02122041 0.01726884 0.016288621 -0.021165643 -0.011143227 -0.046328682
0.039536405 -0.027726108 0.008775339 0.007127994 0.016130047 0.03482912 0.031938482 -0.00025584086
0.005358575 0.012357967 0.019662017 -0.010520194 0.04532672 -0.019355165 -0.026829941 -0.02808092
0.0058973334 -0.015994873 -0.017988393 0.029198326 0.005174634 -0.016641397 -0.0003095703 -0.019132933
0.0031292667 -0.009207354 0.021171045 0.06776538 -0.026155438 0.060896236 0.030608675 0.009685905
-0.016763397 -0.026607968 -0.017577315 0.029893203 0.001049939 0.0106126 0.00040559671 -0.0010030643
-0.0012828 0.02880979 -0.0037499527 -0.027834594 0.009582559 0.047083843 0.052827816 -0.005022099
0.0054299654 0.015546727 0.0019185164 -0.037175015 -0.015689556 0.023382166 -0.031461306 -0.014589161
-0.019506253 0.037348155 -0.024134623 0.022413267 -0.0088243205 0.011221795 -0.039971326 0.0024375585
0.028076626 0.06004565 -0.032357365 0.0035180126 -0.009590458 -0.044464037 0.007910828 -0.003437738
0.020427955 -0.0037381905 -0.0060566785 -0.018296268 0.008973078 -0.029588236 0.009673657 -0.0010952153
-0.009791796 0.011433877 -0.023485411 -0.0068460926 0.021069469 0.014175753 0.0178056 -0.018191308
-0.030821206 -0.008092085 -0.054833103 0.036902815 0.0054843505 0.028948281 -0.05129569 -0.024920927
0.002059475 0.030425379 -0.009991178 0.038803156 -0.0059223264 -0.028498327 0.021323573 -0.027803691
0.012095822 0.0018819254 0.002381714 -0.028522 6.6512286e-05 0.033987127 0.036822397 0.026166812
0.00513884 -0.04948628 -0.001227183 -0.015405144 0.01353444 0.03372945 0.030481303 0.002280446
0.0064875833 0.039261773 0.025604798 -0.010741287 0.033348802 0.015645133 0.010437097 0.0745998
-0.015314781 -8.518877e-05 -0.013092384 -0.008803341 -0.004569435 -0.020926533 -0.029669877 -0.004709945
-0.011326275 0.018412454 -0.010629886 0.007931498 -0.04837972 0.021544196 -0.044598553 0.008998333
0.002404793 -0.0276346 -0.0044722827 -0.005005206 -0.000117305484 0.013190272 -0.0033284905 0.03649093
0.029333845 0.022905586 0.024099318 -0.07046894 -0.0024098277 0.02712754 -0.041644737 -0.042116128
0.0105789 0.004107133 0.004810556 0.012584276 0.00019891662 0.031870652 -0.011038666 -0.010539103
0.0051977853 -0.046983555 -0.004886216 0.009290808 0.014711608 -0.019346694 0.03183441 -0.013420188
0.0027763988 0.041462924 -0.008723851 0.043365035 0.07741707 -0.014259799 -0.00011959966 -0.05339891
0.017611638 -0.016115827 -0.016199028 0.022223113 -0.06900953 0.009361614 0.0025518148 -0.00955987
-0.021302592 -0.027852518 -0.0069290176 0.019351179 -0.012239511 -0.014674221 0.03189314 -0.0001634532
0.0066270656 0.0026754937 0.0014422974 0.015113946 -0.0007979994 0.008525175 -0.0037934403 0.047646604
0.0033414976 0.009753349 0.00641109 -0.024820616 -0.0034011935 -0.023857413 -0.012857318 -0.012275826
-0.019042483 0.020377811 -0.040364105 0.010842233 0.017200995 -0.0229016 -0.0032285517 -0.0010207434
-0.033361975 -0.01334267 -0.01851283 0.015941262 -0.021407781 0.03780823 -0.012710743 -0.025284681
00000000: 75ac 383c 70bc f93d 4f39 2d3a 0b29 2dbc
00000010: 2fe0 91bb d6c6 acbc d7a1 0dbd a6ff 0a3d
00000020: 7307 28bc dbee b43b f702 40bd 82ea b13c
00000030: 18f9 06bc a292 843c 5431 cbbc 94cb 313d
00000040: 1105 17bd 1e10 983b 6dd6 ad3c 6277 8d3c
00000050: b76f 853c 9263 adbc 1592 36bc 25c3 3dbd
00000060: edf0 213d dd21 e3bc 71c6 0f3c f391 e93b
00000070: 2923 843c fba8 0e3d edd1 023d 6122 86b9
00000080: fc96 af3b 1279 4a3c 3d12 a13c e45c 2cbc
00000090: 83a8 393d b98e 9ebc 77ca dbbc f509 e6bc
000000a0: 6b3e c13b ae07 83bc 655c 93bc 5431 ef3c
000000b0: fa8f a93b 8a53 88bc d34d a2b9 abbc 9cbc
000000c0: 6214 4d3b 71da 16bc e66e ad3c 93c8 8a3d
000000d0: ee43 d6bc 556e 793d 0bbf fa3c a1b1 1e3c
000000e0: 6453 89bc f4f8 d9bc 4dfe 8fbc 97e2 f43c
000000f0: 1b9e 893a 78e0 2d3c 45a6 d439 4179 83ba
00000100: a023 a8ba 8202 ec3c c4c1 75bb 6005 e4bc
00000110: 2a00 1d3c fdda 403d fb61 583d 6b90 a4bb
00000120: daed b13b b3b7 7e3c ba76 fb3a d444 18bd
00000130: 6287 80bc f58b bf3c 92dd 00bd 6007 6fbc
00000140: 94cb 9fbc 61fa 183d f9b5 c5bc 079c b73c
00000150: e293 10bc 9fdb 373c f9b8 23bd 72bf 1f3b
00000160: f400 e63c 6df2 753d 2889 04bd 758e 663b
00000170: 4c21 1dbc ec1f 36bd 6b9c 013c ac4b 61bb
00000180: 8758 a73c 6efc 74bb 1a77 c6bb 0ee2 95bc
00000190: d103 133c 0763 f2bc 427e 1e3c 548d 8fba
000001a0: c56d 20bc 2855 3b3c 7a64 c0bc 3055 e0bb
000001b0: e199 ac3c 6b41 683c 0ddd 913c f005 95bc
000001c0: c17c fcbc aa94 04bc ad98 60bd 6827 173d
000001d0: 11b6 b33b f224 ed3c 6e1b 52bd f926 ccbc
000001e0: 42f8 063b a53e f93c 0ab2 23bc 0ff0 1e3d
000001f0: 1310 c2bb 5375 e9bc c6ae ae3c 91c4 e3bc
00000200: 8e2d 463c f0aa f63a 8816 1c3b f8a6 e9bc
00000210: 837c 8b38 1636 0b3d 15d3 163d c85b d63c
00000220: b763 a83b 20b2 4abd 6ed9 a0ba db65 7cbc
00000230: 8ebf 5d3c e427 0a3d edb3 f93c 8973 153b
00000240: cb95 d43b f4d0 203d 27c1 d13c 39fc 2fbc
00000250: c198 083d 392a 803c 5c00 2b3c c8c7 983d
00000260: d9ea 7abc 5fa7 b2b8 7081 56bc e33b 10bc
00000270: 33bb 95bb 1f6e abbc 3e0e f3bc e255 9abb
00000280: d791 39bc b7d5 963c f928 2ebc 1df3 013c
00000290: d029 46bd 747d b03c f9ac 36bd be6d 133c
000002a0: bb99 1d3b f561 e2bc 3a8c 92bb b602 a4bb
000002b0: e701 f6b8 031c 583c ce22 5abb 8377 153d
000002c0: 884d f03c 7fa4 bb3c ef6b c53c 0552 90bd
000002d0: 33ee 1dbb 933a de3c ac93 2abd f681 2cbd
000002e0: 1f53 2d3c 2195 863b dea1 9d3b 472e 4e3c
000002f0: 4694 5039 cd8a 023d 85db 34bc 34ac 2cbc
00000300: 2f52 aa3b d471 40bd 8d1c a0bb 7938 183c
00000310: f508 713c f57c 9ebc cc64 023d 59e0 5bbc
00000320: 3ef4 353b 07d5 293d 7cee 0ebc 899f 313d
00000330: d78c 9e3d efa1 69bc 94d1 fab8 d1b8 5abd
00000340: 4846 903c 5705 84bc d3b3 84bc 3f0d b63c
00000350: de54 8dbd 7461 193c 593c 273b 00a1 1cbc
00000360: c682 aebc f72a e4bc d00c e3bb 5d86 9e3c
00000370: 3b88 48bc 256c 70bc 62a2 023d a264 2bb9
00000380: db27 d93b 5657 2f3b 780b bd3a 7ca0 773c
00000390: d530 51ba 2dad 0b3c 5e9b 78bb 1629 433d
000003a0: 07fd 5a3b 83cc 1f3c 1f14 d23b 9b54 cbbc
000003b0: 8fe6 5ebb 9f70 c3bc 80a7 52bc 8c20 49bc
000003c0: fbfe 9bbc 5eef a63c d554 25bd 9fa3 313c
000003d0: 1ae9 8c3c 239c bbbc 1c96 53bb 77ca 85ba
000003e0: 91a6 08bd 379b 5abc 38a8 97bc 4097 823c
000003f0: 5f5f afbc cddc 1a3d b840 50bc d221 cfbc

actor.6.bias f4 [12]
-0.082386866 0.06612489 -0.096952304 0.057523075 -0.0037604973 -0.068868235 0.12542896 0.056620635
0.13388816 0.16093844 0.12579134 0.1529096
00000000: 72ba a8bd 7d6c 873d ee8e c6bd 519d 6b3d
00000010: ad72 76bb ca0a 8dbd 7370 003e 0aeb 673d
00000020: fa19 093e 0ccd 243e 72cf 003e 5694 1c3e
