tested_policies/aliengo/data_aug_policy/exported/policy.onnx (onnx, 273175 bytes, 8 tensors)

actor.0.weight f4 [128, 260]
0	0x3e44e599	0.1922821
1	0xbf55e38c	-0.83550334
2	0xbf34724b	-0.704869
3	0x3df97f2f	0.121824615
4	0xbe6c4adb	-0.2307543
5	0x3e3b1747	0.18270598
6	0x3e7fce3d	0.24981017
7	0x3f0207a0	0.50792885
8	0x3dcbb263	0.09946134
9	0x3dbd049c	0.09229395
10	0xbf2c1a08	-0.6722722
11	0x3e56ed44	0.20988947
12	0x3eb48310	0.35256243
13	0xbefe53f8	-0.49673438
14	0xbf1d75f0	-0.61508083
15	0x3f411ce0	0.75434685
16	0xbd4468c3	-0.04795147
17	0xbe4e4d72	-0.2014673
18	0x3d80ff15	0.06298653
19	0xbea2aebf	-0.31773946
20	0x3ea80a06	0.32820147
21	0x3e5b94ed	0.2144353
22	0x3dfade74	0.12249461
23	0x3f232230	0.6372404
24	0x3d30baf0	0.043147027
25	0x3da90bb7	0.082541876
26	0x3e3278ef	0.17428945
27	0xbe556d96	-0.20842585
28	0xbd8062da	-0.062688544
29	0xbbf49c5f	-0.00746493
30	0x3d3251be	0.043534987
31	0x3d155c2b	0.03646485
32	0x3c9565e5	0.018237064
33	0x3c26512f	0.010151192
34	0x3dd9554d	0.10611973
35	0xbdb79cee	-0.08965479
36	0x3df652ad	0.12027488
37	0xbea8138a	-0.32827407
38	0x3e7554b2	0.2395809
39	0xbd92f61b	-0.07175847
40	0x3d44e2b7	0.048067775
41	0xbe87167b	-0.2638434
42	0xbdde1230	-0.10843313
43	0xbd415cd8	-0.047207683
44	0xbc4c8b63	-0.012484404
45	0xbdca8b93	-0.09889903
46	0xbd154569	-0.036443148
47	0x3dcd43c1	0.10022689
48	0xbe0e22a2	-0.13880399
49	0xbf0204a4	-0.5078833
50	0xbee76448	-0.45193696
51	0xbdaac848	-0.08338982
52	0x3e0028e5	0.125156
53	0xbf5aa75f	-0.8541164
54	0xbf1dc16c	-0.61623263
55	0x3d55466d	0.052069116
56	0xbe2b6b10	-0.1674006
57	0x3e64cf58	0.2234472
58	0x3e442260	0.19153738
59	0x3f003843	0.5008585
60	0x3cb81448	0.022470608
61	0x3df4b3cb	0.11948355
62	0xbf1c97aa	-0.6116892
63	0x3e981fcb	0.29711756
64	0x3ec8ad53	0.39194736
65	0xbeef82b5	-0.4677941
66	0xbf2f036d	-0.683646
67	0x3f24cedf	0.6437816
68	0xbc1dae86	-0.009624129
69	0xbe4c7b94	-0.19969016
70	0x3d15f87c	0.036613926
71	0xbeae5773	-0.34051093
72	0x3ea54e02	0.32286078
73	0x3e423304	0.18964773
74	0x3e33b5c7	0.17549811
75	0x3f34827a	0.7051159
76	0xbdfcf739	-0.123518415
77	0x3e3ff10f	0.187443
78	0xbe521166	-0.2051445
79	0xbe2c2b2e	-0.16813347
80	0xbc8310ee	-0.015999284
81	0xbd36caf6	-0.044627152
82	0xbd8b400d	-0.06799326
83	0xbd6bdd89	-0.05758432
84	0xbd57fe79	-0.05273292
85	0xbca1fa34	-0.019772626
86	0x3db95df2	0.09051122
87	0x3d2d1137	0.042252745
88	0xbd68cd98	-0.056836694
89	0xbe0cd158	-0.13751733
90	0x3d8b4bae	0.06801544
91	0xbd3e8a8e	-0.046518855
92	0x3dbf50d7	0.09341591
93	0xbdafe850	-0.08589232
94	0xbcae9043	-0.021309024
95	0xbd0fce58	-0.035108894
96	0xbc864899	-0.01639204
97	0x3b0c7143	0.0021429814
98	0x3dc56011	0.09637464
99	0x3d410f3e	0.047133677
100	0xbc1991b0	-0.0093731135
101	0xbeb68665	-0.3564941
102	0xbebd425b	-0.36964688
103	0x3b93f82b	0.004515668
104	0x3d85a21e	0.06525062
105	0xbf31cadc	-0.69450164
106	0xbe905e40	-0.28196907
107	0xbe8466e1	-0.2585974
108	0xbe1cf7a2	-0.1532884
109	0x3e534346	0.20631132
110	0x3e4b015b	0.19824736
111	0x3f072492	0.52790177
112	0x3db7e9fc	0.08980176
113	0x3e29c08f	0.16577362
114	0xbf3326cd	-0.6998108
115	0x3e644763	0.22292857
116	0x3e91f3ae	0.28506225
117	0xbef45563	-0.47721395
118	0xbf37a138	-0.71730375
119	0x3f34eed4	0.7067692
120	0xbd91c219	-0.07117099
121	0xbe784eae	-0.24248764
122	0x3b48c7e7	0.003063673
123	0xbeb02a0c	-0.3440708
124	0x3ed2dd6e	0.41184562
125	0x3e3843ce	0.17994615
126	0x3e1578d2	0.1459687
127	0x3f37915f	0.71706194
128	0x3e0ab0bd	0.13543983
129	0x3e638486	0.22218522
130	0xbe6aeeb4	-0.2294262
131	0xbe35ed1f	-0.17766236
132	0xbd73892b	-0.059456985
133	0xbe0bf205	-0.13666542
134	0x3d0142e5	0.031557936
135	0xbc97594d	-0.0184752
136	0x3a9fe61e	0.0012199318
137	0xbbc5fa4e	-0.0060418015
138	0x3dafb7bd	0.08579967
139	0xbd533a62	-0.05156935
140	0xbd728a37	-0.059213843
141	0xbe3599cf	-0.17734455
142	0xbc059625	-0.008153473
143	0x3d1d1f0c	0.038359687
144	0xbc967443	-0.018365985
145	0x3ca64bf0	0.020299882
146	0xbe0045c5	-0.12526615
147	0xbd04b8a6	-0.032402657
148	0x3d34a105	0.044098873
149	0xbd3d0965	-0.046151537
150	0x3d4aac72	0.049480863
151	0x3e220472	0.15822008
152	0x3d15c7ab	0.03656737
153	0xbeae7603	-0.3407441
154	0xbeb9bb07	-0.36275503
155	0x3d203bb5	0.03911944
156	0xbe0480d7	-0.12939773
157	0xbf0d6584	-0.55233026
158	0x3e3802e7	0.17969857
159	0xbdd55cb8	-0.10418075
160	0x3e7815a1	0.24227001
161	0xbe7e5ae6	-0.24839363
162	0x3e811cd1	0.25217298
163	0x3f1b06ae	0.6055707
164	0x3dc68fc1	0.09695388
165	0x3e21c459	0.15797557
166	0xbf2b46da	-0.66904986
167	0x3e6de4a9	0.23231758
168	0x3e6abe31	0.22924115
169	0xbeebe08b	-0.4606975
170	0xbf44e45e	-0.7691096
171	0x3f1ca61e	0.61190975
172	0xbc8401b8	-0.0161141
173	0xbe9a24b3	-0.30106124
174	0x3dbd2f8c	0.092375845
175	0xbec9b54c	-0.3939613
176	0x3eb28a6f	0.3487124
177	0x3e5368dc	0.2064547
178	0x3d88eeea	0.06686194
179	0x3f28558c	0.65755534
180	0x3e136979	0.14395703
181	0xbc4bfda6	-0.012450611
182	0xbe85197e	-0.25996011
183	0xbd9b8799	-0.075942226
184	0xbda9b210	-0.08285916
185	0x3e871428	0.26382565
186	0x3cdf0ee3	0.027228778
187	0x3ba5c8eb	0.0050593517
188	0x3d1f181f	0.038841363
189	0x3d0e238f	0.03470188
190	0x3c91f0b1	0.017814966
191	0xbda5402a	-0.08068879
192	0x3d99d999	0.075122066
193	0xbd2f0489	-0.042728934
194	0xbdad0e97	-0.084500484
195	0xbbd2ea49	-0.0064366204
196	0x3d26d8c5	0.04073407
197	0x3e047c6e	0.12938091
198	0xbe0e2ff0	-0.13885474
199	0xbd6fba4b	-0.058527272
200	0x3d75cd1d	0.060010064
201	0xbc9a2e7a	-0.01882099
202	0x3e1f0423	0.15528922
203	0x3cc639a4	0.024197407
204	0x3de2f9c7	0.110827975
205	0xbeccd453	-0.4000574
206	0xbea4020a	-0.32032806
207	0x3db7e7dc	0.089797705
208	0xbe5b4cd4	-0.21416026
209	0xbe8951db	-0.26820263
210	0x3f194419	0.59869534
211	0xbf467ca6	-0.7753395
212	0xbc9c6cff	-0.019094942
213	0x3e8a99f4	0.27070582
214	0x3e9ce675	0.30644575
215	0x3f297ec5	0.6620906
216	0x3da37aca	0.079824045
217	0x3e1c1e9e	0.15246055
218	0xbf389bfe	-0.72113025
219	0xbca5f678	-0.020259127
220	0x3e4d832c	0.2006957
221	0xbef57021	-0.4793711
222	0xbf540433	-0.8281891
223	0x3f2e20f9	0.6801906
224	0x3e0f7dba	0.14012805
225	0xbe67f776	-0.22652993
226	0x3d4bdb59	0.049769733
227	0xbe37413d	-0.1789598
228	0x3e856a3e	0.2605762
229	0x3e195f2a	0.14977708
230	0x3cb26c80	0.021780252
231	0x3f1705a9	0.5899301
232	0xbe81f06f	-0.2537875
233	0x3da85cd6	0.08220832
234	0x3e28949a	0.16462937
235	0xbe8a04a5	-0.26956668
236	0xbe39d71e	-0.18148467
237	0xbd46ff39	-0.048583243
238	0xbeac1dfc	-0.33616626
239	0x3d89bd0c	0.06725511
240	0x3e1d52c2	0.15363601
241	0xbd4eaede	-0.050459735
242	0xbe226f97	-0.1586288
243	0x3d1bac24	0.038005963
244	0xbe1c61ab	-0.15271632
245	0x3e90759e	0.28214735
246	0xbde2e844	-0.110794574
247	0xbed1eab8	-0.4099939
248	0x3d4a78b6	0.049431525
249	0xbcdd4ad6	-0.027013224
250	0x3e5850bc	0.21124548
251	0xbdc03043	-0.09384205
252	0xbf3f4994	-0.74721646
253	0x3e246fa7	0.16058217
254	0x3ec42417	0.38308784
255	0xbf3287d7	-0.69738525

actor.0.bias f4 [128]
0	0xbdc6940a	-0.09696205
1	0xbca80069	-0.020508008
2	0xbdb3c039	-0.08776898
3	0xbd8ed13e	-0.069735035
4	0x3e229de3	0.15880542
5	0xbda59932	-0.0808586
6	0xbbe7c263	-0.0070727332
7	0xbdabb2a6	-0.08383684
8	0x3bdf6f68	0.0068187006
9	0xbdaf439e	-0.08557819
10	0x3c47fbd6	0.012206038
11	0x3daa79e6	0.083240315
12	0xbd8a6e5f	-0.06759333
13	0x3c8fbf37	0.017547233
14	0xbe0b48d2	-0.13601997
15	0xbda712bb	-0.081578694
16	0xbc64cd0c	-0.013964903
17	0xbcfa9e04	-0.030592926
18	0xbe098a2e	-0.13431618
19	0x3e18c7b6	0.14919934
20	0xbd28270f	-0.041052874
21	0xbe3b1127	-0.18268262
22	0xbce2c7d4	-0.027683176
23	0xbd89aa88	-0.067219794
24	0xbd72317d	-0.059129227
25	0x3d2f1a4f	0.0427497
26	0x3d3d458f	0.046208914
27	0x3e08c24a	0.13355365
28	0xbd91c02a	-0.071167305
29	0x3e87a8b5	0.264959
30	0xbd8a70d8	-0.067598045
31	0x3e183b44	0.14866358
32	0xbe9cbe74	-0.30614054
33	0x3c78739d	0.015164283
34	0x3d9ac178	0.075564325
35	0xbdba7295	-0.09103886
36	0x3e040277	0.12891565
37	0xbdff0ea0	-0.12453961
38	0xbe30cfcd	-0.1726677
39	0xbd519f29	-0.051177178
40	0x3d57de97	0.052702513
41	0xbd9ba36c	-0.075995296
42	0xbe67a77a	-0.22622481
43	0xbc1db751	-0.009626226
44	0xbca970ce	-0.020683672
45	0x3df6a330	0.12042844
46	0x3c885b2b	0.016645035
47	0x3b931805	0.0044889473
48	0xbe0dd5be	-0.13851067
49	0xbe1a08a8	-0.15042365
50	0x3e33269d	0.17495199
51	0xbe258d1e	-0.16167113
52	0xbdfeafba	-0.12435861
53	0xbc5b52b5	-0.013386418
54	0x3cb81d09	0.022474783
55	0x3dce5474	0.10074702
56	0xbdc2d5c2	-0.09513427
57	0x3c9c4c63	0.019079393
58	0x3e4a8176	0.19775948
59	0xbd9787a3	-0.073989175
60	0xbc74750d	-0.014920485
61	0xbe2398f3	-0.15976314
62	0x3c734b1b	0.0148494495
63	0x3da263e6	0.0792921
64	0x3e1da197	0.15393673
65	0xbc251041	-0.010074676
66	0xbda7fcb0	-0.08202493
67	0xbda78ff5	-0.081817545
68	0xbe1b8f53	-0.15191393
69	0xbd9c1354	-0.07620874
70	0xbdb762e6	-0.0895441
71	0xbd0a67fc	-0.033790573
72	0x3c80656d	0.015673364
73	0x3c995713	0.018718278
74	0xbe5b90da	-0.21441975
75	0x3cbd40cc	0.023102187
76	0xbd0afd53	-0.033932995
77	0xbd969383	-0.073523544
78	0x3c16c296	0.009201666
79	0x3c655931	0.013998316
80	0xbb743b3b	-0.003726675
81	0x3d0fe621	0.035131577
82	0x3d1ba497	0.037998762
83	0x3db0b191	0.08627618
84	0xbe7f2362	-0.24915841
85	0xbd23e64d	-0.040014554
86	0xbd20137c	-0.03908108
87	0xbe2924b6	-0.1651791
88	0x3dc3cc2d	0.09560428
89	0x3bacae85	0.005269828
90	0x3da999db	0.08281299
91	0x3d3abdf2	0.045591302
92	0xbde1ff4a	-0.11035021
93	0xbdfcce57	-0.12344044
94	0x3dfca447	0.12336021
95	0xbe064b6e	-0.13114712
96	0xbc8fbbb9	-0.017545568
97	0xbdaf5c46	-0.08562522
98	0x3d61c77a	0.055121876
99	0xbc465535	-0.012105276
100	0xb92bcdd9	-0.00016384515
101	0xbd15cfd2	-0.036575146
102	0x3d4993a4	0.049213067
103	0x3d75922b	0.05995385
104	0x3db3157d	0.08744333
105	0x3e7d87d9	0.24758853
106	0x3e2e6f1f	0.17034577
107	0x3da01151	0.07815803
108	0xbaf9e152	-0.0019064343
109	0xbd8cc604	-0.06873706
110	0x3d94b0f8	0.072603166
111	0xbe0b180e	-0.13583395
112	0xbd8897bc	-0.06669566
113	0xbd425fa6	-0.0474545
114	0x3a8556ba	0.0010172941
115	0xbd8ceae2	-0.06880738
116	0xbe72f1da	-0.23725072
117	0xbe868c08	-0.2627871
118	0xbde2b438	-0.1106953
119	0x3daefebe	0.08544682
120	0xbdf6868a	-0.1203738
121	0x3d95140f	0.072792165
122	0xbdfada5e	-0.122486815
123	0x3d8ad7ea	0.067794636
124	0x3e5e8a49	0.21732439
125	0xbd5b9570	-0.05360931
126	0x3d83d138	0.0643639
127	0x3dc7dba2	0.097586885

actor.2.weight f4 [128, 128]
0	0xbe9e057c	-0.3086356
1	0xbca9d6b9	-0.02073227
2	0xbd99725d	-0.07492516
3	0xbe94afd0	-0.29040384
4	0xbc97a495	-0.018511096
5	0xbd58d63c	-0.052938685
6	0xbdfc0789	-0.12306125
7	0xbcc24f89	-0.023719566
8	0xbed942ff	-0.42433926
9	0x3a9d6e06	0.0012010939
10	0xbeb020a1	-0.34399894
11	0x3e50b265	0.20380552
12	0xbe337962	-0.17526773
13	0xbcb6bd50	-0.022307068
14	0x3dc8d489	0.09806163
15	0x3e8a469c	0.27006996
16	0xbdadb0ac	-0.08480963
17	0xbb57b0d2	-0.003291179
18	0x3ca0ee64	0.019644924
19	0xbe47ae81	-0.19500162
20	0xbdabb19d	-0.083834864
21	0x3d7c9d0e	0.061673217
22	0x3d8f8b67	0.07009011
23	0x3d522fef	0.051315244
24	0xbd901dbc	-0.070369214
25	0x3e2188ea	0.15774885
26	0xbeb613bc	-0.3556193
27	0x3e8d76b1	0.27629617
28	0xbec7bca0	-0.39011097
29	0x3d95c3fb	0.07312771
30	0xbd5b9fd6	-0.05361923
31	0x3e5003f9	0.20314015
32	0x3db45d4f	0.0880686
33	0xbe0abd3b	-0.13548748
34	0xbd91547b	-0.070961915
35	0x3cbb8efd	0.02289533
36	0xbe944905	-0.2896196
37	0x3cf4d237	0.029885394
38	0x3e209d8d	0.15685101
39	0x3c17d98a	0.009268174
40	0xbced3174	-0.028954245
41	0xbdc29530	-0.095011115
42	0xbd52be86	-0.05145123
43	0xbd269d28	-0.04067722
44	0xbd87299b	-0.065997325
45	0xbe0ddbb3	-0.1385334
46	0xbcec9045	-0.028877387
47	0xbd4b935b	-0.049701076
48	0xbb6e3455	-0.003634711
49	0xbbd5cf52	-0.0065249586
50	0x3db007f1	0.08595265
51	0x3d141355	0.03615125
52	0xbe175737	-0.14779364
53	0xbe56dd45	-0.20982845
54	0xbd71f0a9	-0.059067402
55	0x3d0eec20	0.034893155
56	0x3db6724a	0.08908518
57	0xbe42e48a	-0.19032493
58	0x3dd6889c	0.10475275
59	0xbea69d21	-0.32541755
60	0xbd1f4ca5	-0.038891453
61	0x3e2feeec	0.17180985
62	0xbdb5cf5b	-0.088774405
63	0xbe1fe05f	-0.15612935
64	0xbdcc663f	-0.099804394
65	0x3d7d6ee7	0.061873343
66	0xbe2de120	-0.1698041
67	0xbebf00f9	-0.3730543
68	0x3caecf3b	0.02133905
69	0x3ec98d92	0.39365822
70	0x3d1639e9	0.03667632
71	0x3e3ba761	0.18325569
72	0xbdc4320b	-0.095798574
73	0xbe263d04	-0.16234213
74	0x3d9be40b	0.07611855
75	0xbd8cdee4	-0.068784505
76	0xbd14316d	-0.03617995
77	0x3db1370e	0.08653079
78	0x3e7698cf	0.2408173
79	0x3dad9abf	0.08476781
80	0x3d948d19	0.07253475
81	0xbd359a6d	-0.044336725
82	0xbc8388ff	-0.016056536
83	0x3c6d346e	0.014477832
84	0x3de97c7c	0.11400697
85	0x3dd96049	0.10614068
86	0x3d5e3482	0.054249294
87	0x3d343f12	0.04400546
88	0xbcc5fe01	-0.02416897
89	0xbec299e8	-0.38008046
90	0xbd245ded	-0.040128637
91	0x3eb16ba0	0.34652424
92	0xbd74420d	-0.059633303
93	0x3d762c1c	0.06010066
94	0x3d268445	0.040653486
95	0x3e06e20f	0.13172172
96	0x3e6dabbd	0.23210044
97	0x3e306b6e	0.17228481
98	0x3e77bafa	0.2419242
99	0x3e458973	0.19290714
100	0xbddb94bd	-0.10721729
101	0x3ec642d2	0.38722855
102	0x3ca45f12	0.020064864
103	0x3d98f332	0.07468261
104	0x3c12b4de	0.008954255
105	0x3e15571d	0.14584012
106	0x3c1efb85	0.009703522
107	0x3da67fde	0.081298575
108	0x3e6ab65c	0.22921127
109	0x3d971f80	0.07379055
110	0xbd2b011b	-0.0417491
111	0x3e583389	0.21113409
112	0xbe49afee	-0.19696018
113	0xbe2bc14a	-0.16772953
114	0x3dbe6a81	0.09297658
115	0x3d934478	0.07190794
116	0x3dde8b6c	0.10866436
117	0xbdd2f404	-0.103004485
118	0xbe5b77c8	-0.21432412
119	0xbd9ddb3d	-0.07707832
120	0x3c9e1ebe	0.019301768
121	0xbe97f134	-0.2967621
122	0xbcce5197	-0.02518539
123	0xbe3cee75	-0.18450339
124	0xbd8a219f	-0.06744694
125	0xbe2c8233	-0.16846542
126	0x3b9c4897	0.0047693956
127	0x3e1f0830	0.15530467
128	0x3d1d778c	0.038444087
129	0x3d05e3b1	0.032687847
130	0x3d99bc41	0.0750661
131	0xbd5251bc	-0.05134748
132	0xbdf7116a	-0.12063868
133	0xbeaa702b	-0.33288702
134	0xbe80c650	-0.251513
135	0xbe92e140	-0.28687477
136	0xbe73eceb	-0.23820846
137	0x3df5421f	0.11975502
138	0xbe15c17f	-0.14624594
139	0x3c17e165	0.009270047
140	0xbe0fc148	-0.14038575
141	0x3b0c1a39	0.0021377935
142	0x3eacdd07	0.3376238
143	0x3e1df710	0.15426278
144	0xbe31053a	-0.1728715
145	0xbba5f42f	-0.0050645093
146	0x3d8b4ad5	0.068013825
147	0xbe8c83ac	-0.27444208
148	0xbe583665	-0.211145
149	0x3dd16957	0.1022517
150	0x3d3f2414	0.046665266
151	0xbe28564d	-0.16439171
152	0xbd200ee6	-0.03907671
153	0x3e6c4fc7	0.23077308
154	0x3d2aba5d	0.041681636
155	0xbd981110	-0.074251294
156	0x3dc36b0e	0.095419034
157	0xbecd9186	-0.40150088
158	0xbd5a4e4e	-0.053297333
159	0xbe1ab6d9	-0.15108813
160	0xbdbd3b0e	-0.092397794
161	0x3ddce9de	0.10786794
162	0x3dad267f	0.08454608
163	0x3ec8bc4d	0.39206162
164	0xbe610a04	-0.21976477
165	0x3dab5bc1	0.0836711
166	0x3dd01d7e	0.10161875
167	0xbd7fcdb9	-0.06245205
168	0x3ae3a75e	0.0017368605
169	0x3db94428	0.09046203
170	0xbdce7fd6	-0.100829765
171	0xbebe29d4	-0.37141287
172	0x3d07c3aa	0.033145584
173	0xbd3ac4d1	-0.045597855
174	0xbd61845a	-0.05505786
175	0x3e9413b8	0.28921294
176	0x3decfbf9	0.115714975
177	0xbd9d977f	-0.07694911
178	0x3e42f0c1	0.19037153
179	0x3e3d7168	0.18500292
180	0x3e50f3bd	0.20405479
181	0xbee15308	-0.4400866
182	0xbebaa8f6	-0.36457032
183	0xbd70dc16	-0.05880364
184	0xbe024004	-0.12719733
185	0xbe2d0afe	-0.16898724
186	0x3e302f04	0.17205435
187	0xbe80bd96	-0.25144643
188	0xbe57cc84	-0.2107411
189	0xbefc9232	-0.49330288
190	0x3de9a7ec	0.11408982
191	0x3e2e8aa9	0.17045082
192	0x3df01802	0.11723329
193	0xbe128a7c	-0.1431064
194	0xbe904b8b	-0.28182635
195	0x3e1fa7a3	0.15591292
196	0xbb8366de	-0.0040100655
197	0x3e088284	0.13331038
198	0x3e0390f0	0.12848258
199	0xbec418e9	-0.38300255
200	0x3cafb7d7	0.021449966
201	0x3daf4625	0.08558301
202	0x3ecf67fc	0.4050902
203	0xbe00c07c	-0.12573427
204	0x3c93a9fd	0.018025393
205	0xbdae3c01	-0.085075386
206	0xbebda66e	-0.37041038
207	0xbc2a47b5	-0.010393073
208	0x3a8de621	0.001082603
209	0xbe1a181b	-0.15048258
210	0x3dd129dd	0.10213063
211	0xbe8bc1a1	-0.27296165
212	0xbd8f826f	-0.070073
213	0xbde67e5a	-0.112545684
214	0xbdf14d8e	-0.117823705
215	0xbcfade20	-0.030623496
216	0x3e879a8a	0.2648509
217	0xbe116f23	-0.14202552
218	0xbdd0f5ea	-0.102031544
219	0xbefdc9be	-0.4956798
220	0xbda29ef4	-0.07940474
221	0x3dba9c7a	0.09111877
222	0xbdf3e49c	-0.11908838
223	0x3ebe827d	0.3720893
224	0x3d3e1646	0.04640796
225	0x3dfb04b3	0.12256756
226	0x3e6ff29a	0.23432389
227	0xbe10062a	-0.14064851
228	0x3da404fe	0.08008765
229	0xbd868a1d	-0.06569312
230	0x3d88fdb1	0.06689013
231	0x3ce1ede2	0.027579252
232	0xbd8c6fab	-0.068572365
233	0x3dd18126	0.10229711
234	0x3d98a347	0.07453018
235	0xbe8b5201	-0.27211002
236	0x3e8c974e	0.27459186
237	0xbbf48d7a	-0.0074631544
238	0xbdf45e86	-0.119320914
239	0xbe38cf32	-0.18047789
240	0x3d39d766	0.045371436
241	0x3e7b77ec	0.24557465
242	0x3e5faf7a	0.21844283
243	0xbe919da6	-0.2844059
244	0xbe39fd0a	-0.18162933
245	0xbd9983fb	-0.074958764
246	0x3e0d143f	0.13777255
247	0x3e074ad7	0.13212143
248	0x3e70f761	0.23531868
249	0xbea57d2c	-0.3232206
250	0xbccabba8	-0.024747685
251	0xbdec8071	-0.11547936
252	0xbe62c914	-0.22147018
253	0x3c240c1a	0.010012651
254	0xbdcfd52c	-0.10148081
255	0xbe98abec	-0.29818666

actor.2.bias f4 [128]
0	0xbe2b82e4	-0.1674915
1	0xbed01f7f	-0.4064903
2	0xbdeaf1de	-0.11471914
3	0x3bfe1195	0.007753561
4	0xbe14f4f4	-0.14546567
5	0xbe760382	-0.24024776
6	0x3e064085	0.1311055
7	0xbe85ae44	-0.26109517
8	0x3c3a8507	0.011384255
9	0xbd7a46d9	-0.06110272
10	0xbda2f717	-0.07957285
11	0x3bafccef	0.005365006
12	0xbe8eeef7	-0.2791669
13	0xbeb97be4	-0.36227334
14	0xbe449952	-0.19199112
15	0xbf7eeccf	-0.9958009
16	0xbdf6e844	-0.1205602
17	0xbd813b06	-0.06310086
18	0xbeb1fca4	-0.34763062
19	0x3e8d4d71	0.27598146
20	0xbdae8e9a	-0.08523293
21	0xbec722d0	-0.38893747
22	0xbe7fd5ce	-0.24983904
23	0xbe32527b	-0.17414276
24	0xbe1ed725	-0.15511759
25	0xbdba1b11	-0.09087194
26	0x3e8fb2a3	0.28065977
27	0xbc9a4839	-0.018833267
28	0x3d880dd9	0.06643266
29	0xbe83f26c	-0.2577089
30	0x3d84b4f9	0.0647983
31	0xbe85c40c	-0.26126134
32	0xbe1b1007	-0.15142833
33	0xbe658fcc	-0.22418135
34	0xbe9b4f5c	-0.30333984
35	0xbddece6f	-0.10879218
36	0xbe80d424	-0.2516185
37	0xbd7cab42	-0.06168676
38	0xbe3e34ec	-0.18574876
39	0xbea805b2	-0.32816845
40	0x3bb5be4f	0.005546368
41	0xbd0ccb46	-0.034373544
42	0x3e7d0d87	0.24712192
43	0xbea15581	-0.31510547
44	0xbe3a956d	-0.18221064
45	0xbe0913a5	-0.133864
46	0xbc53e82e	-0.012933774
47	0xbe664852	-0.22488526
48	0xbd7d62c8	-0.061861783
49	0xbe460107	-0.1933633
50	0xbe94f7c9	-0.29095295
51	0xbd9918b1	-0.07475413
52	0xbcd65b9f	-0.026166735
53	0xbdc242fa	-0.09485431
54	0x3e44c939	0.19217385
55	0x3e84a941	0.2591038
56	0x3e2ca616	0.16860232
57	0xbe28b7f8	-0.16476429
58	0xbe9693a3	-0.29409513
59	0xbe8c70be	-0.27429765
60	0xbeb67106	-0.35633105
61	0xbeb9229b	-0.36159214
62	0xbe44b8a7	-0.19211064
63	0xbe08b861	-0.13351585
64	0x3e624616	0.22097048
65	0xbe903410	-0.2816472
66	0x3e32f95b	0.17477934
67	0xbe245bfa	-0.16050711
68	0xbd38c68e	-0.04511123
69	0xbeffdfd8	-0.49975467
70	0xb989552a	-0.00026194128
71	0x3d195ccb	0.03744201
72	0xbe301040	-0.17193699
73	0x3e7c49c4	0.24637514
74	0x3e070935	0.13187106
75	0xbeea28dd	-0.457343
76	0xbc46ec04	-0.012141231
77	0xbd81a6c6	-0.06330638
78	0xbe585fa2	-0.21130231
79	0xbe2126bc	-0.15737432
80	0x3e778e1c	0.24175304
81	0x3c1d7f5c	0.009612884
82	0xbe9013f0	-0.2814021
83	0xbd4d1fea	-0.050079264
84	0x3e0cb85a	0.137422
85	0xbe9b8d88	-0.30381417
86	0x3dac2707	0.084058814
87	0xbdff5181	-0.124667175
88	0xbdfc3528	-0.12314826
89	0xbcdab882	-0.026699308
90	0xbe3225d4	-0.17397243
91	0xbd76c7cd	-0.06024914
92	0xbd5d10fb	-0.053971272
93	0xbf8ffad5	-1.1248423
94	0x3d16b61c	0.036794767
95	0xbe43b47a	-0.19111815
96	0xbdcaa095	-0.0989391
97	0xbeb143ce	-0.34622043
98	0xbdca5099	-0.09878654
99	0xbe6ee39f	-0.23329018
100	0xbe79e334	-0.24403077
101	0xbdf3931d	-0.11893294
102	0xbe24e310	-0.16102242
103	0xbe01d2fb	-0.12678139
104	0xbd2b6e6f	-0.041853365
105	0x3c81b2ce	0.015832331
106	0xbddabd2b	-0.10680612
107	0xbeeda705	-0.46416488
108	0xbd7854f2	-0.060627885
109	0xbe428dfd	-0.18999477
110	0xbd8214b6	-0.063516065
111	0xbcbe3864	-0.023220249
112	0x3c3281d0	0.0108952075
113	0xbe9ca761	-0.3059645
114	0xbd91ab06	-0.07112698
115	0xbbec851a	-0.0072180154
116	0xbe3073d8	-0.17231691
117	0xbe342c44	-0.17595011
118	0xbda5c377	-0.080939226
119	0x3e10315d	0.1408133
120	0xbe067f82	-0.13134578
121	0xbe1826a8	-0.14858496
122	0xbd649b03	-0.055811893
123	0x3e8d73f2	0.27627522
124	0xbe15300f	-0.14569114
125	0xbdd77d3f	-0.10521936
126	0xbd15a180	-0.03653097
127	0xbf7f2326	-0.9966301

actor.4.weight f4 [128, 128]
0	0x3c8d2790	0.017230779
1	0x3d6c27ed	0.057655264
2	0xba2830c5	-0.00064159586
3	0x3c369db1	0.011145995
4	0x3d4df97c	0.050286755
5	0xbba30f61	-0.0049761985
6	0x3b097e43	0.00209798
7	0x3c80bd47	0.015715254
8	0x3c570ecc	0.013126086
9	0xbd722254	-0.05911477
10	0xbc317b9e	-0.010832695
11	0xbdc1b536	-0.09458391
12	0x3d05f4a6	0.032704018
13	0x3da567c8	0.08076435
14	0xbd2130ae	-0.039353065
15	0x3c2cb76a	0.010541776
16	0xbe0d4e92	-0.13799503
17	0x3d5c879e	0.053840272
18	0xbe0d2040	-0.13781834
19	0x3b8f1d83	0.0043675317
20	0x3d735aff	0.059412953
21	0x3d654d59	0.055981968
22	0x3cf8d689	0.030375736
23	0xbc5d5936	-0.013510039
24	0xbe50e719	-0.20400657
25	0xbbb72b0e	-0.0055898493
26	0x3aed0715	0.0018083776
27	0xbc87cd3f	-0.016577361
28	0xbdf636fe	-0.12022208
29	0x3db6f1c4	0.08932832
30	0xbd2cf4c3	-0.04222561
31	0xbc283ca2	-0.010268362
32	0xbb69f009	-0.003569605
33	0x3c2f0444	0.010682169
34	0xbe1505f7	-0.14553057
35	0x3d6e3417	0.058155145
36	0xbd4bb9e9	-0.049737845
37	0xbd966881	-0.07344151
38	0x3d337dcd	0.043821145
39	0xbe190a56	-0.14945349
40	0x3c1766ac	0.0092407875
41	0xbd72b27a	-0.05925224
42	0xbd7365a7	-0.059423115
43	0x3e37cc8b	0.1794912
44	0xbb1b64b6	-0.0023711151
45	0xbc4f66eb	-0.012658815
46	0xbdbbb221	-0.09164835
47	0x3c0eecac	0.008723419
48	0xbd2b282c	-0.041786358
49	0x3c98b07e	0.018638846
50	0xbc23f18c	-0.01000632
51	0xb9d636ce	-0.00040858093
52	0xbc72d60e	-0.014821542
53	0x3cb123dc	0.021623544
54	0xbd40698a	-0.04697565
55	0xbde17b50	-0.11009848
56	0xbd30f072	-0.043198057
57	0xbc8375fd	-0.016047472
58	0xbd93437f	-0.07190608
59	0xbcd504e4	-0.026003309
60	0xbe1557c6	-0.14584264
61	0x3d9e994c	0.07744083
62	0xbdaab902	-0.08336069
63	0x3e0aff09	0.1357385
64	0xbe15cf95	-0.14629968
65	0xbc8ab479	-0.01693176
66	0xbe13fd00	-0.1445198
67	0xbc35d669	-0.011098483
68	0x3d76ef73	0.06028695
69	0xbd872d31	-0.066004165
70	0xb9ad53b1	-0.00033059486
71	0x3c80b5e5	0.015711734
72	0xbb885a22	-0.0041611353
73	0xbdc90966	-0.09816246
74	0x3b076bec	0.0020663692
75	0xbc757c72	-0.014983283
76	0x3cb07203	0.02153874
77	0x3cc70d69	0.024298387
78	0xbbb10a2d	-0.0054028244
79	0x3c7c5c34	0.015402842
80	0xbdb50bbe	-0.0884013
81	0xbd5f1ea4	-0.05447258
82	0x3dbf68fd	0.09346197
83	0xbd123486	-0.03569462
84	0xbe74f348	-0.2392093
85	0xbd95e96e	-0.07319914
86	0xbde626f6	-0.112379
87	0x3d403b7b	0.046931725
88	0xbdbcc417	-0.09217089
89	0xbd37111b	-0.044694047
90	0x3d82256f	0.06354796
91	0xbd8f51ba	-0.0699801
92	0x3d7184cb	0.058964532
93	0xbd562fe3	-0.052291762
94	0xbd6c4c18	-0.057689756
95	0xbd0f137b	-0.034930687
96	0xba6b74c6	-0.0008981939
97	0x3e37c0d2	0.17944649
98	0x3cc499ec	0.023999177
99	0xbd5b1713	-0.053488802
100	0x3ce209e2	0.027592603
101	0x3e0967d7	0.13418518
102	0xbc7a3959	-0.015272462
103	0x3d462487	0.04837468
104	0xbe625592	-0.22102955
105	0x3b1cbe9b	0.002391732
106	0xbe0e7662	-0.13912347
107	0xbceeda95	-0.029156962
108	0x3d76a991	0.060220305
109	0x3c4a8f91	0.01236333
110	0x3b0ed89d	0.0021796592
111	0xba1d7ddb	-0.00060078286
112	0x3ca79c97	0.02046041
113	0xbcc3b555	-0.023890177
114	0xbe607537	-0.21919714
115	0xbd35ea5d	-0.04441296
116	0xbd6043a2	-0.054752
117	0x3d835b41	0.0641389
118	0xbdf7cac5	-0.12099222
119	0xbe7e8a18	-0.24857366
120	0x3c29aeb5	0.010356595
121	0xbda934e4	-0.08262041
122	0x3ccc7bdc	0.024961405
123	0xbdcef772	-0.1010579
124	0xbb7bd659	-0.0038427322
125	0xbe11af67	-0.14227067
126	0x3e0a27ed	0.13491793
127	0x3c62dd7e	0.013846753
128	0xbda8676c	-0.08222851
129	0x3db6a6c0	0.08918524
130	0xbdc5fefa	-0.096677735
131	0x3dcc45bb	0.099742375
132	0xbd35fe43	-0.044431936
133	0xbdbc02bb	-0.09180208
134	0xbe2d3207	-0.16913615
135	0x3e86c4fe	0.26322168
136	0xbb195f86	-0.0023402884
137	0x3df172e7	0.11789494
138	0x3d43cb93	0.047801565
139	0xbd40519f	-0.04695284
140	0xbb285765	-0.0025686857
141	0x3e2b7cbb	0.167468
142	0x3e13a563	0.14418559
143	0xbcdf7013	-0.02727512
144	0x3df24557	0.11829632
145	0xbdcd7850	-0.100327134
146	0x3b80b6f8	0.0039280616
147	0xbcdcd95c	-0.026959114
148	0xbeaa2687	-0.3323252
149	0x3e321d4e	0.17393991
150	0xbe0bf210	-0.13666558
151	0xbd27b964	-0.040948287
152	0x3d279798	0.040916055
153	0x3d9bbded	0.07604585
154	0xbe0d4e39	-0.13799371
155	0xbe11e211	-0.14246394
156	0x3e139daf	0.1441562
157	0xbdbc1a85	-0.09184746
158	0xbd66e3ae	-0.056369476
159	0x3dfd817a	0.12378211
160	0x3e03902d	0.12847967
161	0xbe387bbd	-0.18015952
162	0xbe33fcf5	-0.17576964
163	0xbb8aee9a	-0.0042398693
164	0x3d3e5a6d	0.046472955
165	0x3d8ecb9a	0.06972428
166	0xbe93b9ba	-0.28852636
167	0x3e2f46ec	0.17116898
168	0xbd11ce8c	-0.03559737
169	0x3e0f892a	0.14017168
170	0xbdeba2ae	-0.11505638
171	0x3d41ca2f	0.047311958
172	0xbad0b1c1	-0.0015922115
173	0xbc59b2d4	-0.013287265
174	0x3dfd3713	0.1236402
175	0xbe5cf77e	-0.21578786
176	0x3dd0e5fd	0.10200117
177	0xbe7552d1	-0.23957373
178	0xbdd4dbb1	-0.10393465
179	0xbd0396fe	-0.03212642
180	0x3dbe4132	0.09289779
181	0xbcca9019	-0.024726914
182	0xbdbe8ebe	-0.0930457
183	0xbe0c956f	-0.1372888
184	0xbd8d2aea	-0.06892951
185	0xbe0f1f22	-0.1397672
186	0xbe0a2cf3	-0.1349371
187	0x3d80be8d	0.06286345
188	0xbd1fd85a	-0.03902469
189	0xbd234ab5	-0.039866168
190	0xbca31348	-0.019906655
191	0x3e245fdd	0.16052194
192	0xbcf10629	-0.029421883
193	0x3e3696c6	0.17830953
194	0xbe1ae749	-0.15127291
195	0x3dd123c1	0.10211898
196	0x3e336f3d	0.17522903
197	0x3d839488	0.064248145
198	0xbe586efc	-0.21136087
199	0x3dd09dbe	0.10186337
200	0x3d415042	0.04719568
201	0x3d48b98e	0.049005084
202	0x3dac174c	0.08402881
203	0x3d8104a7	0.062997155
204	0xbddfa2e8	-0.10919744
205	0x3e883151	0.26600125
206	0xbd5e04b7	-0.054203715
207	0x3c9dbc67	0.019254876
208	0xbdb163e9	-0.086616345
209	0xbe820a1d	-0.2539834
210	0xbe13ebdb	-0.1444544
211	0x3dbc69ab	0.09199842
212	0x3dcfac51	0.101402886
213	0x3ceb3fa8	0.028716877
214	0xbd3d82c5	-0.04626729
215	0xbe17386b	-0.14767615
216	0x3d738a5a	0.059458114
217	0x3c188b5f	0.009310572
218	0xbdc8d6b1	-0.09806574
219	0x3e027d94	0.12743217
220	0x3ca50056	0.020141762
221	0x3d650a6f	0.055918153
222	0xbe55fd08	-0.20897305
223	0xbd835c7b	-0.064141236
224	0xbbd2dd92	-0.0064351046
225	0xbd181fa9	-0.03713957
226	0x3d4d6c79	0.050152276
227	0x3e22ebc8	0.15910256
228	0xbdaf8558	-0.08570355
229	0x3e0f3a55	0.13987096
230	0xbde2446b	-0.11048206
231	0x3dcfac2a	0.101402596
232	0x3dd90e27	0.105984025
233	0xbe257efe	-0.16161725
234	0xbc92da84	-0.017926462
235	0x3d1f8627	0.038946297
236	0x3dfd7347	0.12375503
237	0x3d309c99	0.043118093
238	0x3e554310	0.20826364
239	0xbe021e63	-0.12706904
240	0xbd08c120	-0.033387303
241	0x3e97a74d	0.29619828
242	0xbd96cfdb	-0.07363864
243	0xbcb7a9f2	-0.022419903
244	0xbe0b99d9	-0.13632907
245	0xbcb63b0b	-0.02224495
246	0xbcd1f481	-0.025629284
247	0xbe496320	-0.1966672
248	0x3dc77896	0.09739797
249	0x3d99ddcb	0.07513007
250	0x3b928bcb	0.004472231
251	0x3dbb73ce	0.09152947
252	0x3a906554	0.0011016526
253	0x3c100a62	0.008791538
254	0xbe5e463d	-0.21706481
255	0x3dcd5b01	0.10027123

actor.4.bias f4 [128]
0	0xbdb3daec	-0.087819904
1	0xbd854f0a	-0.06509216
2	0xbd929679	-0.07157607
3	0xbde37bb0	-0.11107576
4	0xbf32009d	-0.69532186
5	0xbe826a5d	-0.25471774
6	0xbea6348a	-0.3246196
7	0xbe1b05a1	-0.15138866
8	0xbe8f1a92	-0.2794996
9	0xbbad0d29	-0.00528111
10	0xbf80e954	-1.0071206
11	0xbe01e4d0	-0.12684941
12	0xbbf30f4b	-0.0074175945
13	0xbf143c82	-0.5790483
14	0xbd8909b2	-0.06691302
15	0x3d73b182	0.059495457
16	0xbd969c85	-0.073540725
17	0xbbd06359	-0.0063594994
18	0xbe315355	-0.17316945
19	0xbe0b98e0	-0.13632536
20	0xbe6bea7b	-0.23038666
21	0xbe1ab8dd	-0.15109582
22	0xbddb263a	-0.107006505
23	0x3d550d87	0.052014854
24	0xbeb50338	-0.35354018
25	0xbc87ded6	-0.016585749
26	0xbea36d7c	-0.31919467
27	0x3d5ba1db	0.053621154
28	0xbe24296f	-0.1603143
29	0xbe6307de	-0.2217097
30	0xbe9a689e	-0.30157942
31	0xbd35ba26	-0.044366978
32	0xbe312666	-0.17299804
33	0xbe57236f	-0.2100961
34	0xbe7d0eb5	-0.24712642
35	0xbdc5af61	-0.096525915
36	0xbd6921cd	-0.056917
37	0xbe0aee08	-0.13567364
38	0x3d93159f	0.07181858
39	0xbe59ae8d	-0.21257992
40	0xbd6ff149	-0.058579717
41	0xbdbac7a3	-0.09120109
42	0xbe9b1677	-0.30290577
43	0xbe97315f	-0.29529855
44	0xbe62b9a2	-0.22141126
45	0xbe08988e	-0.13339445
46	0xbe0e14e1	-0.13875152
47	0x3e09084b	0.1338207
48	0xbe361320	-0.17780733
49	0xbeba8d34	-0.36435854
50	0xbe4c4d61	-0.19951393
51	0xbe9aef3e	-0.30260652
52	0xbeaeca4b	-0.34138712
53	0xbe8aed55	-0.27134195
54	0xbed51930	-0.4162078
55	0xbe238e71	-0.15972306
56	0xbe284d3e	-0.16435716
57	0xbdf79f5f	-0.120909445
58	0xbd806ad2	-0.06270374
59	0xbe8cbd2e	-0.27488083
60	0xbe8eadd1	-0.27866986
61	0xbdc55877	-0.09636014
62	0xbee40c99	-0.4454086
63	0x3cb34c01	0.021886827
64	0xbe1bbe37	-0.1520928
65	0xbdd5fae8	-0.10448247
66	0xbe867f0a	-0.26268798
67	0xbd5f6d21	-0.054547433
68	0xbe845c53	-0.25851688
69	0xbeaf061f	-0.34184358
70	0xbe5730a6	-0.21014652
71	0xbde5e51e	-0.11225341
72	0xbd377ff9	-0.04479978
73	0xbedb5ba7	-0.42843363
74	0xbd7544fc	-0.05988024
75	0xbea871f3	-0.32899436
76	0xbeaab4df	-0.3334112
77	0xbe62896a	-0.22122732
78	0x3e14a438	0.1451577
79	0xbe36bea0	-0.17846155
80	0xbeac1c44	-0.33615315
81	0xbe5873cb	-0.21137922
82	0xbe156236	-0.14588246
83	0xbdef4aa7	-0.11684161
84	0xbe3282e8	-0.1743275
85	0xbcad6328	-0.021165445
86	0xbe8623c4	-0.26199162
87	0xbd1bc8d7	-0.038033333
88	0xbe5f1020	-0.21783495
89	0xbde5d6cd	-0.112226106
90	0xbe9201dd	-0.28517047
91	0xbf0f36cb	-0.5594298
92	0xbe9b214d	-0.30298844
93	0xbe08cf12	-0.13360241
94	0xbefc03de	-0.492217
95	0xbdafd6bb	-0.085858785
96	0xbe1bc2fc	-0.152111
97	0xbe6cd952	-0.23129776
98	0xbe938992	-0.28815895
99	0xbe133469	-0.14375462
100	0xbe7d9d14	-0.24766952
101	0xbdcdc863	-0.10047986
102	0x3d996cd8	0.074914634
103	0xbdac6fa8	-0.08419734
104	0xbd3b3628	-0.045705944
105	0xbc9b6db9	-0.018973218
106	0xbdd63b34	-0.10460511
107	0xbd6fd9d6	-0.058557354
108	0xbca511dc	-0.020150118
109	0xbdaf75a0	-0.08567357
110	0x3c8f4fb9	0.01749407
111	0xbe00a32c	-0.12562245
112	0xbf7bc912	-0.98353684
113	0xbe9d6315	-0.30739656
114	0xbecfc49b	-0.40579686
115	0xbbf7eb2f	-0.007565878
116	0x3dc6d58b	0.09708699
117	0xbe21960b	-0.15779893
118	0xbec3e29f	-0.38258836
119	0xbe023153	-0.12714128
120	0xb85f3a8b	-5.3221866e-05
121	0x3dc3da05	0.09563068
122	0xbe9170e2	-0.28406435
123	0xbe4d71ec	-0.20062989
124	0xbd6481ee	-0.055787973
125	0xbe923111	-0.2855306
126	0xbd829936	-0.06376879
127	0xbb43e2cf	-0.0029889827

actor.6.weight f4 [12, 128]
0	0xbaae36b6	-0.0013291452
1	0xbb8ebd62	-0.0043560723
2	0xbcbba0bb	-0.02290379
3	0x3ba3aa50	0.004994668
4	0x3bc1019c	0.0058900844
5	0x3c8e40d0	0.01736489
6	0xbd2f4cb0	-0.042797744
7	0x3c9387f9	0.018009173
8	0xbb3d3bd0	-0.0028874762
9	0xbc3625b6	-0.011117389
10	0x3b15c7af	0.0022854616
11	0xbb1b5d2f	-0.0023706665
12	0xbc086ca4	-0.008326683
13	0x3c03c61a	0.008042837
14	0x3d0be16f	0.034150537
15	0x3ab8ca34	0.0014098347
16	0x3d0ebba1	0.034846906
17	0x3cb91edc	0.022597723
18	0xbc79f2b9	-0.0152556235
19	0xbc449cab	-0.012000243
20	0x3c6da8b0	0.01450555
21	0x3d25587c	0.04036759
22	0xbcdd5155	-0.027016321
23	0x3c4e0492	0.012574332
24	0xbc3a9640	-0.011388361
25	0x3d490fa4	0.04908718
26	0x3d131590	0.035909235
27	0x3c7d27e9	0.01545141
28	0x3b97d7ee	0.004633895
29	0xbaa6095e	-0.0012667587
30	0xbd5cd968	-0.053918272
31	0x3b8b43da	0.004250032
32	0xbc7d4b41	-0.015459836
33	0xbce20dd2	-0.02759448
34	0xbc952f1b	-0.018210938
35	0xbcc97de1	-0.024596157
36	0x3c5e2897	0.013559482
37	0xbc96d7be	-0.01841342
38	0x3c198190	0.009369269
39	0x3d99f3ab	0.07517179
40	0xbcfe4403	-0.03103829
41	0x3c02ab4b	0.00797541
42	0xbbdc447d	-0.0067220316
43	0x3af64ef1	0.0018791837
44	0x3d4f224f	0.05056983
45	0x3d2072cb	0.039171975
46	0x3cefe0b1	0.029281946
47	0xbc309524	-0.010777745
48	0xbc5cf08e	-0.013485087
49	0xbb9f0aa2	-0.0048535625
50	0x3bf4ee39	0.0074746874
51	0x3c4fa99a	0.0126747135
52	0xbd0e37df	-0.03472125
53	0xbc3af41c	-0.011410739
54	0x3ca69be5	0.020338008
55	0xbc9deba9	-0.01927741
56	0x3d038409	0.03210834
57	0xbd55c5f7	-0.052190747
58	0xbca1a9bf	-0.019734262
59	0x3d474214	0.048647
60	0x3bfe0a7f	0.007752716
61	0xba4c8dd5	-0.0007803117
62	0x3c0a7310	0.008450285
63	0xbd995086	-0.07486062
64	0x3c7cde52	0.015433865
65	0xbcc269de	-0.023732122
66	0x3d08fa69	0.033441935
67	0x3d112f0f	0.03544527
68	0x3caf6fbe	0.021415588
69	0x3ce5eb58	0.028066322
70	0x3cbeebf5	0.023305872
71	0xbc0d2a93	-0.0086161075
72	0x3c8551fd	0.016274447
73	0xbce0b9e5	-0.027432391
74	0xbd4624d0	-0.04837495
75	0x3c956476	0.01823638
76	0x3c33401e	0.01094058
77	0x3c51593b	0.012777622
78	0x3cd2a1c0	0.025711894
79	0xba1338b5	-0.0005616055
80	0x3cafd0eb	0.021461925
81	0x3c9448d1	0.018101128
82	0x3c8171bc	0.015801303
83	0xbc7d1b88	-0.0154484585
84	0xbc5e3e35	-0.013564636
85	0xbb9ea874	-0.0048418585
86	0x3d61d661	0.05513609
87	0xbbb78b26	-0.0056013046
88	0x3bd665c6	0.006542894
89	0x3bc405b0	0.0059821233
90	0xbb93ee6d	-0.0045145066
91	0xbcf1aff8	-0.029502854
92	0xbc785722	-0.015157493
93	0x3c75901f	0.014987974
94	0x3bc3a493	0.0059705465
95	0xbc2b3798	-0.010450266
96	0xbc45f55f	-0.012082427
97	0xbd2aed18	-0.041730016
98	0xbca04d4a	-0.019568104
99	0xbcbfb1f1	-0.023400279
100	0x3c8e756c	0.017389975
101	0x3c16964c	0.009191107
102	0xbc8bbef8	-0.017058834
103	0xbd27877b	-0.04090069
104	0x3b461ef0	0.0030230843
105	0x3b5e3bb8	0.0033910107
106	0xbc043606	-0.008069521
107	0x3c89bc33	0.016813373
108	0xbcfe2959	-0.031025575
109	0x3d06b090	0.032883227
110	0xbc7b7904	-0.015348677
111	0xbc81638b	-0.015794536
112	0x3cb11f86	0.021621477
113	0xbc4a53af	-0.012349053
114	0x3c1f73e7	0.009732223
115	0x3b79bab2	0.0038105664
116	0x3cc3059b	0.023806384
117	0xbc2a49ad	-0.010393542
118	0x3c197abe	0.009367643
119	0xbbb3ff0d	-0.005493051
120	0x39d7c9c1	0.00041158314
121	0x3c4b92d3	0.012425142
122	0x3cd4573d	0.025920505
123	0xbbb87d55	-0.005630175
124	0x3cb266c5	0.02177752
125	0xbca51bbe	-0.02015483
126	0x3c33d515	0.010976096
127	0xbd315593	-0.0432945
128	0x39db5a37	0.0004183815
129	0x3cfabc84	0.03060747
130	0x3d244dd5	0.04011329
131	0xbd03ce3f	-0.032179113
132	0xbbb87f31	-0.005630397
133	0x3b551167	0.0032511593
134	0x3d3b7167	0.045762446
135	0x3c776442	0.015099587
136	0xbc8aaaa0	-0.016927063
137	0xba0261a9	-0.0004973659
138	0xbcafca9c	-0.021458916
139	0xbc88f6ad	-0.016719187
140	0xbca2a416	-0.019853633
141	0x3cec1fe0	0.028823793
142	0xbb43de00	-0.002988696
143	0x3c4a41f4	0.012344826
144	0x3c5b60b5	0.013389756
145	0xbd4872cd	-0.048937608
146	0x3cc737d8	0.02431862
147	0xbc770776	-0.015077462
148	0x3bdc1b83	0.006717147
149	0x3c9e8233	0.019349193
150	0xbc75ec95	-0.015010019
151	0x3b8c3d55	0.0042797723
152	0x3c081055	0.008304675
153	0xbcb966df	-0.02263206
154	0xbc48c125	-0.0122530805
155	0xbc71fd39	-0.014769846
156	0xba24254d	-0.0006261662
157	0x3d2c62c9	0.042086396
158	0x3ca57c73	0.020200944
159	0xbb9ddcb0	-0.0048175678
160	0xbc911dc7	-0.017714394
161	0x3aa4121f	0.0012517608
162	0xbd4fc385	-0.05072357
163	0x3c74c531	0.014939592
164	0xbc7cb514	-0.015424032
165	0xbd2432d0	-0.04008752
166	0xbc2019c9	-0.009771773
167	0xbd61d3fc	-0.055133805
168	0x3b83e11f	0.0040246393
169	0xbb82fdfb	-0.003997562
170	0xbc763054	-0.015026171
171	0xbc099fa7	-0.0083998805
172	0x3c9224c0	0.01783979
173	0xbc7ec3fa	-0.015549654
174	0x3ba16870	0.00492578
175	0xbccb8b42	-0.024846677
176	0xbcbbe6c7	-0.022937192
177	0xbc0b22b1	-0.008492158
178	0xbbeb4b80	-0.007180631
179	0xbd139627	-0.03603187
180	0x3d0b4853	0.03400452
181	0x3b98ab34	0.004659081
182	0xbc21a373	-0.0098656295
183	0x3c1fe81a	0.009759927
184	0x3cc9a25f	0.024613557
185	0xbc0fcfeb	-0.008777599
186	0xbb88d33c	-0.0041755717
187	0x3ca10073	0.019653535
188	0xbafd7f34	-0.0019340278
189	0x3c2d385d	0.01057252
190	0x3ba04180	0.0048906207
191	0x3cfc0909	0.030766027
192	0xbd1ea057	-0.03872713
193	0x3d49392e	0.049126796
194	0xbc969987	-0.018383754
195	0x3c078763	0.008272025
196	0xbc47c0be	-0.012191949
197	0xbca48cea	-0.020086724
198	0x3c69cc6f	0.014269932
199	0x3aa0f547	0.001228013
200	0xbc623c6a	-0.013808349
201	0xbb9c9f8d	-0.004779762
202	0x3cc8562e	0.024455156
203	0xbd09ce73	-0.03364415
204	0xbc6e174b	-0.014531921
205	0xbcac42e6	-0.021027993
206	0x3c2ec2ee	0.010666592
207	0x3cdabd78	0.026701674
208	0x3c59a7b5	0.013284613
209	0x3c5baede	0.013408391
210	0x3cdc7567	0.02691145
211	0xbcad86d4	-0.021182455
212	0xbc963625	-0.018336365
213	0xbc5198ee	-0.012792809
214	0xbd9966ff	-0.07490348
215	0xbcec8868	-0.028873637
216	0xbbf1f48b	-0.007383888
217	0xbc37b62f	-0.01121287
218	0x3c5372f0	0.012905821
219	0xbbf72502	-0.0075422535
220	0xbcd06262	-0.025437538
221	0x3c3d8a23	0.011568579
222	0x3ce45841	0.027874114
223	0x3c9d340d	0.019189859
224	0x3c7fe183	0.015617731
225	0x3ab30a9b	0.0013659777
226	0xbd4508de	-0.04810416
227	0xbd094fd7	-0.033523407
228	0x3bb1f33a	0.005430606
229	0x3d553104	0.052048698
230	0x3c879f8f	0.016555576
231	0x3cbab83a	0.022792924
232	0xbd0cc5e9	-0.03436843
233	0xbbd22ba0	-0.006413892
234	0xbd10053d	-0.035161246
235	0x3b4320be	0.0029774155
236	0x3d98792c	0.07444987
237	0xbba6e9e5	-0.0050938004
238	0xbcc448bd	-0.023960466
239	0x3c4a926f	0.012364014
240	0xbb0cb6a4	-0.0021471167
241	0xbcacfc24	-0.021116324
242	0xbca56575	-0.02018998
243	0x3cac2917	0.021015687
244	0x3c6a06f9	0.014283889
245	0x3c25be23	0.010116133
246	0xbc5e80ce	-0.013580514
247	0xbc78b24c	-0.015179228
248	0xba339d78	-0.0006851773
249	0xbc2fefa7	-0.01073829
250	0x3c7b8ad1	0.015352921
251	0xbc88a431	-0.016679855
252	0x3c7d2142	0.015449824
253	0x3d5f419c	0.05450593
254	0xbbc4192a	-0.005984445
255	0x3d32015c	0.043458328

actor.6.bias f4 [12]
0	0x3c6496a0	0.013951927
1	0xbc5d0741	-0.013490499
2	0xbdc3df05	-0.09564022
3	0x3dc71849	0.09721429
4	0xbd18dd5d	-0.037320483
5	0xbcffb6eb	-0.031215152
6	0x3de4193a	0.11137624
7	0x3de1f2a0	0.11032605
8	0x3e81b349	0.25332096
9	0x3e7bcd94	0.2459014
10	0x3ea8a4b2	0.32938153
11	0x3eaa9324	0.33315384
