tested_policies/go2/go2_5asymm/exported/policy.onnx (onnx, 273175 bytes, 8 tensors)

actor.0.weight f4 [128, 260]
000000 22 f1 40 3c b5 b7 2c be 02 93 a7 3e 76 1f a1 bd
       0.011776241 -0.16866954 0.32729346 -0.07867329
000010 62 8e 81 3d b0 5e b4 bd ac 7f 7c 3e b5 60 85 3e
       0.063259855 -0.08807123 0.24658078 0.26050344
000020 58 c3 81 bd 28 bc 2f be b6 50 7b 3e ee c1 25 3e
       -0.06336087 -0.1716162 0.24542508 0.1618726
000030 f1 6e e0 3d 6d 76 22 bf 6a e8 ab 3e 8c 97 66 be
       0.109586604 -0.63461953 0.33575755 -0.22518748
000040 a8 de eb bd d1 d8 44 be 98 ce 5b be ee b4 4b bc
       -0.11517078 -0.19223334 -0.21465528 -0.012433274
000050 11 55 97 be ac 3e c2 3d b6 65 b1 be 8a a3 85 be
       -0.29557088 0.0948461 -0.34647912 -0.26101333
000060 e0 6f 33 3a d6 8a 0b bb fb e8 ea 3d 74 10 82 3d
       0.0006844979 -0.002129247 0.11470219 0.063507944
000070 4c 30 8a bb b2 1a b7 3c 9c 23 63 3d f7 38 87 bc
       -0.004217183 0.022351597 0.05545388 -0.016506655
000080 60 ee 9e 3d 29 5d 4e 39 f3 93 dd 3b af d4 03 be
       0.0776031 0.00019680396 0.0067620217 -0.12874101
000090 26 7e 64 bd 5f 22 89 bd 11 d8 2b 3a a0 ec 07 bc
       -0.055784367 -0.06696009 0.0006555329 -0.008296162
0000a0 67 e9 84 3d 1b b3 bf bd c1 a3 4a 3c 32 f8 c9 3c
       0.064898305 -0.093603335 0.012368144 0.024654482
0000b0 35 64 38 3e a6 68 a0 bb f2 97 2e be 5f 02 2f 3d
       0.18006976 -0.0048952876 -0.1705015 0.04272687
0000c0 d2 10 03 be 66 11 b1 3d 5d f5 5f 3d 68 d4 19 bd
       -0.12799385 0.086458966 0.054677356 -0.037556082
0000d0 bf 9a a3 bd b3 67 d2 be d9 11 7e 3e 22 3e b3 3c
       -0.079885 -0.4109474 0.24811496 0.021880213
0000e0 48 c2 15 3c ee 45 e3 bd 51 d4 8e 3e 29 73 6f 3e
       0.009140559 -0.110973224 0.2789636 0.23383774
0000f0 36 c3 3a bb 01 1c 8a be 73 30 7a 3e 87 11 2d 3e
       -0.0028497702 -0.2697449 0.24432544 0.16901217
000100 d4 aa 94 3d ff ac 16 bf ba c2 a9 3e 73 fe 35 be
       0.072591454 -0.5885772 0.33156377 -0.17772846
000110 2f f7 94 bd d7 e3 13 be 95 ad b6 bd 25 d6 c1 3d
       -0.07273709 -0.14442383 -0.08919827 0.09464673
000120 42 7f b7 be 10 60 8f bc d4 cd 8f be 66 0a 73 be
       -0.35839278 -0.01750186 -0.28086722 -0.23734435
000130 ac c9 01 3d 43 b1 92 bd 1b e8 f7 3c 05 42 98 bc
       0.03168647 -0.07162716 0.030262044 -0.018586168
000140 e6 57 5d ba f2 bf 81 ba 4f 2a fe bd 8d ab 5f 3d
       -0.0008443579 -0.0009899123 -0.124104135 0.054606963
000150 30 69 67 3b 32 f3 18 bd 81 2f fe 3c b4 7c e1 bc
       0.00353105 -0.037341304 0.031028511 -0.027525283
000160 6e c8 60 be e7 4d 92 3c 9b 4b 0c bd 18 69 23 bb
       -0.21951458 0.017859412 -0.03425179 -0.0024934467
000170 a3 25 12 bc 8e f4 69 bd 96 00 45 3d 70 6d c0 3d
       -0.008920106 -0.05711799 0.048096262 0.093958735
000180 af 0c 5e 3e f4 50 e8 3d 5e 76 31 3d fa ca 3d 3d
       0.21684526 0.113435656 0.043325774 0.04633615
000190 b9 03 6f bd c3 53 d7 3d ce 08 0e 3d 92 cd cc bd
       -0.05835316 0.10514023 0.034676366 -0.10000147
0001a0 0f 3c 29 bd 38 99 08 bf 04 8d bb 3c 11 90 4a 3d
       -0.041317042 -0.53358793 0.02289439 0.0494538
0001b0 ae a8 2f 3d 20 56 95 be e0 64 8d 3e 30 8d 6c 3e
       0.042885475 -0.2916727 0.27616024 0.23100734
0001c0 46 54 fb bc ea 2a ae be ea 3f 89 3e 69 b8 6b 3e
       -0.030679833 -0.34017116 0.26806575 0.23019566
0001d0 29 9a 4e 3e 5c e3 1f bf e2 2f af 3e cf b5 48 be
       0.20175995 -0.624563 0.3421622 -0.19600604
0001e0 b9 df 3e bd b4 c9 10 be 0c 34 80 bd 9a cf b0 3c
       -0.046600077 -0.14139444 -0.06259927 0.021583367
0001f0 0f 46 d1 be 9a a7 8d 3c b5 2c 87 be 28 90 8d be
       -0.40873763 0.017291833 -0.26401296 -0.27649045
000200 a8 90 02 bc 90 da 08 be f2 e3 cc ba 16 5e c8 bb
       -0.007969059 -0.13364625 -0.0015631898 -0.0061147315
000210 21 59 33 3d 5a eb b0 3d c6 5c 7b 3d 95 3e 33 3d
       0.04378617 0.0863864 0.061367773 0.043760855
000220 d0 82 96 bc 2b 74 8d 3d f2 93 f9 bc 91 34 6f bd
       -0.018372923 0.06906923 -0.030466054 -0.05839974
000230 d0 97 c3 bc ec fd fd bd cd d1 b3 bb 2a d4 51 bc
       -0.0238761 -0.124019474 -0.0054876567 -0.0128069315
000240 16 2a cd 3c 79 e9 8e bc ea c4 58 ba 80 6f 03 bc
       0.025044482 -0.017445313 -0.00082690886 -0.008022189
000250 09 b2 4f 3e 1a 28 db 3b 5a ae 41 3d 3f 3e 1c 3d
       0.20282759 0.00668813 0.047285415 0.0381453
000260 f5 f1 52 bd f7 4b 2b bd 07 ee 9f 3c 31 2a 2b bd
       -0.05150028 -0.041820493 0.01952268 -0.041788284
000270 fa 04 33 be 11 f0 ba be fc 9d bb be d4 59 61 bd
       -0.17482367 -0.3651128 -0.3664397 -0.055017307
000280 2f 57 2d 3e 43 7b 7a be 1a 71 8f 3e 50 3a 86 3e
       0.16927789 -0.24461083 0.28015977 0.26216364
000290 81 83 8b bd e7 3c ec be ac fe 93 3e 30 4c 2a 3e
       -0.06812192 -0.46140215 0.28905237 0.16630626
0002a0 5d a1 11 3e 07 04 0f bf 5b 19 80 3e 0c 7f 71 be
       0.14221711 -0.5586552 0.25019345 -0.23583621
0002b0 20 ab c8 bd f3 d0 22 be 38 bf bb bd e0 cb 16 3e
       -0.097982645 -0.1590002 -0.091673315 0.1472621
0002c0 66 f0 a8 be 1f 96 ba bd 25 22 9e be ca 4b 85 be
       -0.3299591 -0.091106646 -0.30885425 -0.26034385
0002d0 95 c2 b0 bc 81 86 a3 bd 15 77 8e 3d fa 65 bd bc
       -0.021577159 -0.07984639 0.06956307 -0.023119915
0002e0 30 a0 86 bd fc 8c ab 3c a5 42 70 bc 44 c2 23 3d
       -0.06573522 0.02094125 -0.014664327 0.039980188
0002f0 b3 8e b1 bc 1e bf a8 bb 02 8f 4c bd 6f 15 67 bd
       -0.02167449 -0.005149736 -0.04994107 -0.056416925
000300 d6 61 ab bd ba a4 ee bd 26 10 24 3d 95 e3 0e be
       -0.0836827 -0.11652513 0.040054463 -0.13954003
000310 0a b3 85 3c 5f fb ce bd 1e ce 16 be 6d cf 49 3d
       0.016320724 -0.10106539 -0.14727065 0.049270082
000320 1c 70 57 3d 1a d7 88 3d 72 e0 9f 3d 7c be 62 3d
       0.05259715 0.06681652 0.078064814 0.05535744
000330 2c e9 60 bb a0 e0 0a bd d4 bc c3 bd 27 d5 19 bd
       -0.0034318669 -0.033905625 -0.095575005 -0.037556794
000340 b9 4e 76 be a8 34 92 be b1 4c 13 c0 f3 39 45 bf
       -0.24053468 -0.285558 -2.3015559 -0.7704155
000350 48 3c 0e 3f 96 2e 92 3e 0b 34 60 3e 48 81 c0 3e
       0.5556073 0.28551167 0.21894853 0.37598634
000360 9d c3 c5 bd 07 cc 03 bf 32 c6 bb 3e f9 c1 20 3e
       -0.09656451 -0.51483196 0.3667465 0.15698995
000370 d1 3e 17 3e 18 5d 29 bf b3 53 9c 3e 31 81 81 be
       0.14770056 -0.66157675 0.30532607 -0.25293878
000380 08 8a c9 bc c0 7c 04 be 36 5a 81 bd 62 e4 61 3d
       -0.024601951 -0.12938213 -0.063160345 0.055149443
000390 fc fd e0 be c2 0e 72 be 7d cf 81 be 98 ec be bd
       -0.43943775 -0.23638442 -0.25353613 -0.093224704
0003a0 fe 5b cd bd b9 1d 45 be 9a 78 02 bd f5 40 b6 bd
       -0.10027312 -0.1924962 -0.031853296 -0.08899108
0003b0 b4 2e da bd c6 cf 1c be e9 7e be bd 86 83 14 3d
       -0.10653439 -0.15313634 -0.0930155 0.036258243
0003c0 93 ec 02 be c2 15 10 3e de 04 85 3d 5c 9e 9c be
       -0.12785558 0.140708 0.06495069 -0.3058957
0003d0 a2 a7 4a be 1c c4 65 be 16 cd 1c 3d 88 fe 3c 3d
       -0.1979051 -0.22438091 0.038281523 0.046141177
0003e0 de 99 63 3d e5 6f 2d 3d a2 c4 37 3d ce 06 87 bd
       0.05556666 0.04234304 0.044865258 -0.06593095
0003f0 80 5e 26 bc 78 4f 2a be 5e ed 08 be 12 b3 ba 3d
       -0.0101543665 -0.16631877 -0.13371798 0.09116186

actor.0.bias f4 [128]
000000 0f 20 9f 3d 81 44 b0 3d 2b bf 73 be b3 44 2f bd
       0.077697866 0.08606816 -0.23803394 -0.042790126
000010 75 ff 03 bd 1c df d7 bd 24 54 cc bd 26 41 89 3d
       -0.032226045 -0.105406016 -0.09976986 0.06701879
000020 40 db 0c be a1 b6 13 bd 85 0b f5 bd 1a e5 21 3d
       -0.13755512 -0.03606284 -0.11965088 0.03952513
000030 a4 24 c2 3c 39 f5 66 be 74 76 de bc 52 f7 32 bd
       0.023699112 -0.22554483 -0.027156092 -0.043692894
000040 61 1c 44 3c 1e 1a e1 bb d8 a7 d2 3d e4 0a 88 3d
       0.011969657 -0.0068695685 0.1028592 0.06642702
000050 97 bf 4d 3d 6c 0f 4c bd c4 06 32 3d f9 d5 ce bb
       0.050231542 -0.049819395 0.043463483 -0.0063121286
000060 82 6b b2 bd 39 7d 8a 3d bc 30 8d bd 02 f7 2a bc
       -0.08711912 0.067621656 -0.06894061 -0.010434868
000070 85 e9 c0 3c 1a 3b 6f bd 68 0e 78 bd b7 e5 56 bb
       0.02354885 -0.058405973 -0.060560614 -0.003279073
000080 7b 7f 98 bd f1 44 f2 bd b9 31 f3 3c 0d 08 cb bd
       -0.0744619 -0.11829556 0.029686796 -0.09913645
000090 24 9d 21 be 00 bb df 3d 0e 7b c6 3d ea d5 e0 3d
       -0.157826 0.10924339 0.096914396 0.10978301
0000a0 a3 65 16 bd 86 ae 8c 3b 80 25 3d bd e4 fd 23 bd
       -0.036718022 0.0042932658 -0.04617834 -0.04003705
0000b0 9e 46 bc 3d 57 02 73 bd 0a 43 52 3d 67 d0 87 bd
       0.09193157 -0.059328403 0.051333465 -0.066315465
0000c0 ab b7 9d 3d ed ae 23 be ae 92 75 3d a3 5a 79 3c
       0.077010475 -0.15984698 0.059954338 0.015219363
0000d0 e0 33 52 3c b0 7f 0f bd aa 1f 9b bd d5 60 b6 bd
       0.012829751 -0.03503388 -0.07574399 -0.08905188
0000e0 5f 77 af bd b8 72 da 3c 72 03 09 3c de 73 83 3d
       -0.0856769 0.02666603 0.008362638 0.06418584
0000f0 84 19 ba 3d f3 b4 8c 3d c6 14 78 bd a7 66 14 3d
       0.09086898 0.06870451 -0.060566686 0.03623071
000100 af 66 d0 bc b3 aa 94 3d 37 0c b0 bd 51 29 00 bd
       -0.025439588 0.07259121 -0.0859608 -0.031289402
000110 c7 09 94 3d 8b 77 2d 3d a9 1d 59 bd 69 a7 67 3d
       0.072284274 0.042350333 -0.0530068 0.05655614
000120 8c 49 14 bd f2 90 40 bc 01 f7 16 3d 6b a8 d0 bc
       -0.036202952 -0.011753308 0.036856655 -0.025470933
000130 ee 0f 03 3d f0 ab 0a be 39 b5 aa bd 06 40 71 bd
       0.031997614 -0.13542151 -0.08335347 -0.058898948
000140 bc 66 a4 bb e2 e1 ef bd 24 ce b6 ba aa 1d 64 bb
       -0.0050171297 -0.117130056 -0.0013946933 -0.003480772
000150 92 82 41 3d 81 4e e4 bc 8f 66 ad bc 60 27 42 bd
       0.047243662 -0.027869465 -0.021167068 -0.047400832
000160 27 71 64 bd 98 03 20 3c b2 1e 0e 3d c1 dc 85 3d
       -0.055771973 0.009766482 0.034697242 0.06536246
000170 09 50 9b bd ab 44 86 bd 25 60 96 3d ea e8 bb 3d
       -0.07583625 -0.06556066 0.07342557 0.09175284
000180 f4 7b bd 3d b5 44 bf bd aa 4a 72 bd 62 67 af bc
       0.09252158 -0.09339277 -0.059153236 -0.021411601
000190 19 96 57 3b 94 17 ee 3c d0 9c d2 bd 56 76 91 bd
       0.0032895862 0.029063977 -0.10283816 -0.07102649
0001a0 0f e0 47 bc 9a f1 d2 bd df c7 7b bc e6 5c b9 bd
       -0.012199416 -0.10299988 -0.015367477 -0.09050922
0001b0 e9 c2 06 3c eb b8 fc bc db a9 e4 3d e7 f3 07 be
       0.008225181 -0.030849895 0.1116521 -0.13276635
0001c0 f4 8a f7 3c 40 80 04 be 1b fc 1c 3d 8a a0 8c bc
       0.030217625 -0.12939548 0.038326364 -0.017166395
0001d0 5a a9 ed 3b c4 c1 b4 bc b2 71 81 bd 79 3a fd bc
       0.0072528543 -0.02206505 -0.06320514 -0.030911671
0001e0 75 33 08 3d 68 27 45 3d bf 70 4d bd ca 4f 22 be
       0.0332522 0.048133284 -0.05015635 -0.1585075
0001f0 4b 41 09 bd fd 22 1d bc 08 23 fc bc 62 78 c2 3d
       -0.033509534 -0.009590861 -0.030778423 0.094956174

actor.2.weight f4 [128, 128]
000000 cd ed 84 be f8 a6 5b 3d 03 9c 7b 3e 59 f1 fc bd
       -0.25962678 0.05362603 0.24571232 -0.12350721
000010 3c 0c be bb 9c 58 9c 3d 0a 00 45 3e c0 23 22 3d
       -0.0057997983 0.076340884 0.19238296 0.039584875
000020 a1 ca 97 3d 14 27 f1 3d a2 1f f2 bd b6 d6 f9 3d
       0.07411695 0.11775032 -0.1182244 0.12199156
000030 00 f6 76 3e 08 3a 68 bd e8 09 f9 3c 02 8a 4d 3d
       0.24117279 -0.056695968 0.030400231 0.050180443
000040 b0 08 88 bd 87 f5 a3 bd 7e 41 07 be e7 81 9a bb
       -0.06642282 -0.08005815 -0.13208577 -0.0047151926
000050 6d 6c d7 bc d4 21 56 3d 5f 6c 18 be 9e a7 65 3d
       -0.026296819 0.052278355 -0.1488509 0.056068055
000060 b2 3a df 3c db dd 30 be 5b 0c 96 3d 37 88 9f 3d
       0.027249668 -0.17272131 0.07326575 0.07789653
000070 a5 f0 c8 bd ae 1d 0f be 43 0c 3a 3e 67 20 ec 3b
       -0.09811524 -0.13976166 0.1816874 0.007206011
000080 77 c9 22 be 7d 87 98 3d cb 37 8c 3a 29 0a 9a 3e
       -0.15897165 0.07447717 0.001069778 0.30085877
000090 0a 6a 1a 3c d3 86 5e bd 0a 14 aa bd 6e 1a 6f bd
       0.009424696 -0.054327797 -0.083046034 -0.058374815
0000a0 b9 b7 e1 bc 5b 57 2d 3d c7 03 76 3d f4 3d 15 be
       -0.027553426 0.042319637 0.060062196 -0.14574414
0000b0 27 68 88 3d 11 cd 67 bc ce 70 13 3e aa a0 26 3e
       0.066604905 -0.014148013 0.143985 0.16272226
0000c0 80 df 8c bd 3b 06 1e 3e cb a8 74 3d 7f eb d2 3d
       -0.06878567 0.15432064 0.059731286 0.102988236
0000d0 ef 47 44 be 48 19 0a be 7e cb 75 3e 52 db 1b be
       -0.19168065 -0.13486207 0.24003407 -0.15220383
0000e0 a7 c4 7d 3e 97 aa 01 3e 1a a6 92 3c 0f 9d f2 bd
       0.24782048 0.12662731 0.017901469 -0.11846363
0000f0 17 1d 60 bb 6a 78 37 be a8 ee 83 3d fc 45 9d bd
       -0.0034197026 -0.17917028 0.064420044 -0.07679364
000100 24 41 7a 3d 03 c1 e1 bd 8d d6 c8 bd dc ba 31 be
       0.06109728 -0.11023142 -0.09806547 -0.17356437
000110 ce 33 bd 3d 48 b4 5c 3d 52 97 a6 3d 37 45 eb 3d
       0.092383966 0.053882867 0.08134331 0.11487811
000120 9e 94 41 3e f4 95 43 be fe 56 dc 3c a6 98 72 bd
       0.18904349 -0.19100171 0.02689695 -0.05922761
000130 6a 3b a6 bd 33 05 4f 3d 9a d3 53 3d ad d7 23 bd
       -0.08116801 0.050542068 0.05171547 -0.040000606
000140 d1 ec c7 bd 5d 95 c8 bc 41 e3 f0 bc ad bc 5a be
       -0.09761966 -0.024485284 -0.029405238 -0.21361037
000150 90 8f d4 bc 1d 66 1f 3d 4c c4 9d be aa 22 18 be
       -0.025947362 0.038915742 -0.30813825 -0.14856973
000160 9f 18 b0 bd 66 1f ed 3b f8 68 5e bd c8 48 4a bc
       -0.08598446 0.007236409 -0.054299325 -0.012346454
000170 9b da a2 bc 92 30 7f ba 69 c8 ac bd e1 d5 57 3d
       -0.01987963 -0.00097347156 -0.08436663 0.052694205
000180 74 6c 52 be 75 ca 91 3d 9b 9c ff bc 1b f3 b7 be
       -0.20549184 0.07118694 -0.031202605 -0.35927662
000190 ed 82 09 be 92 09 05 3d 95 9b 82 3d 5b 0d 08 bc
       -0.1342885 0.03247983 0.06377331 -0.008303965
0001a0 e6 f2 40 3c bb 09 13 3d 2a ff 15 be 36 fb 4e 3d
       0.0117766615 0.03589795 -0.14648119 0.050532542
0001b0 43 86 de bd 6e f9 64 bd f7 df 2e bd 39 43 8a 3d
       -0.10865452 -0.055901937 -0.04269406 0.06751103
0001c0 5c a9 24 3e ed 72 33 3d 94 42 3a 3e 1c 5d 1e 3e
       0.1608023 0.043810774 0.1818946 0.15465206
0001d0 8d 44 eb bd 2b ec 0c 3e 06 d1 37 3c 96 de a5 3c
       -0.114876844 0.13761966 0.011219269 0.020247739
0001e0 94 c1 a5 3d 2d 52 a7 3d d7 08 86 bd 29 ce 09 bd
       0.08093563 0.08169971 -0.06544655 -0.033643875
0001f0 41 4b 08 be ba ef 73 3e cc e3 12 be 91 29 6b 3d
       -0.13309957 0.23821917 -0.1434471 0.057412688
000200 91 06 99 bd b9 b0 38 bc c3 32 37 be 92 f4 4d 3d
       -0.074719556 -0.011272603 -0.17890458 0.05028207
000210 53 87 d7 bd f6 35 42 3c 98 28 c4 3d f0 de 96 be
       -0.10523858 0.011853686 0.09578055 -0.29466963
000220 93 c8 c3 bd b0 23 c4 3d 8a d1 32 bd 2b 0b c7 be
       -0.09559741 0.09577119 -0.043656863 -0.38875708
000230 be 07 a6 be 9c f0 d4 3d 2d 40 43 be c1 ff 51 bd
       -0.32427782 0.10397455 -0.1906745 -0.051269297
000240 33 93 bb 3d 0a 9a 63 be 01 17 84 3d 05 65 6c be
       0.091589354 -0.2222673 0.064497 -0.23085411
000250 fb c0 95 be 75 89 f3 bb 42 4b 9b bd bd 8e da bb
       -0.29248795 -0.0074321576 -0.07582714 -0.0066698478
000260 81 ff b8 bd 8c cf 20 be a6 33 59 be 08 6d a0 be
       -0.090331085 -0.15704173 -0.21211109 -0.31333184
000270 09 60 96 3c e8 c9 f9 3c 89 4d 0f be c1 0c 82 be
       0.01835634 0.030491784 -0.13994421 -0.25400355
000280 54 56 87 3d 94 bc c1 3c b9 80 30 3e af 7d df 3d
       0.06608263 0.023649491 0.17236604 0.10912644
000290 d6 22 a7 3d ca 52 4d 3d 98 10 bd 3d 8a 3f 1c be
       0.08160941 0.050127782 0.09231681 -0.15258613
0002a0 6e 48 a9 3e 94 dc 36 3d 8f 6b 09 be 9a 8d 42 3d
       0.33063072 0.044643953 -0.13419937 0.047498323
0002b0 de cc bb bd c0 80 0a 3e 7c 5c e9 bd ea 5d 71 bb
       -0.09169935 0.13525677 -0.11394593 -0.0036829659
0002c0 90 82 30 3e ce d5 20 3d 4b de 26 3e e7 df e5 bd
       0.17237306 0.0392664 0.16295736 -0.112243466
0002d0 c0 07 c3 3b 3e cd 66 bd 05 23 14 3a 5f f5 2b bc
       0.0059518516 -0.056348078 0.000565097 -0.010495513
0002e0 c5 4b 08 3e 05 41 61 3e 02 d4 03 3e 53 66 90 be
       0.13310154 0.21997459 0.12873843 -0.28203067
0002f0 2b 0b 4a 3d 16 e6 87 be 43 77 c1 bb 1f 10 89 bd
       0.049327057 -0.2654273 -0.0059041097 -0.06692528
000300 57 d2 81 3d d3 23 4b 3c ca f1 9d bd 11 b2 34 be
       0.06338947 0.012398678 -0.07712133 -0.17646052
000310 94 38 07 be a3 7a 58 3e 67 b9 22 bd 2d 7f a2 3d
       -0.13205177 0.21140532 -0.039727595 0.07934413
000320 86 72 9c 3c da fa b1 3d 72 bc ad bd 59 25 c2 bd
       0.019097578 0.08690424 -0.08483209 -0.0947978
000330 7b 78 bf 3d b8 85 d8 bd 36 4b 7f 3d 5c e8 a8 bc
       0.09349152 -0.1057238 0.062327586 -0.02061861
000340 6e 13 9e be 94 cd 72 3e fd 20 40 3e ba bc 23 bd
       -0.308742 0.23711234 0.18762584 -0.039974906
000350 f2 84 98 bd 85 ad 30 3d 83 03 d6 bd 05 fe e6 3c
       -0.07447232 0.04313423 -0.104498886 0.028197298
000360 de b0 09 3d c5 bf 86 3e 97 28 41 3d f9 4b 27 be
       0.03361594 0.26318184 0.04715785 -0.16337575
000370 73 ba 89 be f9 e0 9a be 23 d3 d7 bc 95 02 9a bd
       -0.26900062 -0.30249766 -0.026345795 -0.07520024
000380 20 e0 e7 3d 31 91 35 be 9a 1c 15 be d1 62 18 3e
       0.11322045 -0.17731167 -0.14561692 0.14881445
000390 27 2b 96 3c 94 32 70 be 5c 42 8f 3d 42 a8 56 be
       0.018331124 -0.23456794 0.06995079 -0.20962623
0003a0 ef dd 32 be 5b 80 f0 bd 03 3e 91 bd 10 50 67 be
       -0.17467473 -0.11743232 -0.07091906 -0.22589135
0003b0 77 1b ac bc 50 e5 df 3d ff 8c aa 3d d6 32 81 bd
       -0.02100919 0.1093241 0.08327674 -0.06308524
0003c0 d6 03 95 bc c7 95 ff 3d 30 07 c1 bd 94 1b 5b be
       -0.018190306 0.1247974 -0.09425199 -0.21397239
0003d0 27 51 bb 3c 22 b3 1c 3e cf d5 75 3e d7 6e b1 bd
       0.022865845 0.15302709 0.24007343 -0.08663719
0003e0 c3 63 3b 3e 8f 7f 94 3b 67 c4 8f bd 04 f8 e7 bc
       0.18299775 0.0045318077 -0.07019883 -0.028316505
0003f0 e0 55 67 3d d9 95 18 3d 37 78 fb 3d 1f 0b 4a be
       0.05647838 0.03725228 0.122787885 -0.19730805

actor.2.bias f4 [128]
000000 e7 59 4e bd 80 82 63 bc c2 47 57 3d b6 f6 db 3b
       -0.050378706 -0.013886094 0.052558668 0.00671276
000010 f9 79 c0 bd 18 6e a2 be e2 2e 1e bd 35 41 7b be
       -0.093982644 -0.3172462 -0.03861893 -0.24536593
000020 4d 25 dd bd c6 f2 88 bc b0 dc a2 3d 59 ef 96 3c
       -0.1079813 -0.016717326 0.07952249 0.018424677
000030 55 f3 ca 3c 6d 57 d7 bd 45 4d d4 bc 4f de 04 3d
       0.024774233 -0.10514722 -0.025915751 0.032438572
000040 a6 39 32 bd 5d 1c b8 bd 4c 6d dc bd ec c0 01 be
       -0.04351201 -0.08989785 -0.10763034 -0.1267125
000050 21 c0 34 be 52 79 65 be aa f6 cb bc 39 15 fb bc
       -0.17651416 -0.22409561 -0.024897892 -0.030649768
000060 5d 2e 82 bc d9 6c 0b 3d 4e e6 b4 bd 52 f7 8d bd
       -0.015891248 0.034039352 -0.0883299 -0.06931938
000070 e0 ac 89 3d df 5e 46 bd 46 69 a1 bd 15 e8 1f be
       0.067224264 -0.04843032 -0.078814074 -0.15615876
000080 c9 db f8 bd 78 78 b1 bd 5a d0 c1 bd 5a 79 4a 3d
       -0.12151296 -0.08665556 -0.09463568 0.049432136
000090 03 0c 81 be 76 22 89 bd 11 d3 bf bd 9a ad fb bd
       -0.25204477 -0.06696026 -0.093664296 -0.12288971
0000a0 76 fe 52 be 54 65 5a bd 71 2c f0 bd 89 74 b5 bd
       -0.20604882 -0.05331929 -0.117272265 -0.08860118
0000b0 0a b4 e6 bc 86 d0 98 bd ee 63 17 3d fa c6 85 bd
       -0.028162021 -0.07461648 0.036960535 -0.065320924
0000c0 25 a4 1f be 52 04 81 bd 07 0b bf bd f3 c1 80 be
       -0.1558996 -0.06299652 -0.09328275 -0.25147972
0000d0 69 75 8f bb dc e6 2f be aa ce 50 3e 7c 86 84 3d
       -0.00437801 -0.1717791 0.20391336 0.06470963
0000e0 34 d2 e3 3d a5 75 1b bc d3 d2 04 be c6 36 0c bc
       0.111240774 -0.009488498 -0.12971048 -0.008557981
0000f0 b9 fc 85 bc 6a cd 26 be 16 87 3f be 71 d0 4d 3c
       -0.01635586 -0.16289297 -0.18703875 0.012561903
000100 b2 85 e0 bd 72 63 71 3d 85 e2 4c be f1 e4 1d be
       -0.10963 0.05893273 -0.20008285 -0.15419365
000110 47 93 ae bd 72 0e 55 be 74 d0 9e 3d 64 01 58 bc
       -0.08524185 -0.20806292 0.07754603 -0.013183925
000120 86 91 e5 bc 82 ab 06 bd 74 e9 cf bd bf a0 07 be
       -0.028023493 -0.032878406 -0.101519495 -0.13244914
000130 26 77 c7 3d 9a b1 8d be 49 78 ca bc cf cd 54 bd
       0.09739523 -0.27674562 -0.02471556 -0.051954087
000140 45 b6 88 be 78 7b 59 bd c1 b0 12 bd 82 5a 34 be
       -0.2670156 -0.053096265 -0.035813097 -0.17612651
000150 67 a4 f0 3d ce 26 b4 bd 97 f8 31 be d8 69 ca bd
       0.11750107 -0.08796464 -0.17379986 -0.09883469
000160 6b 9c 95 3d f6 ca 21 bd 98 64 e0 bd 92 d0 a3 bd
       0.07305225 -0.0395002 -0.10956687 -0.07998766
000170 f8 cc af bd da 7c 0d be 3b f2 85 bd 20 ea 64 bd
       -0.085840166 -0.13817158 -0.065403424 -0.05588734
000180 5a d9 01 be e7 12 b2 3c 6d a0 98 3e e7 da 10 3d
       -0.1268057 0.021737529 0.29809895 0.03536501
000190 ed 73 86 3d f5 c2 75 be 0c ee 23 be 9a ed 0e be
       0.0656508 -0.24000151 -0.16008776 -0.13957825
0001a0 17 b5 b3 bd e3 13 94 be e1 62 08 be 6a 91 27 bd
       -0.087747745 -0.28921422 -0.1331897 -0.040910162
0001b0 4c 8e a4 bd 34 af 21 be 3e 6d f8 bd e4 c2 76 be
       -0.080349535 -0.15789491 -0.12130211 -0.24097782
0001c0 7f fc 1e bd 5c 60 18 3e 19 94 59 be 0a 7d 24 be
       -0.038815018 0.14880508 -0.21247901 -0.16063324
0001d0 e8 c2 e0 bd 65 96 5e 3d 45 98 af 3d d8 20 5f bd
       -0.109746754 0.054342646 0.08573965 -0.05447468
0001e0 ce 62 56 be 5e 85 f2 bc f4 9c 44 bd 46 51 14 be
       -0.20936128 -0.02960461 -0.048001245 -0.14484128
0001f0 e1 f4 4f be b5 fc 83 be bd ff 1a 3b 18 50 5d be
       -0.20308258 -0.25778738 0.0023650967 -0.21612585

actor.4.weight f4 [128, 128]
000000 72 df dc bd 7e b6 74 3e 2e f4 92 bd 67 21 28 3d
       -0.10784806 0.2389774 -0.0717548 0.04104748
000010 13 6c 49 bd 45 03 68 3d 50 33 8a 3c 6d 18 f9 3d
       -0.049175333 0.056643743 0.01687017 0.12162862
000020 4d fb 18 3d 02 42 65 bd e6 29 e8 bc 35 c6 9b bd
       0.037349034 -0.055971153 -0.028340291 -0.07606164
000030 e2 81 ce bc d2 af d0 bd 8f 1c 4a be e9 cf 90 3c
       -0.025208417 -0.10189785 -0.19737457 0.017677264
000040 ab 6f 5a 3e 16 3a 84 3c f7 fc 38 3e d4 c6 16 bd
       0.2133166 0.016140979 0.18065248 -0.03681071
000050 31 b7 14 bc 1e bb 8e bb 80 52 3e be 6f 44 da 3d
       -0.009076879 -0.004355802 -0.18586159 0.10657584
000060 83 61 12 be b8 da d8 bd 28 38 3e be 6c 2c 25 be
       -0.1429501 -0.10588592 -0.1857611 -0.16130227
000070 66 1f 81 3d aa 63 a9 3c 5e a0 dd 3d 03 61 90 bc
       0.06304817 0.020677406 0.10821603 -0.017624384
000080 cf 7c c5 bd fd 52 0f 3e de ef f3 bd 11 46 35 be
       -0.09642946 0.13996501 -0.119109854 -0.1770251
000090 e2 d1 9d 3c 7f f8 9c bd c2 97 d3 3c a1 57 53 bd
       0.019265119 -0.07664584 0.0258292 -0.05159724
0000a0 8f 5b c9 bc 91 08 4a be 16 5e ab 3d 64 a8 7e bd
       -0.024579791 -0.1972983 0.08367555 -0.06217231
0000b0 86 a6 3c be f1 bb 84 3c 6c 0e 0b bd 02 20 c7 3d
       -0.18422899 0.016202899 -0.0339493 0.09722902
0000c0 e4 d1 3a 3d 78 cc 9e 3d b4 e2 24 3d ad 04 c0 3d
       0.045610324 0.07753843 0.040255263 0.09375892
0000d0 72 af cb 3c 5c 31 3b ba 02 ad f0 bd e7 72 ff bd
       0.024863932 -0.0007140839 -0.117517486 -0.12473088
0000e0 ba ae 25 be 5b fa 2a 3d 05 d1 13 3d 19 de f2 bc
       -0.16179934 0.041742664 0.03608801 -0.02964692
0000f0 8e 0a ed 3c f3 07 5a be 94 e1 e2 3c f0 cf c4 3d
       0.028935697 -0.21292095 0.027695455 0.096099734
000100 65 25 27 be 62 bb e8 bd e0 0e 18 3d 31 7a b0 3d
       -0.16322859 -0.113638654 0.03712356 0.08617056
000110 7c c7 8d 3c 43 89 80 3d 79 f9 3f 3d 56 68 9f 3b
       0.017307036 0.062761806 0.046868775 0.0048647327
000120 b3 b9 e1 3d 6b d2 a3 bd 3c 61 75 3d 9b 15 cf bc
       0.110217474 -0.079991184 0.059907183 -0.025278857
000130 24 b0 1b be 67 1e 8e 3d 80 6f 8c be df c0 3e bd
       -0.15203911 0.069393925 -0.27428818 -0.046570655
000140 22 d0 34 3d 3a 5c 28 be 17 b6 3d be ab 9e ec bd
       0.044143803 -0.16441432 -0.18526493 -0.11553701
000150 c5 ac ff bd 04 1b 97 3d a5 4c ff 3d a6 81 0b be
       -0.12484125 0.073782 0.12465791 -0.13623676
000160 2f 03 9a bc 26 61 ac bc 06 f5 ef bd 9d 19 d7 bc
       -0.018800346 -0.021042418 -0.117166564 -0.02625733
000170 b9 6a 1a 3e 64 0e 83 3d d7 50 5e 3d 46 c7 96 3d
       0.15079774 0.06399229 0.054276314 0.07362227
000180 81 3d 5a 3e 27 d9 5f bd 1c 09 dd bd 91 a8 27 be
       0.21312524 -0.054650452 -0.10792753 -0.16372897
000190 28 f0 ba 3d 41 05 86 be 9e f1 dd 3d b1 9e 7c 3c
       0.091278374 -0.26175883 0.108371004 0.015418694
0001a0 f8 1f 02 bd b2 13 8e 3d d7 fd c9 3d 49 ec 5c 3d
       -0.03176877 0.0693735 0.09862869 0.053936277
0001b0 d0 ca 44 bd 3e d0 3e bd 98 fa 0c be 23 d3 d9 3d
       -0.04804498 -0.046585314 -0.13767469 0.10635974
0001c0 fb 20 8c bd e6 68 bc bd 57 a9 00 bc 97 bc 6a be
       -0.06842228 -0.09199695 -0.007852874 -0.22923504
0001d0 a6 02 ce 3d 8a 6a 42 bb e3 8b d3 bd 76 a6 85 bd
       0.10059099 -0.0029665553 -0.10329416 -0.065258905
0001e0 6c c8 c9 bd 83 69 6b bc 6f 05 92 3c 9f 67 c9 bd
       -0.098526806 -0.014368418 0.017824857 -0.09834217
0001f0 49 38 4b 3e 6d 73 61 bd 5d 51 19 be 3a 6d 92 bd
       0.1984569 -0.05504172 -0.14972444 -0.071497396
000200 6e f2 8d bd 53 7b 32 3e f0 32 8e bd be 5f 33 3d
       -0.069310054 0.17429857 -0.06943309 0.04379248
000210 f5 30 a1 bd 49 1b 8c bc dc fc 56 bd 45 11 5a 3e
       -0.07870666 -0.017102854 -0.05248724 0.2129565
000220 10 6c eb bd 38 bd 36 bd 03 6a e9 3b 28 89 ca be
       -0.11495221 -0.044614047 0.0071232333 -0.39557767
000230 a4 fd 8e 3d f0 8b bb 3c 7b ad ca 3d 8a 23 9c bd
       0.06981972 0.022893876 0.0989637 -0.07623966
000240 a5 8f 28 bc cd cf b4 3d a2 40 b4 3d 7d dc 0b bd
       -0.010288154 0.08828697 0.0880139 -0.03414582
000250 06 97 14 bc 63 65 6f 3d df ee e1 be 49 1b 88 bd
       -0.00906921 0.0584463 -0.44127557 -0.06645829
000260 ab 11 1e 3e 2b aa a2 3d 66 65 23 be ae 3d 88 3b
       0.15436427 0.07942613 -0.15956649 0.0041577434
000270 16 cc e3 3b e5 3c 89 bd 60 eb e5 bd 59 18 b1 3b
       0.006951819 -0.06701068 -0.11226535 0.005404514
000280 36 73 14 bd fb 11 81 3d 29 f7 89 3d 74 a7 22 3c
       -0.036242686 0.063022576 0.06736595 0.009927619
000290 ea 47 0a bd 24 cd 38 bd f3 cf ca bd cd f0 6d 3d
       -0.03375999 -0.045117512 -0.099029444 0.058090974
0002a0 26 6e 89 3e d4 52 6c bd 4b 5b ea bc 3a 8a 23 3e
       0.2684185 -0.05769618 -0.028607985 0.15970698
0002b0 04 5b 8e 3d b1 f6 32 3d 81 13 80 bc d7 21 86 bd
       0.069509536 0.043692295 -0.0156343 -0.06549423
0002c0 92 12 14 3e 69 47 5e be a2 78 3f bd ff f5 45 3d
       0.14460209 -0.21706928 -0.046745904 0.048330303
0002d0 31 f1 b9 3b e8 a0 aa 3b 48 0e d5 3c 99 41 8c bd
       0.005674504 0.00520717 0.026007786 -0.06848449
0002e0 8a 85 2f bc e8 d3 1a 3e ae 3b f6 3d e6 84 81 3d
       -0.010712991 0.15119898 0.12023102 0.063241765
0002f0 c5 f2 fd 3b f8 33 59 3d 26 81 0e 3e 74 b3 17 bd
       0.0077498876 0.053028077 0.13916454 -0.037036374
000300 f8 cb c9 3a 7c 5f 24 3e b4 47 b0 bc 8f 72 eb 3d
       0.001539587 0.1605205 -0.021518566 0.1149646
000310 99 f9 7f bd 45 6d 8b bd a3 9a 7a bb ed bf 08 3e
       -0.062493894 -0.06807951 -0.0038239143 0.13354464
000320 3e 96 04 be b7 55 3b bc e4 d9 2d be f0 dd 2e 3e
       -0.12947938 -0.01143401 -0.1697765 0.1707685
000330 5d 9b d6 3c 3c 5d 10 3e 2a 63 aa be eb fd 17 bd
       0.02619713 0.14098066 -0.3327878 -0.03710739
000340 4e 3f 78 3e 4e d5 4f bd e0 3d 03 be 36 76 78 bc
       0.24242899 -0.050740533 -0.12816572 -0.015164902
000350 4f 93 89 bc e1 c5 5a 3d d7 0b 85 3d 46 34 ce bd
       -0.016793875 0.05341137 0.06496399 -0.10068564
000360 40 4e 32 bd 49 a4 72 bd 25 9f 85 be 35 11 fe 3d
       -0.043531656 -0.059238706 -0.2609798 0.12405626
000370 0b 95 44 be da fb 00 3e 65 91 3a 3e 61 c3 65 3c
       -0.1919748 0.12596074 0.18219526 0.014023633
000380 53 2d 2a be 39 5d 61 3c 85 53 ce bd b8 15 cd 3d
       -0.16618852 0.013755136 -0.10074524 0.10013908
000390 fe 12 07 be 39 c6 d8 3c c8 c8 0e 3e 7d 0c 46 3d
       -0.13190839 0.026461707 0.1394378 0.048351754
0003a0 92 aa 50 bd 76 6a bd 3c 7e a1 2f 3e 0c 56 3d bd
       -0.05094392 0.023122054 0.17151448 -0.04622464
0003b0 81 01 87 3d 2e f8 14 bc a7 67 55 be 36 20 8f 3d
       0.06592084 -0.009092374 -0.20840321 0.069885656
0003c0 61 8d c8 3d 90 df a1 3c e5 2b 7b be f1 2c bb 3c
       0.09792591 0.019759923 -0.24528463 0.022848578
0003d0 1d 32 96 3d 9b 0a 0c bd 6c 04 2c be 30 60 bd ba
       0.07333777 -0.0341898 -0.16798562 -0.0014448222
0003e0 fd 91 9a 3d 35 d8 4e 3d ad 88 a6 3d 46 1d 15 3e
       0.07547376 0.05049916 0.081315376 0.14561948
0003f0 54 41 9d 3b 2a 24 32 bd 81 55 17 bd 23 75 05 3e
       0.0047990475 -0.04349152 -0.036946777 0.13032965

actor.4.bias f4 [128]
000000 3d ee 35 bd 11 06 1b be c5 30 8f be cb 81 7a 3d
       -0.044416655 -0.15139033 -0.27966896 0.061158936
000010 6a 99 64 3d d9 56 3c be d3 70 16 be 55 42 0a bd
       0.05581037 -0.18392505 -0.14691477 -0.033754665
000020 98 45 43 be 98 bd 5a be a1 11 77 3b 39 81 15 be
       -0.19069517 -0.21361387 0.0037699717 -0.14600076
000030 98 15 90 bd 33 85 67 be 4d 73 3d 3d f6 91 73 bd
       -0.07035369 -0.22609405 0.046252538 -0.05946537
000040 06 32 3e be ed 16 eb bb 62 a6 88 bd 3f 29 2d bd
       -0.1857377 -0.007174364 -0.0667236 -0.042275663
000050 67 f4 86 3d e1 f2 03 3b 23 9b ae bc aa 72 36 be
       0.06589585 0.002013378 -0.02131421 -0.17817178
000060 05 e5 d6 3b 65 85 08 bd 52 82 84 bd d0 87 79 bd
       0.006558063 -0.03333034 -0.06470169 -0.060920537
000070 14 20 3d bd 98 50 d1 bd 6a 1c e5 bd 1c 45 8c bd
       -0.04617317 -0.1022045 -0.1118706 -0.06849119
000080 a5 26 0f be 88 69 36 bd 81 c3 52 be 4a fd f1 bd
       -0.13979585 -0.044534236 -0.20582391 -0.11815889
000090 27 a2 69 3b 69 51 cf 3c 12 bf c5 bd 81 d8 86 bd
       0.003564963 0.025307374 -0.096555844 -0.065842636
0000a0 26 62 1f 3c 46 61 2f be 7c 93 17 be 10 cb e4 bd
       0.00972799 -0.1712695 -0.14802355 -0.111715436
0000b0 fe 05 ae bd 07 cc 60 bd 7a 1e db bd fc ce d3 bd
       -0.08497237 -0.054882076 -0.10699172 -0.103422135
0000c0 9d 3d 02 be 00 fc 8b be 66 9a f0 bd 51 37 b8 bc
       -0.12718816 -0.27340698 -0.11748199 -0.022487314
0000d0 d7 50 13 be 2d cf 61 be e5 7a d9 bd a6 68 d7 bd
       -0.14386307 -0.22051688 -0.106191434 -0.10518007
0000e0 1a e8 bf bd 80 cc a0 bd 87 e5 ff bb 39 3f 38 be
       -0.09370442 -0.07851505 -0.007809344 -0.17992868
0000f0 53 44 bb bd c9 0c fa bd e9 1c 2c bd 97 05 8a bd
       -0.09143891 -0.1220947 -0.04201976 -0.067393474
000100 72 b8 9a bd 45 5c aa bc 8e ef 93 3d eb 70 e0 bd
       -0.075547114 -0.02079595 0.07223426 -0.109590374
000110 5c 74 9c bd 18 33 16 be ae 94 0e be 47 65 4f be
       -0.07639381 -0.14667928 -0.13923904 -0.20253478
000120 e3 ba 9b bb d2 e0 bb bc 64 b6 6a be 56 72 c5 bc
       -0.0047525032 -0.022934351 -0.22921139 -0.024102371
000130 58 cf 7d be 59 fa ce bd b0 a0 1a bd c1 ba a2 bd
       -0.24786127 -0.10106344 -0.0377509 -0.07945777
000140 51 0e 04 bd 83 4f a8 bd 8b 74 82 3c f6 60 41 be
       -0.032240216 -0.08218291 0.015924713 -0.18884644
000150 9c 92 1e bd 1f dc 0f bd 13 78 13 be d3 ea 23 be
       -0.038714036 -0.035122033 -0.14401273 -0.16007547
000160 63 f8 30 be 7e 4a 94 bd 7d cc 05 be 14 f8 f1 bd
       -0.17282252 -0.07240771 -0.13066287 -0.11814895
000170 ac 71 a5 bd b2 3c 17 be 4e c2 5a be 0a 8a ca bd
       -0.08078322 -0.14769247 -0.21363184 -0.0988961
000180 d0 03 3d bd 8d 6f 20 be 1d e7 17 be c4 ac 23 3c
       -0.046146214 -0.15667553 -0.14834256 0.009989921
000190 58 ce bb bc fd ce 37 be f7 5c 03 be 1f 8d 20 bd
       -0.02292554 -0.17950054 -0.12828432 -0.039197084
0001a0 8f 0f 48 bd d0 62 15 be 02 98 53 be 84 09 19 be
       -0.048842963 -0.14588475 -0.20663455 -0.14945036
0001b0 1f 8a b0 bd e0 d7 6e be e8 d4 c1 bd a9 1b 56 be
       -0.086200945 -0.23324537 -0.09464437 -0.20908989
0001c0 56 01 8a bd f7 0e 4d be e4 88 ed bd b2 85 0a be
       -0.06738536 -0.2002524 -0.115983754 -0.13527563
0001d0 e7 7a 5f bd d8 8f 3e be 33 ab 5a bd 52 9f 93 be
       -0.05456057 -0.1860956 -0.053385925 -0.2883249
0001e0 ae 20 62 3d d5 8c 45 be a5 39 3f be 95 3c 85 bc
       0.055206947 -0.19292004 -0.18674333 -0.01626424
0001f0 14 9d 35 bd 3a 5a 3d be a3 ec f4 bd 99 63 a5 bd
       -0.044339254 -0.1849145 -0.11959197 -0.08075637

actor.6.weight f4 [12, 128]
000000 65 68 be bb 12 cf 93 3d 9c de 2d bb 9a cd 44 3c
       -0.0058107846 0.0721723 -0.002653039 0.01201191
000010 9a 03 0e bd f0 9f e3 3b a5 6c 08 bd f2 0b 36 3d
       -0.034671403 0.0069465563 -0.033306736 0.044444986
000020 93 61 5c bc 9e f2 72 bc c7 c5 65 bc 1f ee ca bb
       -0.013450998 -0.014828352 -0.014024205 -0.006192937
000030 e5 eb c9 3c c0 9f bd 3b 8e ab 47 bb 58 01 0a 3c
       0.024648616 0.005786866 -0.0030467245 0.008423172
000040 91 4b 08 bc f5 b6 99 3c db 61 df ba d0 02 eb 3c
       -0.008318798 0.018763999 -0.0017042713 0.028687865
000050 db e6 3e 3c 87 67 c3 3b 62 2b 02 bc b4 4e c5 bd
       0.01165172 0.005963269 -0.007944914 -0.09634152
000060 a8 84 b7 3c d0 b3 a4 3b 8d 70 18 3d ca 18 d3 bb
       0.022402123 0.005026318 0.03721671 -0.006442164
000070 a5 b4 01 bc 29 03 19 3d 31 33 98 bc 4c 2d 2c bc
       -0.007916604 0.03735653 -0.018579097 -0.0105088465
000080 ef 16 39 bc 54 8b b0 bc cd 6e b4 bb 24 b8 16 3d
       -0.011296972 -0.021550812 -0.0055063725 0.036796704
000090 63 f4 3c bb e7 62 ac bc 09 58 b9 bc c5 28 d6 bc
       -0.002883219 -0.021043254 -0.022624986 -0.026142487
0000a0 69 6f d6 bc 1b 12 30 3d 64 4e d2 bc 33 7b 0d 3b
       -0.026176171 0.042986017 -0.025672145 0.0021588325
0000b0 bb d0 35 3b a4 c8 68 bd 69 d0 99 bb 42 a7 1c ba
       0.0027742821 -0.05683197 -0.004694034 -0.0005975851
0000c0 7a 5f be 3c ad 79 ed bc 05 19 ea 3c 0e 4d 0e 3e
       0.023238886 -0.028988684 0.028576383 0.13896582
0000d0 d7 04 33 bd d9 53 ee 3c c7 c6 18 3c 3c c9 22 3d
       -0.043705788 0.029092716 0.009324736 0.039742693
0000e0 31 d5 e0 bb d3 f8 9c bd 23 ce 31 bd 07 4a 75 3d
       -0.006861352 -0.07664647 -0.043409478 0.05988505
0000f0 6a 7c 1e bd ec 25 f4 3c 23 8a 4e bc f1 ea 23 bd
       -0.03869287 0.029803239 -0.012606177 -0.04001898
000100 0a 88 96 bb f4 76 e9 3b c1 29 90 3c 11 c5 61 bd
       -0.004593854 0.007124776 0.017598035 -0.055119578
000110 44 bf 47 3b 7a e3 7a 3d 88 5e 51 3d 27 53 65 bc
       0.0030478993 0.061252095 0.051115543 -0.013996876
000120 b2 64 c2 bb 5a 27 c3 bc 9f 38 be 39 51 31 12 3c
       -0.005932414 -0.023822475 0.0003628181 0.008922891
000130 8e 4b 8f 3c 5b 54 01 3c 09 55 27 bd da 13 95 3c
       0.017492082 0.007893647 -0.04085258 0.018197943
000140 c0 eb 8e 3c 26 05 48 3d 7b c7 10 bd 98 85 82 bc
       0.017446399 0.048833035 -0.03534649 -0.015932843
000150 1c 69 24 3d 6a 10 9d bb 4a 3d 62 bd 22 1c bf bc
       0.040139303 -0.0047932165 -0.05523423 -0.023328844
000160 f6 ec b8 3c 2e 2d 8d 3d e4 c6 43 bd 42 c8 13 bd
       0.02257393 0.06893383 -0.0477971 -0.036079653
000170 ca d9 f8 3b 06 31 2f bd c6 68 a6 3c 52 03 13 3a
       0.007594322 -0.04277136 0.020313632 0.00056081
000180 e5 e7 38 bc f9 cc d8 3c bd 8f c7 3b 0b b1 f9 3c
       -0.011285757 0.026464926 0.006090133 0.030479928
000190 57 9e 82 3c 72 0a a1 3b 9a bb 16 bd 19 a1 a2 bc
       0.015944643 0.0049145753 -0.036800005 -0.019852208
0001a0 1c ca d6 bc 5e c5 64 3b 03 f1 4f 3b ad 86 6a bc
       -0.02621942 0.003490768 0.0031729348 -0.014314336
0001b0 09 68 90 bc c0 a3 42 bc 80 79 5c 3d df 1a f3 3c
       -0.017627733 -0.011879861 0.05382681 0.0296759
0001c0 e8 5a ee 3b 03 13 95 3b 81 5b ab bd 58 92 14 3d
       0.0072740205 0.0045493855 -0.08367062 0.036272377
0001d0 2e 95 52 3d 12 60 ea 3c 55 9d ec bc cd 52 07 3c
       0.0514118 0.028610263 -0.028883616 0.008259487
0001e0 2f b1 8e bc cd 97 25 3d 97 91 35 3c f8 e1 9e 3b
       -0.017418472 0.04042797 0.011082075 0.004848715
0001f0 5e 09 20 bc c6 13 48 bd 17 58 48 bb 7d 23 ad bb
       -0.009767858 -0.048846982 -0.0030570084 -0.0052837715
000200 17 b5 8a bb 28 36 31 3c f3 3b 3d bd df 80 09 bd
       -0.0042330134 0.0108161345 -0.04619975 -0.033570167
000210 31 ae cb bb 41 c9 6c ba b3 8e f8 3c 3c 2a 5c 3c
       -0.0062158336 -0.0009032675 0.030341482 0.013437804
000220 e2 7b 08 3c 5a e0 25 bd b4 b7 11 3b 2b b0 e5 bc
       0.008330317 -0.04049716 0.002223474 -0.028038105
000230 fb a7 07 3d 65 63 9c 3c da 00 22 3d ea 00 76 bc
       0.033119183 0.019090364 0.039551593 -0.015014866
000240 e1 5a 9c bc 33 86 72 3d 37 38 d1 bb f3 bb d1 bc
       -0.019086303 0.059210014 -0.006384875 -0.025602316
000250 3e 56 42 3b e8 db 72 3c b0 ba b5 3c 2e dc e5 3d
       0.0029653455 0.014822938 0.022183746 0.112236366
000260 f9 00 1d bc 58 e0 51 3c a7 b4 d0 3c 44 54 14 bd
       -0.009582751 0.012809835 0.025476767 -0.036213174
000270 88 d9 59 3c 15 f3 be 3c 6b fc 26 bd 1a 6e 34 bc
       0.013296492 0.02330927 -0.04076807 -0.011012578
000280 d7 cf 6a 3a 2c 97 40 3d a6 08 32 3c 60 54 ab 3c
       0.0008957362 0.04701917 0.01086632 0.020914257
000290 f5 f9 9c bc 16 34 09 3d d9 2e 8b bc 57 0f db 3c
       -0.019162158 0.03349694 -0.016990112 0.026740713
0002a0 f0 4b bb ba 59 e2 11 3c 8d 24 bd bb 05 05 4e 3c
       -0.0014289599 0.008904063 -0.0057721795 0.012574439
0002b0 c8 2b 3b 3b 3b c7 de 3c fe bc 11 bc 1d 69 aa 3c
       0.0028560031 0.02719461 -0.008895157 0.020802075
0002c0 9d c4 e8 3c 00 be 5a ba 9b 7a 12 3d 27 a9 d7 bd
       0.028414065 -0.0008344352 0.035761457 -0.1053031
0002d0 03 d1 11 bb d1 08 f8 3b 24 a6 b2 bc f0 48 ec 3c
       -0.0022249825 0.0075694104 -0.021807738 0.028843373
0002e0 0f 7c 07 3d 58 f7 8b 3c ae 5c c3 bc 95 26 1e bd
       0.033077296 0.017085716 -0.023847904 -0.038611013
0002f0 f6 08 94 3c d8 c1 b5 bb 90 ab 02 3c 7e a9 c0 bc
       0.01807068 -0.0055467896 0.007975474 -0.02351832
000300 1a c5 5b 3a d4 4c b0 bc 57 80 1b bc 4b 77 4f 3c
       0.00083835574 -0.02152101 -0.009491048 0.012662719
000310 0d 94 a0 3c a9 11 30 bc 24 fc 35 3c 14 11 a1 3b
       0.019601846 -0.010746398 0.011107478 0.004915366
000320 fb 24 52 bc 12 83 80 3b 73 98 85 3c 42 bd 26 3c
       -0.0128262 0.003921875 0.016308045 0.0101769585
000330 7d 1e 26 bd 25 a5 93 bc 4a 19 b9 bc 2d 49 25 bd
       -0.04055642 -0.018023083 -0.022595067 -0.04035299
000340 1a ec ba bc 38 5e ab bb c9 f6 c2 bc 61 ec 92 3d
       -0.02281766 -0.0052297376 -0.023799317 0.07173992
000350 26 2a 84 bd 9a e1 ae 3c bc 3b be bc 44 f8 c8 bc
       -0.06453352 0.02134781 -0.023221843 -0.024532445
000360 86 4d b8 bc 77 fb 97 bd c1 7e c4 3c ed 2c a3 3c
       -0.022497904 -0.0742101 0.023986222 0.019918883
000370 cd 5a 71 bd ed 12 7c 3c cf 9b 8d 3c 9a e2 5f 3c
       -0.058924485 0.015385372 0.01728621 0.013664866
000380 a4 85 08 3d 90 1e 62 3c 46 34 29 3c d7 dc 9b 3a
       0.033330575 0.013801232 0.010327404 0.0011891377
000390 70 61 02 bd ab 28 1f 3d 98 c3 74 bc cb 8f 4c 3d
       -0.031831205 0.038857143 -0.014939211 0.04994182
0003a0 46 46 dd 3c 14 d8 3e 3c db 03 d2 3c 6b 44 e2 bb
       0.027011048 0.011648197 0.025636604 -0.0069051287
0003b0 23 30 e1 bb b5 25 fc bc 95 1b 43 3b e9 25 c9 3c
       -0.0068721934 -0.030779699 0.002977108 0.02455421
0003c0 1a a7 2f bc b5 e4 f3 3c 03 b8 c7 bc 46 e8 6f bc
       -0.010720992 0.029772142 -0.024379736 -0.014642781
0003d0 4e a5 38 3d e0 9b d2 bc b9 f2 d4 3c e8 aa cc 3b
       0.04507952 -0.025709093 0.025994645 0.0062459596
0003e0 98 e7 bc bb 12 30 42 3c 6d 60 4b bd aa a7 b6 3b
       -0.005764913 0.011852281 -0.049652506 0.0055741863
0003f0 d7 0d 25 3c d3 ef 2a 3d 4e fd 80 bc 26 60 cd bb
       0.0100741 0.04173262 -0.015745785 -0.0062675653

actor.6.bias f4 [12]
000000 62 ce 92 bd d0 9b 8e 3d 3c 8e c8 bd b1 56 47 3d
       -0.07168271 0.069633126 -0.09792754 0.04866666
000010 82 96 cd bc 15 e0 c1 bd e2 b6 f2 3d f6 ca e1 3c
       -0.025096182 -0.094665684 0.118512884 0.0275626
000020 7a c4 c9 3d f9 ed af 3d ca d4 82 3d 3f 9f a7 3d
       0.09851928 0.085903116 0.063882425 0.08184671
