tested_policies/aliengo/data_aug_policy_feet_stumble_16k_training/exported/policy.onnx (onnx, 472343 bytes, 8 tensors)

actor.0.weight f4 [256, 260]
0.48285726 -0.24106091 -0.05158291 0.37121543 0.46342015 0.076919846 -0.22352529 -0.39590177
-0.065970354 0.22072224 0.31259844 0.07301368 -0.1134494 0.16929021 0.46784592 0.0139257265
-0.04304747 0.15085563 0.41183013 0.1813139 0.21615031 -0.2562534 1.0993202 0.032669537
0.1856057 0.11262864 -0.07154866 -0.025365818 -0.08155027 0.018889628 -0.006319251 0.010850667
-0.11392975 0.0588185 0.03244165 -0.015760904 -0.12106215 -0.22353412 0.039335463 0.22857207
0.05133406 -0.07762211 0.07811374 0.006058117 -0.040417578 -0.13678594 -0.4014681 -0.00420919
-0.21258298 0.08555709 0.079966746 -0.17144178 0.38266882 -0.25386328 0.10035977 0.24134943
0.29281858 -0.0031312872 -0.1659282 -0.42469272 -0.05705571 0.16927038 0.30526316 0.04947935
-0.056086432 0.2959218 0.41753122 0.046056643 -0.028479597 0.16983585 0.4324895 0.17759725
0.21353269 -0.07871656 1.0179411 0.055055954 0.028875047 0.10787353 0.06405123 -0.03409547
0.035405993 0.01879458 -0.021149376 0.019836545 0.022570012 -0.00016223732 0.082386576 0.06205961
-0.061097 -0.18458244 -0.04047383 0.004669872 0.025760736 0.005439025 -0.053550128 0.014777518
-0.026628893 0.009736658 -0.5853046 0.041055385 -0.16765015 0.11508891 0.10267113 -0.19338763
0.25210187 -0.21892643 0.2804705 0.3872557 0.21192603 -0.27836436 -0.2889219 -0.46848193
-0.019154416 0.17594734 0.3048609 0.07944108 0.030981474 0.3468389 0.36442903 0.08232093
0.011884845 0.15311956 0.4193573 0.2080039 0.27279094 -0.12110338 1.0760673 0.07388508
0.112462945 0.0622152 0.017933138 0.032429002 0.061860286 0.03487637 -0.0036372729 -0.010256621
-0.07320754 0.005777451 0.07822121 0.19440372 -0.0846399 -0.017860662 0.006932656 -0.038764972
-0.014337954 8.195029e-05 -0.18924138 0.05065787 -0.045995742 0.02054149 -0.8071156 0.026827976
-0.12174947 0.080924414 0.15731399 -0.16186048 -0.1725132 -0.26100978 0.32132223 0.52804184
0.29663715 0.029564286 -0.25376925 -0.498033 -0.020308286 0.12449026 0.21866287 -0.01362843
0.13626006 0.23186927 0.34781197 -0.0004415526 0.012606006 0.36963692 0.6073178 0.18497628
0.15761104 -0.11991182 1.2047217 -0.023615286 -0.0036562318 0.06198291 0.103787035 0.020808825
0.028692316 -0.01595894 0.12402866 -0.031085672 -0.050885145 -0.0020704707 0.09793138 -0.1609623
-0.11822252 -0.23539236 0.16321228 -0.24805722 -0.08335261 -0.077078156 -0.6707538 0.008424829
-0.065100715 -0.061911516 -1.3035718 -0.0054168073 -0.05989226 0.124028645 0.20126855 -0.080673404
-0.6582468 -0.64748067 -0.7686819 -0.39681077 -1.2048528 -0.050281037 -0.3538479 -0.489951
-0.01239028 0.19931687 0.090454556 -0.08203385 0.2647948 0.3258723 0.2876028 -0.18582945
0.049092237 0.59181136 0.79718536 0.100892134 0.09099474 0.035566058 1.0225842 -0.13313484
0.6361087 0.10917676 -0.26889306 0.20216581 -0.25948212 0.15852338 0.35135984 0.2636447
-0.032534216 0.080823265 0.31543258 0.21350932 -0.07114671 -0.5544778 0.45897692 -0.33924472
0.015882595 -0.34353948 -0.88537 -0.020534642 -0.08580739 -0.22005448 -1.960624 -0.0022664145
00000000: 1139 f73e acd8 76be 9a48 53bd f30f be3e
00000010: 6845 ed3e 2788 9d3d d0e3 64be a3b3 cabe
00000020: 771b 87bd 0305 623e e70c a03e 3288 953d
00000030: 2958 e8bd 6a5a 2d3e 8089 ef3e bb28 643c
00000040: 8b52 30bd e679 1a3e 66db d23e 5aaa 393e
00000050: 8256 5d3e a533 83be 86b6 8c3f 7ed0 053d
00000060: 6c0f 3e3e d8a9 e63d 1b88 92bd facb cfbc
00000070: d403 a7bd 6cbe 9a3c b811 cfbb ffc6 313c
00000080: 0054 e9bd abeb 703d 89e1 043d 031d 81bc
00000090: 6fef f7bd 21e6 64be 391e 213d cc0e 6a3e
000000a0: aa43 523d 57f8 9ebd 19fa 9f3d 2b83 c63b
000000b0: e78c 25bd 9d11 0cbe 3a8d cdbe 3fed 89bb
000000c0: 5aaf 59be 8e38 af3d 9bc5 a33d 6f8e 2fbe
000000d0: 2bed c33e 5efa 81be 6c89 cd3d 4e24 773e
000000e0: 51ec 953e 4836 4dbb 15e9 29be 5371 d9be
000000f0: 40b3 69bd 3755 2d3e 744b 9c3e dcaa 4a3d
00000100: e3ba 65bd 1083 973e a7c6 d53e e4a5 3c3d
00000110: 0b4e e9bc 73e9 2d3e 446f dd3e 0edc 353e
00000120: 50a8 5a3e 2636 a1bd e54b 823f 5a82 613d
00000130: 5d8b ec3c ccec dc3d 4b2d 833d b1a7 0bbd
00000140: e005 113d 17f7 993c 7541 adbc 4080 a23c
00000150: bfe4 b83c 401e 2ab9 4bba a83d 3832 7e3d
00000160: d940 7abd 2e03 3dbe e3c7 25bd ba05 993b
00000170: 2e08 d33c d939 b23b 6157 5bbd 671d 723c
00000180: d624 dabc 8186 1f3c 86d6 15bf b129 283d
00000190: 7bac 2bbe bcb3 eb3d 3e45 d23d 6807 46be
000001a0: 7f13 813e 402e 60be d499 8f3e 6146 c63e
000001b0: 2303 593e c685 8ebe 92ed 93be dddc efbe
000001c0: b9e9 9cbc 8a2b 343e ba16 9c3e 01b2 a23d
000001d0: dccc fd3c de94 b13e 7196 ba3e e097 a83d
000001e0: a7b8 423c 60cb 1c3e 00b6 d63e f9fe 543e
000001f0: 41ab 8b3e 0d05 f8bd 93bc 893f 1051 973d
00000200: f952 e63d 5ed5 7e3d 84e8 923c 46d4 043d
00000210: 3661 7d3d 86da 0e3d 505f 6ebb 630b 28bc
00000220: d6ed 95bd c650 bd3b 7132 a03d c511 473e
00000230: af57 adbd 8650 92bc 552b e33b 05c8 1ebd
00000240: bde9 6abc badc ab38 7ec8 41be a07e 4f3d
00000250: 0866 3cbd a046 a83c 219f 4ebf 58c6 db3c
00000260: c957 f9bd b3bb a53d eb16 213e c1be 25be
00000270: 4da7 30be 13a3 85be 5984 a43e c02d 073f
00000280: d3e0 973e cd30 f23c 0bee 81be 2efe febe
00000290: 905d a6bc c0f4 fe3d 29e9 5f3e c749 5fbc
000002a0: c287 0b3e 236f 6d3e 6914 b23e 3080 e7b9
000002b0: 6c89 4e3c 0d41 bd3e 2e79 1b3f 6c6a 3d3e
000002c0: ca64 213e 5494 f5bd 5234 9a3f d874 c1bc
000002d0: 649d 6fbb cbe1 7d3d 4c8e d43d 4577 aa3c
000002e0: 260c eb3c 53bc 82bc bd02 fe3d 61a7 febc
000002f0: f16c 50bd bcb0 07bb 3f90 c83d 4dd3 24be
00000300: a61e f2bd b20a 71be 1f21 273e b602 7ebe
00000310: c6b4 aabd 27db 9dbd 85b6 2bbf 4b08 0a3c
00000320: 8653 85bd ee96 7dbd 71db a6bf 797f b1bb
00000330: 9651 75bd bb02 fe3d 5819 4e3e 1938 a5bd
00000340: dd82 28bf 4bc1 25bf 56c8 44bf c82a cbbe
00000350: 9e38 9abf 7df3 4dbd 8d2b b5be dcda fabe
00000360: 9a00 4bbc b919 4c3e 3d40 b93d 5d01 a8bd
00000370: 2f93 873e bcd8 a63e ad40 933e 134a 3ebe
00000380: f114 493d f380 173f 5714 4c3f 89a0 ce3d
00000390: 735b ba3d b7ad 113d 0ae4 823f 8054 08be
000003a0: 05d8 223f 1198 df3d 5aac 89be 8e04 4f3e
000003b0: d7da 84be f453 223e 70e5 b33e 70fc 863e
000003c0: 9942 05bd ab86 a53d 6180 a13e 30a2 5a3e
000003d0: 5eb5 91bd 42f2 0dbf 06ff ea3e 7cb1 adbe
000003e0: 371c 823c 68e4 afbe 9ca7 62bf 4438 a8bc
000003f0: c9bb afbd f655 61be baf5 fabf 2088 14bb

actor.0.bias f4 [256]
-0.02406828 0.072634436 -0.11319432 -0.23929618 -0.12199248 0.007867893 0.0873115 -0.0121413
0.14125769 -0.19572245 0.033863377 -0.19875254 -0.14275637 0.007218006 -0.12166621 0.06539062
-0.0016043091 -0.033530526 0.24914679 -0.10029435 -0.19109645 0.026492413 0.0045430735 -0.20902912
-0.016076405 -0.19975002 0.14902322 0.059729844 0.181544 0.07062328 0.08070679 -0.20489341
0.1221883 0.072322465 -0.07715599 0.039490826 0.09761113 -0.102286056 0.052376848 0.123220704
-0.18579698 -0.15405537 0.16690408 -0.049488522 -0.1535927 -0.13607125 -0.0710894 0.008425477
-0.07774527 -0.27593833 0.27767217 -0.14528061 -0.013102327 -0.09254172 -0.30405626 0.0461948
0.122358 -0.18020403 -0.13272963 0.07306849 -0.31087914 -0.034616083 -0.20716803 -0.2558168
-0.31652504 -0.07003281 0.12772094 -0.058766212 0.18289822 0.20160392 0.084531136 0.057950262
-0.01914918 -0.08157381 0.4923748 -0.01645275 -0.073843874 0.14056349 -0.2020267 -0.09992082
-0.12990542 0.0012765293 -0.018783858 -0.21454345 0.13274159 0.36226723 0.28968534 -0.19982274
-0.28309235 -0.08347043 0.056506537 -0.072400466 0.13661012 -0.13671789 -0.11097647 0.03904173
-0.3321229 0.14088252 0.10196637 -0.20264089 0.2636793 -0.23399419 0.08792956 -0.15844288
-0.099191934 -0.075408764 -0.078123026 0.15310113 0.17999467 -0.18837957 -0.24306864 -0.27021393
0.12919623 -0.15913627 0.06530167 -0.061238505 0.009479373 -0.07826317 -0.18005733 0.07241656
-0.22672799 -0.12755446 -0.02722381 -0.0033216425 -0.029284077 0.10239766 -0.09591253 -0.25808832
-0.004026573 -0.09528158 -0.1399845 0.011336339 -0.154974 -0.018561617 -0.14777476 -0.17644474
-0.058131166 -0.09955047 -0.22940016 0.15584557 0.12511237 0.18426839 -0.08145919 -0.114277504
-0.12742293 -0.03646245 0.15033638 -0.001471501 -0.084476 -0.1166714 -0.08076345 -0.18202925
0.0132629825 -0.17719023 -0.043766614 -0.03560944 -0.33356053 -0.19782388 0.108748816 0.042219117
-0.02721851 -0.096245125 -0.21900645 -0.08360393 0.18295196 0.10782215 -0.039348524 -0.082063116
-0.019493593 -0.16428289 -0.19985037 0.009168084 0.22192405 0.24943127 -0.20623267 0.18289983
-0.1684907 -0.11225573 0.20017207 0.3451535 0.051861092 -0.02429107 0.040114198 -0.104450874
0.24707913 -0.15203936 -0.1200395 0.22552617 -0.025698703 -0.1348027 -0.22479483 -0.07805357
-0.00032207445 -0.079596244 0.013198229 -0.2838012 0.17171 0.20382212 0.14029051 -0.11312584
-0.17915195 -0.050541244 0.025478916 -0.019093474 0.29065016 -0.07560731 -0.2060871 -0.051253837
0.003660681 -0.1236128 0.28080422 -0.07250686 -0.09068697 -0.0056689903 0.0050690398 -0.0700109
0.056759294 -0.18184172 -0.036277726 -0.010960005 0.07091401 0.18713607 0.1572847 0.05876152
0.063525006 0.009776911 0.06545603 -0.08542537 -0.32319796 -0.019921206 -0.1503712 -0.07239966
0.046259034 0.016253157 0.10572024 0.16067766 0.13847864 -0.028019788 -0.1663654 -0.13167638
-0.12124944 0.09759912 -0.164099 -0.035794947 -0.114784524 0.07893214 0.09104364 -0.19324107
-0.09893692 -0.0385551 0.034220576 -0.11482053 0.07013533 -0.06833824 0.22662535 0.0624597
00000000: d72a c5bc 5dc1 943d 6cd2 e7bd 0f0a 75be
00000010: 31d7 f9bd 56e8 003c 5fd0 b23d 4eec 46bc
00000020: dba5 103e 776b 48be 53b4 0a3d c985 4bbe
00000030: ba2e 12be 0685 ec3b 222c f9bd 84eb 853d
00000040: ae47 d2ba 4e57 09bd 5620 7f3e 2067 cdbd
00000050: caae 43be 9e06 d93c 10de 943b bb0b 56be
00000060: aab2 83bc 458b 4cbe 8b99 183e 48a7 743d
00000070: ace6 393e f0a2 903d 9a49 a53d 94cf 51be
00000080: dc3d fa3d cd1d 943d f603 9ebd 22c1 213d
00000090: 58e8 c73d 5a7b d1bd 1b89 563d 235b fc3d
000000a0: 9041 3ebe b1c0 1dbe e7e8 2a3e 7ab4 4abd
000000b0: 6847 1dbe 4356 0bbe 5297 91bd 030b 0a3c
000000c0: ea38 9fbd ca47 8dbe 0c2b 8e3e 71c4 14be
000000d0: 24ab 56bc 8386 bdbd 43ad 9bbe c236 3d3d
000000e0: d596 fa3d 6887 38be 47ea 07be efa4 953d
000000f0: 8d2b 9fbe 98c9 0dbd db23 54be 6bfa 82be
00000100: 920f a2be 5d6d 8fbd 47c9 023e d7b4 70bd
00000110: ac49 3b3e 4271 4e3e a91e ad3d 415d 6d3d
00000120: bede 9cbc 2b10 a7bd 8d18 fc3e ebc7 86bc
00000130: 753b 97bd e0ef 0f3e 16e0 4ebe 49a3 ccbd
00000140: ed05 05be 3751 a73a 9be0 99bc 47b1 5bbe
00000150: 69ed 073e 177b b93e a351 943e 559e 4cbe
00000160: 7bf1 90be 8bf2 aabd 6673 673d b246 94bd
00000170: 86e3 0b3e c6ff 0bbe a247 e3bd 39ea 1f3d
00000180: 030c aabe 8243 103e bfd3 d03d 1881 4fbe
00000190: f900 873e 2c9c 6fbe 6a14 b43d da3e 22be
000001a0: 2425 cbbd e96f 9abd f7fe 9fbd 8bc6 1c3e
000001b0: 8650 383e 93e6 40be fce6 78be 7b59 8abe
000001c0: 044c 043e 9ef4 22be e2bc 853d 3ad5 7abd
000001d0: 5f4f 1b3c 7148 a0bd f360 38be 224f 943d
000001e0: 622b 68be a39d 02be 7804 dfbc eaaf 59bb
000001f0: 29e5 efbc ddb5 d13d ca6d c4bd 2724 84be
00000200: 58f1 83bb fd22 c3bd 1958 0fbe 0dbc 393c
00000210: 81b1 1ebe 880e 98bc 4452 17be eead 34be
00000220: f21a 6ebd 1ee1 cbbd e0e7 6abe fb95 1f3e
00000230: 751d 003e dab0 3c3e 13d4 a6bd 530a eabd
00000240: 287b 02be a659 15bd c8f1 193e 61df c0ba
00000250: c101 adbd 6af1 eebd 4f67 a5bd e065 3abe
00000260: fb4c 593c 5b71 35be 9f44 33bd 34db 11bd
00000270: 72c8 aabe 5892 4abe b3b7 de3d f4ed 2c3d
00000280: 5af9 debc 2a1c c5bd 3a43 60be 8a38 abbd
00000290: c257 3b3e dcd1 dc3d eb2b 21bd b510 a8bd
000002a0: 07b1 9fbc c639 28be 93a5 4cbe bb35 163c
000002b0: 0f40 633e e96a 7f3e a82e 53be 184a 3b3e
000002c0: d388 2cbe 55e6 e5bd e8f9 4c3e f6b7 b03e
000002d0: 4c6c 543d 11fe c6bc c94e 243d 57ea d5bd
000002e0: 5002 7d3e 35b0 1bbe 45d7 f5bd 55f0 663e
000002f0: 1686 d2bc b809 0abe 9e30 66be 8dda 9fbd
00000300: 1adc a8b9 5b03 a3bd 623d 583c 644e 91be
00000310: bfd4 2f3e bfb6 503e 51a8 0f3e 85ae e7bd
00000320: 9c73 37be 5604 4fbd 29b9 d03c eb69 9cbc
00000330: 19d0 943e 01d8 9abd 7f08 53be 8bef 51bd
00000340: 09e8 6f3b b528 fdbd 92c5 8f3e 7a7e 94bd
00000350: 17ba b9bd f0c2 b9bb 301a a63b e061 8fbd
00000360: 6f7c 683d b734 3abe f497 14bd 9891 33bc
00000370: 5d3b 913d 99a0 3f3e 3e0f 213e ebaf 703d
00000380: 6619 823d 562f 203c d00d 863d 7ff3 aebd
00000390: 347a a5be cc31 a3bc e8fa 19be 4646 94bd
000003a0: 1d7a 3d3d 5725 853c da83 d83d af88 243e
000003b0: 58cd 0d3e c189 e5bc b15b 2abe 2cd6 06be
000003c0: a051 f8bd 0ce2 c73d 9109 28be b99d 12bd
000003d0: 2614 ebbd 2ca7 a13d 1775 ba3d fde0 45be
000003e0: 719f cabd f4eb 1dbd e02a 0c3d 0727 ebbd
000003f0: 1da3 8f3d ebf4 8bbd 7a10 683e bed5 7f3d

actor.2.weight f4 [128, 256]
0.0135504715 -0.09910098 -0.05381492 0.041707583 0.07761666 -0.08846333 0.08371223 -0.04620675
-0.19768544 -0.15009233 0.08700328 -0.21922383 -0.06308057 -0.14262864 0.12845416 -0.14750364
0.0722444 0.1965247 -0.21912694 -0.1525438 0.14613263 -0.47928774 -0.12687005 0.02825806
0.12160914 0.13043301 0.06357885 -0.060845017 -0.012967422 -0.05190771 0.080465116 0.15534633
0.1480491 -0.16877022 0.3841568 -0.03051715 0.06625658 -0.011982781 0.06542686 -0.068633825
0.12175353 -0.0112099815 -0.11220002 -0.21764861 0.17345592 -0.0064824503 -0.35620287 0.08206449
-0.0020950104 -0.14506152 -0.2507304 0.16075012 -0.23954225 0.13656776 -0.014758216 -0.03023519
0.1541007 -0.34478113 0.095986456 0.22849116 0.19878426 0.09153693 0.051477924 -0.05182379
0.1285942 -0.094500914 0.24363098 0.15737657 0.19001581 -0.084231645 0.06039538 -0.097925454
-0.19499108 -0.05836897 -0.12352426 -0.33271226 0.15323572 -0.2036047 0.0134686325 -0.099979736
0.29543766 0.14364687 -0.024738112 0.035406563 -0.09904874 -0.21549161 -0.15641594 -0.09553563
-0.08690634 0.08872438 0.093986124 -0.39179778 0.020096622 0.009560412 0.2762877 0.089719355
0.07594476 0.26372942 0.11810316 -0.091093935 -0.104234815 0.16936995 -0.12361317 0.17620012
-0.04088451 0.09527558 -0.08697062 -0.19544089 -0.032822795 -0.28479564 -0.118714824 0.068681724
0.09944683 0.0072701843 -0.14426224 -0.30010206 0.072463535 -0.06178972 0.08633793 0.066669814
-0.061404053 0.057620745 -0.17889634 0.10302649 -0.053492874 -0.054292846 -0.1511289 -0.060912088
-0.11025108 -0.13295266 0.22193858 -0.1369154 -0.06776936 0.38933018 -0.04880303 0.21643321
-0.055852108 -0.14072305 -0.2581662 -0.07730965 -0.14151762 -0.060623642 -0.18480068 0.07864593
-0.23484068 0.15085301 -0.20517448 -0.0068085976 -0.56520486 0.20339388 -0.12182571 0.14303102
-0.30878472 0.29896784 -0.04531484 -0.02589469 0.0536102 -0.3026513 -0.06912791 0.08738602
-0.2436371 -0.17159463 -0.0051637026 -0.26560852 -0.17851202 -0.23409386 -0.05823792 -0.18310124
0.018039575 0.24036095 0.054016903 -0.19886062 0.30688542 0.11517977 -0.33807725 0.23274398
0.11318709 0.50289524 -0.14440082 -0.073735826 -0.3184622 0.059454497 -0.035902828 0.14511074
0.06766863 -0.009382288 -0.07791823 -0.013283049 -0.13772379 0.31238195 -0.027857298 0.24943076
-0.09580812 -0.031570867 -0.084501795 -0.050666183 -0.012658494 0.025883825 0.0060390965 -0.018822445
-0.058046505 -0.14263664 -0.24045469 0.3942513 -0.13193788 -0.20133105 -0.44174188 -0.013604219
0.030321905 -0.14893828 -0.18498199 0.205935 0.011911123 -0.026842132 -0.18745741 0.108313695
-0.29049644 0.1305221 0.34341663 -0.043803073 0.09749223 0.14633593 -0.10289758 0.1125178
-0.0050419006 -0.19310743 -0.06910866 -0.14057124 0.19003153 0.13441926 0.07755183 -0.045146234
-0.05918927 -0.3916162 0.066929474 0.064031705 0.03259072 0.33393413 0.57075965 0.33714205
-0.02785717 -0.10981535 0.07566819 0.18404359 0.008016719 -0.18677963 -0.09100764 0.0065061348
0.008591155 0.056503538 -0.052728914 -0.049122132 0.034762327 0.05938685 -0.18704134 0.12147621
00000000: cc02 5e3c 74f5 cabd 096d 5cbd 92d5 2a3d
00000010: 7cf5 9e3d 432c b5bd 5171 ab3d 4a43 3dbd
00000020: 0d6e 4abe ceb1 19be c72e b23d 367c 60be
00000030: 6330 81bd 3e0d 12be 7d89 033e 320b 17be
00000040: dff4 933d c53d 493e d062 60be 7134 1cbe
00000050: cba3 153e 3465 f5be 39ea 01be 727d e73c
00000060: 360e f93d 3b90 053e a135 823d a038 79bd
00000070: 4f75 54bc 2e9d 54bd e5ca a43d 1c13 1f3e
00000080: 2f9a 173e 1ad2 2cbe 33b0 c43e 1aff f9bc
00000090: 88b1 873d 6d53 44bc 84fe 853d e48f 8cbd
000000a0: ea59 f93d 12aa 37bc 20c9 e5bd 47df 5ebe
000000b0: 6e9e 313e bc6a d4bb 3960 b6be 6d11 a83d
000000c0: 714c 09bb 028b 14be bc5f 80be ae9b 243e
000000d0: 904a 75be 6bd8 0b3e 72cc 71bc caaf f7bc
000000e0: 93cc 1d3e 2787 b0be 8c94 c43d 96f9 693e
000000f0: 1a8e 4b3e b777 bb3d 84da 523d 2f45 54bd
00000100: 33ae 033e b289 c1bd 667a 793e 5327 213e
00000110: 8193 423e a481 acbd 2561 773d 248d c8bd
00000120: beab 47be 4d14 6fbd 4afa fcbd 4359 aabe
00000130: d3e9 1c3e c07d 50be 8aab 5c3c 2dc2 ccbd
00000140: 9b43 973e 2a18 133e 95a7 cabc 7906 113d
00000150: 11da cabd d5a9 5cbe 802b 20be 2fa8 c3bd
00000160: f4fb b1bd 21b5 b53d cc7b c03d b899 c8be
00000170: aca1 a43c 46a3 1c3c 9575 8d3e c8be b73d
00000180: ed88 9b3d 8b07 873e 12e0 f13d 758f babd
00000190: 1079 d5bd 516f 2d3e e728 fdbd ce6d 343e
000001a0: 8476 27bd d81f c33d a71d b2bd a821 48be
000001b0: 3271 06bd bcd0 91be c220 f3bd 01a9 8c3d
000001c0: c8aa cb3d ba3a ee3b 7bb9 13be faa6 99be
000001d0: c367 943d 3817 7dbd f1d1 b03d 2f8a 883d
000001e0: d182 7bbd bb03 6c3d 9a30 37be 8dff d23d
000001f0: 581b 5bbd 2d62 5ebd 89c1 1abe f47e 79bd
00000200: 51cb e1bd be24 08be de43 633e 8d33 0cbe
00000210: aaca 8abd 4956 c73e b0e5 47bd aba0 5d3e
00000220: 2ec5 64bd b419 10be 5c2e 84be 8654 9ebd
00000230: ffe9 10be 7f50 78bd 643c 3dbe 1e11 a13d
00000240: 137a 70be 3679 1a3e 4219 52be a81a dfbb
00000250: 44b1 10bf 7c46 503e c27f f9bd b976 123e
00000260: 0819 9ebe 5012 993e 0e9c 39bd 1a21 d4bc
00000270: 5e96 5b3d 1cf5 9abe ef92 8dbd 71f7 b23d
00000280: 017c 79be 81b6 2fbe 4734 a9bb d7fd 87be
00000290: dbcb 36be 4db6 6fbe e38a 6ebd e47e 3bbe
000002a0: bbc7 933c 2e21 763e d440 5d3d 1ea2 4bbe
000002b0: 1620 9d3e 5fe3 eb3d 7618 adbe 7054 6e3e
000002c0: a2ce e73d bebd 003f cfdd 13be cf02 97bd
000002d0: 7a0d a3be 8f86 733d d80e 13bd e997 143e
000002e0: da95 8a3d 2bb8 19bc 9893 9fbd 25a1 59bc
000002f0: 7707 0dbe 87f0 9f3e fd34 e4bc c76a 7f3e
00000300: 0c37 c4bd 7450 01bd 470f adbd 5887 4fbd
00000310: 9265 4fbc 510a d43c 9de3 c53b 8731 9abc
00000320: 2cc2 6dbd 570f 12be c139 76be 4edb c93e
00000330: b91a 07be ba29 4ebe fe2b e2be 3be4 5ebc
00000340: a565 f83c 4783 18be eb6b 3dbe a0e0 523e
00000350: df26 433c 08e4 dbbc d6f4 3fbe 92d3 dd3d
00000360: f3bb 94be 96a7 053e 4ed4 af3e da6a 33bd
00000370: 02aa c73d 16d9 153e f7bb d2bd bb6f e63d
00000380: 8736 a5bb f4bd 45be d788 8dbd e8f1 0fbe
00000390: a097 423e 34a5 093e 7ed3 9e3d 42eb 38bd
000003a0: 7370 72bd eb81 c8be 5212 893d 0e23 833d
000003b0: d97d 053d 6af9 aa3e 4e1d 123f e29d ac3e
000003c0: b834 e4bc dfe6 e0bd edf7 9a3d ec75 3c3e
000003d0: 8e58 033c 2943 3fbe 3762 babd 6a31 d53b
000003e0: eac1 0c3c 4170 673d 46fa 57bd 4a34 49bd
000003f0: f162 0e3d a03f 733d c487 3fbe 85c8 f83d

actor.2.bias f4 [128]
-0.19480096 -0.18378328 -0.17007755 -0.07249685 -0.13167682 -0.41271463 -0.14298229 -0.09241338
-0.12512678 0.017915023 -0.12739421 -0.42126805 -0.044851232 -0.31945884 -0.02432065 -0.24731766
-0.059609514 -0.029380722 -0.24647772 -0.15681788 -0.20526357 -0.22359625 -0.17418724 -0.18605529
0.004071495 -0.07430169 -0.039167814 -0.19761209 -0.15627028 -0.29638293 -0.07342095 -0.43609497
-0.16569667 0.042660102 -0.12777871 -0.19129097 -0.14252329 -0.07689589 0.06820179 -0.27981752
-0.14251024 -0.2476695 -0.062489595 -0.06993279 -0.09399756 -0.17479587 -1.0035216 -0.3455435
-0.14239807 0.21886726 -0.06607266 -0.08536534 -0.1277977 -0.21190397 -0.16460189 -0.14588304
-0.09193262 -0.16016643 -0.15135443 -0.30887407 0.21511018 -0.13063583 -0.12035846 -0.22994846
0.024806613 -0.3505672 -0.16803657 -0.08436369 -0.39051113 0.04699672 -0.09324283 0.006549617
-0.07705084 -0.12208467 -0.15576169 -0.06525192 -0.45022047 -0.53456587 -0.8373893 -0.40634072
0.020928299 -0.22767611 -0.36372095 -0.12712207 -0.01178078 0.021456307 -0.39863253 -0.2028399
-0.026637917 -0.11506901 -0.1566288 -0.37100375 -0.17108648 -0.04393066 0.17882712 -0.08439495
-0.10514668 -0.05101927 -0.07244935 -0.084424965 -0.1318299 -0.8105413 -0.8848343 -0.10874016
-0.14614664 0.06725994 -0.0800768 -0.1833446 -0.23008148 -0.19868545 -0.04364505 -0.1600433
0.209583 -0.2815599 -0.1499213 -0.10787634 -0.15817887 -0.2675466 -0.14793363 -0.12237605
-0.099500746 -0.21397845 -0.115835436 -0.23414712 -0.18893382 -0.002377895 0.07674813 -0.09288051
00000000: e779 47be af31 3cbe cf28 2ebe 3a79 94bd
00000010: 4ad6 06be 554f d3be f369 12be 3a43 bdbd
00000020: 3c21 00be 87c2 923c a173 02be 72b0 d7be
00000030: edb5 37bd 1c90 a3be 1a3c c7bc d740 7dbe
00000040: 1b29 74bd d7af f0bc a864 7cbe de94 20be
00000050: 9d30 52be 6af6 64be 245e 32be 4785 3ebe
00000060: 2d6a 853b 7c2b 98bd 6e6e 20bd d35a 4abe
00000070: 5105 20be 81bf 97be b95d 96bd d747 dfbe
00000080: 63ac 29be 5cbc 2e3d 6cd8 02be c8e1 43be
00000090: a0f1 11be 987b 9dbd 61ad 8b3d 3e44 8fbe
000000a0: 34ee 11be 139d 7dbe 17f5 7fbd ec38 8fbd
000000b0: cb81 c0bd b0fd 32be 6573 80bf 14eb b0be
000000c0: cdd0 11be bd1e 603e 1a51 87bd 06d4 aebd
000000d0: 66dd 02be 5bfd 58be 668d 28be 5d62 15be
000000e0: 2b47 bcbd ab02 24be a8fc 1abe be24 9ebe
000000f0: d845 5c3e 66c5 05be 7f7e f6bd 9c77 6bbe
00000100: 3d37 cb3c 8b7d b3be c711 2cbe dfc6 acbd
00000110: 13f1 c7be a27f 403d 19f6 bebd 2b9e d63b
00000120: d5cc 9dbd 8707 fabd fe7f 1fbe cca2 85bd
00000130: 4c83 e6be 4fd9 08bf 255f 56bf e40b d0be
00000140: d371 ab3c ed23 69be a239 babe 4a2c 02be
00000150: 2c04 41bc 23c5 af3c 9019 ccbe 43b5 4fbe
00000160: c337 dabc 4da9 ebbd 4d63 20be 34f4 bdbe
00000170: 4b31 2fbe a3f0 33bd 751e 373e 42d7 acbd
00000180: 2457 d7bd 95f9 50bd 5360 94bd ffe6 acbd
00000190: 6bfe 06be a27f 4fbf 8084 62bf 29b3 debd
000001a0: 77a7 15be 94bf 893d 4eff a3bd b0be 3bbe
000001b0: 7b9a 6bbe 3374 4bbe 27c5 32bd 64e2 23be
000001c0: ed9c 563e 9f28 90be f884 19be 45ee dcbd
000001d0: a4f9 21be defb 88be ea7b 17be 4ba0 fabd
000001e0: 0cc7 cbbd 2b1d 5bbe 213b edbd 43c4 6fbe
000001f0: de77 41be 75d6 1bbb 202e 9d3d 2338 bebd

actor.4.weight f4 [128, 128]
-0.085678995 0.14922866 -0.1611905 -0.03411253 0.06480506 0.16657408 0.017899984 0.09991436
0.1427236 0.05506658 0.027426928 0.008641232 0.01563823 0.0584751 -0.10419531 0.03561854
-0.034333833 0.12977701 0.088444576 0.093613885 -0.06991891 -0.120204 0.0049384637 -0.060318198
-0.035381034 -0.0076134223 0.14107718 0.010618878 0.0037662722 0.19870217 -0.13307397 -0.07403284
-0.012642188 -0.038933173 0.04034184 0.08196925 0.0065678093 0.10544459 0.15866084 -0.09446625
-0.23001027 -0.062218226 0.08060347 0.10995888 0.013960403 -0.074175864 0.17198716 0.14196932
0.07487354 -0.29582936 -0.03050991 0.19720046 -0.076863214 -0.052722126 -0.18155321 -0.057064686
0.012393337 -0.030874938 0.11693259 0.15242259 0.010598977 0.34526324 -0.1276849 -0.16485475
0.17291462 0.124401264 0.158779 0.13405205 0.08402933 0.004942148 0.022263896 -0.1334425
0.00865075 -0.08152321 0.09093357 -0.0075742165 -0.02815114 -0.010611191 0.02804476 -0.12433925
-0.08845206 0.12136939 0.014097989 0.14223824 0.22474048 -0.032314144 0.09716354 -0.035261534
-0.27057773 -0.06385162 0.054237362 -0.3499729 0.2932307 -0.020109111 -0.18954884 -0.019322408
-0.10878639 0.07392431 -0.022179607 0.02390653 0.00060368195 0.34931213 0.05110257 0.08413738
0.07694641 -0.04285371 -0.15226132 0.111329176 0.06723752 0.17482711 0.0020193094 -0.13442203
0.019494906 0.022545092 -0.1798566 0.12343434 -0.079851136 0.076282315 -0.087190226 -0.1445287
-0.21036927 0.36704648 -0.005564434 0.14968278 -0.03249318 0.07691625 -0.10802654 0.0034824512
-0.008654145 0.10466279 0.09367921 0.057380967 0.07044658 0.028283216 -0.009102631 0.030715365
-0.059271336 0.03792669 0.12031976 -0.054678127 0.23326813 0.25488675 0.04905426 -0.015548009
-0.1535824 -0.34122887 0.010359492 0.098828 -0.016421633 0.07407674 0.00434882 -0.01753665
-0.054807536 0.25421974 0.25177565 -0.0282761 -0.00023588637 0.27758524 -0.03417801 0.117167115
0.0020909086 0.23638488 0.054773387 0.09787656 -0.093286306 -0.06381629 0.01808859 0.028463513
0.056460273 -0.23398876 0.10479797 0.23106554 -0.17956463 0.052091323 0.086043134 0.029187618
0.011750394 -0.1466019 -0.15494257 -0.08530369 -0.07967297 0.06008093 -0.021490857 0.018211018
-0.039356224 -0.010297877 0.07357026 0.27666515 0.009619115 0.25648528 0.017099045 0.1069462
0.038168833 0.25402918 0.25514534 0.029355088 0.15815026 -0.2307584 0.18629175 -0.053748947
0.08216324 -0.13572277 -0.092771806 -0.055649083 0.19078787 0.07234618 0.04547568 -0.05376187
0.16601144 0.20737866 0.1609929 0.05004221 0.04903026 -0.30681592 0.13543214 0.012949857
0.010876019 0.053669427 -0.056881294 0.13743305 0.048883352 -0.08409133 0.008707695 0.10632911
0.06185712 -0.13707659 -0.035626873 -0.011863955 -0.13623267 0.043983154 0.09003262 -0.06506388
0.05334488 0.16729522 -0.33807614 0.12294663 -0.0142278 0.09270687 0.002623968 0.117822774
-0.14634952 -0.23515226 -0.004939113 0.05818285 0.0015026054 -0.0018057304 0.057102878 0.057595544
-0.13810532 0.0143003445 0.080972835 -0.018164694 0.21023364 0.010951896 -0.23153956 -0.05807958
00000000: 7878 afbd 66cf 183e 1f0f 25be 95b9 0bbd
00000010: 84b8 843d 6592 2a3e fda2 923c e69f cc3d
00000020: 2326 123e 7f8d 613d 70ae e03c f493 0d3c
00000030: bf1b 803c 9683 6f3d 5a64 d5bd bfe4 113d
00000040: a2a1 0cbd 44e4 043e 6e22 b53d a3b8 bf3d
00000050: a531 8fbd 842d f6bd d6d2 a13b 3710 77bd
00000060: b4eb 10bd 047a f9bb 8976 103e cdfa 2d3c
00000070: 90d3 763b 9578 4b3e 8b44 08be 889e 97bd
00000080: 2e21 4fbc 6478 1fbd 7c3d 253d 7fdf a73d
00000090: c736 d73b 55f3 d73d fd77 223e 8577 c1bd
000000a0: d087 6bbe 8ad8 7ebd 6f13 a53d 1f32 e13d
000000b0: 2dba 643c 84e9 97bd 671d 303e 6860 113e
000000c0: 4c57 993d f276 97be ebef f9bc ebee 493e
000000d0: 766a 9dbd 28f3 57bd 16e9 39be a9bc 69bd
000000e0: 6c0d 4b3c 70ed fcbc 5b7a ef3d ab14 1c3e
000000f0: 55a7 2d3c 58c6 b03e d5bf 02be afcf 28be
00000100: 8810 313e 17c6 fe3d f696 223e f144 093e
00000110: 9217 ac3d bef1 a13b c662 b63c 27a5 08be
00000120: e0bb 0d3c a4f5 a6bd 613b ba3d 2231 f8bb
00000130: 389d e6bc 90da 2dbc 20be e53c 94a5 febd
00000140: 5b26 b5bd 8490 f83d 40fb 663c e7a6 113e
00000150: 5e22 663e d65b 04bd aefd c63d 666e 10bd
00000160: 2a89 8abe a3c4 82bd ff27 5e3d a62f b3be
00000170: 5622 963e ddbb a4bc 1719 42be 074a 9ebc
00000180: 66cb debd a165 973d 02b2 b5bc a1d7 c33c
00000190: 6940 1e3a 0ad9 b23e ee50 513d 3850 ac3d
000001a0: 1496 9d3d 5f87 2fbd 64ea 1bbe 8d00 e43d
000001b0: d3b3 893d e105 333e 6456 043b eea5 09be
000001c0: c8b3 9f3c 7cb0 b83c 542c 38be 25cb fc3d
000001d0: fe88 a3bd e739 9c3d ca90 b2bd 55ff 13be
000001e0: 0b6b 57be 84ed bb3e db55 b6bb 7146 193e
000001f0: 9217 05bd 4486 9d3d 053d ddbd d639 643b
00000200: 1dca 0dbc 7259 d63d e3da bf3d 4e08 6b3d
00000210: 4c46 903d 34b2 e73c 3423 15bc ca9e fb3c
00000220: 80c6 72bd 0459 1b3d 356a f63d 2cf6 5fbd
00000230: d7dd 6e3e 8480 823e 1fed 483d 14bd 7ebc
00000240: b444 1dbe 8db5 aebe dcba 293c 5666 ca3d
00000250: a986 86bc 8cb5 973d 8c80 8e3b 05a9 8fbc
00000260: de7d 60bd 1729 823e bde8 803e 48a3 e7bc
00000270: 4458 77b9 a71f 8e3e 3efe 0bbd 50f5 ef3d
00000280: a007 093b e10e 723e 0f5a 603d 8273 c83d
00000290: e40c bfbd 1db2 82bd 862e 943c 502c e93c
000002a0: e342 673d c09a 6fbe 51a0 d63d 729c 6c3e
000002b0: cadf 37be b65d 553d 6237 b03d df1a ef3c
000002c0: b984 403c cf1e 16be 44a9 1ebe b3b3 aebd
000002d0: 952b a3bd 6c17 763d 980d b0bc 462f 953c
000002e0: fe33 21bd 6db8 28bc 01ac 963d 0ea7 8d3e
000002f0: 7e99 1d3c 0a52 833e 4c13 8c3c 9c06 db3d
00000300: ec56 1c3d 1d10 823e 69a2 823e 157a f03c
00000310: 24f2 213e ee4b 6cbe 44c3 3e3e db27 5cbd
00000320: 3345 a83d e9fa 0abe 25ff bdbd 4bf0 63bd
00000330: e55d 433e 3c2a 943d b544 3a3d 6835 5cbd
00000340: e7fe 293e 125b 543e 53db 243e 0ff9 4c3d
00000350: f4d3 483d fa16 9dbe b9ae 0a3e a32b 543c
00000360: 5431 323c 79d4 5b3d 5cfc 68bd 40bb 0c3e
00000370: e939 483d 1338 acbd b8aa 0e3c 14c3 d93d
00000380: e45d 7d3d ce5d 0cbe 7ced 11bd 0961 42bc
00000390: 9480 0bbe ae27 343d 0663 b83d 3640 85bd
000003a0: 2980 5a3d 704f 2b3e 5118 adbe 71cb fb3d
000003b0: b81b 69bc 19dd bd3d e1f6 2b3b 114d f13d
000003c0: a6dc 15be c1cb 70be 48d8 a1bb 2451 6e3d
000003d0: 12f3 c43a 42ae ecba b5e4 693d 4ee9 6b3d
000003e0: 7b6b 0dbe fe4b 6a3c 16d5 a53d 20ce 94bc
000003f0: 7d47 573e 956f 333c b518 6dbe dbe4 6dbd

actor.4.bias f4 [128]
-0.17799433 -0.25557837 -0.030902887 -0.12308621 -0.15024848 -0.13330951 -0.1676973 -0.06963523
-0.085275024 -0.08901483 -0.18319249 -0.26121324 -0.2680883 -0.16777578 -0.022312216 0.20110822
-0.22768334 -0.22926354 -0.14132848 -0.036008246 -0.08575678 -0.10680324 -0.24995416 -0.12031272
-0.22188807 -0.06070047 0.105862826 -0.12570192 0.0525546 0.023760822 -0.14492488 -0.11455524
0.038718175 -0.048765656 -0.065228604 -0.2271858 -0.113530405 -0.009005842 -0.25229156 -0.305747
-0.08974752 -0.2872257 -0.056596916 0.043625496 -0.37266508 -0.07590689 -0.13107128 -0.18114562
-0.27210972 -0.3280679 -0.31849548 0.028155208 0.036777813 -0.13853839 -0.25655776 0.036341965
-0.37666136 -0.13164723 -0.3991834 -0.23981483 -0.35164776 -0.23745957 -0.3877608 -0.1777562
0.025439998 -0.28178847 0.057312794 -0.086521804 -0.21489619 -0.12680408 0.051471215 0.013146864
-0.4905843 0.021924088 -0.38193008 -0.25388148 -0.124268964 -0.05430861 -0.18920618 -0.26801187
-0.28568965 -0.3551299 -0.18517677 -0.053535394 -0.10458411 -0.1989624 -0.3048262 -0.10615432
0.050781466 -1.0656344 0.1731924 -0.057760652 -0.032417797 -0.1481685 -0.10571897 -0.26510406
0.094396465 -0.16759083 -0.026312217 -1.1006628 -0.18163359 -0.07718953 -0.17892252 -0.20837927
-0.022347115 -0.111075886 -0.15431488 -0.2603377 -0.21478023 -0.3688368 -0.5164063 -0.13640454
0.02426176 -0.20567301 -0.039667353 -0.19414419 -0.19240163 -0.06058296 -0.18423481 -0.27062884
-0.1705543 -0.22904065 0.08061482 -0.13864593 -0.034367684 -0.17321157 -0.13515565 -0.053945445
00000000: 2544 36be 2bdb 82be 0d28 fdbc 9f14 fcbd
00000010: bdda 19be 4a82 08be d7b8 2bbe ea9c 8ebd
00000020: aca4 aebd 684d b6bd d096 3bbe bebd 85be
00000030: df42 89be 6acd 2bbe 1cc8 b6bc 50ef 4d3e
00000040: d225 69be 10c4 6abe 6ab8 10be 627d 13bd
00000050: 40a1 afbd a8bb dabd fcf3 7fbe 8466 f6bd
00000060: a036 63be 0ea1 78bd 9cce d83d 01b8 00be
00000070: 7e43 573d 0ea6 c23c 3067 14be f09b eabd
00000080: f396 1e3d 7fbe 47bd 9396 85bd 65a3 68be
00000090: a182 e8bd 3d8d 13bc 5c2c 81be df8a 9cbe
000000a0: 8ccd b7bd 3f0f 93be 2bd2 67bd a6b0 323d
000000b0: f5cd bebe 1275 9bbd 8d37 06be 3d7e 39be
000000c0: f751 8bbe 84f8 a7be d711 a3be c0a5 e63c
000000d0: 55a4 163d 02dd 0dbe 8a5b 83be 50db 143d
000000e0: c2d9 c0be 88ce 06be c461 ccbe 0592 75be
000000f0: 2d0b b4be 9a28 73be 9588 c6be b905 36be
00000100: 8b67 d03c 9446 90be d2c0 6a3d 5832 b1bd
00000110: bf0d 5cbe eed8 01be 7bd3 523d f265 573c
00000120: de2d fbbe 259a b33c 578c c3be c1fc 81be
00000130: ba80 febd b472 5ebd 44bf 41be da38 89be
00000140: ea45 92be 96d3 b5be fb9e 3dbe ee47 5bbd
00000150: 3230 d6bd cdbc 4bbe 2e12 9cbe 7067 d9bd
00000160: 3a00 503d b566 88bf 5959 313e 6f96 6cbd
00000170: 86c8 04bd 7cb9 17be 3083 d8bd b8bb 87be
00000180: ef52 c13d ee9c 2bbe b88c d7bc 85e2 8cbf
00000190: 28fe 39be 8b15 9ebd 7737 37be 6061 55be
000001a0: 4c11 b7bc c17b e3bd b804 1ebe fc4a 85be
000001b0: 59ef 5bbe 2dd8 bcbe 3433 04bf a2ad 0bbe
000001c0: 99c0 c63c f29b 52be 3c7a 22bd bccd 46be
000001d0: ef04 45be d625 78bd 0da8 3cbe dd8f 8abe
000001e0: c9a5 2ebe a289 6abe 6219 a53d 33f9 0dbe
000001f0: 21c5 0cbd 605e 31be 3e66 0abe e6f5 5cbd

actor.6.weight f4 [12, 128]
-0.016021758 0.0026235888 0.0034526782 0.01058511 0.0072695175 -0.0011642798 -0.003960398 0.06112178
0.018589187 -0.030761497 -0.00053555635 0.01756212 -0.014283098 0.00479845 -0.0045474647 -0.0031218608
0.025763009 0.004126345 -0.024453014 -0.0012718351 -0.0060598915 -0.0068004252 0.024165258 -0.012107877
-0.0030174688 -0.015439794 -0.0067949146 0.0071649174 0.0010486592 0.0034815124 0.037569854 0.0037634
0.0030309507 -0.00047493595 -0.021006979 0.02068767 0.019669103 0.01679971 -0.020536087 -0.0005552528
0.0054930085 -0.0026923732 0.026164122 0.003186203 0.015153126 -0.019005075 -0.012616571 -0.009400497
0.038814373 0.015359409 -0.0185014 -0.00015617286 -0.0016040315 -0.014301289 -0.0013781465 0.017880226
0.017792743 0.0053056735 -0.02924115 -0.012224101 0.003920745 -0.0002457596 -0.015155304 -0.00041880438
0.002861537 -0.009887407 0.020270709 -0.00043998953 -0.002450978 -0.022634404 -0.0019689666 0.017927455
-0.0028506157 0.0033832039 0.0048457263 0.016289188 -0.036819726 -0.0025828537 0.06800005 0.039265934
0.011249494 -0.0064612203 -0.018773096 -0.0047778115 -0.0019227564 0.0054706614 0.0095954165 -0.031485252
-0.0028732165 0.05649665 -0.0065744095 0.02911903 -0.021273695 -0.013680276 -0.03614022 -0.012455241
-0.0006419861 -0.008910193 0.011155901 0.009054589 -0.0044080517 -0.08015688 0.028450659 -0.04077693
-0.0013857173 0.015039121 -0.013818951 0.007860506 0.00032645877 -0.013027022 0.020260096 -0.0077839834
0.0021159619 -0.013846972 -0.0016681823 -0.019899225 0.010877602 0.0006665055 0.007889313 0.012097278
-0.022595009 0.02192817 -0.0012229267 0.01452511 0.00089014083 -0.006360333 -0.045090772 0.0057439343
0.0029546288 -0.0027658674 -0.0039689806 -0.010764699 0.014054682 0.0021501298 0.006081709 -0.00573114
-0.028620837 -0.01503385 -0.06801684 0.0011848187 -0.007831121 0.004101588 -0.017050862 0.0031723212
-0.016145967 0.0010044731 0.045717727 3.9952865e-05 -0.0038134258 -0.0074095884 0.012865068 -0.0036584944
0.016310206 0.0047997036 0.006572958 0.0065696924 -0.02046619 0.0015418557 -0.014480713 0.011897538
-0.0004000642 -0.025963841 0.0024829046 -7.337759e-05 0.013535889 0.003979877 0.012139951 -0.011580141
0.03592195 -0.038784277 0.0010070106 0.0027531874 0.015325369 0.08057855 -0.005108018 0.007803003
0.0028847384 0.018587336 -0.014621229 -0.018121963 0.003314523 -0.019796025 -0.017771928 -0.0034524612
0.029143319 0.012899574 -0.017707821 0.020739978 0.0059560374 -0.020919938 -0.015296517 -0.0042002583
0.0018343569 -0.009499937 -0.001293318 -0.0010127207 -0.008227543 0.002327375 0.0010566832 0.00023628016
-0.020295255 -0.017873093 0.013163276 -0.025863426 0.031691436 0.020914862 0.0009931845 -0.01175755
0.0008882443 -0.004016458 0.019266898 0.015226292 0.022426132 -0.005590109 0.009633324 0.036109302
0.00016705056 -0.009093128 -0.0017099971 -0.018446593 -0.011800876 -0.0071434476 -0.0051212944 -0.024310857
-6.2986815e-05 0.013999593 0.020976663 -0.05652541 -0.004906837 0.018899461 0.022600606 -0.02244146
-0.0012592515 0.030675564 0.009077064 0.014526273 -0.0024845097 -0.0045583285 0.0027346846 0.009476164
-0.00014809155 -0.011265689 -0.0011747474 0.01875507 0.013588413 0.00460916 0.0024056504 -0.039557487
-0.028758127 0.040719 -0.0047173193 -0.037597813 0.00070699805 0.0039056994 0.024024514 -0.06126311
00000000: 1040 83bc 84f0 2b3b 5446 623b 2b6d 2d3c
00000010: 2235 ee3b bf9a 98ba 3ac6 81bb d55a 7a3d
00000020: 5a48 983c 89ff fbbc 9464 0cba 6fde 8f3c
00000030: a803 6abc 513c 9d3b e602 95bb 2298 4cbb
00000040: f20c d33c 4a36 873b b051 c8bc b4b3 a6ba
00000050: 0e92 c6bb 1ad6 debb 38f6 c53c 1e60 46bc
00000060: bac0 45bb 31f7 7cbc e0a7 debb afc7 ea3b
00000070: 2a73 893a 162a 643b d9e2 193d 60a3 763b
00000080: eaa2 463b d300 f9b9 d416 acbc 3079 a93c
00000090: 1921 a13c 8c9f 893c 4c3b a8bc 628e 11ba
000000a0: b2fe b33b 8772 30bb 2456 d63c 9ecf 503b
000000b0: d144 783c 88b0 9bbc bcb5 4ebc 8b04 1abc
000000c0: d2fb 1e3d 08a6 7b3c 3f90 97bc 55c2 23b9
000000d0: 5e3e d2ba f44f 6abc eca2 b4ba 8d79 923c
000000e0: 16c2 913c 37db ad3b 238b efbc 9947 48bc
000000f0: 9879 803b 4cd9 80b9 f44d 78bc f992 dbb9
00000100: a088 3b3b cafe 21bc c20e a63c 65ae e6b9
00000110: 96a0 20bb c96b b9bc c709 01bb 99dc 923c
00000120: 65d1 3abb beb8 5d3b e6c8 9e3b e770 853c
00000130: 48d0 16bd 1845 29bb 9c43 8b3d 51d5 203d
00000140: cc4f 383c a5b8 d3bb 09ca 99bc 308f 9cbb
00000150: 0005 fcba 3c43 b33b 1836 1d3c aef6 00bd
00000160: 934c 3cbb 0869 673d 256e d7bb 088b ee3c
00000170: 2c46 aebc 3d23 60bc c407 14bd 1111 4cbc
00000180: f54a 28ba 0ffc 11bc 3dc7 363c b359 143c
00000190: 6b71 90bb 4a29 a4bd 5b11 e93c b605 27bd
000001a0: f5a0 b5ba a566 763c e268 62bc 5ac9 003c
000001b0: 8e28 ab39 4a6f 55bc 80f8 a53c c910 ffbb
000001c0: f3ab 0a3b 69de 62bc e9a6 daba b303 a3bc
000001d0: f837 323c 6db8 2e3a 2d42 013c a933 463c
000001e0: 2b19 b9bc b5a2 b33c 9c4a a0ba bafa 6d3c
000001f0: 5758 693a 576a d0bb 1ab1 38bd 9d37 bc3b
00000200: 72a2 413b 8e43 35bb 390e 82bb 6c5e 30bc
00000210: 9c45 663c 31e9 0c3b 1349 c73b 49cc bbbb
00000220: 3f76 eabc 8a50 76bc 6a4c 8bbd eb4b 9b3a
00000230: 1a4e 00bc 9d66 863b 40ae 8bbc b8e6 4f3b
00000240: 8c44 84bc 86a8 833a 8342 3b3d 1093 2738
00000250: abea 79bb 22cc f2bb 02c8 523c 5ac3 6fbb
00000260: fb9c 853c d546 9d3b f861 d73b 9346 d73b
00000270: b6a8 a7bc 1818 ca3a 8340 6dbc e4ed 423c
00000280: b5bf d1b9 1fb2 d4bc 3ab8 223b 4be2 99b8
00000290: a2c5 5d3c a169 823b a5e6 463c a2ba 3dbc
000002a0: e522 133d 43dc 1ebd abfd 833a d26e 343b
000002b0: 4217 7b3c 5e06 a53d 2961 a7bb 55b0 ff3b
000002c0: e10d 3d3b 7844 983c e18d 6fbc 8374 94bc
000002d0: 7838 593b 462b a2bc 6f96 91bc b042 62bb
000002e0: f8bd ee3c bc58 533c fe0f 91bc e3e6 a93c
000002f0: dd2a c33b 4a60 abbc 3e9e 7abc 52a2 89bb
00000300: ce6e f03a a0a5 1bbc 8d84 a9ba 45bd 84ba
00000310: d1cc 06bc e086 183b 6880 8a3a f9c1 7739
00000320: 3c42 a6bc 986a 92bc c8aa 573c 89df d3bc
00000330: e1ce 013d a555 ab3c be2d 823a bda2 40bc
00000340: 11d9 683a 7e9c 83bb 9dd5 9d3c b377 793c
00000350: 02b7 b73c 3c2d b7bb 17d5 1d3c 59e7 133d
00000360: 4b2a 2f39 58fb 14bc fb21 e0ba 4f1d 97bc
00000370: 7658 41bc 9513 eabb 88d0 a7bb 9027 c7bc
00000380: ca17 84b8 8d5e 653c 40d7 ab3c 3087 67bd
00000390: 88c9 a0bb 0bd3 9a3c e824 b93c 27d7 b7bc
000003a0: 780d a5ba 524b fb3c f7b7 143c 9bff 6d3c
000003b0: 28d3 22bb 085e 95bb 6538 333b ea41 1b3c
000003c0: 0649 1bb9 b993 38bc fbf9 99ba 3ca4 993c
000003d0: efa1 5e3c 7008 973b 1ea8 1d3b 0807 22bd
000003e0: 2a96 ebbc f7c8 263d be93 9abb 2a00 1abd
000003f0: d655 393a c3f6 7f3b 0fcf c43c 07ef 7abd

actor.6.bias f4 [12]
-0.08537721 0.08609169 -0.17851153 0.17852235 -0.04994733 -0.049074914 0.132584 0.13239475
0.2821512 0.28329787 0.39182022 0.3907487
00000000: 3fda aebd d750 b03d bacb 36be 90ce 363e
00000010: 9295 4cbd c702 49bd 1ac4 073e 7d92 073e
00000020: 1f76 903e 6b0c 913e a99c c83e 3710 c83e
