tested_policies/aliengo/aliengo_symmetricactor/exported/policy.onnx (onnx, 273175 bytes, 8 tensors)

actor.0.weight f4 [128, 260]
000000 45 57 84 3d 54 02 41 3e ea 64 6d 3f 22 be 4f be
       0.06461958 0.18848544 0.9273211 -0.20287374
000010 e3 dc 93 3e e9 7e a4 be 28 e1 13 3e 73 a6 e1 3e
       0.2887946 -0.32128075 0.14441359 0.44072303
000020 e0 51 90 bc a9 01 ae bc 55 e8 1f 3f 68 78 29 3e
       -0.017617166 -0.021241026 0.62463886 0.16549838
000030 4a 9c 5e be 1a a2 11 3e ad 67 06 3f 53 e5 1a bf
       -0.21739307 0.14221993 0.52501947 -0.6050617
000040 6e e1 42 bd 0e 99 40 3e 15 60 63 3e 52 15 f6 3e
       -0.047578268 0.18808386 0.22204621 0.4806314
000050 6a b3 1b 3e ec e9 b2 bd 9f 0f ff 3d c2 fb b8 3e
       0.1520516 -0.08736023 0.12454151 0.36129576
000060 6e d9 17 3e a1 81 1e be b4 73 68 3c 93 97 e9 3d
       0.14829037 -0.15479137 0.014187742 0.114058636
000070 1b ca 90 bd 3e 8c a1 3d c9 59 01 3e 2d 4d 7c bd
       -0.070697986 0.07888077 0.12631907 -0.061597038
000080 43 e7 0c bc b0 f8 5d bd e9 e7 66 3d b1 83 4a bd
       -0.008600059 -0.054192245 0.05637351 -0.049441997
000090 51 83 ef bd 83 31 31 3e 6b ec 0e bb 7b 31 07 be
       -0.116949685 0.17304043 -0.0021808397 -0.13202469
0000a0 cc d6 3b 3d e6 dd 2b ba 37 2d 87 bd 3f f0 b0 3d
       0.045859143 -0.0006556198 -0.06600421 0.08639573
0000b0 10 dc 7a be a6 f7 12 3d 90 e8 b3 3d 5c f0 58 be
       -0.2449801 0.035880707 0.08784592 -0.2118544
0000c0 46 9b f2 bc 2a 83 02 bf 3e c9 ea be 5d 58 f0 3c
       -0.029615056 -0.5098139 -0.4585666 0.02933901
0000d0 78 4d 3f 3e 12 06 30 3e ec 41 41 3f 30 6a 3d bd
       0.18681896 0.17189816 0.75491214 -0.046243846
0000e0 36 11 7b 3d ec ee 8d bc ab fe 0e 3e bc 0a b9 3e
       0.06129571 -0.01732584 0.13964336 0.36141002
0000f0 da 26 bb bd bc a6 1b bd 03 c0 43 3f 37 38 36 3e
       -0.0913827 -0.038000807 0.7646486 0.17794882
000100 c5 01 79 be 7c 9b 69 3e 44 a6 d9 3e c2 b0 2a bf
       -0.24317081 0.22813219 0.42509663 -0.6667596
000110 3f 7d 89 3c a1 2e 64 3e 7c a2 5b 3e bf 3b e5 3e
       0.016783355 0.22283413 0.21448702 0.44772145
000120 56 9b 35 3e df cf ab bd 51 39 f2 3d c3 0f ce 3e
       0.17735037 -0.08389258 0.118273385 0.402464
000130 6d 9b 09 3d 94 f0 b1 3c ed 03 16 be 4e 9c fa 3a
       0.03359549 0.021721162 -0.14649935 0.0019120069
000140 6b 37 b0 39 b0 96 6c 3c 07 bc eb bc 5f 65 49 3d
       0.00033610626 0.014440224 -0.028776182 0.04916894
000150 c3 3c bb 3d b1 37 6a 3c 23 1b d3 bc f2 92 1e bd
       0.09142449 0.014295504 -0.025769776 -0.038714357
000160 7e c4 01 3e ef c5 0e 39 02 60 d1 bd 5e b6 5a be
       0.12672612 0.00013615911 -0.1022339 -0.2135863
000170 7a af 54 3c c4 18 0c 3e e9 6b a9 3d da 59 3e bc
       0.01298129 0.13681322 0.08272535 -0.011618102
000180 28 f0 91 be a9 6b 79 3d c0 a2 7a bc 1b 0f 80 bd
       -0.28503537 0.06089369 -0.015297592 -0.06252881
000190 93 2c f6 3c a4 ec 8c be f7 7b 93 be bd 15 36 3d
       0.030050552 -0.27524292 -0.28805515 0.044454325
0001a0 14 14 63 3e 96 bd 7f 3e b6 d8 4b 3f bc a8 28 be
       0.22175628 0.24974665 0.7962755 -0.16470617
0001b0 fb 4b 14 be 7c fc f8 3c c1 d7 3d 3e a8 f7 ca 3e
       -0.14482109 0.030393831 0.18539335 0.39642072
0001c0 49 0d c9 bc ae 19 d5 3d b2 67 6c 3f 3b 95 68 3d
       -0.024542468 0.10405289 0.92345726 0.056782942
0001d0 cf d3 ac be f3 87 3e 3e 9a 17 de 3e d9 57 14 bf
       -0.33755347 0.18606548 0.43377382 -0.57946545
0001e0 c0 42 24 bd 73 ee 4f 3e 13 77 0d 3e e4 eb d2 3e
       -0.04010272 0.20305805 0.13814954 0.41195595
0001f0 0f 40 6b 3e 50 66 be bd 12 29 eb 3d 33 d5 eb 3e
       0.22973655 -0.09296858 0.11482443 0.46061096
000200 ca 11 9a 3c c7 c0 ed bd 6d c6 b1 bd d9 1d 34 bc
       0.01880731 -0.11609035 -0.08680425 -0.010993444
000210 1c 32 ce bc 73 b7 07 be 12 ac 57 be 93 6f af bc
       -0.025170378 -0.13253574 -0.21061733 -0.021415507
000220 a0 d4 26 bd f2 e2 04 3d 7b 24 91 bd ce 3e 5b 3b
       -0.04073012 0.032442994 -0.07087036 0.0033454183
000230 18 0e 83 3e 46 53 04 bd dc fb e4 bd 59 03 87 3d
       0.2559669 -0.03230598 -0.11180851 0.065924354
000240 fb 48 54 3d ab 86 88 bd e0 ee b8 3d aa 7b c9 bd
       0.051827412 -0.06666311 0.09029937 -0.0983804
000250 4f dd da be fc 8d 6d 3d 2a 7e fe bc 21 8c 2f bd
       -0.4274697 0.057996735 -0.03106602 -0.042858247
000260 e9 93 6c 3d b2 f0 ca be 83 d9 d4 be a8 1c 79 3d
       0.057758246 -0.3963676 -0.41572198 0.060818344
000270 c4 e9 94 3e 36 2c 02 3f 06 80 c6 3e 8c e1 9e bc
       0.290846 0.5084871 0.3876955 -0.019394659
000280 ca 0d 68 3d 18 e0 84 bd bf a3 7d 3e d0 e8 c5 3e
       0.056653775 -0.06488055 0.24769495 0.38654184
000290 4c 32 a3 bc db e5 d2 3e 1a 52 9f 3f ec b1 b8 3d
       -0.019921444 0.4119099 1.244693 0.09018311
0002a0 e3 c8 b4 be b5 e0 39 3e 0e 8b d3 3e 7c fd 24 bf
       -0.35309514 0.18152125 0.41317028 -0.64449286
0002b0 84 13 e6 3c 8c aa 19 3e 0a d4 8a 3e 5d d5 ad 3e
       0.028085478 0.15006465 0.27114898 0.33951846
0002c0 14 98 2b 3e d9 fc 04 be 73 8d f5 bc 93 d7 cd 3e
       0.16757232 -0.12987079 -0.029974675 0.40203533
0002d0 64 ea 0c bd bb 96 a1 be 11 a1 f0 3c 9c b7 b6 3d
       -0.03440322 -0.3156031 0.029373677 0.089217395
0002e0 c5 e0 d1 bc c1 36 84 bd fc 53 da 3c a9 8c 88 bc
       -0.025619874 -0.06455756 0.026651375 -0.016668634
0002f0 50 47 41 3c 11 87 0f 3d 24 b6 2e 3c eb 28 6a bd
       0.011796787 0.03504092 0.010663543 -0.05716793
000300 fa 16 da bd 33 eb 9e bc 26 eb 6d be fe ef 1c 3e
       -0.10648914 -0.019399261 -0.23234233 0.15325925
000310 ac 05 07 bc 10 e3 70 3d ff 3e bc 3e ea 6e 50 be
       -0.008241098 0.058810294 0.36766812 -0.2035481
000320 95 04 44 bf 52 db 2b 3d da 0c 38 bd 08 b9 61 be
       -0.7656949 0.041957207 -0.04493413 -0.2204324
000330 19 da 1b 3e de 09 3a be 56 33 d3 bd ed 72 03 3e
       0.15219916 -0.18167827 -0.10312526 0.1283681
000340 56 ae 02 3f 8e 14 68 3f e7 cf c8 bf a0 49 c7 be
       0.51047266 0.90656364 -1.5688447 -0.3892336
000350 5a 57 2f 3f 58 d6 0d 3f 60 ce e9 3e b3 14 b7 3e
       0.6849266 0.5540519 0.45665264 0.3575798
000360 52 67 53 bd ae 4e 75 3f 81 25 c0 3f 8a a9 bc bd
       -0.051612206 0.9582318 1.5011445 -0.092120245
000370 2e 9d 75 be 70 9e a0 3d a5 53 00 3f c8 01 16 bf
       -0.2398574 0.078427196 0.5012763 -0.5859647
000380 cb 25 c3 3d 3d e6 3b 3e d6 57 83 3e 8e b2 ce 3e
       0.09528693 0.18349548 0.2565295 0.403706
000390 bb 62 05 3e 07 21 2a be 34 34 17 bd 8a fc b3 3e
       0.13025944 -0.16614161 -0.03691502 0.3515361
0003a0 eb ff 4a 3d 5d 3b 82 3c e2 0c c8 3e bc 7e 1d be
       0.04956047 0.015897447 0.3907233 -0.15380377
0003b0 58 54 a5 bc 0f d9 39 be d1 63 8e be a2 48 89 3d
       -0.02018182 -0.18149208 -0.2781053 0.06703307
0003c0 1b d6 a4 3d 40 e6 29 be f4 b6 94 be 2f 8c 72 3e
       0.0804865 -0.1659174 -0.29045832 0.23686288
0003d0 a5 78 b3 3e ef 98 3c 3b 58 ab c7 be 33 09 4c bc
       0.35052982 0.002877768 -0.38997912 -0.012453365
0003e0 04 1e 26 bd 92 1b 12 3e bf 67 4c 3e 34 5b 26 bf
       -0.04055597 0.1426833 0.19961451 -0.64982915
0003f0 d3 1c af bf 44 6d d7 3d 26 97 aa bd 20 d2 89 bf
       -1.3680671 0.10518888 -0.083296105 -1.076725

actor.0.bias f4 [128]
000000 67 7b 2d 3d 07 41 69 3c 74 54 01 3d a1 ed cd 3d
       0.042354014 0.014236695 0.03157468 0.1005509
000010 c8 9f 90 3e f9 fc 95 be 82 64 f9 bd 59 94 8b 3d
       0.28246903 -0.29294565 -0.121773735 0.068154044
000020 f8 0b 9e bd f3 15 0f 3e 2c 8d 17 3c 4d 65 47 be
       -0.077171266 0.13973217 0.009249967 -0.19472237
000030 33 43 9c bc 36 b9 94 3d df 93 d6 be 82 df c2 bd
       -0.019075012 0.07261889 -0.41909692 -0.09515287
000040 e9 71 67 3c b7 4c c7 3c 20 5e 9d 3c 8d 21 57 be
       0.014126279 0.024328573 0.019209921 -0.21008892
000050 03 44 ad 3d 5c fb 88 be 96 37 25 3e e2 e2 1d 3e
       0.08460238 -0.26754272 0.16134486 0.1541858
000060 44 a5 33 be 4e 45 93 3d f9 41 a0 3c 5a 28 31 bd
       -0.17543513 0.07190953 0.019562708 -0.043251373
000070 77 0e f3 3b e8 66 6d 3d a2 1d 31 be 94 44 94 3d
       0.007417496 0.057959467 -0.1729646 0.07239643
000080 b5 93 82 be 90 28 fe 3d 74 bd 0d be 74 12 45 3d
       -0.25503317 0.124100804 -0.13841802 0.0481133
000090 ee 20 39 3d 3b 44 be bd e7 9f ef bd 5b af 49 be
       0.04519742 -0.09290358 -0.11700421 -0.19695799
0000a0 37 b8 2c be 64 2c 6c 3d b9 ae 15 3d eb 6f 61 be
       -0.16867147 0.05765952 0.03654358 -0.2201535
0000b0 82 b4 ff 3d 07 f0 8e 3c d0 ab 0b be 53 ea c2 bd
       0.12485601 0.017448438 -0.1363976 -0.0951735
0000c0 fd b8 98 be cd d7 5a bd d1 ea 87 3c 26 fb 89 bd
       -0.29828635 -0.05342846 0.016591461 -0.06737356
0000d0 d7 7c e2 bd 4c 38 05 3c b6 6d 69 bd 8d e5 10 3e
       -0.110589676 0.008131098 -0.056989394 0.14150067
0000e0 77 6a 33 bd 3c 4c 09 be 9e ac 62 bd ab 80 16 3c
       -0.043802705 -0.13407987 -0.0553404 0.00918595
0000f0 cf 8c d4 3c 40 05 50 3d a3 cc 1a 3e 83 70 03 3c
       0.025946049 0.050786257 0.15117125 0.00802243
000100 2e 11 86 3e 9a 16 93 3d b8 cf f0 be 34 20 b0 bd
       0.26184982 0.07182045 -0.47033477 -0.08599892
000110 8c 76 d6 bd 49 81 b6 bd 0f 6a 2c bd 2b 8a 04 be
       -0.1047183 -0.08911378 -0.042093333 -0.12943332
000120 91 fc 6f bc d5 13 f4 be 1b 5d 89 bd 28 6b 1c be
       -0.014647619 -0.4767138 -0.067072116 -0.15275252
000130 6f 7f d3 3c 77 39 e5 bd 7b 24 47 3d 43 e3 ca bc
       0.025817601 -0.11192601 0.048618775 -0.02476657
000140 16 3e 96 be e8 70 34 3d 27 9b 2c 3d f2 4a 49 bc
       -0.29344243 0.04405299 0.042140152 -0.012285935
000150 c0 31 f1 3d d5 d1 cb 3d 43 38 f0 3d 52 58 ce 3c
       0.11777067 0.09952132 0.11729481 0.025188599
000160 e9 3e a7 3a 1e d5 04 be 48 46 19 3d 69 27 10 be
       0.0012759838 -0.12971923 0.03742054 -0.14077534
000170 ab b8 5b be d3 87 89 be bf f8 6b 3c 94 9b 21 3e
       -0.21457164 -0.26861438 0.014402567 0.15782005
000180 40 6c 7e 3e 9a bf 2e be 60 90 b1 3c 62 ce 2b be
       0.24845982 -0.17065278 0.021675289 -0.16777948
000190 29 d1 c4 bd 59 49 5d 3d 68 63 28 3b 66 91 8e bd
       -0.09610207 0.054025028 0.0025694016 -0.06961326
0001a0 a3 30 96 bc 6c 7d 86 be 81 1e f1 3e 01 f0 79 be
       -0.018333739 -0.26267564 0.47093585 -0.2440796
0001b0 41 ad 82 3d e8 22 1b 3d 7d 0c 3b 3c 6f 75 14 3e
       0.06380702 0.037875086 0.011416552 0.14497922
0001c0 e4 63 e4 bd c5 77 72 3b 74 50 f9 3c ae dd cf 3d
       -0.11151865 0.0036997658 0.03043387 0.10149704
0001d0 a4 85 17 be 2f e9 3c 3d 11 fe 8e bd d1 13 69 3d
       -0.14797074 0.04612082 -0.06982053 0.056903664
0001e0 8f ab 22 bd 4f 14 4a bd d3 01 5a be 22 94 8c 3d
       -0.039714392 -0.049335774 -0.21289758 0.068641916
0001f0 ab 7f 0d 3e 43 30 13 3d dc f0 5c be 7c b7 d2 3e
       0.13818233 0.035934698 -0.21576256 0.41155612

actor.2.weight f4 [128, 128]
000000 99 6e ec bc 65 25 c2 bd 45 19 98 be 09 e1 d9 be
       -0.02886133 -0.09479789 -0.2970678 -0.425545
000010 77 12 af bd 5a b9 10 3e 03 bb 1d bd d4 4d cb bd
       -0.08548444 0.14133206 -0.038508426 -0.09926954
000020 11 bb c7 3b 16 07 bc be 80 31 d5 bd 67 4a 29 3e
       0.006095298 -0.36724156 -0.10409832 0.16532288
000030 da 54 0b bd 49 05 11 3e 23 8e 8f 3e 2e 84 91 3d
       -0.034016468 0.14162172 0.2803813 0.071052894
000040 bb 16 09 be 02 77 8b bd 6e 77 4e bd df 38 2c 3b
       -0.13387577 -0.06809808 -0.050406866 0.0026279015
000050 b3 33 26 3d 24 31 25 3e 28 c5 e8 be 15 cc 72 3e
       0.040576648 0.16132027 -0.45462918 0.23710664
000060 4e 68 02 be 13 ec 2b be 57 cd 3b 3c 9b ae f9 be
       -0.12735102 -0.16789274 0.011462531 -0.48766026
000070 f1 9e e0 bd 86 83 ff be ed 5a 60 be 90 79 e5 3d
       -0.10967816 -0.49905032 -0.21909685 0.11204827
000080 7d 6f 9c 3d e3 14 a3 bc 8b de a7 3d 9f bb 0b 3d
       0.07638452 -0.01990742 0.081967436 0.034114476
000090 58 55 4d bd 03 17 52 bd 08 80 2b be 8d 42 70 3e
       -0.05013022 -0.051291477 -0.16748059 0.23462887
0000a0 0b 1d 0a 3d be a3 99 3d 48 8e 92 bc 48 d0 2b 3e
       0.033719104 0.075019345 -0.01789011 0.16778672
0000b0 f5 11 02 be 1f 0b 8b 3d bc ee 6c bc 0f e5 90 3d
       -0.12702163 0.067892306 -0.014461216 0.070749395
0000c0 3a 76 8f 3c 4c 7a 20 be 6e 50 21 3e 8c 5a 84 3c
       0.01751243 -0.15671653 0.15753338 0.016156457
0000d0 04 d2 e3 bd a9 43 28 be c5 ef 36 3d 1a 44 e8 3d
       -0.11124042 -0.1643206 0.044662256 0.11341114
0000e0 c4 da 2e 3e c0 6f 8b 3c 2f d0 65 bd 74 36 a7 bd
       0.1707564 0.01702106 -0.056106742 -0.08164683
0000f0 e9 00 9c be 03 bf a8 bd 00 5a aa be ae 86 c0 bd
       -0.30469444 -0.082395576 -0.3327179 -0.09400688
000100 5e 5d 8d 3e cb 90 42 bd ad aa 32 bc 7a 2d 5e 3e
       0.27610296 -0.047501367 -0.01090495 0.21697035
000110 bf 35 cf bd 86 51 92 3c 37 a1 5d be 9c 65 0f be
       -0.10117673 0.017861139 -0.2164353 -0.14003605
000120 36 a4 b8 3d 57 d9 77 be ec da af 3d 55 2a 24 be
       0.09015696 -0.24204002 0.08586678 -0.16031773
000130 a2 dc 0c be c3 40 96 3d eb d9 d9 3c 4e cf 88 bd
       -0.1375604 0.07336571 0.02659317 -0.06680165
000140 b1 b5 b4 bd 9b 99 9b bd df c0 da bd 9b 11 89 3c
       -0.088237174 -0.07597657 -0.106813185 0.016732028
000150 1d cf 8a 3d 0a af 42 3d 3b 6a 2c 3e 1d e6 45 be
       0.06777785 0.04753021 0.16837399 -0.19326063
000160 8f 3a 60 3c 03 c7 f2 bc ca 4c a6 be 3b 6b 65 be
       0.013685836 -0.029635912 -0.3248046 -0.22404186
000170 2c ea 3d be de 13 48 3e 93 fd 1c 3e 30 7f a3 3d
       -0.1854636 0.19538829 0.15331106 0.079832435
000180 39 7f 96 3d 15 78 ef 3c 0f 48 73 bd bc 0c 22 be
       0.073484845 0.029232064 -0.059394892 -0.1582517
000190 ae 65 76 3e af e7 93 bd 7a 87 63 be 25 25 04 be
       0.24062225 -0.072219245 -0.22219649 -0.12904795
0001a0 17 96 8e be 57 3c 81 bc f4 8f 68 be a0 91 49 3e
       -0.27848884 -0.015775843 -0.22711164 0.19684458
0001b0 f4 49 ce bd 40 4c 07 be 48 c8 4c be a0 32 bd 3d
       -0.10072699 -0.13212681 -0.19998276 0.092381716
0001c0 0c df a2 3d 29 b0 22 3e c9 20 72 3d ad ab a6 bd
       0.07952699 0.15887512 0.059113298 -0.08138213
0001d0 e6 a3 22 be d1 58 0e be 21 33 4b bd a4 f2 e5 3d
       -0.15882835 -0.13901068 -0.049609307 0.11227921
0001e0 4f f1 d1 3b 6c d8 52 bd b2 f0 35 be 7c 09 47 3e
       0.00640694 -0.051475927 -0.17767599 0.19437212
0001f0 29 ad 03 3e 51 b5 2c bd b3 f9 a2 3d 46 eb 60 3d
       0.12859024 -0.042165104 0.079577826 0.054911874
000200 1e 63 4c 3e a1 93 88 3d ac ba 0a be 5e b0 30 bd
       0.19959685 0.06668783 -0.13547772 -0.043136947
000210 de c7 18 be c4 e8 7e 3e ab 35 f9 3d 02 67 c4 be
       -0.14919993 0.2489348 0.121684395 -0.3835984
000220 d8 5b 0b 3e 45 e0 ef 3d fb 5a 4a 3e 68 1c 89 be
       0.13609254 0.11712698 0.19761269 -0.26779485
000230 21 c3 1a 3e 43 fa 95 3d 84 58 a7 bd 01 4f 11 3e
       0.15113498 0.07323124 -0.0817118 0.14190294
000240 c7 b6 da 3e c4 50 a7 3e c0 5e 8c bc 8f 02 fe 3b
       0.42717573 0.32678807 -0.017135024 0.00775177
000250 95 ed 1b bc 1b ed 54 3e 64 9f cf 3d 29 08 48 bd
       -0.009517093 0.20793574 0.10137823 -0.048835907
000260 17 1c 81 bd dd f4 27 be 8b 37 5f 3d da 14 75 3e
       -0.06304186 -0.16402002 0.05449633 0.23933735
000270 84 e7 ae bc 0e 72 a5 3d cf 78 92 3d 87 36 df 3b
       -0.02135063 0.08078395 0.07151949 0.00681192
000280 4a 33 89 bd fe 1a be bd 0c de 44 3e 02 5d 4c bc
       -0.06699236 -0.09282492 0.19225329 -0.012473347
000290 ec b4 f3 bd e1 b5 ae bd f4 98 fd bd f1 57 91 3e
       -0.118997425 -0.085307844 -0.12382689 0.28387406
0002a0 6d 95 bc 3e 88 8e ea 3b bb fe d5 bd cd 71 a4 3e
       0.36832753 0.0071581043 -0.104489766 0.32118073
0002b0 37 21 41 bd 50 be df 3d a3 27 bc 3b 8e 79 84 be
       -0.047150817 0.10924971 0.0057420298 -0.2587399
0002c0 11 4e 16 3e 46 06 d8 bd b4 01 02 be 61 15 d0 3c
       0.14678217 -0.105480716 -0.12695962 0.02540082
0002d0 00 23 09 3e 3c 67 d5 3b 4c 9e 4d bd 3d b6 2d 3e
       0.13392258 0.0065125506 -0.05019979 0.1696405
0002e0 85 c1 9b bd 4d 79 2c be 73 9b 28 be b9 e7 c9 3d
       -0.0760527 -0.16843148 -0.16465549 0.09858651
0002f0 5f d0 61 3e 00 9e 44 be f9 59 38 3d 93 d7 7f be
       0.22052144 -0.19200897 0.04500768 -0.24984579
000300 fd 6b 0a 3e 9f 6c 6c ba 65 cf 2c be ba 6d 1a 3d
       0.13517757 -0.00090188714 -0.1687599 0.0377023
000310 cb 2e 89 3e bd 3a e3 bc 9d 92 41 be 49 a0 43 3e
       0.26793513 -0.02773797 -0.18903585 0.19104113
000320 2a e0 08 be cb 08 c6 3d cc 3e 9e be 18 2b 47 3e
       -0.13366762 0.09669646 -0.30907285 0.19450033
000330 fe 10 33 3e 48 51 ad 3e b0 ff 4f 3e 1d 08 64 3d
       0.17486951 0.33851075 0.20312381 0.0556718
000340 06 41 8b 3e 92 fb 92 bd f1 24 bd bd 57 33 8c 3d
       0.27198046 -0.071768895 -0.09235562 0.0684573
000350 49 73 f3 bc 79 7b d5 bc 25 b9 52 bd 28 cd 1f 3b
       -0.029718058 -0.026059853 -0.0514461 0.0024383757
000360 fe 3e e3 bd 0a 64 89 3a 7c 75 33 3d 43 7d e9 3d
       -0.11095999 0.0010482084 0.043813214 0.11400845
000370 d1 aa 4a 3e 21 9b 50 be d0 da 01 be 86 e6 a0 bd
       0.19791724 -0.20371677 -0.12681127 -0.07856469
000380 35 19 98 3e 51 79 8e bd 85 e8 7a be 0f 24 37 3b
       0.2970673 -0.06956733 -0.24502762 0.0027945077
000390 89 7f 2a 3e cb e3 15 be 75 3f be 3e 76 4a 18 3e
       0.16650213 -0.14637677 0.3715779 0.14872155
0003a0 80 83 aa be 14 ec 81 bd 15 38 a2 bd 8f 7b 8e bd
       -0.33303452 -0.063438565 -0.07920853 -0.06957161
0003b0 0b 6c 00 3e c7 3d e0 3d 97 d4 79 be 92 7e d5 3d
       0.12541215 0.10949283 -0.24397503 0.10424532
0003c0 75 67 d6 3d aa ec 4b 3e 03 9c 54 3e 35 90 93 3e
       0.104689516 0.19914499 0.20762639 0.2882096
0003d0 26 a3 a2 bd ae 0a 36 be e8 1d 14 3e 05 6b 16 be
       -0.07941274 -0.17777511 0.14464533 -0.14689262
0003e0 63 79 1b be d2 4e 86 3e 87 37 01 3c 50 dc f9 3d
       -0.15183024 0.2623201 0.007886774 0.122002244
0003f0 9f fb c6 3d 58 9f 3b be 33 10 77 be 56 6b 9d 3d
       0.09715962 -0.18322504 -0.24127273 0.07686488

actor.2.bias f4 [128]
000000 b8 f0 82 be bd 10 93 be 7b 81 34 be 42 02 80 be
       -0.2557428 -0.28723708 -0.17627518 -0.25001723
000010 4b 81 b6 be 2d cc a5 be e9 a6 cd 3d 51 8b b3 be
       -0.35645518 -0.32382336 0.10041601 -0.35067227
000020 53 d3 70 3d 5d 87 2b bf 58 37 9d 3d 6f 9b a5 3c
       0.058795284 -0.6700342 0.076765716 0.020215718
000030 96 a3 e5 be 0f 34 b2 be 66 5c d8 be a7 51 93 bd
       -0.4485137 -0.34805343 -0.42257994 -0.07193308
000040 d2 77 2c be 11 dd 7c be f6 dd 6b be c1 fc 07 3e
       -0.16842583 -0.24693705 -0.2303389 0.13280012
000050 f5 ff d0 3d 77 0d 35 be 35 45 1e be d7 75 3d bd
       0.1020507 -0.17680918 -0.15456088 -0.04625496
000060 38 33 6c be 4c 8d 1f be c6 83 09 3e 9e 8f 17 bf
       -0.23066413 -0.15581244 0.13429174 -0.5920352
000070 40 eb ab 3d 75 14 39 3e ec 5a 24 bc a4 d9 a0 3d
       0.0839448 0.1807421 -0.010031443 0.07854012
000080 51 69 75 be 52 7e 33 bd e7 01 8b be 77 d5 32 be
       -0.23965956 -0.04382164 -0.2714989 -0.17464243
000090 31 3d 97 be b6 aa 0d bd f7 6f dd bd 2c 34 a5 be
       -0.29538873 -0.03458663 -0.10812371 -0.32266366
0000a0 45 0f a1 bd 28 41 a2 bd 17 5d a2 3d 7d 27 93 3d
       -0.078642406 -0.07922584 0.07927912 0.07185266
0000b0 e6 1e d3 3d b2 82 04 be bc 6e 8b bc 72 52 19 be
       0.10308628 -0.12940481 -0.017020576 -0.14972857
0000c0 20 ef 13 be 8c dd 5a be 43 34 21 be 8f b6 94 be
       -0.14446688 -0.21373576 -0.15742593 -0.2904553
0000d0 2f b9 80 be 41 34 3f bc bf 81 3d 3e 3f 7f 5a 3e
       -0.25141284 -0.011670173 0.18506525 0.21337603
0000e0 e0 cd 79 bd 32 79 8e bd 73 27 8b be 9d 09 24 bf
       -0.060987353 -0.0695671 -0.27178535 -0.6407717
0000f0 91 4f 2d be 9f 82 87 be c6 9a 4d be 15 a7 3f be
       -0.16924883 -0.26466843 -0.20078573 -0.1871608
000100 76 18 7f 3e ae be e2 bd 24 3d 41 be 5d 72 36 bf
       0.24911675 -0.110715255 -0.1887098 -0.71268255
000110 c0 3c 88 3d 8a 2e 89 be 06 b2 89 be c5 f8 52 be
       0.06652212 -0.2679332 -0.26893634 -0.2060271
000120 cb 95 2a be 69 63 40 3e 0b 2b 47 be b2 f9 80 be
       -0.16658704 0.18787922 -0.19450013 -0.25190502
000130 1c 37 12 be c0 d6 54 be 6a 00 a8 be bc 01 34 be
       -0.14278835 -0.20785046 -0.32812816 -0.17578787
000140 71 8d 84 3e f4 9f 9f bd a5 8a 15 bf 55 04 16 be
       0.2588916 -0.077941805 -0.5841468 -0.1465009
000150 cb df a3 bd 9d d3 e0 be a5 57 b2 3d bd 77 f0 be
       -0.080016695 -0.43911448 0.08708123 -0.46966353
000160 c2 27 29 be c0 8d 81 be 10 16 48 be 6d ad 9a be
       -0.16519073 -0.2530346 -0.19539666 -0.30210438
000170 f1 9a ea 3d 34 43 9b be 2e 7c 09 be 3b 3f b6 be
       0.11455334 -0.3032471 -0.13426277 -0.35595116
000180 10 f7 53 3d 54 74 9c be 66 02 82 3d 5f d5 a9 3c
       0.05174929 -0.305575 0.06348114 0.020731626
000190 fe 6c bd be 8a 06 c5 bd 40 60 84 be 8a 78 d9 be
       -0.36997217 -0.09620388 -0.25854683 -0.42474777
0001a0 e7 01 27 be 0d 55 7e bd 43 d8 62 be a6 09 34 bf
       -0.1630932 -0.06209283 -0.2215281 -0.7032722
0001b0 8e d3 1b 3d 32 09 01 be 1a 2a 75 bc 46 86 bb 3c
       0.03804355 -0.12601164 -0.014963651 0.022891175
0001c0 8e 55 e5 3d 16 43 df be 3f 46 c1 bd b7 f9 8f be
       0.11197959 -0.4360587 -0.094372265 -0.28120205
0001d0 b8 3e 20 be 32 6c 9c be 57 25 9b be 28 dc 90 bd
       -0.15648925 -0.30551296 -0.30301926 -0.070732415
0001e0 5a 01 9f be bc 69 f0 bd bf ee db bb b1 97 b9 3d
       -0.3105572 -0.11738917 -0.0067118104 0.09062136
0001f0 a3 41 44 bd a2 e3 0e be 69 2e 7e be af d3 f7 be
       -0.04791416 -0.13954023 -0.24822392 -0.4840369

actor.4.weight f4 [128, 128]
000000 51 0c 9f bd 61 e9 12 3e 4a 4a 4c be cd fd ee 3d
       -0.07766021 0.1434684 -0.19950214 0.116695024
000010 19 6f 33 3d 57 e0 f0 3d bf 13 42 3e d5 18 d4 bd
       0.043807123 0.117615394 0.18952845 -0.10356299
000020 85 c9 26 bd 07 4c dd bd 72 92 a1 3d 78 e5 61 be
       -0.040719528 -0.10805517 0.0788926 -0.22060192
000030 12 cd e3 3d f8 e4 0b be ee f7 e8 3c e4 58 0c 3e
       0.111230984 -0.13661563 0.028438535 0.13705784
000040 81 2b 12 bd fc b1 35 be e5 51 a5 bd 8e 7c 2a be
       -0.03568602 -0.17743677 -0.08072261 -0.16649076
000050 33 3e 6d 3e ff e8 87 bc a5 f5 35 3d 26 37 b2 3e
       0.23168258 -0.016590593 0.044423718 0.348077
000060 bf b0 a5 3e e9 db 0b bd a5 63 48 be 35 ba 68 3c
       0.3236141 -0.03414527 -0.19569261 0.0142045515
000070 f3 59 8e 3d 77 8e 18 3e 70 3c 1f bd 31 64 28 be
       0.0695075 0.14898096 -0.038875997 -0.1644447
000080 ea d8 bc bc 56 fb 17 3d 2c 7c 8b bd d3 45 cf 3d
       -0.023052651 0.037104927 -0.06810793 0.1012074
000090 18 6b 46 3d 86 6d 8a 3e 2c d5 d6 3d f4 01 c8 3d
       0.048441976 0.27036685 0.10489878 0.097659975
0000a0 e0 bd 5b be 93 a6 a7 3d b1 ad 7c bc 6d d9 1a be
       -0.2145915 0.081860684 -0.015422271 -0.15122004
0000b0 33 42 1a 3e 08 67 40 3d 5c 9f 32 3d c7 39 a7 bc
       0.15064315 0.04697326 0.04360901 -0.020413293
0000c0 0f d9 25 be b7 a7 ee 3d 63 15 13 be 03 80 33 3e
       -0.16196083 0.11653083 -0.14363627 0.17529301
0000d0 64 29 92 be 64 6e 21 3e 35 04 a9 3d 15 66 92 bc
       -0.28547204 0.15764767 0.082527556 -0.017870942
0000e0 ad 75 fe bd 81 59 da bd 90 fd 9c bd 3d d7 af bd
       -0.124247886 -0.10661603 -0.07665551 -0.08585975
0000f0 8e af 11 3c 9c 42 55 3e 6f 71 b9 bd 02 b0 a6 3c
       0.008891953 0.2082619 -0.09054839 0.020347599
000100 5e 70 81 3d 02 9c 9b be 8d e4 8d 3a 65 ca 82 3b
       0.063202605 -0.30392462 0.001082556 0.0039914125
000110 aa 47 1f be a8 86 0a bf 75 aa 27 3e 65 f0 6e ba
       -0.15554681 -0.5411172 0.16373618 -0.0009114801
000120 b1 70 d1 bd 52 6c de bd 6b 2a 2a be 86 e1 5b bd
       -0.10226572 -0.10860504 -0.16617744 -0.053681873
000130 e9 89 b6 be bc de bc 3d 4c a9 5c 3d df 3a 61 3e
       -0.35652092 0.09222171 0.05387239 0.21995114
000140 29 55 04 3c 59 a2 0e be 60 1c 2d bd cd ec 3c bd
       0.008076944 -0.13929118 -0.04226339 -0.04612427
000150 95 56 e3 bd 21 b0 37 be 6b ed 45 3d b7 b4 c2 3d
       -0.111004986 -0.17938282 0.048322123 0.09507125
000160 9e 33 81 bd 7c e8 85 be a8 5f 03 3d 4a d9 18 be
       -0.06308673 -0.26153934 0.032073647 -0.14926639
000170 b3 67 a2 bc 75 e7 4b 3e 18 94 a8 3d 8a 87 24 3c
       -0.019824838 0.19912513 0.08231372 0.010042081
000180 43 a9 bc bc f7 86 4d 3d e2 13 3d be 57 c1 9e 3c
       -0.023029929 0.05017754 -0.18464616 0.019379301
000190 c6 54 4f 3e 83 46 53 be 6b 00 bf 3c 0a b4 25 3e
       0.20247182 -0.20632367 0.023315629 0.1618196
0001a0 18 a1 52 bd 51 ad 1c be 2f fd e8 bd af 8d dc 3d
       -0.051423162 -0.1530049 -0.11376416 0.107692115
0001b0 fb be d8 bb 2b 1a 8c bd 07 b7 37 be 71 d9 0a bd
       -0.0066145635 -0.06840929 -0.17940913 -0.033898775
0001c0 95 f6 2d be 2c 15 0b be 13 08 20 3c f8 27 8e bd
       -0.16988595 -0.13582295 0.00976755 -0.06941217
0001d0 3e 05 4e 3d 3b 11 8c be e0 a3 70 be 49 74 74 3e
       0.050297968 -0.27356896 -0.23500013 0.23872484
0001e0 7d 90 c0 bc 47 0b c4 bd d8 60 b6 bd e2 31 81 bc
       -0.023506397 -0.095724635 -0.0890519 -0.015770856
0001f0 a9 93 57 bd c7 d6 47 3e d9 fa 13 be 74 5d d0 3e
       -0.052631054 0.19515525 -0.1445116 0.406963
000200 d8 d4 1a 3d 31 6b f2 3c 24 05 9e bc 47 9e 24 3e
       0.03780064 0.029592128 -0.01928956 0.16076003
000210 63 1a ae 3e b4 e8 6e bc 09 fc 9d bd e1 2f 95 bd
       0.34004506 -0.014581848 -0.077140875 -0.07284523
000220 31 6c c0 3c dc 40 d0 3d 76 b2 d8 3b 7a 5a 1a 3d
       0.02348909 0.10168621 0.006613071 0.03768394
000230 12 04 50 3d e3 20 97 bd 1c 3d f0 3d 6c 0d 3a 3d
       0.05078513 -0.073793195 0.11730406 0.045422956
000240 9f 35 d2 3c 40 58 7d 3c d9 7c 8e bd 18 37 1a bd
       0.025660334 0.015462935 -0.069574066 -0.037650198
000250 b9 7c 08 3d f5 ae 33 3d 57 41 07 bc 1f 13 68 bd
       0.03332207 0.043868024 -0.008255324 -0.05665886
000260 5a f8 28 be 35 09 34 3d fa 5e 1f bd 36 2e 06 bd
       -0.16500989 0.043954093 -0.038908936 -0.032758914
000270 67 dd 24 3d e6 41 0b be 6f a4 23 bd de 7f a2 bd
       0.04025021 -0.13599357 -0.039951738 -0.07934545
000280 45 31 34 be 90 ec 20 bd ab 8f 76 bd e8 25 ad bc
       -0.1759692 -0.039288104 -0.060195606 -0.02113624
000290 34 5d bc 3c f0 33 87 bd 63 dd 96 3e 58 a0 50 bc
       0.022993661 -0.06601703 0.2946578 -0.012733541
0002a0 f1 5c 48 3d c3 75 69 bb 25 a5 3b 3d e9 32 0f bb
       0.04891676 -0.003562317 0.04581179 -0.0021850413
0002b0 08 2c ff 3c 82 32 5d 3d 6a 6c 97 3d 9a 9d e2 bb
       0.031148925 0.054003246 0.07393725 -0.00691576
0002c0 f4 66 5f 3d cb 19 b5 3b 10 24 ba 3d 32 a7 e2 3c
       0.054541543 0.0055267564 0.090889096 0.027667616
0002d0 33 73 e7 3c 11 99 29 be b3 37 86 3c e3 7d e4 3c
       0.028253173 -0.16562296 0.016383981 0.027892059
0002e0 64 a9 cd 3c 88 60 62 bd 53 d6 75 bd 6d 4a cb 3d
       0.025105186 -0.05526784 -0.06001885 0.09926305
0002f0 60 af 00 bc 43 b1 db 3c 20 bc 24 3e cf 20 dc 3c
       -0.007854313 0.026817923 0.16087389 0.026871113
000300 c7 13 c3 3c a5 6a 24 bb 70 06 9a 3b fc 95 25 ba
       0.023813142 -0.002508798 0.0047004744 -0.00063166
000310 c0 44 cd 3c 81 3e 1e 3e 5e e9 46 bd 10 1a 28 3e
       0.025057197 0.15453531 -0.0485624 0.16416192
000320 1d c2 6d bb 75 3d 8f 3c fa 60 b1 bd 87 fb 32 be
       -0.003627903 0.01748536 -0.08661075 -0.17478763
000330 a3 ab b3 3c cb 7a 14 be 13 62 c4 3c 44 cd 91 bd
       0.021932429 -0.14499967 0.023972547 -0.071192294
000340 88 2c 5a 3d 03 37 c7 3c bd f4 0e bd f1 94 28 3d
       0.053265125 0.024318224 -0.03490137 0.041157667
000350 28 ac 4e 3d d9 59 49 3d 16 60 a9 3c 38 44 93 bd
       0.05045715 0.04915795 0.0206757 -0.07190746
000360 0a 05 65 bd 30 dd ae bd 1a 08 14 be b2 8f c5 3c
       -0.05591301 -0.08538282 -0.14456216 0.02411637
000370 2a 4f ef 3c 11 59 4e bd 61 6b ae 3d 7e e0 25 3e
       0.029212553 -0.05037791 0.08516575 0.16198918
000380 4a 42 a5 3c 9f c7 5a bd d8 d3 37 3d 5d b1 03 bd
       0.02017321 -0.05341303 0.044879764 -0.03215157
000390 1c 25 97 bd a4 eb 1e bc ff bd af bd c0 5e ed 3d
       -0.07380125 -0.009699736 -0.08581161 0.11590338
0003a0 75 57 91 bc 2c c9 ed 3d ba a6 fa 3b 09 ff 8a ba
       -0.017741898 0.11610636 0.00764927 -0.0010604571
0003b0 74 1a b7 ba 56 49 31 bd 07 2d 06 3d 4e 2c 01 bd
       -0.0013969676 -0.04328283 0.032757785 -0.031536393
0003c0 68 fe 06 be 3e 74 1e 3d 0a 84 40 bb ec 86 12 3d
       -0.13182986 0.038685076 -0.0029375576 0.035773203
0003d0 cf e3 99 bb ce 8b 0a 3d 54 14 33 bd ab 3b 54 3d
       -0.0046963464 0.033824734 -0.04372056 0.051814716
0003e0 69 e4 da 3d 21 21 2c bd b5 5f 95 3d 84 c3 1d 3c
       0.10688097 -0.04202378 0.07293645 0.009629134
0003f0 b1 67 f2 3d 7f e5 48 bd e1 e7 24 be 28 b3 19 3d
       0.11836184 -0.04904699 -0.1610408 0.037524372

actor.4.bias f4 [128]
000000 38 e7 95 be aa f6 f8 bd 14 03 09 be 7b d5 81 3c
       -0.29277968 -0.121564224 -0.1338008 0.015848866
000010 4f a5 47 be 55 df d9 be b0 33 07 be 77 73 ff bc
       -0.19496654 -0.425532 -0.13203311 -0.031182988
000020 32 02 df be c9 82 e3 bd f5 ee 4f bf 37 65 5a 3b
       -0.43556362 -0.1110893 -0.81223994 0.003332449
000030 59 f6 15 bd fc 1e 62 be e7 a9 91 be b1 b2 de bd
       -0.03661189 -0.22082132 -0.28449938 -0.108739264
000040 ad 0f 90 bd ea a5 2b be 1f 3e 8d be c4 b3 42 bf
       -0.0703424 -0.1676251 -0.27586457 -0.7605555
000050 39 5d 34 bc c0 66 44 be 40 76 3c 3a 09 69 33 be
       -0.011008554 -0.19179821 0.00071892515 -0.17520536
000060 18 c8 8b bd 36 db 69 3b 84 28 90 bd 84 58 49 3e
       -0.06825274 0.0035683638 -0.07038978 0.19662672
000070 da 3b 74 be f0 b9 01 be e5 7c aa be 44 10 8c 3c
       -0.23850957 -0.12668586 -0.33298412 0.0170976
000080 c3 e0 24 bc 46 d9 79 bd ff 98 da bd 52 bf 51 3d
       -0.010063353 -0.060998224 -0.10673713 0.051207848
000090 c9 ac 30 be 16 28 a4 3d 8e b0 ec bc c0 a8 83 be
       -0.17253412 0.08015458 -0.028892782 -0.25714684
0000a0 5b 19 0d bd ad a1 85 bd 30 81 88 be c2 b5 0b bf
       -0.03444801 -0.06524978 -0.26661062 -0.54574215
0000b0 e7 58 cc bd 3b 54 94 be 01 89 82 be 00 9a 06 3e
       -0.09977894 -0.28970513 -0.2549515 0.13144684
0000c0 58 fa 9a 3c 01 fa 85 be b3 8f 8b be 65 8b e9 be
       0.018918201 -0.261673 -0.2725807 -0.45614162
0000d0 d8 f4 14 be 74 42 9f be 83 7c dd be a6 cc 86 be
       -0.14546525 -0.31105387 -0.43259057 -0.2632801
0000e0 f5 1e 06 bf e0 ed 7a be 7c 01 8d bd 7e aa ef bd
       -0.52390987 -0.24504805 -0.06885049 -0.11702441
0000f0 9a 01 c9 be 84 4c 12 bd 5c 96 50 be 69 0f 59 be
       -0.39259034 -0.035717502 -0.20369858 -0.21197285
000100 35 94 b5 bd 99 e8 84 3d 4f e2 a9 be 52 fc 2b bd
       -0.08866159 0.06489677 -0.33180472 -0.04198868
000110 8c 2e 8d be d1 17 c9 be 09 ed 83 be 89 fc 86 be
       -0.27574575 -0.39275983 -0.2576678 -0.26364544
000120 40 74 72 3e 83 47 89 be f9 39 35 be ad 18 32 bd
       0.23677158 -0.26812372 -0.17697896 -0.043480564
000130 ea 69 eb bc 44 bd 3b be 13 60 fa 3d 54 eb 58 be
       -0.028737027 -0.18333918 0.12225356 -0.2118352
000140 9c f2 94 be 45 de 6b be 3a 5f d5 bc b8 d6 93 be
       -0.29091346 -0.23034008 -0.026046384 -0.28874755
000150 7d 3d f7 bd 25 6b f2 bd 69 d1 86 bd da dd 17 be
       -0.12072275 -0.118368424 -0.065829106 -0.14830723
000160 d1 62 cc ba 21 2a 20 be 1b 81 91 be 34 a8 13 bf
       -0.0015593414 -0.15641071 -0.28418812 -0.5767853
000170 bb 77 07 be b9 68 79 be a9 c8 87 be ed 97 4f bd
       -0.13229267 -0.24356355 -0.2652028 -0.050681997
000180 8f 67 92 be 9b 48 f0 be 3a ee 32 be f2 09 bc bd
       -0.28594634 -0.46930394 -0.17473689 -0.091815844
000190 34 ad de be 20 03 7e 3c d8 fc 93 3d 93 ab 87 be
       -0.43491518 0.015503675 0.072259605 -0.26498088
0001a0 c4 99 3d be b1 49 63 bd 0b dd a6 bc 59 ad 09 be
       -0.18515688 -0.0554902 -0.020369073 -0.13445033
0001b0 6e 9e 73 bd 31 1b e4 bd e5 0d 25 be ca bd 37 3c
       -0.059477262 -0.11137999 -0.16118582 0.011214683
0001c0 0d 56 e8 be 6b 10 9b bd 22 8c e6 be d8 df 0a bf
       -0.45378152 -0.07571491 -0.45028788 -0.5424781
0001d0 88 82 b4 3d eb 4c ac bd cb 53 93 bd 09 05 0e be
       0.08813959 -0.084131084 -0.071937166 -0.13869108
0001e0 a6 45 86 bd e6 ba 97 3d 9d 74 3b bf be 6c 5d 3d
       -0.06556253 0.07408695 -0.7322481 0.054058783
0001f0 4b e8 8d bd fe 6c 20 be 3d 52 5c be b2 52 af 3d
       -0.06929072 -0.15666577 -0.21515746 0.08560695

actor.6.weight f4 [12, 128]
000000 2c 88 48 3c c8 d3 97 3b 05 33 40 3c 3b 3c 81 bc
       0.012239497 0.0046334006 0.011730914 -0.01577579
000010 7c e4 c4 ba 80 63 32 bc 1f 19 7e bd 26 34 f9 bc
       -0.0015021707 -0.01088798 -0.062035676 -0.030420374
000020 44 56 b8 3c c8 69 54 3b 34 fd b2 3c c3 d7 aa bb
       0.022502072 0.0032411683 0.021849252 -0.005213709
000030 5f 5f 9e bc 28 d1 48 3c cb 15 29 3d 5c 94 75 bc
       -0.019332586 0.012256898 0.04128055 -0.014988985
000040 38 9d c6 3c 7a 44 7c b9 84 57 90 bb 15 3d f5 3c
       0.02424489 -0.00024058102 -0.004404964 0.029936353
000050 31 79 fd bb 00 6b 51 bc 79 16 d8 38 6f 18 af 3c
       -0.0077353944 -0.012781858 0.000103038685 0.021373956
000060 3d dd 04 3c 6b 1e 42 3c 27 03 12 3d 25 10 3e bc
       0.008109388 0.0118480725 0.035647538 -0.011600529
000070 af e6 fe bc 89 3a 95 3c 2b df 6c bd 53 3d 1c 3c
       -0.031115858 0.018216388 -0.057830017 0.009536105
000080 a7 e1 d1 3a 35 91 0e 3c 55 bd 19 bc 25 0b 91 3b
       0.0016012684 0.008701612 -0.009383519 0.0044263774
000090 5a 68 87 3c 66 fd ae 3b f2 ca 26 bd 47 61 cc 3c
       0.01652925 0.005340266 -0.040720887 0.02494873
0000a0 20 9a 79 bc 5b a0 df 3c 58 de 34 bb 0b 84 9e 3c
       -0.0152345 0.027298143 -0.0027598348 0.019350072
0000b0 01 0e 36 bc ff 38 54 3a b3 62 a3 3c d6 8e 9b bc
       -0.011111737 0.0008095651 0.019944524 -0.018989008
0000c0 45 71 c2 3c db 52 f0 3c 48 ca 8b 3c 18 8f 81 bc
       0.023735652 0.029336384 0.017064229 -0.015815303
0000d0 69 eb db bd 5c c9 e9 3b 99 4a b3 3c 85 d0 ba bc
       -0.1073826 0.0071345996 0.021886157 -0.022804508
0000e0 f9 75 d1 3b e3 2f 2b bb 9d 7a 5a 3b f9 52 5f 3d
       0.0063922373 -0.0026121072 0.0033337243 0.05452249
0000f0 29 0a 88 3b fc 68 ee 3a 30 46 73 bc c6 da c8 bb
       0.004151602 0.0018189247 -0.014848277 -0.0061295955
000100 bb b7 66 3c ed cb 24 3c a1 ac 84 bc 78 1b 5f 3c
       0.014081891 0.010058385 -0.016195597 0.013617389
000110 e4 f2 db bb 38 34 c1 ba 36 eb 0e 3d 1e 80 0e bb
       -0.0067123044 -0.0014740294 0.034892283 -0.0021743844
000120 31 48 ba 3c 70 cb c7 3b fe f2 a7 3b 8a b2 70 3c
       0.022739502 0.0060972497 0.0051254025 0.0146910045
000130 cc d6 15 3c f9 25 2a 3c fe 74 76 3c 0e d3 8a 3c
       0.00914545 0.01038503 0.015042542 0.016946342
000140 ee 9d b6 3c f1 5a 47 3d 38 9c 2b bc 26 53 b0 ba
       0.022292104 0.048670713 -0.010474257 -0.0013452515
000150 fb 2f 13 bd 19 73 cc bc 07 92 5b bc 5d 06 18 3b
       -0.03593443 -0.024957227 -0.013401515 0.0023197152
000160 07 5d d0 3c d1 f7 86 bc 87 11 11 3c 3c e5 f1 ba
       0.025434984 -0.01647559 0.0088542765 -0.0018455158
000170 81 1a ad 3c 19 89 55 bd e5 48 18 bc aa 64 d5 3c
       0.021130802 -0.0521327 -0.009294723 0.026048977
000180 09 4c 35 bb 8b 5a 94 3b 7f db ab bc 3b 95 8e bc
       -0.0027663729 0.004527395 -0.020978687 -0.017405143
000190 b3 ac 85 bc 7e c4 35 3d 80 82 3d bc 7c 2e f2 bc
       -0.016317701 0.044376843 -0.011566758 -0.029563181
0001a0 fd 8e d1 bc c6 0e f4 bb 82 16 be bc 9c 7b 22 3c
       -0.025580877 -0.00744805 -0.023204092 0.009917166
0001b0 f0 de 47 3a e9 e7 73 bc 8b 9f 7b 3c 31 64 6b 3b
       0.0007624468 -0.014886835 0.015357862 0.0035917873
0001c0 53 15 02 3c 93 3f 0d 3c fc 9e 22 bc 6d 0c e7 3c
       0.007939654 0.008621114 -0.0099256 0.028204167
0001d0 a3 f4 81 bc b2 ee 3c bc 02 5c 98 bc 32 e9 f8 bc
       -0.015863722 -0.011531519 -0.01859856 -0.030384634
0001e0 4c be ba b9 51 4f 36 3b fe 9e 99 3d 0b 5e d7 ba
       -0.00035618467 0.0027818272 0.075010285 -0.0016431225
0001f0 1c 0e 61 3b 60 68 9a 38 dd b0 0b 3c 54 f0 e4 bc
       0.0034340685 7.3627336e-05 0.008526054 -0.027946629
000200 db 55 a0 3a 85 2e 9c bb a7 e7 fe 3c 49 e9 1e bc
       0.0012232618 -0.0047662877 0.03111632 -0.009699174
000210 c9 f3 ad 3c 4c 6c b5 bc 8c e0 db 3d 9e 14 27 3d
       0.02123441 -0.022146367 0.10736188 0.040791146
000220 ab c7 39 3c cd 86 ad bc e7 b5 b5 bc 69 72 2f ba
       0.011339108 -0.021182442 -0.022181464 -0.00066927687
000230 5e 8f d9 bc 72 58 42 bc 35 ab b0 bc 9f a3 72 3c
       -0.02655762 -0.011861907 -0.021566013 0.014809518
000240 62 94 61 3c 19 c9 89 bc 02 5a 84 ba 20 33 99 bd
       0.013768287 -0.016819524 -0.0010097625 -0.074804544
000250 58 62 3a bb 9b 62 23 bc f4 cd 04 bc a4 03 d0 ba
       -0.0028439965 -0.00997224 -0.008105744 -0.0015870226
000260 f8 08 78 3c 84 84 ce bc 9c 2b 58 bb 83 90 b9 bc
       0.015138857 -0.025209673 -0.0032984978 -0.022651916
000270 03 e3 54 3d 4a e8 60 3c bd 81 87 3c 0e 7c 86 3c
       0.051974308 0.013727257 0.016541356 0.016416576
000280 30 a4 af 3b d7 f7 22 b8 4a fb 8e 3c 51 14 06 3b
       0.005360149 -3.885463e-05 0.017453808 0.0020458887
000290 d1 4e 13 3a fd 3f e9 3c 26 f3 fa 3c 4a 4b e7 3b
       0.00056193495 0.028472895 0.03063352 0.0070585357
0002a0 3a 0b 00 bc 55 99 15 bc 24 9c 8d bc fa b4 dc 3a
       -0.007815177 -0.0091307955 -0.017286368 0.0016838603
0002b0 d9 46 9b 3c 55 14 8c 3b d1 96 0a 3b 17 19 68 bc
       0.018954681 0.0042748847 0.0021147022 -0.014166138
0002c0 df 07 39 bd 66 16 bb 3c 2b ea 2b 3b 1b 42 87 3c
       -0.045173522 0.022837829 0.0026232104 0.016511014
0002d0 f0 fd 7d 3d 57 ac 0c bc 82 69 27 3c 21 a0 f4 bc
       0.06200975 -0.008586011 0.010218026 -0.029861512
0002e0 bc 43 e8 bc f0 a3 88 3b a2 76 10 bd dd a2 14 3d
       -0.02835261 0.0041699335 -0.035269387 0.03628813
0002f0 22 68 ad 3a 41 20 d6 3b d3 8b 0b bc 1a 44 85 bc
       0.0013229887 0.0065346067 -0.008517223 -0.016267825
000300 ed cc 34 3c e0 b4 2f 3c f3 fc 6a 3d 0f 5f c3 3c
       0.011035186 0.010724276 0.057370137 0.023849038
000310 64 5b ce bc de 90 92 bb 32 ac 49 bd 68 67 a4 bc
       -0.025190063 -0.004472836 -0.049236484 -0.02006884
000320 d3 46 3a 3c 19 4c 37 3b bd f0 d0 3c 2d 73 98 3c
       0.011369425 0.0027968942 0.025505418 0.018609608
000330 15 81 2e 3c c1 75 54 3c 32 fb 7a 3c a3 8b b7 3b
       0.010650893 0.012967528 0.015318679 0.005601363
000340 7c 0b 2a bd df 97 0b bd a7 6c 10 bc ba 20 43 bc
       -0.04151486 -0.034080382 -0.008814967 -0.011909658
000350 5a 5f 60 bd 0f 0a 28 bc 53 c7 c9 bc db 50 b2 bc
       -0.054778434 -0.010256304 -0.024631178 -0.02176707
000360 3b 5d 43 bc 90 dd 81 bc 78 5a 03 bc 09 ca a4 bc
       -0.011924083 -0.01585272 -0.008017175 -0.02011587
000370 e0 74 57 bb 16 b3 fe 3c 16 77 f2 3c 4a 1f 98 3c
       -0.003287606 0.031091254 0.0295978 0.018569607
000380 c3 c8 c7 bb 8b bf 05 bc 9f cc 1a 3b c7 de 20 3c
       -0.0060969307 -0.008163343 0.0023620499 0.009818739
000390 b6 07 84 3c 6d 1f c1 bc 85 f5 21 bc 72 2e 14 3c
       0.016116958 -0.023574555 -0.009885197 0.009044277
0003a0 5d a0 a4 bb 4f 2e 75 bb 1c c6 66 bc bb d0 cc 3c
       -0.0050239996 -0.0037411635 -0.014085319 0.025001874
0003b0 12 67 a6 39 e7 52 95 bc d0 a2 87 3c 57 88 4f ba
       0.0003173878 -0.018228007 0.016557127 -0.00079167396
0003c0 09 c9 86 bb c4 1f e0 bc 56 63 b3 bc 59 e8 d0 bb
       -0.0041133207 -0.027358897 -0.021897953 -0.0063753542
0003d0 71 ff 71 bc 32 d7 63 bc 71 ce 3a 3c 83 58 42 bc
       -0.014770375 -0.013906287 0.0114017585 -0.011861923
0003e0 c1 82 32 ba e6 98 b9 3b 78 ab ef bc 69 d2 2d 3b
       -0.0006809645 0.005663979 -0.029256567 0.002652312
0003f0 04 61 f2 3b 6d 10 b0 ba 8c 32 75 3c 3f 8e aa bb
       0.007396819 -0.001343263 0.014965665 -0.0052049453

actor.6.bias f4 [12]
000000 26 d0 8d bc 82 18 8c 3c 2b c1 ed bd 0a 9c ef 3d
       -0.017311167 0.01710153 -0.116091095 0.11699684
000010 8a 9c ad bd 53 60 ae bd 20 a5 2c 3c cf 49 1f 3c
       -0.08477123 -0.08514466 0.010537416 0.009722187
000020 62 4c a6 3e df 13 a6 3e a0 d9 c7 3e 78 3e c8 3e
       0.3248015 0.32437035 0.39033222 0.3911016
