tested_policies/aliengo/data_aug_18cm/exported/policy.onnx (onnx, 273175 bytes, 8 tensors)

actor.0.weight f4 [128, 260]
000000 14 f7 cb 3e b6 0e 4b bd 83 c0 5d 3f 6f f0 db bd
       0.39836943 -0.049574576 0.86621875 -0.107392184
000010 9e c2 0f 3f 09 ae d1 be 5f 1b 63 3f 2b f5 d4 bc
       0.5615634 -0.4095309 0.8871364 -0.025995811
000020 b1 ae 49 bd 57 e1 d4 3e 59 66 8d be 29 50 5c bd
       -0.049238864 0.4157817 -0.27617148 -0.053787384
000030 36 cf e4 3e 5c 0d c5 bd e3 d6 58 be 69 61 eb 3e
       0.4468934 -0.09621689 -0.21175723 0.45972756
000040 c5 b3 d1 3e 17 15 94 3d 01 e3 3c 3e aa 98 ea 3e
       0.40957466 0.07230585 0.1844597 0.45819598
000050 13 53 30 be c9 86 90 3d a9 98 d3 bc d9 49 40 3f
       -0.1721919 0.07056958 -0.02582963 0.7511268
000060 80 b7 1c bd b2 8f 93 bd 1d a3 c4 3d c1 d3 bf 3c
       -0.038260937 -0.07205142 0.09601424 0.023416402
000070 53 13 a7 3d 73 a3 48 3d 60 6e 75 3d c4 2b 5c 3d
       0.08157983 0.048984002 0.059919715 0.053752676
000080 d3 a6 74 3d 72 22 a1 3d eb ff 48 3d 4d 08 29 bc
       0.05972941 0.07867898 0.049072187 -0.0103169205
000090 86 2a 21 3e 3b d9 09 bd 68 d1 8f be 1b cc 0f 3e
       0.15738878 -0.033654433 -0.28089452 0.14042704
0000a0 d8 f3 1b 3e 18 99 a0 bb 6c 89 01 bd 80 2c 43 3e
       0.15229738 -0.0049010627 -0.031625196 0.19059944
0000b0 c8 c4 bd bc c9 b5 a5 3c 2b 68 6a 3d e7 67 3f 3d
       -0.023165122 0.020228283 0.05722825 0.04672995
0000c0 04 20 03 be 75 d1 18 bf d1 42 09 bf 3f 78 8f bd
       -0.12805182 -0.59694606 -0.5361758 -0.07005357
0000d0 f2 4d 82 3e 00 e2 84 be 4e cf ea 3e 9d 3e d9 bd
       0.25450093 -0.25953674 0.45861286 -0.10607646
0000e0 82 8a 42 3e 46 6a 84 be 64 b3 66 3f e0 ed c4 bc
       0.18998149 -0.2586233 0.9011748 -0.024039209
0000f0 a9 dc fc bd 1d 92 c7 3e 5b 3f 8d be 9f e9 de 3b
       -0.12346775 0.38978663 -0.275874 0.006802752
000100 a1 da f3 3e 53 83 25 be 77 dd 86 be 38 b2 cf 3e
       0.47627738 -0.16163377 -0.2634084 0.40565658
000110 40 b6 cc 3e cc 01 b7 3d 98 63 78 3e 43 47 de 3e
       0.39982796 0.089358896 0.24256742 0.43413743
000120 7c ee b1 bd e9 ef 42 3d 50 65 4e bb a7 ff 56 3f
       -0.086880654 0.047592077 -0.0031493492 0.83983845
000130 59 46 e3 bd d9 72 63 bd 14 f6 a5 3c 47 82 fd 3c
       -0.11097402 -0.05552945 0.02025894 0.03094591
000140 6e d3 29 3d 22 ab 74 bb eb 49 92 bc 3b 2d 1a bd
       0.0414614 -0.0037333448 -0.017857512 -0.03764079
000150 97 08 d0 3d d7 1c c0 bd 54 f1 20 3d cf 20 d4 3c
       0.101578884 -0.09380501 0.03929265 0.02589455
000160 8e 5b 41 3e c9 8b a6 3d 3a 7d 81 be 3b 43 18 be
       0.18882582 0.08132131 -0.25290853 -0.14869396
000170 0f 7a eb bd ea db a8 bd 6d 9c 0c bd d9 c0 cb bd
       -0.1149789 -0.0824507 -0.034328867 -0.09948892
000180 7c 30 03 3d 57 7f 7d 3d 1f 6d e1 3d 93 6c 79 bd
       0.03202866 0.06188902 0.11007141 -0.06089456
000190 28 4f 9a 3c f2 12 04 bf 13 ff 05 bf 0e 0e 03 3d
       0.018836573 -0.5159141 -0.5234234 0.031995825
0001a0 cd 6a 00 3e 92 75 c4 be ee 02 71 3e a8 c7 50 be
       0.12540741 -0.3837095 0.23536274 -0.20388663
0001b0 04 ce d9 3e 28 85 63 bd 37 4c 65 3f 48 50 06 3c
       0.4253999 -0.05554691 0.8956942 0.0081978515
0001c0 cc 50 67 bd ff 56 e0 3e 5f fc a2 be 9b b9 c4 bb
       -0.05647354 0.43816373 -0.3183317 -0.006003571
0001d0 e7 22 c2 3e ac c7 8d be 61 3d 7b be be 14 05 3f
       0.37917253 -0.276914 -0.24535133 0.51984775
0001e0 72 c4 9a 3e a1 22 54 3d 65 85 61 3e 94 b4 db 3e
       0.30228 0.051790837 0.22023542 0.42911208
0001f0 3b bf ff 3c b3 04 ff 3c fb ea dd bc fb 08 5f 3f
       0.031219115 0.03113017 -0.027089586 0.8712308
000200 23 f2 77 bb 1a 20 96 be 3c 58 ff 3d 8f a8 d0 3d
       -0.0037833534 -0.29321367 0.12468001 0.101884
000210 04 27 fb bb c8 48 eb 3c 09 e0 ac bd 56 cb f9 bd
       -0.007664563 0.028721228 -0.08441169 -0.121969864
000220 8f 09 fe 3d c6 77 cb 3c 27 22 ab 3d 6c c7 c3 bd
       0.12404167 0.024837386 0.083561234 -0.09559521
000230 ef 05 66 bd 95 58 28 3d d1 79 0a be 70 45 27 be
       -0.056158002 0.041100103 -0.13523032 -0.16335082
000240 63 9a 25 3d fc ff ea ba f8 b0 a4 3d 07 cd e9 bd
       0.040430438 -0.0017929072 0.080415666 -0.11416059
000250 17 d1 75 bc b0 f8 99 3d 05 46 b2 3d 2c 4e a7 bd
       -0.015003464 0.075181365 0.087047614 -0.08169207
000260 48 ad a7 3d 24 ac 11 bf bb a5 17 bf 61 41 a8 3d
       0.08187348 -0.5690329 -0.5923726 0.08215595
000270 39 f2 33 be 69 f5 ba be 6f 39 fe bd e0 ec cb bd
       -0.1757287 -0.36515358 -0.12413298 -0.0995729
000280 ec 99 f4 3e 92 7e 86 be e2 e0 72 3f f5 5d 86 3d
       0.47773683 -0.2626844 0.94874394 0.0656089
000290 30 a9 4a bd c0 10 d9 3e 62 b5 c0 be 27 20 14 bd
       -0.049477756 0.42395592 -0.37638384 -0.036163475
0002a0 75 ce bf 3e 09 63 ac be 37 41 93 be 96 a2 00 3f
       0.37462202 -0.33669308 -0.28760692 0.50248086
0002b0 28 95 ba 3e 4f d0 77 3d bb 5c ab 3e d4 77 a2 3e
       0.36441922 0.060501393 0.33469185 0.31732047
0002c0 0a ed 1c 3e 9d c3 2c 3d dc 6b a9 bd a5 12 63 3f
       0.15324798 0.04217874 -0.08272526 0.88700324
0002d0 8e 20 49 3d ed 54 82 bd 41 85 1d 3e 65 91 b4 bd
       0.049103312 -0.063638546 0.15382864 -0.08816794
0002e0 3f fe 5b 3d 53 e9 4c 3e 4e 58 ff 3c d6 a3 26 3d
       0.053709265 0.20010881 0.031170037 0.04068359
0002f0 2d 37 91 3d e7 b4 1d be 33 27 06 3c 22 44 d5 3b
       0.07090602 -0.1540104 0.008188057 0.006508366
000300 c8 ad 85 be 4d 22 ff 3c 67 7a 9d bb 9b 2c 80 be
       -0.26109147 0.031144286 -0.0048058513 -0.2503403
000310 fe 6d 27 be 42 55 7d bd 8b 61 b4 bc 0a 82 86 be
       -0.16350552 -0.061848886 -0.022019168 -0.26271087
000320 a6 8e 22 3e ed 0f d5 3c c4 84 da 3c 26 64 20 be
       0.15874729 0.02600857 0.026674636 -0.15663204
000330 7a 95 d8 3d 99 39 5a bf 04 79 45 bf 7d 3c ad 3d
       0.105753854 -0.8524414 -0.7713778 0.08458803
000340 68 9d d9 be ff d5 97 be 8a 93 cd bf ce a0 a7 3e
       -0.42502904 -0.29655454 -1.606065 0.32739872
000350 9d 04 9f be c3 32 4f 3f 59 fc 77 3f cc c2 66 3d
       -0.31058207 0.8093683 0.96869427 0.056338117
000360 15 5b a2 bd 0e 8b 0d 3f 90 8b bd be 96 e8 51 bd
       -0.07927529 0.55290306 -0.3702054 -0.0512472
000370 fb 2f a8 3e 73 57 db be 2d 1b a7 be 83 92 24 3f
       0.32849106 -0.42840156 -0.3263792 0.6428606
000380 11 94 d1 3e af 06 04 3e b6 ef a8 3e da f5 f9 3e
       0.40933278 0.12893175 0.32995385 0.48820382
000390 27 f1 6c 3e 16 fc 88 3d 6e 97 b6 bc 0f da 5a 3f
       0.23138867 0.066887066 -0.022289004 0.8548898
0003a0 c9 ff 2c 3a 6c bf 00 bf a9 8b 84 bd 16 86 52 3e
       0.0006599394 -0.50292087 -0.064719506 0.20558962
0003b0 1d 20 21 3e cc cb cc bc 03 2a ea 3c 06 ee 98 3d
       0.15734906 -0.024999522 0.028584486 0.07467274
0003c0 b8 21 68 3e d2 8e 7b bc 32 d5 fe bd ce cd ef 3d
       0.22669113 -0.015353875 -0.124430075 0.11709176
0003d0 43 f8 cf be 6a d8 83 3d 45 e6 75 3d a7 2e b4 be
       -0.40619096 0.06437762 0.060034055 -0.35191843
0003e0 27 30 9c be e4 46 42 3d 52 ae 0c bc 32 fe c9 be
       -0.30505487 0.047430888 -0.008586483 -0.39451748
0003f0 e9 ee ac be 80 17 c0 3d 94 4f a6 3d 9c 07 a0 bf
       -0.33776024 0.09379482 0.08120647 -1.2502322

actor.0.bias f4 [128]
000000 ae 76 9c 3d a3 d4 80 bd 7c cd bd bd cd a5 a1 bd
       0.07639824 -0.06290557 -0.09267709 -0.07892952
000010 fa b4 f3 bc 62 06 8b 3d eb 37 2e be a4 78 b8 3c
       -0.029749382 0.06788327 -0.17013519 0.022518463
000020 f9 69 5b be b9 b2 08 3d 07 d7 df bd 59 79 5c 3d
       -0.21427144 0.03337357 -0.10929685 0.053826664
000030 6d bc 7b 3d b9 ac 66 3d 47 15 89 3d 3e a4 ab bb
       0.061458994 0.056317065 0.066935115 -0.005238085
000040 74 06 17 be 51 d2 7a be e6 9b 96 be 76 1c 98 bd
       -0.14748555 -0.24494292 -0.29415816 -0.074273035
000050 5a f9 39 bd a0 19 70 be 9a 3a a6 3d e7 fb 10 be
       -0.045403816 -0.23447275 0.08116646 -0.14158593
000060 ea 0a 6e 3d d6 13 3c 3e 11 94 78 3c 15 4f cf bd
       0.058115877 0.18366942 0.0151720205 -0.101225056
000070 a7 dc cd 3a 78 e3 61 3e 84 01 70 bd 05 e1 a9 be
       0.0015706018 0.22059429 -0.058595195 -0.3317949
000080 fe a6 17 3e 7b 31 1a bd 37 6f 31 be 57 e7 3a bc
       0.14809796 -0.037644845 -0.17327581 -0.011407695
000090 70 fd 06 bc 81 20 6e 3d 72 d0 45 be 97 b3 c3 bb
       -0.008239135 0.058136467 -0.19317797 -0.0059723365
0000a0 9b 29 80 3c ff 22 37 be 08 f4 b5 be 10 3e 41 bd
       0.015644839 -0.17884444 -0.35537744 -0.047178328
0000b0 7a a1 5f bc 4a eb 5f 3d fa 0f 67 3d de 0d 17 be
       -0.013649339 0.05466775 0.05641172 -0.14751384
0000c0 66 a5 db bd 85 0b 9a bd e8 3f c3 3d 7a e7 98 3d
       -0.107249066 -0.075217284 0.095336735 0.07466026
0000d0 2d 00 ad be 02 17 4c 3c 6d 43 9a bd 93 aa 57 bc
       -0.33789197 0.012456657 -0.07532392 -0.013163227
0000e0 ee 27 d8 3b 4f c7 84 bd af 5e 42 be 4c d1 1f 3d
       0.006596557 -0.064833276 -0.18981431 0.03901796
0000f0 1a ab a4 3d 67 2b 06 be 2d 81 03 3e 5a ed d0 3c
       0.080404475 -0.13102494 0.12842245 0.025503803
000100 80 6e b1 3d 79 4f 53 bd 76 62 31 be 51 59 a4 bd
       0.08663654 -0.051589463 -0.17322716 -0.08024848
000110 33 97 4c 3e 1b a5 ea bc e2 14 23 be 70 cc 7a be
       0.19979553 -0.028643182 -0.15925935 -0.24492049
000120 f0 ed 2e bc 96 aa 13 be 1e b8 8b be e7 e0 24 3d
       -0.010676846 -0.14420542 -0.27288908 0.040253546
000130 58 21 14 be 75 ef ec bd 03 5e 04 3e a8 b7 31 3e
       -0.14465845 -0.1156911 0.12926488 0.17355216
000140 e8 38 62 bc b2 74 17 be 86 a1 3b bd 44 fc 55 be
       -0.013807513 -0.1479061 -0.045808338 -0.20897013
000150 da 77 26 be 4d b2 03 bc 80 32 84 be f3 6e 34 bd
       -0.16256657 -0.008038116 -0.25819778 -0.044051122
000160 e4 b1 c6 bd b9 96 03 3e 6b 97 b8 bd 8a 3b b1 bd
       -0.09701899 0.12850465 -0.09013256 -0.08653934
000170 b4 91 8b be cd 4b bc be 2b 98 4f 3e bc 0e 74 3d
       -0.272596 -0.3677658 0.20272891 0.059584364
000180 78 ec 25 bd ed 19 26 be 55 43 99 bd 8d 1a 28 be
       -0.040508717 -0.16220827 -0.07483546 -0.16416378
000190 13 6c 09 3e 0a 54 57 bd 7b 79 be be 05 25 c1 bb
       0.13420133 -0.05257038 -0.37202057 -0.0058943057
0001a0 2a dc dd bc ea b8 5e be b8 33 38 be c7 46 f6 bc
       -0.027082521 -0.21750227 -0.17988479 -0.030063046
0001b0 d9 c9 e1 3d 64 0e 34 3c 62 2f 06 3e e7 cf 08 be
       0.110248275 0.010989759 0.13104013 -0.13360558
0001c0 13 9f 1c 3d 5d 42 0e bd a1 bb bd bd 3c c8 33 3d
       0.038237642 -0.034731258 -0.09264303 0.04389213
0001d0 77 d2 f1 3d ad ca d8 bd 70 a5 f1 bd 53 71 00 bc
       0.11807721 -0.10585532 -0.11799133 -0.007839519
0001e0 3c 08 c5 3c e5 4b b3 bd 3b 42 7a 3d d4 f3 ad 3e
       0.024051778 -0.0875471 0.06109832 0.3397509
0001f0 4f e8 25 be b6 26 0b bd 5d dc fd 3d 4d 4d 15 bc
       -0.162019 -0.033972465 0.123955466 -0.009112668

actor.2.weight f4 [128, 128]
000000 c4 e0 30 3d a3 df 28 3d 54 9c 2e bf a3 40 7d bd
       0.043183103 0.0412289 -0.6820729 -0.06182922
000010 44 c4 19 bd 26 91 37 bd 1c ec 3e 3b 36 fc 55 be
       -0.03754069 -0.04481616 0.0029132431 -0.20896992
000020 e1 98 8a 3e b1 ce 0e be 56 42 00 bd 7e d2 2e be
       0.27069762 -0.13946034 -0.031313263 -0.17072484
000030 27 0c b7 bd fa 6b 6d 3c 39 80 15 3e 12 95 09 3d
       -0.08937865 0.014491076 0.14599694 0.03358943
000040 8a 84 ca 3d f1 e5 18 be 3a a7 96 be a4 93 2b 3e
       0.09888561 -0.14931466 -0.2942446 0.16755539
000050 08 c8 70 3d 26 45 fa bd 3a 54 e6 3d 6b a7 25 3d
       0.058784515 -0.1222022 0.11246534 0.040442865
000060 57 55 72 bd 1c 5c ee bd fe 8c 2e be d5 5c 82 3e
       -0.059163418 -0.11638662 -0.17045972 0.2546145
000070 87 eb 0b 3d 3a e3 f7 bd 1e 1d ae 3e 90 43 1b bd
       0.034160163 -0.12103887 0.3400659 -0.03790623
000080 4e 63 33 3d 17 ed aa bd d2 94 b0 bc cd fb be 3d
       0.043795876 -0.083460025 -0.021555338 0.09325371
000090 2c c5 69 3c b7 99 6a bd 2a 9c 2a be a7 19 a0 bd
       0.014268201 -0.0572755 -0.16661134 -0.07817393
0000a0 da 30 1c 3d 53 6c 0b 3e 46 56 d9 bd 0a bb fe 3c
       0.038132526 0.13615541 -0.106121585 0.031095047
0000b0 57 b5 4e 3d d7 9a d1 bc 44 07 d4 bd 3a 80 e5 3b
       0.050465908 -0.025586529 -0.10352948 0.007003811
0000c0 b0 5d 00 be cb 6d ac bd b1 54 a3 3d c5 40 11 be
       -0.12535739 -0.08419379 0.07975138 -0.14184864
0000d0 74 af 14 be a5 0e 53 be 9d bd af 3d 46 d0 20 be
       -0.14520055 -0.20611055 0.08581088 -0.1570445
0000e0 40 67 9b 3d f7 7c 00 be 00 bd d3 bd 8f 0e 10 bc
       0.07588053 -0.1254767 -0.10338783 -0.008792534
0000f0 39 07 81 3b f5 27 3d 3d 85 1d 16 3e 7d 3d ff bd
       0.0039376286 0.046180684 0.14659698 -0.124629
000100 b9 58 85 b9 f5 01 b3 3d c9 5d 0f 3e 82 f5 6d be
       -0.0002543384 0.08740608 0.1400062 -0.23238185
000110 71 4b 23 be 82 25 b1 bd c3 5e 0e be 9d ee 0c 3e
       -0.15946747 -0.08649732 -0.13903336 0.13762899
000120 93 90 91 3e 59 ed 04 3e 50 cd ee bd d3 bb 59 3e
       0.28430614 0.12981166 -0.11660254 0.21263056
000130 4a c0 5c be b7 42 16 3e ef 50 ac bd 3b 17 0d be
       -0.21557727 0.14673887 -0.08413874 -0.13778393
000140 c6 17 65 3d 75 9a 81 bc 08 70 9a be a6 1c 9b 3d
       0.055930875 -0.015820721 -0.30163598 0.07573824
000150 cc 08 0b be b2 55 1c 3c eb 03 62 3e 12 65 03 3e
       -0.13577574 0.009541916 0.22071807 0.12831524
000160 a8 fd 28 be 66 57 cc 3c cf 4f a5 be c5 39 92 bd
       -0.16503012 0.024944019 -0.32287452 -0.07139925
000170 8e e9 d0 bc e1 6e 38 3d 4f d9 39 3d ef 5e b8 be
       -0.025501993 0.045027617 0.045373257 -0.3600993
000180 4f 8c 03 3d ad 39 f7 bb 33 65 41 3e 80 5e 92 3d
       0.03211623 -0.0075447173 0.1888626 0.07146931
000190 bd e4 73 3d d1 93 73 3c 9d fe 11 be 0f bf 1d be
       0.059544314 0.014866785 -0.14257284 -0.15404914
0001a0 1b 0e a6 3d 83 85 0b be 54 ff 13 3d 5d 4f 08 bc
       0.08108159 -0.1362515 0.03613217 -0.008319703
0001b0 4e 6c 1c be ab 2f be 3b 5b a1 33 be 8a 86 7d 3c
       -0.1527569 0.0058040223 -0.17542021 0.015473971
0001c0 f3 da bf bc 0f 7c ac 3d ed 50 81 bc a2 43 5b 3b
       -0.023419833 0.084221 -0.015785659 0.003345706
0001d0 9a 6a c0 3d 42 74 06 3c be 30 ff 3c 04 25 a5 be
       0.09395333 0.008206429 0.031151172 -0.32254803
0001e0 9a 9b 44 3d e3 64 1b 3d 3e de 04 3e 31 58 8b bd
       0.047999956 0.03793801 0.12975404 -0.068039306
0001f0 5d ea 59 3e 50 a7 96 3c fe 34 01 3c ef f8 f6 3c
       0.21280809 0.018390328 0.0078861695 0.030147998
000200 3a 2e 6a be 50 e8 c3 3d 2e 26 17 3d 5b c9 a7 bd
       -0.22869197 0.095657945 0.036901645 -0.081927024
000210 b0 87 ca 3c d5 f5 bb bc 6f 38 aa 3c 70 46 9b bd
       0.024722904 -0.02294437 0.020778863 -0.07581794
000220 47 20 9a bd 8f fc 96 be f3 57 d2 3d 31 4b 4b be
       -0.07525688 -0.29489562 0.10270681 -0.19852902
000230 a4 be 34 3d ea 39 da bd 80 d8 a0 bd c4 c6 24 be
       0.04412712 -0.106555775 -0.07853794 -0.16091448
000240 8f 09 a0 3e 40 77 a5 bd 1e fb df be 75 f7 c2 be
       0.31257293 -0.08079386 -0.43746275 -0.3807942
000250 00 a9 36 bd eb 44 1a 3e a5 c8 8b bd 96 a2 82 bd
       -0.044594765 0.15065353 -0.06825379 -0.06378667
000260 6e 5f 4e 3c d8 b9 27 be fa 02 5d 3e f4 dc f3 3d
       0.012595994 -0.16379488 0.21583167 0.11907378
000270 f0 68 5b be 25 a3 8c 3d 7e 02 8c bd 45 6d cd 3e
       -0.21426749 0.06867055 -0.06836413 0.4012243
000280 19 a8 30 3e 34 5b ed 3d df 4b 1c bd 32 40 b9 bd
       0.17251624 0.11589661 -0.038158294 -0.090454474
000290 20 1d 85 be fc a5 95 3d c6 07 b9 bd 5f 23 4d 3e
       -0.25998783 0.0730705 -0.09034686 0.20033024
0002a0 5e a1 84 3e f3 f0 07 3d 5e 12 ca bd 06 58 b4 bd
       0.25904363 0.03318877 -0.098667845 -0.08805852
0002b0 c8 39 c9 3d 86 92 8b bd 78 d9 e8 be d0 90 2c 3c
       0.09825474 -0.068150565 -0.45478415 0.010532573
0002c0 03 3f 08 3e 51 f0 81 be 44 c7 8d 3e aa b1 f6 bd
       0.13305287 -0.2537866 0.2769109 -0.120456055
0002d0 51 bd 75 3e b6 d4 99 be 78 00 a4 3e 81 5d d3 bd
       0.23998 -0.30045098 0.32031608 -0.10320569
0002e0 58 04 35 bd 9e 03 0c be d8 c2 f3 bd f4 63 8a be
       -0.044193596 -0.13673255 -0.11902398 -0.27029383
0002f0 40 09 09 bf b8 8b c4 3b d8 d8 33 3c 31 39 54 bc
       -0.5352974 0.005998101 0.010976993 -0.012953089
000300 93 44 72 be 2d 6b 84 3c 95 9b 54 3d 36 db 94 be
       -0.23658971 0.016164387 0.051906187 -0.29073495
000310 d6 60 f6 bd 87 5e 14 3e df 4e f1 3d af 9d 87 3e
       -0.12030189 0.14489184 0.117826216 0.2648749
000320 6b 6a 51 ba 5b a1 85 3d db 02 96 3e 91 8b 0b be
       -0.0007988575 0.06524917 0.29299054 -0.13627459
000330 f9 1d 47 be 90 0a 07 be fd 84 3e 3c 38 fc b6 bd
       -0.19445027 -0.13187623 0.011628387 -0.08934826
000340 b6 f3 03 bf 2c cd 5b 3c 8b 7a c7 be aa 74 58 3d
       -0.5154375 0.013415616 -0.3896068 0.052845635
000350 f8 08 ae 3d 72 c1 4a 3d 9a 8c 47 bd 8a 42 3c 3d
       0.084978044 0.04950089 -0.048718072 0.045961894
000360 cf d9 6c be 4f de 24 bd c4 e1 e8 3d e4 88 b4 3d
       -0.23129962 -0.040251072 0.113711864 0.08815172
000370 62 8e 9e be 80 ae 25 bf 81 0d ec bd 82 85 fd bd
       -0.30968004 -0.6471939 -0.11526013 -0.1237898
000380 0d ed 69 3e 2e 3a 71 3e a6 49 7a be c8 8c 9e 3e
       0.22844334 0.2355735 -0.24442157 0.30966783
000390 65 b6 e3 bd fc 92 e1 be b3 63 3d 3d 26 ed 0f be
       -0.11118773 -0.44057453 0.04623766 -0.14055309
0003a0 d0 63 21 3e 24 aa 1b 3d 40 4a 8b bd bb b0 b6 bb
       0.15760732 0.038004056 -0.068012714 -0.005575267
0003b0 c5 4c dd bd 5c 75 7d be 43 45 a1 3d 80 3d d5 3a
       -0.10805658 -0.247518 0.07874539 0.0016268939
0003c0 63 19 03 be a3 3c c2 bd a5 24 10 3e f1 90 ad bb
       -0.12802653 -0.09484222 0.14076479 -0.0052968194
0003d0 a8 3b 74 be 6f b3 b2 bc db 5e aa 3d 6e f8 4f 3b
       -0.23850882 -0.021814076 0.083188735 0.003173377
0003e0 c9 d5 6d 39 0a 2b 13 3e 28 b7 7b 3e dd bc a6 3d
       0.00022681722 0.14371887 0.24581587 0.081414916
0003f0 df c8 f5 be 1e 86 4a bc 89 5b d4 3d c8 96 4f 3a
       -0.48004815 -0.012361078 0.103690214 0.00079188915

actor.2.bias f4 [128]
000000 8b f5 41 be 5c 9a b3 be 3f 64 99 3e a5 7e fa 3d
       -0.18941323 -0.35078704 0.29959294 0.12231187
000010 de 65 54 be b7 57 89 bd fd 58 19 3e 0a a1 f3 be
       -0.20741984 -0.067061834 0.14975353 -0.475838
000020 aa 96 b2 3d 5d 79 84 be 3b c4 ab 3a 55 fe a3 bd
       0.08720143 -0.25873843 0.0013104746 -0.08007494
000030 b0 57 39 be f7 92 ff be 40 88 82 be 42 90 1c bf
       -0.18099856 -0.49916813 -0.25494576 -0.6115762
000040 03 b5 b1 be 74 97 04 3b d0 eb a5 be 7b b2 87 3e
       -0.34708413 0.0020231875 -0.32406473 0.26503357
000050 4a fd 25 bd 05 fc 8c be d6 28 a7 be 27 ff 4b be
       -0.04052476 -0.27536026 -0.32648343 -0.19921552
000060 40 b8 b5 bd a8 a6 e4 3d 7a 67 8b 3e b5 07 80 be
       -0.088730335 0.111646 0.27227384 -0.2500588
000070 ee f2 0d 3d b1 c8 4a bc 24 3c 73 be 69 bf dd bb
       0.034655504 -0.01237695 -0.2375341 -0.0067672026
000080 a6 ee 49 be 1a 47 1f be e2 22 c5 be 17 e2 95 be
       -0.19719943 -0.15554467 -0.38503176 -0.29274055
000090 31 b6 52 bd 9e 0a ab bd 45 33 53 be 31 c8 d7 be
       -0.051443283 -0.083516344 -0.20625027 -0.4214492
0000a0 26 6d 89 bd ee 8f 57 be 2e 85 15 3d 93 47 7f be
       -0.067102715 -0.21050999 0.036503963 -0.24929647
0000b0 e6 f7 f9 bd e0 f1 01 bf 06 25 8d 3e af a6 63 3d
       -0.12205486 -0.50759697 0.2756731 0.055578884
0000c0 0e d5 3d be b8 b8 aa bd ca ce da bc 6f 54 d7 be
       -0.18538305 -0.083360136 -0.026709933 -0.42056605
0000d0 aa 50 c4 bd 79 45 9a be fb 54 6f 3e 2b 9a 10 3d
       -0.09585698 -0.30131128 0.23372261 0.035303276
0000e0 e5 c4 dc 3d e8 3a d2 3d 65 d7 cc be 08 f8 9f be
       0.10779742 0.10265142 -0.40008083 -0.3124392
0000f0 01 f6 cf 3d 32 55 40 3e 7d 17 96 be 7e 2d c9 bd
       0.101543434 0.187825 -0.29314795 -0.0982313
000100 71 fd 0d 3e 1a 4a c0 be 86 eb 0b bc e9 21 dd be
       0.13866211 -0.37556535 -0.00854004 -0.43189934
000110 a2 39 36 3d e8 79 a4 be 5d 0d f9 bd d6 2b b7 be
       0.044488557 -0.32124257 -0.12160752 -0.35775632
000120 6a cc 51 3e b1 44 6e 3e e8 63 10 be 94 31 64 be
       0.20488134 0.23268391 -0.14100611 -0.22284538
000130 54 09 95 bc 46 5b d4 bd a7 2f 03 bd 9c 74 cc 3c
       -0.018192925 -0.103689715 -0.032027867 0.024957947
000140 1c da 56 be 10 01 ba bc 4f 01 f6 be d1 49 9d 3d
       -0.2098164 -0.022705585 -0.48047873 0.07680095
000150 1f 1d bc be 56 2b c7 be c0 13 30 3d 9b bd 4e be
       -0.36740968 -0.3890025 0.042987585 -0.20189516
000160 33 2a bf be 0e ba 2b be 0f b6 9b be ba b5 08 be
       -0.37336883 -0.16770193 -0.30412337 -0.13350573
000170 6b df 41 bd c1 89 9d be fd a2 f5 3e 99 8b 80 be
       -0.04733221 -0.3076916 0.47975913 -0.25106505
000180 fa d7 9e 3e d7 54 d1 be 0b 09 36 bd 3c b2 67 be
       0.31024152 -0.4088504 -0.044442218 -0.22626585
000190 fc 92 41 be 5f ea e0 bd 05 5c f1 bd 8d ea 96 be
       -0.18903726 -0.10982203 -0.117851295 -0.29475823
0001a0 32 88 0a 3e da 0d cd 3d 02 cc 6c be 18 7c e2 be
       0.13528517 0.100124076 -0.23124698 -0.442353
0001b0 33 63 18 3d 9f 64 4f be d1 df a9 bd a0 c5 db 3d
       0.03720398 -0.20253228 -0.08294643 0.10731053
0001c0 3b 3b 8d bc 1a f6 b3 bd a1 a9 cc be 5a a4 4b be
       -0.017240157 -0.087871745 -0.39973167 -0.19886914
0001d0 3a b4 1d be 99 dc b2 bb 65 84 cb be 61 ae c0 be
       -0.15400782 -0.005458426 -0.39749447 -0.3763304
0001e0 6c 32 99 be 73 d3 9a be 26 08 e1 bd d2 9c bb 3e
       -0.2992128 -0.30239448 -0.10987882 0.36643082
0001f0 05 76 87 3d 65 da e0 be 6a 6f a2 be 85 d7 ad bf
       0.06614307 -0.43916622 -0.31725627 -1.3581396

actor.4.weight f4 [128, 128]
000000 0f 38 ea bc 49 f9 05 be 6f 73 86 3c 47 3f 6b 3d
       -0.028591184 -0.13083376 0.016412465 0.057433393
000010 53 cd bd bd c6 a7 ff bd 90 67 4a 3d 8a 97 2c 3d
       -0.09267678 -0.12483172 0.04941517 0.042136706
000020 8d 43 de bd 13 a6 68 3d 62 03 ae bd b1 73 ee bd
       -0.10852728 0.056799006 -0.08496739 -0.1164316
000030 9a 21 9c bd 59 99 85 3d ad a1 9c bd aa 73 44 bd
       -0.076235965 0.06523389 -0.07648025 -0.04796187
000040 60 22 d8 bd 69 48 0b be 20 49 8e bc 2b 1e 60 3d
       -0.105534315 -0.13601841 -0.017368853 0.05471627
000050 c0 bc 6e be 2d c8 db bd a9 7c 0e be a8 ab 46 be
       -0.2331419 -0.1073154 -0.13914742 -0.19401419
000060 d5 2b d2 bc a6 29 ff 3d 89 bb 32 3d 98 e1 e0 bd
       -0.025655666 0.12459116 0.04363588 -0.109805286
000070 27 c8 72 bd 43 01 a6 bd b4 f3 01 be 02 70 aa bc
       -0.05927291 -0.081057094 -0.12690622 -0.020805363
000080 a7 2a 99 bd 9e 42 9d 3c 9e 8d 5a 3d a9 d7 11 3d
       -0.074788384 0.019196805 0.053357713 0.03560606
000090 d7 08 e5 bc b1 af ee bc 49 37 3f be 0f 0d 6a be
       -0.027958317 -0.02913651 -0.18673433 -0.22856544
0000a0 61 dd 30 be f9 8f 42 3e 3d 07 2b bd 21 08 b2 be
       -0.1727195 0.19000234 -0.04175495 -0.34771827
0000b0 a9 0c 10 3e e6 ae 70 3d 3a c7 cc bd a2 f1 42 3e
       0.1406733 0.058760546 -0.09998937 0.19037488
0000c0 55 34 b6 3b 77 60 68 bc e8 e2 a8 bd 43 77 23 be
       0.0055604377 -0.014183155 -0.08246404 -0.15963463
0000d0 1c 40 81 be e8 48 ea 3b e8 7e 38 bd 52 7f 48 be
       -0.25244224 0.0071498044 -0.045042902 -0.19579819
0000e0 8f 5c 0b be 82 12 59 bd b8 2e bd bd d6 e8 27 3e
       -0.13609527 -0.052996166 -0.092374265 0.16397414
0000f0 2d ab 9a 3e 04 f5 23 bc 96 4a 1a bc b5 64 8c 3d
       0.30208722 -0.010007147 -0.009417197 0.06855146
000100 6a 18 94 bd 5d 37 04 be bf d5 56 3d af 51 9d 3c
       -0.07231219 -0.12911744 0.052449938 0.019203989
000110 f7 73 3a 3d 5b 79 1f be c2 fd 35 be e2 c4 20 3e
       0.04552075 -0.15573637 -0.17772582 0.15700105
000120 eb eb f4 3d 71 15 b2 b9 33 c2 d2 bd e7 00 86 3e
       0.1195906 -0.0003396678 -0.10290947 0.26172563
000130 91 47 ff bd 5e 6a b8 bd c4 7f 80 3c c3 7e 19 bd
       -0.12464822 -0.09004663 0.015685923 -0.037474405
000140 2a 07 3d 3e 09 37 3d bd 66 97 a9 3d 1b a0 2d be
       0.18459764 -0.046195064 0.0828083 -0.16955607
000150 6d 85 c3 bd ed 18 10 bc dd a2 b9 3d 2c ca ad bc
       -0.09546933 -0.008795005 0.09064267 -0.021214567
000160 17 ad 21 3c 7f 31 31 bd 14 7e 54 bd 32 88 21 3e
       0.009867928 -0.043260094 -0.05187805 0.1577461
000170 61 24 04 be 80 17 f6 bd ea 76 c2 bc 84 3b 19 3d
       -0.12904502 -0.12016201 -0.023738343 0.037410274
000180 1a 4f 61 3c 63 b7 98 3d 72 32 4d 3e 87 6a 5d be
       0.013751769 0.07456853 0.20038775 -0.21622668
000190 44 7e d6 bd 63 c3 e0 3d e5 92 15 3e d2 88 f3 3d
       -0.10473302 0.10974767 0.14606817 0.11891331
0001a0 ce 4a 5d be 8d 5e 41 3e b7 e5 fa 3d cf d7 2f bc
       -0.21610567 0.18883725 0.12250846 -0.010732605
0001b0 46 65 35 bc 57 9c 39 3e de 72 a2 bd d5 8f b0 3d
       -0.011071509 0.18126045 -0.079320654 0.08621184
0001c0 16 db bd 3d 12 0c 50 3d a5 d7 82 bd 91 4d 8e 3c
       0.09270303 0.05079276 -0.06388787 0.01737097
0001d0 b0 49 a9 bd a8 eb 20 bf d1 a0 09 be 9f 42 7f bd
       -0.08266008 -0.6285958 -0.13440253 -0.062319394
0001e0 a1 6d 82 bd ca e6 3d bd 62 3c 98 bd 70 77 47 bd
       -0.06368566 -0.046362676 -0.07433392 -0.04869789
0001f0 65 c5 95 bc 74 ec 1d bd ac 64 b2 3d 57 2f d9 3c
       -0.018282602 -0.038555577 0.08710608 0.026511831
000200 64 d8 1c be e0 a0 07 3e e4 2e 48 be ad 65 41 be
       -0.15316921 0.13244963 -0.19549137 -0.18886442
000210 4a 18 ce bc de 49 24 3e 87 67 b0 be 0b 34 df 3d
       -0.025158066 0.16043803 -0.34453985 0.10898598
000220 d5 b7 99 bd 04 b6 34 3d 40 47 66 3e bc 80 47 3e
       -0.07505766 0.044118896 0.22488117 0.19482702
000230 04 df 37 be c3 ad 72 be 6c a8 15 3d 36 a0 83 3d
       -0.17956167 -0.23699097 0.036537573 0.06427042
000240 16 28 b6 bd a8 8f 68 bd be 78 85 bd 51 01 30 bd
       -0.088943645 -0.056777626 -0.0651717 -0.042970005
000250 40 70 d2 bd 59 0a aa 3c a3 52 86 be 65 ab b0 3e
       -0.10275316 0.020756887 -0.26234922 0.34505764
000260 3c 61 ff bd 7d ee 0a be 2a 28 a3 bd 98 21 54 bc
       -0.12469718 -0.13567539 -0.07966645 -0.0129474625
000270 18 19 8c 3b 30 da bd bd ec 05 0a be 13 35 2b bf
       0.0042754523 -0.092701316 -0.13478822 -0.6687786
000280 e8 59 25 3e 69 49 58 bc b2 49 d9 3c 8d 60 ad 3d
       0.16147578 -0.013201096 0.026524398 0.08465681
000290 50 8d 50 3d 30 23 0a be fa f2 8e bd 47 58 aa be
       0.050916016 -0.13489985 -0.06979938 -0.33270475
0002a0 d0 87 52 3e 77 91 64 be d8 e3 18 bd c7 ca a7 bb
       0.20559621 -0.22321115 -0.037326664 -0.0051206085
0002b0 a6 36 be 3d 14 9a ce 3d 31 42 a0 bd 3f 0d 5c be
       0.09287767 0.10087982 -0.07825125 -0.21489428
0002c0 2c d6 dd bd 5c 05 3b be 41 b7 9c 3e f9 81 d6 bd
       -0.10831866 -0.18263763 0.30608562 -0.10474009
0002d0 0c 4a 1e 3e 90 7f 6c be 05 dd 23 3d 95 1e bb bd
       0.15457934 -0.23095536 0.040005703 -0.091366924
0002e0 8c 99 d4 3e 5e 87 e1 3b 0f 6a 58 bd fe 8f d0 3d
       0.41523397 0.006882592 -0.05283552 0.10183714
0002f0 01 cc a4 3d dd b3 5d 3e 2f 9c 43 3e 07 a5 39 be
       0.08046723 0.21650644 0.19102548 -0.18129359
000300 43 03 72 be 52 2f 1e be eb e3 69 3e f7 be 84 3e
       -0.23634057 -0.15447739 0.2284085 0.25926945
000310 79 76 88 be 1b 0c 9c bd 5a 4e 70 bc 7a 08 09 be
       -0.26652887 -0.076194964 -0.014667118 -0.1338214
000320 61 49 e2 3b e4 8d 3e bd dc 1c 61 be 52 b4 56 be
       0.00690572 -0.046522036 -0.21983665 -0.20967224
000330 1c aa 5b bd 78 15 ed ba 9a 25 3c bd f1 95 c6 bd
       -0.053629026 -0.0018088063 -0.045934297 -0.09696568
000340 02 5e 7f 3e 35 18 94 be c6 95 90 3e ce 96 19 3e
       0.24938205 -0.28924718 0.28239268 0.14998934
000350 6b 05 f4 3d 58 e3 70 3e 35 3c 3e be 29 e1 05 be
       0.11915096 0.23524225 -0.18577655 -0.13074173
000360 30 93 7d bd bf 7b 96 bd 6e 5b 90 3d 0f 39 46 be
       -0.061907947 -0.073478214 0.07048689 -0.19357704
000370 b5 e6 42 3e a1 5e f6 bd a7 93 25 be 6c c2 d6 bd
       0.1903332 -0.12029768 -0.16169606 -0.10486302
000380 7e 76 c5 bd 5e a0 57 be a2 13 ee 3d 95 fd 73 3d
       -0.09641741 -0.21057269 0.116248384 0.059568007
000390 fc aa aa 3d b9 1e e5 3d 37 a0 9f 3e ea 2f c9 3d
       0.08333394 0.111875005 0.31176922 0.09823592
0003a0 27 f5 1f bd 3c 1f a6 3b 55 29 2d 3e ba b9 7d bd
       -0.039052155 0.0050696414 0.16910298 -0.0619447
0003b0 d1 b7 47 be c2 f8 23 bd 57 ea 5d 3d 29 c2 26 bd
       -0.19503714 -0.040032156 0.054178562 -0.04071251
0003c0 87 da f9 bc c9 d3 fa 3d 4c e4 11 3e d2 4c ac 3d
       -0.03049971 0.12247426 0.14247245 0.0841309
0003d0 b4 01 27 be 66 ec d9 bd f4 04 10 3e 54 d7 84 bd
       -0.16309243 -0.106407925 0.1406439 -0.06486383
0003e0 d9 b1 20 3e ee 51 87 bb 27 4f 86 bd 59 47 fe bc
       0.15692843 -0.00412964 -0.06558066 -0.03103988
0003f0 63 eb 2b bb 6d e4 5b be 4a 57 8a 3d d0 97 05 3e
       -0.002623283 -0.21473856 0.0675493 0.13046193

actor.4.bias f4 [128]
000000 82 b4 b5 bd 1f a4 07 be dd 6d f9 bd d2 52 94 bc
       -0.0887232 -0.13246201 -0.12179158 -0.018105898
000010 2b 0e 80 be 24 ae 1d bf 50 31 89 be bd 3d 68 be
       -0.2501081 -0.6159384 -0.26795435 -0.22679801
000020 d6 1c 24 bf 2c 76 4e be f3 aa 2a bf b9 c0 7a be
       -0.641065 -0.20162266 -0.666671 -0.2448758
000030 e7 34 6a bc d4 62 51 be 29 d3 85 3d a3 79 b8 bc
       -0.014294839 -0.20447856 0.06534416 -0.022518938
000040 6a 35 af bd b4 5b c0 bd 8f 3d 94 be f7 34 62 bf
       -0.0855511 -0.09392491 -0.28953215 -0.8836207
000050 ef a5 eb bd 7f a5 8b be a4 8e 13 3e 2d e4 74 3d
       -0.11506259 -0.272747 0.14409882 0.059787918
000060 ad a2 83 be ce 34 02 bd 27 39 83 be 98 56 f0 3d
       -0.2571005 -0.03178864 -0.2562954 0.117352664
000070 af 03 98 be 57 f4 2f bf 8f 02 93 be 81 9c bb bc
       -0.2969031 -0.6873221 -0.2871289 -0.022901775
000080 19 c8 63 be e9 76 b9 be 3c 63 a4 be 49 ab 08 bd
       -0.222443 -0.36223534 -0.3210696 -0.033366475
000090 ca fc 53 bd b4 ac 82 be e3 ee 22 bc 33 fa 39 be
       -0.05175475 -0.25522387 -0.00994465 -0.1816185
0000a0 d2 15 07 be 61 bc 8d be f2 b9 81 bd d2 5a 8a be
       -0.13191918 -0.27682784 -0.063342944 -0.27022415
0000b0 86 9c 8b be 7f 6c d9 bd 15 d3 8d bd b1 f1 b9 3d
       -0.27267855 -0.10616397 -0.06925026 0.09079302
0000c0 04 51 a8 be bd a5 19 bf 1d 7e 86 be 59 85 9e be
       -0.3287431 -0.6001852 -0.26268092 -0.3096111
0000d0 16 1b 89 be 60 a2 39 be 61 84 32 be f0 4a a0 be
       -0.26778477 -0.18128347 -0.17433311 -0.31307173
0000e0 8f ee 5d be 2b 6b d0 bd 75 cb 0c be d4 31 18 be
       -0.21673034 -0.10176691 -0.13749488 -0.14862758
0000f0 5e ea 17 bf 11 f8 7b be a5 46 54 be 49 2c 97 bd
       -0.5934199 -0.24606349 -0.20730074 -0.073814936
000100 98 8f 18 be 8c 35 32 bd a4 81 96 bd fe 54 7e be
       -0.14898527 -0.043508098 -0.07348946 -0.2483711
000110 d3 72 73 be d5 db 87 be 29 ff 74 be 8a d6 11 be
       -0.2377427 -0.26534906 -0.23925461 -0.14241996
000120 2d ef cf 3c 65 4d 45 be 5f 27 19 be 3d 49 b5 be
       0.025382603 -0.19267805 -0.14956425 -0.3540744
000130 0a 53 1f bf e7 d6 c8 bd bc 49 09 bb 86 d1 0d be
       -0.6223608 -0.09806614 -0.002094849 -0.13849458
000140 52 61 f5 bd c8 f6 84 be d4 08 5a bd 71 69 a5 bd
       -0.11981453 -0.2596953 -0.053231075 -0.08076752
000150 3b af 2c bd e2 52 6d bd 61 46 13 bd 9b 45 ee bc
       -0.0421593 -0.05794037 -0.03595579 -0.029085925
000160 c9 17 c4 bd 41 a9 4b bd 28 44 12 bf 4c f0 d5 bd
       -0.09574849 -0.04972196 -0.5713525 -0.104462236
000170 22 af b1 be 17 34 5c bf be 51 78 be 13 49 64 bd
       -0.34703928 -0.8601698 -0.24249932 -0.05573375
000180 38 8a 66 be ca c5 17 bd f1 37 57 be 47 2d f1 3b
       -0.22513664 -0.03705386 -0.21017434 0.007360134
000190 52 48 90 be 9d 99 07 bd c7 06 ae bc e6 14 e1 be
       -0.28180176 -0.03310548 -0.021243466 -0.43961257
0001a0 c3 9d 60 be 5a 4a ae be 95 38 2b be b1 f6 91 be
       -0.21935181 -0.340411 -0.16720803 -0.28508523
0001b0 f1 d4 a6 3c 6b 59 34 bf 0f f4 99 bd 55 72 1d be
       0.02036521 -0.7044894 -0.075172536 -0.15375645
0001c0 35 55 56 be 5d e4 c5 bd 33 27 ef be ef 60 05 be
       -0.20930941 -0.096626975 -0.46709594 -0.13025258
0001d0 c1 8d a5 bd 2e 82 b6 bd 4d 9b 6f be 74 6f f7 bd
       -0.08083678 -0.089115486 -0.23399086 -0.12081805
0001e0 94 69 07 be e2 f5 8e bb 66 d9 17 bf 06 ea 90 bd
       -0.13223869 -0.0043628076 -0.593161 -0.070758864
0001f0 04 01 50 bd d8 e7 76 be 67 66 96 be 12 0e 71 3d
       -0.05078222 -0.24111879 -0.29375002 0.05885131

actor.6.weight f4 [12, 128]
000000 62 28 9e 3a 57 51 68 bd 8f df 3a 3c d8 f6 a0 3c
       0.0012066478 -0.056718197 0.01140584 0.019648954
000010 dd b7 47 ba 14 bd 4a bc 4b ef 7b bc 17 33 83 bc
       -0.00076186453 -0.012374181 -0.015376876 -0.016015572
000020 3f 8c 68 bd 77 1b 11 3d 82 ba 07 bb 15 27 5f bc
       -0.056774374 0.035426583 -0.0020710533 -0.013620158
000030 9f e9 1c bc 05 8a a9 bd b5 bb fa 3b a8 52 8b 3c
       -0.009577184 -0.08278278 0.007651771 0.017007187
000040 13 ad 16 3d fe ec 5e 3b 7d 29 08 bb 92 86 e8 bb
       0.03678615 0.003401577 -0.0020776682 -0.00709612
000050 13 9b 93 bc 78 ab 98 3c d9 6b 3e bb f5 1a 77 ba
       -0.018018281 0.01863645 -0.0029055981 -0.0009426319
000060 7d ab 65 ba a7 14 99 bc 32 8f 8c 3c 62 89 d7 3b
       -0.00087612105 -0.018686606 0.017158125 0.0065776566
000070 0f 9c e7 3c 38 76 5a 3d 7f d2 a0 bc 77 87 f5 3b
       0.028272657 0.0533354 -0.019631622 0.0074929553
000080 e9 2a aa bd dd 75 dd bb 68 cd 35 bd d4 cd 72 bc
       -0.08308966 -0.006758435 -0.044385344 -0.014819581
000090 a4 46 a2 3c 0a 3c 0d bc b8 14 c8 bc 2d 5f b3 3d
       0.019809075 -0.008620271 -0.024423942 0.08758388
0000a0 5a d5 00 bd a1 2a 16 3d 18 f3 14 bd 05 be d9 bc
       -0.031453468 0.036661748 -0.036364645 -0.026579866
0000b0 dc 7f a7 3c e3 8e eb bb 02 05 21 3d 9e 55 70 3c
       0.02044671 -0.0071886643 0.039311416 0.01466885
0000c0 af d9 f0 39 4a 2c 85 bb 14 ad c1 bb 2b e3 d2 3c
       0.00045938554 -0.0040641176 -0.005910525 0.025743088
0000d0 84 43 89 bc fd 45 d4 bc 2f ca 82 bb 5a 6b 49 bb
       -0.016755827 -0.02591228 -0.0039913873 -0.0030734153
0000e0 52 e9 4c 3c 2c 86 9c bc cf b1 43 bc 67 44 2b 3d
       0.0125068 -0.019106947 -0.011944248 0.04181328
0000f0 4f b8 81 bc fc d8 2e bd cb 3c ef 3c bd 83 1e 3c
       -0.015834955 -0.0426874 0.029203793 0.009674964
000100 ba 2d 87 3c 2c 80 fb 3c 19 00 10 3c 13 5d cb bc
       0.016501296 0.030700766 0.008789086 -0.024824655
000110 59 e4 7e 3d c2 54 a9 bc c7 b0 6c ba 67 40 3d bb
       0.062229488 -0.020670298 -0.00090290274 -0.0028877498
000120 1b cc 24 bc 15 32 eb 3c 25 bb 07 3d fe aa 79 3c
       -0.010058428 0.028710404 0.03313746 0.015238522
000130 33 fa 63 bb 60 36 1f 3d ae 42 5a bb c6 09 4f 3c
       -0.0034786582 0.038870215 -0.0033303904 0.0126366075
000140 45 dc b2 37 01 f0 ad bc 4e ad 84 ba 41 90 96 3c
       2.1321825e-05 -0.021232607 -0.001012245 0.018379332
000150 6e 8b b7 bb 25 1d 30 3d df 7c b7 bc 62 11 12 bb
       -0.005601338 0.042996544 -0.02239841 -0.0022288193
000160 e3 ac 49 bc c0 65 91 3c a8 35 5d 3c 0b 64 6b 3c
       -0.012309286 0.017748713 0.013501562 0.014367114
000170 84 2e 8b bc 9b 89 8d 3c f3 18 b1 3b 18 a2 ae 3c
       -0.016989954 0.01727753 0.0054045855 0.021317527
000180 ba f3 d8 bc 57 74 0e 3d ac 2b 78 3c ed 08 9d bc
       -0.026483405 0.03477892 0.015147131 -0.019169295
000190 25 f3 bd 3c 37 3e 71 3c 6b bd 66 3b e9 c5 4b bc
       0.02318723 0.014724306 0.0035208117 -0.012437322
0001a0 b0 76 98 3c 6d 86 04 3d fe e6 30 3d b6 02 0f 3c
       0.018611282 0.03235476 0.04318904 0.008728674
0001b0 a0 a0 d9 bc f2 98 6b 3d 36 fc 32 3b d0 49 d5 bc
       -0.02656585 0.057518907 0.0027310974 -0.026036173
0001c0 d1 54 b0 bc fd c8 95 bc 53 7d a2 bc 9a 1d 1b 3c
       -0.021524819 -0.018284315 -0.01983515 0.009467507
0001d0 d9 9a 59 bb b2 15 0e bc 6c 6e 51 3c 69 67 83 bc
       -0.0033203869 -0.008672165 0.012782674 -0.01604052
0001e0 e3 18 7c 3c 14 66 0c 3c 57 a4 bf 3c 22 1e 10 3c
       0.015386793 0.008569259 0.023393793 0.008796247
0001f0 f5 03 04 3d 79 45 01 bc 95 2c d2 bc 35 66 45 bb
       0.032230336 -0.007890099 -0.025656024 -0.0030120735
000200 4e d3 5c 3b 73 20 01 3d 91 07 94 bc 08 6c f9 bb
       0.0033695283 0.031525087 -0.018070014 -0.0076117553
000210 b3 e8 63 b9 66 3d 68 3d fe b8 84 3c 9f 88 0f bd
       -0.00021735094 0.05669918 0.016201492 -0.0350424
000220 73 96 46 3c 98 89 83 3c b0 05 57 3b 60 5c a9 3c
       0.012120831 0.01605682 0.0032809786 0.02067393
000230 bf c2 11 bc 08 4e ab 3d 3c 79 8a bc 73 2e de bb
       -0.008896529 0.08364493 -0.016903512 -0.0067804395
000240 da bf 71 3c 00 38 ff bc 72 cc d8 3c f5 de 8f bc
       0.014755214 -0.031154633 0.026464675 -0.017562369
000250 b2 45 ad bc ef 2f 0f 3c 55 35 5c 3b ad 5d 50 ba
       -0.021151397 0.008739456 0.0033601124 -0.0007948529
000260 53 3f c6 3c 4e b3 11 3d 0e 35 ad 3c 73 b9 cc bb
       0.024200117 0.03557139 0.021143463 -0.006247693
000270 21 85 41 3b 14 eb 6a bd c3 64 36 3d 7a 42 9e bc
       0.0029528814 -0.057353094 0.044529688 -0.019318808
000280 70 58 aa 3d 43 ed 11 bc 63 ab a3 3c 8e 14 19 bd
       0.08317649 -0.008906665 0.019979184 -0.037373118
000290 c0 03 80 3b 18 41 98 bc a7 03 c3 3c 43 27 7e bd
       0.003906697 -0.018585727 0.023805453 -0.06204916
0002a0 2e 0c 65 3d 4f b6 2e 3d 2a b6 99 3c 58 e7 cc 3a
       0.05591982 0.04265433 0.01876362 0.0015632911
0002b0 e8 bc 04 3c 7d 7e 0f bc 25 ef 21 3b 68 cd 2c 3c
       0.008101679 -0.0087581845 0.0024709192 0.01054702
0002c0 33 c2 7a bc b3 5d 95 bb 3e 1f d5 3c 6f 4b bb bc
       -0.01530509 -0.004558289 0.026015874 -0.022863118
0002d0 c9 f0 78 3c e4 e2 58 bc 32 0a f0 bc 0f 19 ed bc
       0.015194126 -0.013237689 -0.029301737 -0.028942613
0002e0 12 77 47 bc d0 ca 08 bd e8 85 4c bb 6b 66 d0 3c
       -0.012174385 -0.033396542 -0.0031207744 0.025439462
0002f0 08 90 97 bc d4 b1 17 bd a0 e6 70 3b eb c5 23 bc
       -0.018501297 -0.037034824 0.0036758557 -0.009995918
000300 a8 4a 32 bd 75 f8 5f bb 68 37 dc 3b 6e bf 87 3a
       -0.04352823 -0.0034175192 0.006720472 0.0010356733
000310 5d a9 b4 bd 92 cd 5a 3c 19 7c 86 bc 00 e8 55 3b
       -0.08821366 0.013354676 -0.016416596 0.0032639503
000320 02 3d 7c bc f9 40 d5 3c 23 06 9c 3c 90 69 8f b9
       -0.015395405 0.026031958 0.019045895 -0.00027353736
000330 36 f3 0d 3b 48 24 1f bd 4b 6a eb b9 91 82 d4 3c
       0.0021659858 -0.03885296 -0.00044901887 0.025941165
000340 78 80 92 3c 40 f4 8a bc 8b 92 14 3b 0d 26 43 bc
       0.017883524 -0.01696217 0.0022670354 -0.0119109275
000350 49 58 0a 3c b8 37 96 bc ae 2a d7 3c 3b b8 1f bd
       0.0084439 -0.018337116 0.026265468 -0.038994055
000360 ba 24 06 3c b4 75 30 bd 6d 54 5a bc 0c cd 77 bc
       0.008187467 -0.043081 -0.013325793 -0.015124571
000370 05 2c 02 bd e7 f1 e6 3b aa 41 98 bc fa e2 97 3c
       -0.03178026 0.00704788 -0.018585999 0.018540848
000380 5f f6 ed bc 6f 92 5c bb 8a ba 03 3a 47 a7 02 bd
       -0.029048143 -0.0033656617 0.000502505 -0.03189781
000390 70 e6 d4 bc 85 38 74 bc 8e 2c 0d bd df 4f a3 3c
       -0.025988787 -0.014906053 -0.03446632 0.019935546
0003a0 b7 71 ad bb 7f 9c 8d 3c ea 93 82 bc 11 75 d5 3b
       -0.005293097 0.017286537 -0.015939672 0.0065141995
0003b0 4a cd b6 3c dd 8f 5a bd 30 b9 47 3c 0d a2 2c bd
       0.022314686 -0.053359855 0.012190148 -0.04214673
0003c0 b4 3a 55 bc 77 67 f8 38 a5 52 4a 3c 04 a9 82 3c
       -0.013014484 0.00011844833 0.012348806 0.015949734
0003d0 36 e3 a4 bc e2 cb 42 3c 5f 58 b1 3c 92 d4 17 bc
       -0.020127874 0.01188943 0.021648584 -0.009266989
0003e0 cb 65 15 bc d4 e5 20 3c 97 3e ac 3c b7 87 74 bc
       -0.009118508 0.00982042 0.021025939 -0.014924935
0003f0 cd f6 9f 3c 47 55 a7 bc 55 0c d0 3b 8a fb 67 3b
       0.019526863 -0.020426406 0.0063491263 0.0035397732

actor.6.bias f4 [12]
000000 25 e3 80 bc 0b a7 71 3c 4f e3 34 bd 95 f3 38 3d
       -0.015733311 0.014749299 -0.04416209 0.045154173
000010 0e 95 b3 bc 66 13 bd bc 9e 20 f9 3d 9e 53 fc 3d
       -0.02192166 -0.023080539 0.12164424 0.12320636
000020 8f 1a 9f 3e 57 23 a0 3e 7c fb a7 3e 9f 8b a6 3e
       0.3107495 0.31276962 0.32809055 0.32528397
