tested_policies/aliengo/8k_128_128_128_aliengo_stop_and_go/exported/policy.onnx (onnx, 273175 bytes, 8 tensors)

actor.0.weight f4 [128, 260]
000000 9e 63 12 3f 7f c9 e1 3e 75 e7 36 3f ca 5c e9 bc
       0.57183254 0.44099042 0.71446925 -0.028486628
000010 ef 61 8f bd 59 03 c1 3d b0 08 3b 3d 34 1c 63 be
       -0.07001101 0.09424467 0.045662582 -0.22178727
000020 5f 0b 11 3e 49 ad de 3e 89 13 6e 3f 35 3c 74 3e
       0.14164494 0.4349158 0.9299856 0.23851092
000030 30 24 f3 be d1 bd dc 3e 83 56 e4 3c b0 25 60 3e
       -0.47488546 0.43113568 0.027873283 0.21889377
000040 62 b9 2b 3f 30 3c 20 3d 9a fc ba bd 14 5a 8c 3e
       0.67079747 0.0391199 -0.09130211 0.27412474
000050 46 ba 63 be 20 d4 46 3d 14 27 0c be 13 62 f2 3d
       -0.22239026 0.048542142 -0.13686782 0.118351124
000060 4a 71 2c 3d 30 21 88 be f6 1c 83 be 90 87 86 3c
       0.04210023 -0.2658782 -0.25608033 0.016422063
000070 84 c3 03 bd cb ce 17 3d b0 5d 9e 3d 1c 13 a4 bd
       -0.03216888 0.037062448 0.07732713 -0.08011457
000080 0a 1e 9f bd db bd 07 3d 4e dd 1f 3e 81 db 6d bd
       -0.07769401 0.033140045 0.15611765 -0.058070663
000090 16 57 80 bc 22 e6 3f 3d 89 76 ab 3c 32 52 1c be
       -0.015666526 0.04685033 0.020930545 -0.1526573
0000a0 4c fb 69 3d c6 5a b2 bd e9 a2 1f 3e e1 03 b5 3c
       0.05712442 -0.0870872 0.15589489 0.022096576
0000b0 17 ea 6f be 70 14 9f bd 9b 40 7e 3c b4 4f 4e 3d
       -0.23429142 -0.0776757 0.015518333 0.05036898
0000c0 27 9f 89 bc 42 e3 bc be 6a 4b a1 be 12 24 26 3d
       -0.016799523 -0.36892134 -0.3150285 0.040561743
0000d0 b0 59 1c 3f 8c ff 3c 3e 34 5f fd 3e 99 51 36 be
       0.6107435 0.18456858 0.49486697 -0.17804565
0000e0 d9 1c 39 bd 32 26 b2 3c 73 54 06 bd 21 6d 5b be
       -0.045193527 0.021746729 -0.03279538 -0.21428348
0000f0 fc b1 87 3d 56 88 09 3f 3f 1d 71 3f 85 cb af 3e
       0.06625745 0.5372366 0.9418525 0.3433496
000100 74 05 dd be b6 98 e1 3e 2b e8 86 bd 89 6b 34 3e
       -0.43168223 0.44061822 -0.06587251 0.17619146
000110 f7 54 26 3f 12 37 a7 3d 73 08 a5 bd 4f 1b 6c 3e
       0.64973396 0.08164801 -0.08058252 0.23057292
000120 6d 5a 07 be 85 c7 a6 3c 72 87 a1 bd 81 c3 76 3e
       -0.13218088 0.02035881 -0.07887162 0.24098016
000130 a6 a1 0d bd 47 b9 1b be 1f b6 a2 3d b5 aa 3c 3e
       -0.034577988 -0.15207396 0.07944893 0.18424495
000140 11 41 7d 3c 25 ed 80 bc 8f cd eb 3d 56 b5 8a bc
       0.015457408 -0.01573808 0.115138166 -0.01693217
000150 04 17 22 3d 14 78 f5 3d 33 fc a1 3c ac f0 25 3d
       0.03957273 0.11985794 0.019773578 0.040512726
000160 08 44 a2 3d 95 ad 9a 3d 75 cd 7a 39 74 6b 24 be
       0.07923132 0.075526394 0.00023918397 -0.16056615
000170 33 76 65 bd 68 40 dc bd e3 e5 74 3d b5 0d 8f bd
       -0.056020927 -0.10754472 0.05978955 -0.06985036
000180 6d 6d 07 be 53 6d 39 bd ab 76 62 3c 78 dc d3 bd
       -0.13225336 -0.045270275 0.013822238 -0.103447855
000190 4f c3 5e 3d 6d 9a c0 be 89 61 c8 be e9 a0 8e 3d
       0.05438548 -0.37617818 -0.39136913 0.06964285
0001a0 5a 32 25 3f be a7 1b bd ca 22 da 3e 8e dc a3 bd
       0.64529955 -0.03800177 0.42604667 -0.08001052
0001b0 25 72 ba bd cd 6b 98 bd 74 48 a9 bc 4b 51 a2 be
       -0.091038026 -0.07442436 -0.020664431 -0.31702647
0001c0 d8 ea 08 3e 6e 8e 3c 3f dc bc 6f 3f 91 9e 9e 3e
       0.13370836 0.7365483 0.9364755 0.30980352
0001d0 86 73 04 bf 95 4d be 3e 49 90 6d bd 79 4c 58 3e
       -0.51738775 0.37168565 -0.05799893 0.21122922
0001e0 ea eb 02 3f 36 39 82 3d f6 f0 af bd b0 52 45 3e
       0.51141226 0.06358568 -0.085908815 0.19269824
0001f0 28 b0 ba bd 49 18 56 3d e3 42 6d bd f3 fc 8c 3e
       -0.091156304 0.052269254 -0.057925116 0.27536735
000200 80 47 0a be 5a e2 b0 bd 06 eb 11 bd 4e 46 29 3d
       -0.13503838 -0.08636923 -0.035624526 0.041326813
000210 da b7 35 bd c5 8e a5 3d b9 e1 ad 3d b1 d9 89 bc
       -0.044364788 0.08083872 0.08490319 -0.016827436
000220 73 df 6f bc f5 c8 c3 3d 29 f4 a9 3d cf 82 47 bd
       -0.014640677 0.09559814 0.08298523 -0.048708733
000230 d4 78 53 be 46 7a 5b bd 55 2b 1b bd 1a 3e 1c 3d
       -0.20651561 -0.053583406 -0.03788312 0.038145162
000240 3f 0f c2 bd 20 82 5e 3d 2e 75 c1 bc 32 e4 38 3d
       -0.09475564 0.054323316 -0.023615446 0.0451395
000250 55 31 1a be 2c 6b 99 bd ec d2 e4 3b 18 fe b0 3d
       -0.15057881 -0.074911445 0.0069831517 0.086422145
000260 7b 6d b5 3d 36 06 ee be f4 bc f8 be e0 d5 b9 3d
       0.08858772 -0.46489114 -0.4858166 0.090739965
000270 59 ac 2a 3f e6 b6 60 be 04 82 f7 3e c4 bd ab 3d
       0.6666923 -0.2194477 0.48341382 0.08385804
000280 8e 77 c3 be fc 1a 92 be fc 4d 40 bd e2 c6 ca be
       -0.3817715 -0.28536212 -0.04694937 -0.3960486
000290 0e 96 0d 3e 93 a4 67 3f 74 e2 84 3f 5e f9 cf 3e
       0.13826773 0.90485495 1.0381608 0.4061994
0002a0 c2 f5 04 bf d8 2c cd 3e 7d ce 9d bd a5 2b 3f 3e
       -0.51937497 0.40073276 -0.077054 0.18668993
0002b0 98 bf 07 3f a3 9d d5 3d 7e c9 df bc af b9 d5 3d
       0.53026724 0.104304574 -0.027317759 0.10435807
0002c0 48 f8 d4 bd 8f 4d 7d 3d 4a f0 07 be 8e 64 5f 3e
       -0.103989184 0.061841544 -0.13275257 0.21815702
0002d0 8e 2c ca 3d 8c a3 fb 3d e6 9a 5e bd d9 41 23 3e
       0.098717794 0.122870535 -0.05434694 0.15943088
0002e0 32 bc 08 bc 87 fc 0b 3e 54 15 80 bd 0b 14 9b bd
       -0.0083456505 0.1367055 -0.06254068 -0.07572182
0002f0 d5 67 0f 3d c0 e1 c4 3d 89 cc 6e 3b e7 0f cb bd
       0.03501113 0.09613371 0.003643783 -0.099151425
000300 34 a4 64 be 68 64 b2 3d 0a c9 0c be 27 81 12 be
       -0.22328264 0.08710557 -0.13748565 -0.1430708
000310 93 a9 08 be 0f c2 87 3d e6 ad 28 bd 09 f2 02 3e
       -0.13345937 0.066288106 -0.041181467 0.12787642
000320 49 4f ad be 5c d2 59 bc 40 a8 28 bd 82 6a 4a be
       -0.33849552 -0.0132947825 -0.04117608 -0.19767192
000330 10 2a 01 3e fd cd c4 be 8f 2b 9c be 81 8f d6 3d
       0.12613702 -0.38438407 -0.30501983 0.1047659
000340 a8 e2 41 3f b0 5a e4 be b6 cf 62 3d 85 1c a0 be
       0.75736475 -0.4460044 0.05537387 -0.3127176
000350 d8 ee 54 be bf 98 2e 3f c6 01 a3 3d 0c 22 ee be
       -0.20794237 0.6820182 0.07959323 -0.4651035
000360 fc fa d1 3d 8b 29 9c 3f 3f 6c a0 3f 3d 55 05 3f
       0.102529496 1.2200178 1.2533034 0.5208319
000370 a9 e5 ef be 79 8c c4 3e 7c e9 c1 3d 60 42 88 3e
       -0.46854904 0.38388422 0.09468362 0.2661314
000380 11 d1 ee 3e b1 49 30 3e 6f c1 de bd b4 7d 08 3e
       0.4664388 0.17215611 -0.10876738 0.13329202
000390 ca e6 bb bb 99 29 9d 3d 6f ad de bd 24 8d e0 3d
       -0.0057342993 0.0767395 -0.108729236 0.109644204
0003a0 1c 78 8e bd ce b3 77 bb 34 96 f1 3e ce 2f 1c be
       -0.06956503 -0.003779638 0.47184908 -0.15252611
0003b0 e5 74 99 3d db 73 2f 3e 4f 26 42 bd 50 bd ce 3a
       0.07492999 0.17134039 -0.047399815 0.0015772972
0003c0 91 df 5e 3e 9a cc 85 be 4f ca b3 be 05 0b b0 3d
       0.21764971 -0.2613266 -0.35115287 0.08595852
0003d0 7e ae 83 3e d0 e6 14 3e 9f 3e 47 be f5 ad 77 be
       0.25719064 0.14541173 -0.19457482 -0.24187453
0003e0 1c ba 7d be 22 33 15 bd 53 88 0d 3d 64 4b a5 be
       -0.24778026 -0.036425717 0.034553837 -0.3228408
0003f0 16 5d 77 bf 44 73 11 3e 0f 84 83 3d 57 3a 63 bf
       -0.9662641 0.14204127 0.064216726 -0.88760895

actor.0.bias f4 [128]
000000 f7 a5 cd bd 9a f6 ff bd 58 70 c6 bd c1 de fc 3c
       -0.10041421 -0.124982074 -0.096893966 0.030867936
000010 8c 35 d7 3d 3b bd 66 be 63 81 66 3d 0a 3e 90 bc
       0.1050826 -0.22533123 0.056275737 -0.017607708
000020 3a f5 88 3d a4 aa 94 3d e5 c5 84 bd b6 46 34 3e
       0.06687398 0.072591096 -0.06483058 0.17605099
000030 0f 9a 24 3e c9 05 14 3e 69 da fd 3e d4 a4 10 3e
       0.16074394 0.14455332 0.49580696 0.14125377
000040 f4 98 cf bd 49 91 fe bd 92 9a 0f be e0 f6 2a be
       -0.10136595 -0.12430055 -0.14023808 -0.16695738
000050 30 c0 97 3d 25 50 5d bc c5 71 34 be 56 7e bc 3d
       0.07409704 -0.0135078775 -0.17621525 0.09203784
000060 3c 03 16 be 09 53 0f 3e b2 f3 42 3d f8 d9 70 3d
       -0.14649671 0.13996519 0.047595687 0.05880162
000070 82 59 25 3e 17 b9 0b be 62 52 91 bd 3b 05 32 3e
       0.16147426 -0.13644825 -0.070957914 0.17384808
000080 c2 d6 18 bd e5 af 53 3d 7f a9 dc bd 9f 99 42 3c
       -0.037314184 0.051681418 -0.10774516 0.011877446
000090 19 38 58 3d d9 c5 03 3e 37 56 2b bd a4 4b 0e be
       0.052787874 0.12868442 -0.041830268 -0.13896042
0000a0 5e 18 91 3d d0 b4 93 3d c9 4a fd 3c ba de 42 bc
       0.07084726 0.072122216 0.03091945 -0.011893922
0000b0 11 62 b5 be aa 32 d5 3d 9f 72 9e be 1e 1e 0a bd
       -0.3542638 0.10410054 -0.30946824 -0.03372013
0000c0 53 f1 4a be 8e 66 02 3e e8 f5 0b 3d 8d 56 06 bd
       -0.1981862 0.12734434 0.03417006 -0.032797385
0000d0 f0 6c db bd 29 8f 8c 3e 5f 3f 41 bd 41 52 83 bc
       -0.107141376 0.27452973 -0.047179576 -0.016030433
0000e0 21 ab 16 be 11 dc 81 bd 2f b9 ca 3c 24 4b f5 bd
       -0.14713718 -0.063408025 0.024746506 -0.119772226
0000f0 46 64 16 bc 2d 47 e3 bd a0 f9 d1 3d 54 0e 31 be
       -0.0091791805 -0.1109756 0.1025269 -0.17290622
000100 8b d6 b9 3d 83 9a d9 3d 21 22 d7 3d fe 82 79 3d
       0.09074124 0.10625174 0.105045564 0.06091594
000110 22 45 92 3d d2 1d 5f 3d a1 f4 8d 3c 74 8c d8 3d
       0.07142092 0.0544718 0.017328562 0.10573664
000120 3b 55 46 3c d0 53 ba be ba 44 9a bd e8 09 aa bc
       0.012105281 -0.3639207 -0.0753264 -0.020756677
000130 3b ca dc bd ff e7 f2 bd c3 7b 4c 3e 7e 0b e2 bd
       -0.1078076 -0.11860656 0.19969086 -0.11037348
000140 e9 1d d1 be 31 04 57 be d5 40 cd 3d 64 79 99 bc
       -0.40843132 -0.20997693 0.10022131 -0.018734641
000150 6a 46 39 3d 23 56 c4 bd be 3e a3 3e 7d 30 8d bd
       0.045233168 -0.09586742 0.31883806 -0.06894014
000160 f0 e2 12 3c eb ce 2d be 42 04 aa bb ea 79 66 3d
       0.008965239 -0.16973464 -0.005188496 0.05626861
000170 77 2c 4a be 36 4a 08 be 82 4e 06 3f a2 05 37 be
       -0.19743524 -0.13309559 0.52463543 -0.17873242
000180 9b c9 58 3e 65 e9 34 3d a1 bb f9 3c 6f 92 6a be
       0.21170656 0.044167895 0.030484976 -0.22907422
000190 d8 ab 16 3e 49 6e 22 3d 5c 02 de bc e5 f2 c3 bd
       0.1471399 0.039655957 -0.027100734 -0.09567813
0001a0 6e 7d d7 bd 53 38 7e be e2 b9 06 3e 52 d0 c6 be
       -0.10521971 -0.24826173 0.13156846 -0.3883081
0001b0 f7 9c f3 3d 88 ca 8e bd 79 6c b9 bd 2b ec 31 bc
       0.11895173 -0.069722235 -0.09053893 -0.0108595295
0001c0 1f 19 05 3e 55 ea d8 bd 73 c7 da 3d f5 8d 6f 3d
       0.12997864 -0.1059157 0.10682573 0.05848499
0001d0 f2 2c 7c be 5b 51 1f bd 1f 54 2c 3b c5 5c 7b bc
       -0.2462652 -0.038895946 0.0026295257 -0.015341942
0001e0 bc 12 4c be 7c 42 2f 3d ab fc 8d be 4b 32 ce bd
       -0.19929022 0.042788014 -0.27731833 -0.10068186
0001f0 4b fe a7 3c c8 f8 0d 3d 7b 9d c3 bd 4d a9 22 3d
       0.020506999 0.034661084 -0.095515214 0.03971224

actor.2.weight f4 [128, 128]
000000 9e 96 b4 bd 2d b6 ce bd a1 e0 98 bc 9f 42 1c be
       -0.088177904 -0.10093341 -0.018661799 -0.15259789
000010 95 5c 31 bd 14 ec 0f 3e 7c 4b e5 3d bb cf 8f bd
       -0.043301184 0.140549 0.11196038 -0.07022043
000020 8c f6 57 bd 4e df 97 3d 46 28 7f 3d a5 83 e8 3b
       -0.05272536 0.07415639 0.062294267 0.0070957714
000030 b1 c8 01 be 4b d6 04 3e 25 b5 12 bf 3f 99 4d 3d
       -0.12674214 0.12972371 -0.57307655 0.050194975
000040 34 d1 9e bc 53 23 83 be 6f 56 30 be 7f 25 c1 bd
       -0.019386865 -0.25612888 -0.17220472 -0.0943098
000050 70 32 0f 3e 12 33 95 be 9d 8d 7f be 02 cb cd be
       0.13984084 -0.29140526 -0.24956365 -0.40193945
000060 2a 3c 9f 3e 4a e5 46 be 27 27 6d bd f5 d8 9a bd
       0.3110059 -0.19423404 -0.057898667 -0.075609125
000070 6c 5c b7 bd 93 9c 63 3c 37 43 0f 3d c0 e6 07 be
       -0.08953175 0.013892311 0.03497621 -0.13271618
000080 0d 2f f3 bc f5 fd 6c 3d f9 6f 20 be b5 57 8b 3d
       -0.029685521 0.05785938 -0.15667714 0.06803838
000090 e6 04 45 bd ae f0 f6 3b 25 83 76 3d da b7 89 be
       -0.048100375 0.0075360155 0.060183663 -0.2689808
0000a0 cf ec d7 bb 40 77 8e 3c 0b fc d7 bd f5 58 eb 3d
       -0.006589509 0.017390847 -0.1054612 0.114915766
0000b0 e9 87 a8 3c 4e bf af be 7d 34 dc bd e7 74 e7 3d
       0.02057262 -0.3432564 -0.10752199 0.11301594
0000c0 9f 5d 79 3d 4f 43 a1 bc 5d 29 23 3e b6 28 bb 3d
       0.0608803 -0.019685416 0.15933748 0.09138624
0000d0 9f f4 81 3d 0d 82 dc 3c 2c 8a 3d 3e 5f 2e 17 be
       0.06345486 0.026917482 0.1850974 -0.14763783
0000e0 1f 95 a7 bb 4c c7 a0 3e 5b 15 bd bd e0 62 a9 bd
       -0.005114212 0.3140205 -0.09232589 -0.08270812
0000f0 1e be 44 bc 41 ee c3 bc c4 60 05 3e 9c 3a 51 be
       -0.012008218 -0.02391732 0.13025194 -0.20432514
000100 62 43 de 3d 96 04 a7 bd 66 d3 db bc e5 e1 1a 3e
       0.10852696 -0.081551716 -0.026834201 0.15125234
000110 15 5c 9b bc dd 64 82 bd 9b b8 08 be e5 22 f7 be
       -0.018964807 -0.063668944 -0.13351671 -0.4826881
000120 63 79 8a bd 03 9d be 3d bc ef 1b 3e e5 2f 3c 3e
       -0.06761434 0.09307291 0.1522817 0.18377645
000130 20 2d c3 3d 8a 29 03 3e ea 85 3f be a3 e8 a9 3d
       0.09530091 0.12808815 -0.18703428 0.08296325
000140 71 39 a4 3d 9e bf 08 bd fa 8e 86 bd 3f 15 55 3d
       0.080187686 -0.033385865 -0.06570239 0.052022215
000150 f0 52 ac 3d ec 55 41 3d 7b 82 5d 3e f6 e4 26 3e
       0.084142566 0.047201082 0.21631806 0.16298279
000160 cf f2 7e 3d 55 55 d8 bd 6e 51 69 3e 22 18 c3 3d
       0.06224328 -0.10563151 0.22784969 0.09526087
000170 94 03 72 bd 5a 8c 19 be 9b 0c 94 3e 38 4a b5 be
       -0.059085444 -0.14994946 0.28915867 -0.35408187
000180 7c 44 73 bd 41 d6 39 3d 42 1e 79 bc b0 9b 36 be
       -0.059391484 0.045370344 -0.015204968 -0.17832828
000190 d5 d3 57 be 93 2c 0e bc 92 5e fe bd eb b4 bd bd
       -0.21076901 -0.0086776195 -0.124203816 -0.09263023
0001a0 79 75 91 3c 61 2e 87 be 3f 85 89 3e 81 f0 ff bc
       0.01775621 -0.26402572 0.2685947 -0.03124261
0001b0 2a 63 b9 bd 6c 3d 54 3d 93 3a 45 be 42 1d 0b 3e
       -0.09052117 0.05181639 -0.19260626 0.1358538
0001c0 46 e7 34 3e 4f 84 ec 3d 53 73 76 bd 76 2e 2a bd
       0.17666349 0.11548673 -0.060168575 -0.041548215
0001d0 26 a5 ce be bc dc b1 3d 3a a3 1c 3d dc af 41 3d
       -0.40360373 0.0868468 0.038241602 0.047286853
0001e0 18 f1 50 3e 4e a0 94 bd 41 2f 40 3e ba cf 84 bc
       0.2040447 -0.07257138 0.18768026 -0.016212333
0001f0 75 b8 89 3e 20 8f 86 3d a6 b1 91 be cf 74 1c bd
       0.26898542 0.06570268 -0.28455848 -0.038197335
000200 3c b8 8c be 48 c6 1c 3d 1f cf a0 3e fb 48 68 bd
       -0.2748431 0.038275033 0.3140802 -0.056710225
000210 e8 ee 3b bd 49 8b 8c 3e 6f df 8f bd 56 7a 49 bd
       -0.045882136 0.27450016 -0.070250385 -0.049188934
000220 a1 80 0f 3c 9d 86 6b be 95 f1 36 3e 37 23 8b 3c
       0.008758695 -0.2300057 0.17865594 0.016984565
000230 b3 15 b2 be c2 ea 39 be 64 33 93 bc e5 1c 5d 3e
       -0.3478218 -0.18155959 -0.01796884 0.21593054
000240 d7 35 3f 3d 91 63 9c bd b1 66 93 3e 26 9a f4 3d
       0.046682205 -0.07636178 0.28789285 0.11943464
000250 c7 ac d0 3d a8 a8 20 bd 1e dd e4 3d 2c b1 c7 3d
       0.10189205 -0.039223343 0.11174987 0.0975059
000260 74 5a 73 bd fa 46 96 3e 08 5d 2e be 1a 3e 76 bd
       -0.059412435 0.29351026 -0.17027676 -0.06011782
000270 52 ed 2e bc 93 18 1c bd 78 e8 d6 3d 7b da 08 be
       -0.010676699 -0.038109373 0.10493559 -0.13364594
000280 4b df 4b 3d 9d e0 f6 bb a4 60 86 3e e8 ae 77 bd
       0.049773496 -0.0075341 0.26245606 -0.060469538
000290 44 be 03 3e 82 66 8c 3d 38 8b c2 be ea 64 0b bd
       0.1286555 0.06855489 -0.3799684 -0.034031786
0002a0 74 42 0e bd b2 dd 91 3d a9 ce 54 bd 9d cf 1f be
       -0.034731343 0.07122363 -0.0519549 -0.15606542
0002b0 28 b6 85 3d ac 61 2d bd 80 3b 27 bc 0b c9 96 bd
       0.06528884 -0.042329475 -0.010207057 -0.07362565
0002c0 38 fb d8 3c 62 cb ff bc 99 c6 21 bb 61 66 57 be
       0.026486978 -0.03122491 -0.0024685024 -0.21035148
0002d0 e4 0d 8b 3d 95 09 f7 bc 0c 00 3c bd 83 5b 9e 3d
       0.06789759 -0.030155936 -0.045898482 0.07732298
0002e0 d7 f6 57 3d 35 47 c2 bd d3 f8 51 3e d9 d6 1b bd
       0.05272564 -0.09486238 0.20505075 -0.03804669
0002f0 f3 92 c2 3d 9e 16 d5 bd 05 fc 71 3e af 1e 84 bd
       0.095006846 -0.104047045 0.23631294 -0.06451165
000300 dc 78 28 be bc 93 25 be 63 96 56 3d fb fb 33 3c
       -0.16452354 -0.16169637 0.052389514 0.01098537
000310 6c ab 71 bd 86 47 8a bc 47 9d 8f 3e 9e bb 9b 3d
       -0.05900137 -0.016879808 0.2804968 0.076041445
000320 3e e3 21 be 0c 57 9b 3d 23 70 c1 3d 07 0b 66 be
       -0.15809342 0.07584962 0.094452165 -0.22465144
000330 1f 13 11 be d3 d2 95 bc aa 29 76 be 45 59 0e 3e
       -0.1416745 -0.018289005 -0.24039331 0.13901241
000340 ae fd 65 be 42 06 14 3d 14 fb fc 3d 17 35 8d 3d
       -0.22460052 0.03613878 0.12352577 0.06894892
000350 09 92 3c 3e 54 01 c2 3e 14 1f 67 bd 70 2a af bd
       0.18415083 0.37891638 -0.056426123 -0.08553016
000360 aa ee a7 bd 2c 26 b0 3e df 22 9c be c5 46 6b bd
       -0.081998184 0.34404123 -0.30495355 -0.057440538
000370 bd e7 e5 bd 70 ed 67 3e 8b 5f 66 bd e9 5d a9 3e
       -0.11225841 0.22649169 -0.05624346 0.3307946
000380 28 4f 7a 3e e7 4a 53 3d b1 67 36 be 1c c7 e3 3d
       0.24444258 0.051585104 -0.17812993 0.111219615
000390 11 d4 4b 3e a4 dc dc bd 74 ec 6e 3e ed 0c 12 3d
       0.19905116 -0.10784271 0.23332387 0.03565686
0003a0 07 6d d6 3d 86 48 2d 3e cb c2 81 bb 1c 11 e7 3e
       0.10470014 0.16922197 -0.0039599887 0.4513024
0003b0 29 12 83 3e c2 0f 0f bf 12 d0 38 be 10 c1 7d be
       0.25599793 -0.5588342 -0.18048123 -0.24780679
0003c0 06 9d 26 3e 4a 51 52 bd c6 15 ca bd e7 18 5d 3e
       0.16270837 -0.051347055 -0.09867434 0.2159153
0003d0 c5 13 59 3e b0 3d 83 bd fa 9c a6 3d 69 73 45 be
       0.21198948 -0.0640825 0.0813541 -0.19282307
0003e0 77 dc 3f be 21 8b 64 3e e7 42 f0 be 81 a9 52 3e
       -0.18736444 0.22318698 -0.46926042 0.20572473
0003f0 24 93 6d be 78 c7 98 3c 69 f6 21 be d0 79 09 be
       -0.23200661 0.018649802 -0.15816654 -0.13425374

actor.2.bias f4 [128]
000000 d8 bb 8c be a5 1c f5 bd 65 dc 1f be e3 2b 02 be
       -0.27487063 -0.11968354 -0.15611418 -0.12712054
000010 49 62 81 bf 1c 27 7d be b9 9e bf 3e 30 39 d6 bd
       -1.0108119 -0.2472195 0.37425783 -0.104601264
000020 37 66 87 3d 5c 6c be be 2f d4 2d 3e 40 f2 26 bd
       0.06611293 -0.37192047 0.16975473 -0.04075837
000030 59 6c 89 be 2f 90 7e bf 7a 28 a8 be e5 ad 89 be
       -0.26840475 -0.99438757 -0.3284338 -0.26890483
000040 35 70 3c be 38 ef 40 be fb e8 2d bf 01 66 a5 bd
       -0.18402179 -0.18841255 -0.67933625 -0.08076096
000050 3e ad 70 be 7d bb fd bd 91 4b 28 be b8 a4 e3 bd
       -0.23503587 -0.12389276 -0.16435076 -0.11115402
000060 22 31 cb bd a9 af 56 3c d9 5c 3a 3e 1b ab ab be
       -0.09921481 0.013103404 0.18199481 -0.3352898
000070 9e 4a 78 be cc b8 1a 3e 4d 4a db bd 13 ad cb be
       -0.24247214 0.15109557 -0.10707531 -0.39780483
000080 2b 2f d3 3c 59 9e 7c be c6 02 71 be f8 9d 0b be
       0.025779327 -0.2466978 -0.23536214 -0.13634479
000090 f6 1b 27 bd e2 8e 62 3e d3 fb 23 be c5 98 13 be
       -0.04079815 0.22124818 -0.16014032 -0.14413746
0000a0 96 9d 52 be 83 98 c3 3b 52 ce 04 be 9a b1 36 3e
       -0.20567927 0.0059691085 -0.1296933 0.17841187
0000b0 70 83 88 3d 6d b6 bc be 91 5c 46 3d 68 61 43 be
       0.06665695 -0.3685793 0.048428122 -0.19080126
0000c0 c2 97 83 be 5f 01 31 be 71 c8 31 be 85 b3 8a be
       -0.2570172 -0.1728568 -0.17361619 -0.27090088
0000d0 0c 20 bf be b0 a9 d3 be 45 a5 1a 3e f2 8d c7 bd
       -0.37329137 -0.413404 0.15102108 -0.09743871
0000e0 bd dd 85 3e 98 e7 d5 3d 70 c0 4a bc 52 ac a2 bf
       0.26145735 0.104445636 -0.012374982 -1.2708838
0000f0 39 50 6b bd 7f 74 63 be 0d 52 2e bf 4c 27 c0 be
       -0.057449553 -0.22212408 -0.6809395 -0.3752998
000100 d3 4b 15 be 50 33 44 be 3a b4 51 3d 93 66 6d be
       -0.14579706 -0.19160199 0.051197268 -0.2318366
000110 8f 7f 2e 3e ec 61 8a be 5b 75 81 3e 7e 5e c3 be
       0.17040847 -0.27027833 0.25284848 -0.3815803
000120 bc 79 75 be 1a e3 33 3e 36 e9 a5 bd 6b 1f d3 be
       -0.23972219 0.17567101 -0.08101122 -0.41234908
000130 e3 c1 6e be 7a 62 8d be 29 11 40 be a1 a4 8e bd
       -0.2331615 -0.27614194 -0.18756546 -0.06964994
000140 b6 29 d9 3d b9 6f 9b be 0f 77 3c be cd 34 2e 3e
       0.10603659 -0.30358675 -0.18404792 0.1701233
000150 fe 58 42 be 5b 0e 77 be 76 e4 01 3e 2f b9 b0 3d
       -0.1897926 -0.2412657 0.12684807 0.08629071
000160 6b d9 de bc 28 ae 7c be 8a 07 10 bf c0 16 a0 bb
       -0.027203282 -0.2467581 -0.56261504 -0.0048855245
000170 9d f2 0c be 67 d5 20 bf d5 4f f0 3d 97 77 21 bf
       -0.13764425 -0.62825626 0.11733977 -0.63073105
000180 f3 cb 87 3b d4 4c 6f be 40 7a e8 3d 8e 09 bd bd
       0.0041441857 -0.23369151 0.11351442 -0.09230338
000190 5f 56 b7 be a2 e8 e5 bd 91 fa 86 be 97 23 85 be
       -0.35808083 -0.11226012 -0.26363042 -0.26003715
0001a0 27 8f ad 3d b7 83 a9 be eb 21 cd be ab 9d f6 bd
       0.0847457 -0.33108303 -0.4006494 -0.120417915
0001b0 87 86 31 bd 60 42 45 be 3c 3c 83 3d c1 14 a2 bd
       -0.043341186 -0.19263601 0.06407973 -0.07914115
0001c0 4e ff 72 be dc 36 45 be 13 d4 03 be cd 93 c3 bd
       -0.23730204 -0.19259208 -0.12873869 -0.09549675
0001d0 20 fb 5c bd 03 c9 81 be a1 c2 ab bd 1e a5 5d 3e
       -0.05395043 -0.25348672 -0.08386732 0.21645018
0001e0 64 57 1a be 00 13 3a be 44 b0 20 bf 5b 1b 77 bb
       -0.150724 -0.1817131 -0.6276896 -0.0037705514
0001f0 bc f1 1f 3d a4 8f cf be 58 c8 32 be 80 f2 7c be
       0.039048895 -0.40539277 -0.17459238 -0.24701881

actor.4.weight f4 [128, 128]
000000 5d c9 db 3d 23 ca f4 3d ad d4 c9 3c c9 e4 c5 bc
       0.107317664 0.11952617 0.024637545 -0.024156945
000010 c1 cb 91 3c 91 8b a5 3d 6f 90 93 bd bd 18 64 bd
       0.017797353 0.08083261 -0.07205283 -0.055687655
000020 dc c7 94 3d 2d 4d 1a 3d d4 15 4d 3d 0d 92 d9 3d
       0.07264683 0.037671257 0.050069645 0.1062356
000030 35 9a 11 3c c7 5f 6a ba b2 04 6e bc 29 94 a8 bd
       0.0088868635 -0.00089406635 -0.014527487 -0.08231384
000040 02 c4 0b be 45 fe 44 3c 30 5b f7 3c 72 0d 81 3c
       -0.1364899 0.012023513 0.030194849 0.015753482
000050 14 4e de bd 7d 80 8b 3a ea 78 7b bb 68 e6 38 be
       -0.10854736 0.0010643151 -0.003837163 -0.18056643
000060 16 67 28 bd 7d db d2 bd e9 dc 0d 3b e3 62 3a bd
       -0.041113935 -0.1029577 0.0021646565 -0.045504462
000070 e4 55 89 3d 6c a3 07 be 7e 6e e4 bd 79 d9 d0 3c
       0.067058355 -0.13245934 -0.11153887 0.025494324
000080 e3 75 e4 3d 6b a7 21 bd 98 4e 62 bb c5 6f 03 bd
       0.111552976 -0.039466303 -0.0034531709 -0.032089014
000090 a9 d1 ca 3d 8d 65 67 bd 24 3c ff 3d ca 88 1a bd
       0.09903271 -0.05649333 0.12462643 -0.03772811
0000a0 69 49 27 be 0b 2c 02 be cf 6b 04 3c 14 f0 fb bd
       -0.16336598 -0.12712114 0.008082344 -0.12301651
0000b0 59 48 63 3b 88 b1 ff bd 3f 26 55 bd 9e 8d 2b ba
       0.0034680574 -0.12485033 -0.052038427 -0.0006544235
0000c0 68 4c c5 bc 06 1c 04 bd e5 c3 3c be c0 d9 2e 3a
       -0.024084285 -0.032253288 -0.18434103 0.00066700205
0000d0 d9 7a 2d 3d 10 52 3e 3d 13 35 8b 3d 57 1d 5b be
       0.042353485 0.04646498 0.067972325 -0.21397911
0000e0 76 72 ba 3c 7f 98 54 bd 08 6a e8 bc df 08 30 bd
       0.022759657 -0.051903244 -0.028370872 -0.04297721
0000f0 71 ab b5 3c 02 68 08 3d 9b 29 52 bd cf c5 d7 bb
       0.022176476 0.033302315 -0.05130921 -0.00658486
000100 2d 6a 92 3c 1a 7f 71 3d 79 bf 05 be a6 3e e8 3d
       0.017872894 0.058959104 -0.13061322 0.11340074
000110 1a b4 41 3d 89 dc b6 bd a4 bc a3 3d 23 fc 05 3e
       0.0472909 -0.089287825 0.07994965 0.13084464
000120 5c dc df 3d bb 36 91 3c 82 fd 79 bd 15 38 6f 3c
       0.10930702 0.017726293 -0.06103278 0.014600773
000130 05 d5 af 3d 55 49 51 bd f4 e5 9a 3d 28 74 a3 ba
       0.08585552 -0.051095325 0.07563391 -0.001247053
000140 7e de 50 b9 5e b0 46 3b 2e 25 37 3b 3a 6b bc 3d
       -0.0001991931 0.0030317525 0.0027945745 0.09200139
000150 b4 c0 78 bd 8d 43 92 bd f5 e0 87 3e c1 92 07 bd
       -0.06073065 -0.071417905 0.26538816 -0.03309894
000160 cc 46 f1 bc 56 b5 8f 3d cd 45 d0 3d a1 0d 6f bd
       -0.029452704 0.07017009 0.101695634 -0.058362607
000170 94 fb 1c bd c3 4c 94 bd a0 0f 2e be 37 ad 02 3d
       -0.03832586 -0.07241204 -0.16998148 0.03190347
000180 6a fc 31 3e c7 e0 39 3c 64 62 19 3e bc e4 94 bd
       0.17381445 0.011345095 0.1497894 -0.0727019
000190 83 08 bf bd b9 36 f2 3c 2f 8c 3f bd 65 43 1c be
       -0.09327795 0.02956711 -0.04676455 -0.15260084
0001a0 eb 2e 3d bb 16 a8 10 be fa 76 b0 3c f7 7c ed bb
       -0.0028867077 -0.1412662 0.021541107 -0.007247563
0001b0 ee f0 c8 3d b4 0e 97 3d ee 97 c0 bd b6 f4 63 3a
       0.09811579 0.07375851 -0.09403978 0.00086958276
0001c0 d0 64 f5 3c 5e 37 29 3a 3f 94 98 bc 8d d3 87 bd
       0.029955298 0.0006455089 -0.018625377 -0.06632147
0001d0 e1 ad 9a 3d 48 62 53 bd 1f e5 1b 3d 47 7f 5f 3d
       0.07552696 -0.0516074 0.038060304 0.05456474
0001e0 c2 62 d6 3d 04 bc fc 3d c8 52 d2 bb ef 90 c9 3c
       0.10468055 0.12340549 -0.0064185597 0.024605243
0001f0 07 4c 54 3d 6d 4b c9 bd 85 7a ce bb d6 ea ec 3c
       0.051830318 -0.098288395 -0.0063012266 0.028920572
000200 2e 7f 9c 3e 2f 52 ff bd 34 30 36 be 81 38 c6 be
       0.3056578 -0.12466847 -0.17791826 -0.38714984
000210 a6 8c 1d 3d a5 4e 34 3e 75 c1 56 be 63 38 3b be
       0.03846421 0.17608126 -0.20972236 -0.18283229
000220 d4 79 2c be a2 4b e6 3b 14 47 b8 3d 77 e1 03 3d
       -0.16843349 0.007028059 0.08997932 0.032197442
000230 85 e1 04 be 22 db b3 bc 53 e5 84 3d e2 dc d3 3d
       -0.12976654 -0.021955077 0.064890526 0.103448644
000240 e0 aa b1 3d b0 96 8c 3d 90 28 10 3d 22 54 9f bd
       0.0867517 0.06864679 0.035194933 -0.07779719
000250 66 aa a3 3e 5f 00 7f be 37 58 8f bd 97 9e 86 3e
       0.3196594 -0.24902485 -0.069992475 0.2629287
000260 44 5e db bb ab 7b 37 be 8d 35 a4 bd 82 41 1c 3d
       -0.006694587 -0.1791827 -0.080180265 0.03814841
000270 63 e2 7d bd fc 0c a6 bd 9e 6a ee 3d d2 f7 03 bd
       -0.061983477 -0.08107945 0.11641429 -0.03221876
000280 49 14 03 bd 89 e8 fe bd f6 30 1d bd 8e 22 85 bc
       -0.032001767 -0.12446696 -0.03837677 -0.016251829
000290 43 f0 93 bd 1c 31 84 bd 5c 66 0f bc e8 f9 44 bd
       -0.07223561 -0.06454679 -0.008752432 -0.04808989
0002a0 e3 e2 5c be 32 7e 39 be 1d eb 13 3d 94 56 04 be
       -0.21570925 -0.18114546 0.036112893 -0.12923652
0002b0 66 d1 eb bc f5 83 a0 be e2 c4 53 bd ce 52 99 3d
       -0.028786372 -0.31350675 -0.051701434 0.07486497
0002c0 18 9b 05 3c 6a f6 4e be 70 34 39 3e e1 d8 6f be
       0.008154653 -0.20211187 0.1808641 -0.23422576
0002d0 39 d8 41 3e d4 7d a0 be 9c 3a be bc 4b 3a 72 3c
       0.18930139 -0.31346 -0.023221307 0.014784406
0002e0 1b 2e 06 be ae 68 8c be 9b f3 0b be a5 46 34 bc
       -0.13103525 -0.27423614 -0.13667147 -0.011003171
0002f0 be bd 14 bd 76 be f1 3d 83 7d 30 be ca 9c 85 3d
       -0.036313765 0.11803906 -0.17235379 0.06524046
000300 d0 6f 82 3d ba d3 80 3d 04 af 99 3b c9 9a aa 3d
       0.06368983 0.06290384 0.004690053 0.08330304
000310 07 e0 2b bd 59 ca 22 be fb f2 19 3e e1 45 95 bd
       -0.041961696 -0.15897502 0.15034096 -0.07288719
000320 8b bb 14 3d a8 e9 69 bd 65 92 da 3d 6a 3a a4 bd
       0.036311667 -0.057107598 0.10672454 -0.08018954
000330 00 3c 4a be b8 f7 e0 bd c0 72 47 bd cd a2 37 3e
       -0.1974945 -0.109847486 -0.04869342 0.17933197
000340 18 ad 9c bb b8 1d 26 be ac 18 ee 3d 43 60 ed bc
       -0.0047813766 -0.16222274 0.116257995 -0.028976565
000350 22 b4 7e 3e c6 98 cb 3d d2 80 a6 bd 31 ba 5d be
       0.24873403 0.099412486 -0.08130039 -0.21653058
000360 8b 6c 29 3e 23 94 d7 bd 4a 47 91 3e c4 54 46 3c
       0.16545312 -0.10526302 0.28374702 0.012105171
000370 da 65 d5 bb a6 60 0f 3d a0 71 92 3e 9a 73 05 3a
       -0.006512386 0.03500428 0.28602314 0.00050907733
000380 16 83 4f 3b d2 e0 68 3e ea 41 5a bd ff a4 1d bd
       0.0031663827 0.22742012 -0.053285517 -0.03848743
000390 0c a2 07 3c 7b b5 96 3d 38 e2 71 3e 9a 2d 08 bd
       0.008278381 0.073588334 0.23621452 -0.033246614
0003a0 6b 5a 4e bd 78 d0 14 3c cc a7 11 be 32 38 92 bd
       -0.050379198 0.009082906 -0.14224166 -0.07139625
0003b0 f8 d0 ac be 42 08 c7 bd de ff 80 bd 22 c2 e9 3d
       -0.3375318 -0.09718372 -0.06298803 0.11413981
0003c0 0e e0 3b be ac cd e2 bd 5c b5 48 bc 94 96 80 3e
       -0.18347189 -0.11074385 -0.012250271 0.25114882
0003d0 38 95 99 3d 17 f7 2a 3e 36 e6 54 3e 63 97 32 be
       0.07499164 0.1669582 0.20790944 -0.17440562
0003e0 47 e8 21 bf 49 85 37 be 3a a8 2b 3d f0 50 83 3d
       -0.6324505 -0.17921938 0.04190848 0.06411922
0003f0 7f 26 a1 3d 74 cc 8c bd 33 3d 09 3d 0e a1 1a 3d
       0.07868671 -0.06874934 0.03350563 0.03775125

actor.4.bias f4 [128]
000000 85 6a b1 bd 3e 47 bd bd 08 bf f8 ba 0c 26 e2 bd
       -0.08662895 -0.09242104 -0.001897783 -0.11042413
000010 64 c4 9f be a8 a6 1f bf 8f b1 47 be aa 79 19 bd
       -0.31204522 -0.6236367 -0.19501327 -0.037469544
000020 9a 3f 1b bf d4 93 df bd 75 4d 91 be 1d 39 ff be
       -0.60643923 -0.10916868 -0.28379408 -0.4984826
000030 65 76 a4 ba d7 24 a6 bd ba d0 0b be 32 7b ac 3d
       -0.0012547491 -0.081124954 -0.13653842 0.08421935
000040 e1 47 4d be 8e d8 7b bd e9 47 27 be 1d 7e d3 be
       -0.20046951 -0.06148582 -0.16336025 -0.41307154
000050 e6 50 2f be 6b 58 38 be 59 11 01 3c f2 0f 57 bd
       -0.17120704 -0.18002479 0.007877671 -0.05250544
000060 c6 4e 3d be 76 df cd 38 9f f7 c2 bd 9e c3 c2 bd
       -0.18487081 9.8167846e-05 -0.09519886 -0.09509967
000070 15 00 9f be 20 71 30 bd a4 6c 70 be 1b 0a 54 be
       -0.3105475 -0.043076634 -0.23478943 -0.2070698
000080 0d a5 09 be 8c 09 8f be 5f 84 9d be 82 d7 f9 bc
       -0.13441868 -0.2793697 -0.30765054 -0.03049827
000090 06 5f 0f be de d5 90 bd 28 0f 65 3d 94 f6 4b bd
       -0.14001092 -0.07072042 0.055922657 -0.049795702
0000a0 a1 64 a4 3d e6 42 11 be 43 48 88 bc cb 5e 3f bf
       0.08027006 -0.14185676 -0.01663602 -0.7475402
0000b0 57 e9 90 be 28 55 68 be 11 6f 17 be 5b 35 78 3d
       -0.28303024 -0.22688735 -0.14788462 0.06059776
0000c0 73 e4 67 be 1b 1c b9 be af ef 03 bf b4 d4 12 be
       -0.2264574 -0.36154255 -0.51537603 -0.14338952
0000d0 11 9b 72 be 75 b9 63 be 02 10 4c bf 65 9c a0 be
       -0.23691966 -0.22238715 -0.79711926 -0.3136932
0000e0 cc 9e 86 be 81 99 49 be 86 d3 a9 be ef ea 39 be
       -0.26293027 -0.19687463 -0.33169192 -0.18156026
0000f0 89 c0 51 bf c2 11 65 be 08 ed 1f bf fa 24 15 be
       -0.8193441 -0.22370055 -0.62471056 -0.14564887
000100 ba 1a c5 3d 3b 78 4e be 72 a6 39 be 34 ab a8 bd
       0.09624238 -0.20163052 -0.181299 -0.082357794
000110 ad 61 9f be a8 32 5f bf 00 67 6e be 78 d5 4d be
       -0.31129208 -0.8718667 -0.23281479 -0.20100963
000120 fc b9 b5 3d b5 a8 4c bd 3e 61 20 bd e8 1c 54 be
       0.08873364 -0.04996558 -0.039155237 -0.20714152
000130 e3 8d 86 bd 9c 04 2b be 92 2c a3 bc 96 3a 89 be
       -0.065700315 -0.16700977 -0.019918714 -0.2680251
000140 3b ed ae be ce b6 58 be fd 5e 67 be 9a 63 f5 bd
       -0.34165367 -0.21163484 -0.22594829 -0.11981888
000150 cd dd 2f be a1 09 99 bd e5 54 53 be 10 16 33 3d
       -0.17174454 -0.0747254 -0.20637853 0.043722212
000160 59 ad 93 be c9 0b 60 3c e8 d5 6f be b9 e5 95 be
       -0.2884319 0.013674685 -0.23421443 -0.29276827
000170 18 21 9c be 6b 28 e7 be 80 27 dd be d3 d6 38 bc
       -0.30494 -0.45148024 -0.431942 -0.011281687
000180 6f 9c 5a be 2f ea ca be 31 50 e8 bd 06 9a e1 bd
       -0.21348737 -0.39631793 -0.1134342 -0.11015706
000190 09 df 36 be 59 67 15 bd 05 fc 8a bc 20 c4 67 be
       -0.17858519 -0.036475513 -0.016965875 -0.2263341
0001a0 8c c1 0f be e8 42 5e be 52 47 40 3d 28 4f 83 bd
       -0.14038676 -0.2170521 0.046943016 -0.06411582
0001b0 b7 65 99 be d0 c1 0e be f5 99 96 bd c2 a2 6b be
       -0.29960415 -0.13941121 -0.07353584 -0.23011306
0001c0 6e ff 73 be a8 76 33 be ab e0 79 be 1b 38 4c be
       -0.23827907 -0.17525733 -0.2440211 -0.19943278
0001d0 e7 09 f6 bc 0c 4c 2d bd 2e 45 24 bd 9c c9 81 be
       -0.030034019 -0.042308852 -0.040105037 -0.25349128
0001e0 02 90 54 be a6 45 fb bc 16 45 2c be 91 be 17 be
       -0.2075806 -0.03067286 -0.16823229 -0.14818789
0001f0 e5 fb 3d be 34 cd 9b be 0f 27 9f 3d f8 b1 53 bd
       -0.18553121 -0.30429995 0.07771122 -0.051683396

actor.6.weight f4 [12, 128]
000000 da 79 8d bc 59 e5 3f bb a8 18 e9 ba 98 ab 3e bb
       -0.017270017 -0.002928099 -0.0017783837 -0.0029093977
000010 c2 24 91 b9 2d 72 05 3d 83 78 8f bd 21 26 80 bc
       -0.00027683942 0.03257959 -0.07005408 -0.015643181
000020 58 ac 1f bd dc 4b 56 ba c1 99 c8 bb a2 fb 0b bd
       -0.03898272 -0.0008174756 -0.0061218445 -0.034175523
000030 f0 e2 7d bc 5c d6 3c bc 77 95 1e 3c 6d fa 3f 3b
       -0.015496001 -0.011525717 0.00967919 0.0029293553
000040 bb 6f 23 3d 58 91 6d bc 8c 64 e8 ba 9e d7 1c 3c
       0.039901476 -0.014499985 -0.0017730161 0.0095728915
000050 03 2c c7 bc f5 d9 11 ba bb 47 71 bc 4f a8 ff 3b
       -0.024312979 -0.0005563789 -0.0147265745 0.0078020464
000060 dc 51 04 bc ec 79 8f bc 8f 2f 95 bb 99 22 be 3b
       -0.008076157 -0.017514192 -0.0045527886 0.005802464
000070 f3 eb ac 3a e9 3f 26 3c 14 cf 38 bc 76 6c 70 3c
       0.0013192877 0.010147073 -0.01127984 0.014674297
000080 71 94 26 bc 59 a1 19 bc bb dd 46 bc 6a 7e de bb
       -0.010167227 -0.009376847 -0.012137826 -0.006789972
000090 c0 27 5d bc eb 26 cf bc 02 0b 25 bb e1 4c 61 3c
       -0.013498247 -0.025287112 -0.0025183563 0.0137512395
0000a0 e1 00 aa 3c aa 9a f1 3c 9f cf 8f 3c cf ae 02 bd
       0.020752372 0.029492695 0.017555056 -0.03190499
0000b0 c5 7f 75 bc e7 35 e3 b8 35 5d 0d 3d d2 71 86 3b
       -0.014984076 -0.000108342436 0.034512717 0.004102924
0000c0 d6 77 17 3b d1 03 7c 3d 73 ea 60 3d 7e 46 14 3b
       0.00231122 0.061527077 0.05491109 0.0022625024
0000d0 31 83 b5 bd d4 d5 b7 bc c9 c3 c6 bc 04 a6 3e 3b
       -0.088629134 -0.022440828 -0.02426328 0.0029090652
0000e0 e9 0b d9 bc e0 fb 3b 3c 39 ae ec 3b 64 78 09 3d
       -0.026494937 0.011473626 0.0072229174 0.03356208
0000f0 0a 33 b9 bc 4e f7 85 3c 3d d4 1f 3c 61 25 ca bb
       -0.022607345 0.016353276 0.009755191 -0.0061690067
000100 4b 36 55 3c ed 27 87 bc 67 2d e0 bb e6 c6 59 bc
       0.013013433 -0.01649853 -0.00684135 -0.01329205
000110 fa 33 2b 3c 1a 1e a2 3d 70 e1 32 3d d2 91 ce bc
       0.010449404 0.07915898 0.043672025 -0.025216017
000120 f6 f7 18 bc e5 fc 17 bd 2c 5d 3a 3a f3 1f 94 3d
       -0.009336462 -0.037106413 0.00071092206 0.07232656
000130 25 df b4 ba 26 ae 00 3d e6 dd bd 3b 1e d0 46 bc
       -0.0013799412 0.03141608 0.0057942746 -0.01213458
000140 3b ec 48 3b e3 23 04 3d 81 b9 71 3a f6 8a 22 3d
       0.0030658382 0.032260787 0.00092210626 0.039683305
000150 34 3e 39 bb 73 51 0d bd 94 8f f0 3b 6c 1e 47 3a
       -0.0028265836 -0.034501504 0.0073413346 0.0007595781
000160 e4 58 47 bc 7e 90 8d bb 4f af 95 3c 2c b9 fb 3c
       -0.012167189 -0.0043202033 0.01827207 0.030727945
000170 ce b1 97 bb fb 66 15 3d 5a c1 3a 3c fe 30 b0 3c
       -0.0046293503 0.036475163 0.011398638 0.021507736
000180 7b 59 52 3d d8 13 45 3c 3b d4 8d bc 98 e8 a3 bc
       0.051354866 0.012028657 -0.017313113 -0.02000837
000190 05 60 aa ba e7 a9 6f bb 5a b9 a5 b9 0d 3a 69 3c
       -0.0012998587 -0.0036569776 -0.0003160935 0.014235032
0001a0 36 77 d7 bc 64 1f 78 bb 53 7c 9e bb 4b fa e5 3c
       -0.026301961 -0.0037860507 -0.004836598 0.02807345
0001b0 00 47 1a 3d fd 00 11 bd 21 ea 79 3c 88 a2 69 3b
       0.037665367 -0.035401333 0.015253575 0.0035649855
0001c0 48 b0 38 3c 55 c8 b0 3c e0 4f a6 bb 4a 78 c8 3b
       0.0112724975 0.0215799 -0.00507544 0.006117855
0001d0 97 db 30 3b 8b 33 8f bb b2 a8 98 bc ee 65 00 bd
       0.0026986354 -0.004370158 -0.018635128 -0.031347208
0001e0 0f ba 98 3c 3d 71 44 bd 88 9a 8e ba 0b a6 d8 bc
       0.018643407 -0.047959555 -0.0010879794 -0.026446363
0001f0 7b 1b af 3b f9 a7 0e bd 5a aa ea bb 5d b2 19 bc
       0.005343852 -0.03482816 -0.007161421 -0.009380904
000200 bc f4 23 bc 68 51 89 3c 2c e0 5e bc 3b 3e da 3c
       -0.01000708 0.01676245 -0.013603251 0.026641002
000210 52 df a4 3b a8 0e 1d 3d 69 cf b5 3d b7 d5 44 3d
       0.0050315047 0.038344055 0.08877451 0.048055377
000220 07 dd 04 bd 59 3c cd 3c c7 fc 0b bb f1 77 60 bd
       -0.03243735 0.02505319 -0.0021360384 -0.054801885
000230 33 d5 b2 bc 64 5a f1 bb 8b e3 01 bd 8c 77 8e 3b
       -0.021830177 -0.0073655117 -0.031711143 0.004347747
000240 e3 00 ef bb e3 f1 76 3c 2f 30 aa 3a 26 55 13 bd
       -0.007293807 0.015072319 0.001298433 -0.035969876
000250 d7 d5 f3 bc 36 fb 84 3c 71 dd 9b 3c 8f 0e 3c 3c
       -0.029765053 0.016233068 0.01902649 0.01147808
000260 49 fb cc 3b c3 28 19 3d 40 d4 37 3b 32 07 21 bd
       0.0062555415 0.03739239 0.0028050095 -0.039313503
000270 8f 54 4d 3c de 01 89 3c 1d 58 dd 3c 0f 85 dd 3b
       0.012532367 0.016724523 0.027019555 0.0067602466
000280 04 dc 10 3d 97 a0 37 bc 51 e5 73 3c aa 65 59 3c
       0.035366073 -0.011207721 0.014886216 0.0132688675
000290 4f b5 94 bc bd 9c 74 3a aa b3 2b 3b 6a 87 64 bc
       -0.01815286 0.0009331217 0.0026199617 -0.013948301
0002a0 cf 5c a5 3b f9 f2 c9 3c 3b d5 74 bb 8a 73 c0 3c
       0.005046464 0.024651991 -0.003735854 0.023492593
0002b0 15 66 43 3c a5 64 bb bb 9e 04 ce 3c 0a c6 8e bc
       0.011926194 -0.005718785 0.025148686 -0.017428417
0002c0 f0 9e d1 3b 11 a8 56 bb c0 21 0b 3d 7b 03 9d 3a
       0.0063971207 -0.0032753984 0.033967733 0.0011979187
0002d0 79 1e 8f 3d 17 f7 98 bc 09 7d 01 3d 5f 84 7c bd
       0.06988234 -0.01867251 0.031613383 -0.061649676
0002e0 1f c6 3e 3c 92 4e a8 3c 00 56 48 bb 70 15 21 3b
       0.011643915 0.020545278 -0.0030568838 0.0024579428
0002f0 3a ab a2 bd d7 23 81 ba ee e0 20 bc 42 66 01 3c
       -0.07942815 -0.00098526 -0.009819252 0.007897915
000300 b1 5c 5b bc 46 b2 0a 3a f3 de 72 bc 77 88 d7 3b
       -0.013388799 0.0005290847 -0.014823663 0.006577547
000310 67 af 2a bc 04 79 b6 3c c7 ba 03 bd ca 0f 0f bd
       -0.010417796 0.022274502 -0.032160547 -0.034927167
000320 bc 91 63 ba fb 80 8f 3c 12 18 82 3b f7 46 ab bc
       -0.0008681079 0.017517557 0.0039701546 -0.020907862
000330 de bb fc 3a f9 99 16 bc 80 a9 17 3c f1 ed 68 bc
       0.0019282063 -0.009191983 0.009256721 -0.014216886
000340 40 16 f0 bb 76 a1 32 bd 60 c9 83 bc 81 33 b1 bb
       -0.007326871 -0.043611012 -0.016087234 -0.005407751
000350 01 42 0b bd 1b 9b e6 bc f8 7a 23 bd cb 3b 3a 3c
       -0.033998493 -0.028150132 -0.039912194 0.011366795
000360 6e d7 d0 ba 95 61 b1 3b f1 34 b6 3c 56 10 95 3b
       -0.0015933344 0.005413244 0.022242041 0.0045490665
000370 d4 15 ae 39 fd 99 1d bc d0 5f 4b bc 76 f1 7c 3c
       0.0003320413 -0.009619233 -0.01241298 0.015438428
000380 09 13 64 bb 42 82 34 bc de d7 0b 3b c9 27 2d bc
       -0.0034801385 -0.011017384 0.0021338384 -0.010568568
000390 95 77 27 bb bf 52 de 38 04 f4 4e 3b dc e6 43 3c
       -0.0025553454 0.000106011976 0.003157855 0.011956897
0003a0 2e 1e c8 bb be e8 00 3d 2a e0 aa bc cf 63 0c 3d
       -0.0061071133 0.03147196 -0.020858843 0.034274872
0003b0 b0 8d 0c 3d fa 90 28 3c a5 41 d2 39 6c c1 55 bd
       0.03431481 0.010288471 0.0004010323 -0.052186415
0003c0 c5 63 1b 3c 66 72 96 bd 3e 63 f8 bc b2 69 d6 3c
       0.009484236 -0.073460385 -0.03032076 0.026173446
0003d0 5b ec 06 bb 5c 7e 0d ba 9a 8b 6c 3c b3 58 6a 3b
       -0.0020587656 -0.0005397552 0.0144375805 0.0035758435
0003e0 a0 49 5d 3c c2 15 7f 3c 9f 8c da 3a f5 62 3e 3b
       0.013506323 0.015569152 0.0016673988 0.0029050682
0003f0 8e 1e 06 3a 3e 36 1c bd cb d7 10 ba 75 5a cb bb
       0.00051162473 -0.038137667 -0.000552532 -0.0062058517

actor.6.bias f4 [12]
000000 26 fd ce bb fb e9 b6 3b 79 51 e2 bc 14 fd e5 3c
       -0.0063167987 0.005582092 -0.02762674 0.028074779
000010 5a 37 fa bc 45 98 fa bc e0 6b 83 3d 89 c8 7d 3d
       -0.030543972 -0.030590186 0.0641706 0.061958823
000020 e4 8d 73 3e 30 96 75 3e 30 8a 8a 3e 0e 2e 8d 3e
       0.23784596 0.23983073 0.27058554 0.275742
