tested_policies/hyqreal/hyq_correctoffset/exported/policy.onnx (onnx, 273175 bytes, 8 tensors)

actor.0.weight f4 [128, 260]
000000 5c c0 a5 bc 8b bb 1b 3f 6f ba ba be 9c e4 1c 3c
       -0.020233326 0.6083304 -0.36470363 0.009575989
000010 01 73 cd 3e 50 e9 62 3c 9e 38 d3 3d 48 99 74 bf
       0.40126804 0.013849571 0.10313533 -0.9554639
000020 9c 10 89 3e 01 df 9d 3e a4 27 14 3f ea 0f 0e be
       0.26770484 0.308342 0.57872987 -0.13873258
000030 04 9e 3e 3d 97 42 82 bf af 51 23 be 25 92 dd be
       0.046537414 -1.0176572 -0.15949129 -0.43275562
000040 4b 21 23 be a1 01 ca be 16 ad 59 3e a8 91 32 3f
       -0.15930669 -0.39454368 0.21257433 0.69753504
000050 d0 89 c5 3e b6 ab a5 3e fc 05 cd 3d 43 15 66 3f
       0.38581705 0.32357568 0.10010907 0.8987619
000060 1f 82 79 be 4d 08 f3 bd ce 55 0a be dc 99 fd 3b
       -0.24366044 -0.118668176 -0.13509294 0.0077392887
000070 e6 ed 96 3d 38 fd f3 bb 08 76 e6 3b 4d 21 ee 3d
       0.07369594 -0.0074459575 0.0070331134 0.11627445
000080 c8 06 3a 3d 71 4b a9 bb 2e 4a 4a 3e 10 c3 5b 3e
       0.045416623 -0.005166464 0.1975486 0.21461129
000090 a1 77 95 bd 50 51 fb bc e2 a6 39 3d e8 38 44 be
       -0.07298208 -0.030678421 0.045325167 -0.19162333
0000a0 0b 26 21 3e 1a a9 53 3e 50 09 1d bc 53 31 15 be
       0.15737168 0.20669976 -0.00958474 -0.14569597
0000b0 4f 14 c8 3c f8 84 48 bd ae 20 b5 bc 0b d1 d1 bc
       0.024423746 -0.048954934 -0.02211031 -0.025612375
0000c0 a6 25 c8 3d 47 1f ac bd 26 b4 02 bd d4 e2 1d 3e
       0.09772806 -0.08404403 -0.031910084 0.1541856
0000d0 c3 7f 3f 3c 03 04 bd 3e 91 bb 16 bf 1d 80 07 3e
       0.011688176 0.36917123 -0.58879954 0.13232465
0000e0 85 f9 c3 3e 43 05 f3 be 50 57 82 3d 4d a8 81 bf
       0.38276306 -0.47464952 0.0636431 -1.0129486
0000f0 52 d7 44 3e dc 7b ac 3e e3 34 c2 3e 28 1c b0 bd
       0.19222763 0.33688247 0.37930974 -0.085991204
000100 87 a7 08 3d 1b 81 80 bf d9 86 78 be ec 9e f8 be
       0.03336289 -1.00394 -0.2427019 -0.48558748
000110 5d 7b 86 bd 95 02 bd be 77 a2 6d 3e 85 83 38 3f
       -0.065664984 -0.36916032 0.23206507 0.7207568
000120 65 d7 db 3e d4 3c b5 3e a9 a7 14 3e 0b 52 71 3f
       0.4293777 0.3539797 0.14517082 0.9426581
000130 6b 79 74 bd f2 92 05 be 09 56 e7 bc 4d 26 2c 3d
       -0.059686106 -0.13044336 -0.028239267 0.042028714
000140 9f fd da 3a d6 2e 1f be a7 4c 65 3d 7e d4 8b 3c
       0.0016707665 -0.1554521 0.055981304 0.017069098
000150 04 10 de 3c 58 5f b3 3d 3d 11 80 3c e9 89 e6 3d
       0.027107246 0.0875842 0.01563322 0.11256773
000160 a8 5b 53 be bd 38 94 be 57 66 18 3e 9e b8 0c bf
       -0.20640433 -0.28949538 0.1488279 -0.54969203
000170 ce 24 d3 3e 25 c0 79 3e 69 b1 1a 3e cb 20 5b 3d
       0.41239017 0.24389704 0.15106739 0.05349807
000180 d6 1d 1a bd a8 35 93 3d 56 14 ff bc e9 72 dc 3b
       -0.03762611 0.071879685 -0.031137627 0.0067275655
000190 a1 44 06 3e 80 97 b1 bd 10 a7 ce bd 4e 6e 15 3e
       0.13112117 -0.086714745 -0.100904584 0.14592859
0001a0 e0 53 bf bd 01 d4 74 3e b2 c9 b2 be c3 0f 0b be
       -0.0934217 0.23908998 -0.34919506 -0.13580231
0001b0 ed c0 f2 3d f3 9c d5 be f7 87 5b 3d 13 91 89 bf
       0.11853204 -0.41721305 0.053596463 -1.0747398
0001c0 48 ec 81 3e 2d be d5 3e f0 86 71 3e 51 a1 22 3d
       0.2537558 0.41746655 0.23586631 0.039704625
0001d0 9d 1e c8 bd 85 d5 83 bf a1 13 8d be c0 6d 08 bf
       -0.09771464 -1.0299536 -0.27554038 -0.53292465
0001e0 0c 21 ef bd a8 fe ca be ec 03 31 3e 23 8d 4f 3f
       -0.11676225 -0.39647412 0.17286652 0.8107473
0001f0 2e 8e 02 3f 15 29 ae 3e 52 3f 9c 3e eb a7 6a 3f
       0.509982 0.34015718 0.3051706 0.9166247
000200 10 7b f7 3a 8d 3c 2f bc a9 92 6b be 1e 38 8f 3c
       0.001888128 -0.010695589 -0.23005165 0.017482813
000210 6f 79 a8 bc 80 5a 00 bd 55 cc 41 bc 84 d3 c3 3d
       -0.020565717 -0.031336308 -0.011828502 0.09561828
000220 4c 53 a1 bb b7 5a 71 3d 33 81 c4 3d 25 7f aa 3d
       -0.00492326 0.058924403 0.09594955 0.08325032
000230 c9 ad e5 be 03 48 97 be 99 68 44 3e 7c 3f ca be
       -0.4485915 -0.29547128 0.19180526 -0.3950156
000240 79 7f dc b9 2d 6b bd 3d 03 86 68 bd 53 c5 e0 3d
       -0.00042056644 0.09248958 -0.05676843 0.109751366
000250 fe 26 96 bd 28 c2 b9 3d 85 bc e5 3c 75 06 4e bd
       -0.07331656 0.090702355 0.028043995 -0.050299127
000260 b3 bb 9e 3d 35 e2 a3 be 9c d6 ad be 9c 98 ac 3d
       0.077506445 -0.3200852 -0.33952796 0.084275454
000270 c5 16 51 be 32 63 ab bc 50 70 7f 3e e1 66 49 3e
       -0.20418842 -0.020921323 0.24945188 0.19668151
000280 70 98 36 bd fc 75 1e be 97 6a 8c 3d e0 b9 86 bf
       -0.04457897 -0.15474695 0.06856268 -1.0525475
000290 8a d1 85 3e 86 f3 0a 3f 45 b5 2a 3e b6 b0 90 3e
       0.26136428 0.5427784 0.16670711 0.2825982
0002a0 cb 9f 01 be 0d 21 8a bf f9 2a b7 be ea 5e 3d bf
       -0.12658612 -1.0791336 -0.35774973 -0.7397295
0002b0 42 6c d9 3b 14 44 d2 be 96 a6 87 3e bf d2 3c 3f
       0.00663522 -0.41067564 0.26494282 0.73759073
0002c0 0f 35 00 3f 62 e5 99 3e 1c 8c 5f 3e 0b 15 77 3f
       0.5008096 0.30057818 0.21830791 0.96516484
0002d0 e1 58 eb 3d 1c 87 3c be d2 55 46 be 6f 52 43 be
       0.11491562 -0.18410915 -0.19368675 -0.19074415
0002e0 66 28 e8 3b 26 4d 91 3d 46 81 43 be fd d6 26 3c
       0.007084894 0.07094793 -0.19092283 0.010183093
0002f0 6d 2b dd 3d 50 f5 d1 3d 37 8e 24 3b c7 84 c9 3d
       0.107992984 0.10251868 0.002510918 0.098397784
000300 82 7a 8f bd 3f 96 c8 bd 7a b4 4b 3e b0 8e 08 bf
       -0.070057884 -0.09794282 0.19893065 -0.53342724
000310 ed 39 a9 bd 06 57 e5 3c ed f5 01 be b2 d3 24 3e
       -0.082630016 0.027995598 -0.1269147 0.1609638
000320 47 c2 59 be 90 fc 24 3e cd 5a 7a 3d be 1e 96 3d
       -0.21265517 0.1611197 0.06112175 0.07330082
000330 67 f7 4c bd 03 69 0b bf 07 f3 ea be 43 75 90 bd
       -0.05004063 -0.5445711 -0.4588854 -0.07053616
000340 fb b0 9d be 69 b6 70 bf 75 bf 0b 3f c8 f3 db 3f
       -0.30799088 -0.94028336 0.54589015 1.7183771
000350 26 ab 3b 3f a6 bb b1 bf 7e ab 14 3e 8b c1 af bf
       0.73308027 -1.3885391 0.14518544 -1.373094
000360 7a c6 70 3e a6 86 3e 3f 45 0a f3 3d 93 ae 10 3f
       0.23513213 0.7442421 0.11867193 0.5651638
000370 ca 1a 0b be d5 fe 96 bf b5 73 cb be 22 6f 4f bf
       -0.13584438 -1.1796519 -0.39736715 -0.8102895
000380 8e 31 42 3e 87 a5 c4 be af fa 9f 3e f0 1f 50 3f
       0.18964216 -0.38407537 0.31245944 0.8129873
000390 63 58 06 3f 68 e2 b9 3e ad 4b 04 3e b5 02 8d 3f
       0.5247862 0.36305547 0.12919493 1.1016451
0003a0 40 d3 96 b5 dc 09 10 bf 4b 82 ff 3d e0 5a 6b be
       -1.1237353e-06 -0.56265044 0.12476023 -0.22983885
0003b0 76 92 93 3d c2 83 50 be e9 8b c3 3d 23 84 61 3d
       0.072056696 -0.20362762 0.0954817 0.055057656
0003c0 80 30 30 3e da ff 00 3e 88 ed 0b bd a2 5f 14 3e
       0.17206001 0.125976 -0.034162074 0.14489606
0003d0 4b e0 e3 3c 89 ed be be be c2 12 3e ff 6a 39 bf
       0.027816912 -0.372906 0.14332101 -0.7242889
0003e0 4d 4e 2b be 59 36 d8 bc 68 af e7 3c 08 77 b1 bd
       -0.16729088 -0.026393102 0.028281882 -0.086652815
0003f0 07 19 cc be 6e 12 71 3e 58 28 01 3e 47 1b d9 be
       -0.39862844 0.23542187 0.12613046 -0.42403623

actor.0.bias f4 [128]
000000 a4 80 7d be de 2b 83 bd e3 c1 b5 be 67 42 b3 bd
       -0.24756104 -0.064048514 -0.35499486 -0.087528996
000010 5b d5 96 3d 5d 2e f9 bd cc 58 91 bc cc af 8f 3d
       0.07364913 -0.12167046 -0.017742537 0.070159525
000020 7e 4f b9 3d 1c 7f b6 be 02 68 19 3e 60 68 9d be
       0.09048365 -0.35643852 0.14981082 -0.30743694
000030 35 14 3c be 84 e8 b0 be aa e8 82 3b cf fa 87 be
       -0.18367083 -0.34552395 0.003995021 -0.2655854
000040 0e 0a 62 3d 68 e0 f2 bd 24 24 22 bf c2 f6 57 be
       0.05518537 -0.11859208 -0.63336396 -0.21090224
000050 60 50 3c be 68 c8 55 be ce 4d 05 3e 98 88 0e 3e
       -0.18390036 -0.2087723 0.13017961 0.13919294
000060 ef 63 34 be d6 b2 d6 3d 1b 50 21 3d 9e b7 07 3d
       -0.17616247 0.10483329 0.039383035 0.033134095
000070 99 89 06 3c 6c 51 01 be fb 3d 06 be 43 64 8f bd
       0.008211517 -0.12628716 -0.13109581 -0.07001545
000080 01 4b 7d bd a4 5e 2c 3e 69 d7 42 3d 31 5a 65 3d
       -0.061839107 0.16832978 0.047568712 0.055994216
000090 b3 51 b2 be 13 17 bb 3d 8c 36 d4 3e 53 21 3e be
       -0.34827957 0.091352604 0.41447866 -0.185674
0000a0 6c 86 a2 3d 2e 91 d0 bd 1e 95 08 be 9f e9 02 be
       0.07935795 -0.10183941 -0.13338134 -0.12784432
0000b0 43 a9 39 3e 39 26 c7 3d 0a 0e 90 bd 6c 75 16 bf
       0.18130974 0.09724087 -0.07033928 -0.5877292
0000c0 c9 4e a4 be f9 2f f1 3e d7 92 8d be 6d 81 f5 3d
       -0.32091358 0.47106913 -0.27651092 0.11987577
0000d0 54 b5 70 be 47 2f 38 3d 83 d0 23 3d b9 44 cc 3d
       -0.23506671 0.044966962 0.039993774 0.09974045
0000e0 c0 7e 16 be c5 f4 07 3c 4c 6e cb be 8c 9e 85 3d
       -0.14696789 0.008298104 -0.39732587 0.06524381
0000f0 8e 7e 6c 3e 34 19 ca bd 72 9c f2 bd 4b 74 4e be
       0.23095152 -0.09868088 -0.11846246 -0.2016155
000100 7b 3e 03 3e 29 ae 19 be ad c7 5e 3b 17 e2 d3 bd
       0.12816803 -0.15007843 0.0033993528 -0.103458576
000110 b1 7e 4a bc 52 d7 e3 bd 3c 8c af be 07 ec 7c 3e
       -0.012359307 -0.111250535 -0.34286678 0.24699412
000120 f0 46 22 3c 20 a9 2a bd 05 cd 66 bd 28 e3 75 be
       0.009904608 -0.041665196 -0.056347866 -0.24012434
000130 d8 e4 56 bd 8e 96 df 3c 88 40 2a bc c2 c8 7c 3d
       -0.052464336 0.02729347 -0.010391362 0.061714895
000140 47 4a bd 3d 59 24 11 be db fb 7c bd b6 c7 ef 3d
       0.09242683 -0.14174022 -0.061763626 0.11708014
000150 e8 6a 8b be 65 5b 30 be 6b f6 68 bd 22 fa 7b 3e
       -0.2723 -0.17222364 -0.056875627 0.24607137
000160 22 9b 05 be dc a9 8b be c9 63 85 bd c1 f1 df bc
       -0.1304746 -0.2727803 -0.06513173 -0.027336957
000170 ec 19 b6 bd 87 8d 04 3d d4 c5 81 be 81 11 88 be
       -0.08891663 0.032361533 -0.25346243 -0.26575854
000180 f9 6f 00 3e c4 e0 5b bd 25 bf 13 be c2 2d 5a be
       0.12542714 -0.05368115 -0.14428385 -0.21306518
000190 a1 e1 cb be 0d 05 e1 3c 3d f7 10 be cf 31 e5 3d
       -0.3982058 0.027468229 -0.14156814 0.11191141
0001a0 20 ce be 3d cd 51 8a bd 07 20 b6 3b de 5f 8b 3e
       0.09316659 -0.067538835 0.005558017 0.27221578
0001b0 35 9c 95 3e 2d c9 19 3d e1 9b 9b 3d fc f2 26 3e
       0.2922074 0.03754537 0.07598091 0.16303629
0001c0 0c c1 5c 3d c4 27 ba bb bd c0 4b be fa d1 a1 bd
       0.05389504 -0.00568101 -0.19897743 -0.07901378
0001d0 95 3a 23 be fe 39 2e be 93 49 53 be a7 f1 ec 3d
       -0.15940316 -0.1701431 -0.20633535 0.11569529
0001e0 33 04 98 bd 41 4c 9e be c4 ec 26 be c8 4d 6b 3e
       -0.07422676 -0.30917552 -0.16301256 0.2297889
0001f0 81 21 ac bc 8e 18 3e 3e 3d a6 54 3e 26 36 46 3e
       -0.02101207 0.18564054 0.2076654 0.19356593

actor.2.weight f4 [128, 128]
000000 07 44 0b be 5c ad b7 bd d4 82 78 3e 60 fd da be
       -0.13600169 -0.089686126 0.24268657 -0.42771435
000010 a2 cc b0 be ca 93 1d be 9c ef 4c bc 6c d1 c7 be
       -0.34531122 -0.15388408 -0.012508299 -0.39026964
000020 38 6f a6 bd 95 dd 69 be 69 97 c3 3d 35 00 b1 3d
       -0.08126682 -0.22838433 0.095503636 0.086426176
000030 88 92 03 be 63 e8 f0 bd df f0 85 bd 18 63 db 3d
       -0.12848866 -0.11763074 -0.06540083 0.1071226
000040 9a e5 88 3d 47 d9 46 be a5 38 98 3e d6 bb 5c ba
       0.06684418 -0.19418822 0.29730716 -0.0008420324
000050 27 fd d3 bd 2c b0 05 3e 7b f3 88 be f1 36 24 be
       -0.10351019 0.13055485 -0.2674826 -0.16036583
000060 5c 88 32 be ce d7 6d be 22 7e 93 be 1a fe d7 3a
       -0.1743483 -0.23226854 -0.2880717 0.0016478926
000070 79 05 3e bd f1 d6 2e 3e f1 72 44 3d 6f 90 a5 3d
       -0.046391938 0.17074181 0.04796118 0.08084189
000080 c3 0a 0c 3e 3e 6a 44 be 90 c0 62 3e da ce 75 3b
       0.1367598 -0.19181153 0.2214377 0.0037507326
000090 e5 50 85 be fb 7c a4 3d 40 29 d2 bc 05 9c 23 3e
       -0.2603828 0.08031651 -0.025654435 0.15977485
0000a0 4c fe 98 3d 9a 6b 87 be ff d3 62 be 1a b5 81 3d
       0.07470378 -0.2644928 -0.22151183 0.063333705
0000b0 fb d8 8f 3d f7 ff 69 bc af 66 a5 bd e7 1e 96 3e
       0.070238076 -0.014282218 -0.08076226 0.29320452
0000c0 37 77 07 3e 99 a3 e2 3c ea 14 6c 3e 94 f4 cf bc
       0.1322907 0.0276659 0.23054853 -0.025385179
0000d0 e8 23 38 be 75 ca 10 3f 15 9e 9b 3e 18 d9 d7 bd
       -0.17982447 0.56558925 0.30394045 -0.10539454
0000e0 bc e1 c7 3d 9e 73 77 3e c0 71 0c 3e 4f 4d 9e bc
       0.09759852 0.24165198 0.13715267 -0.019323973
0000f0 6f fe f1 3d 1b 47 5e 3d 98 f5 05 3e 94 4a 35 bd
       0.118161075 0.05426703 0.13081968 -0.044260576
000100 00 49 d6 3c 0c 99 63 3d 7f 2f 29 be c5 da 38 3e
       0.026157856 0.05556588 -0.16522025 0.18052204
000110 9e 78 60 3e 2e 75 88 be 75 fe 60 bd 5a b9 bf 3c
       0.21921012 -0.266519 -0.05493017 0.023403812
000120 7d 01 d4 3d fa ad 8e bd 38 ca 01 bf 9d 58 a8 bc
       0.10351846 -0.06966777 -0.50699186 -0.020550067
000130 c1 63 be be 0b b9 f1 3e 1b e7 41 3d 53 d1 60 bd
       -0.3718548 0.4721149 0.04733954 -0.054887127
000140 f7 70 09 3e d4 c9 ef bc 10 48 59 be 2b 14 7b 3e
       0.13421999 -0.029271044 -0.21218896 0.24519412
000150 1f 0f 53 3e 48 d6 f7 3b f0 16 2c 3e 6d 54 cb bd
       0.20611237 0.007563386 0.16805625 -0.09928212
000160 ee 88 fc 3d 05 d5 3f be 0f 64 83 3e f9 ec 88 3e
       0.12330805 -0.18733604 0.25662276 0.26743296
000170 9e ed 5b be 28 bd 0d be 03 69 c7 bc bf 74 9a 3e
       -0.21477363 -0.13841689 -0.024342066 0.30167195
000180 a3 25 31 3e 6d fc a2 3a 7b c8 95 3e dc 67 d7 3d
       0.17299514 0.0012434848 0.29254517 0.105178565
000190 9d 98 2f 3d 3e ae 2b 3c 12 03 3a be 27 ae 29 3e
       0.042870153 0.010478554 -0.18165234 0.1657034
0001a0 6c fc 9a 3e e2 9b fe 3d 3e 7d 35 be 74 72 31 3e
       0.30270708 0.12432076 -0.17723557 0.17328817
0001b0 c1 38 4e be 81 bd 9d 3d ca 1b 55 3e 44 63 9f 3d
       -0.20138837 0.077021606 0.20811382 0.07782605
0001c0 f0 f1 34 bf ba d4 27 be 16 7f be bd 45 6a 10 be
       -0.7068167 -0.16389742 -0.093015835 -0.14103039
0001d0 42 ef 7d be b8 31 78 bd 20 ff 15 be 9f 33 d0 bb
       -0.24798301 -0.06059429 -0.14648104 -0.00635381
0001e0 34 4b d1 bd e5 da 66 3e 0b ae 25 be e6 c8 cf bd
       -0.10219422 0.22544439 -0.16179673 -0.1014574
0001f0 d4 34 8a 3e 48 0a ce bd 05 75 0c 3d 33 26 fa 3d
       0.2699343 -0.10060555 0.034291286 0.12214317
000200 0f 97 1c 3e da 08 a8 be da 45 64 bd d1 90 98 be
       0.15292 -0.32819253 -0.05573068 -0.29797986
000210 eb d1 41 bd b3 15 42 3d c2 89 78 3b ce b5 83 bd
       -0.047319334 0.047383975 0.0037923907 -0.06431161
000220 89 4f 2f 3d 77 72 9c 3d b4 2b d3 be d6 2c 17 3e
       0.04280046 0.0763902 -0.4124428 0.14763197
000230 40 19 df bc a0 dd 6f bd d9 f7 0b 3e 8d f4 c2 bb
       -0.02723372 -0.058560967 0.13668765 -0.005949563
000240 5b 1d 47 be 89 c0 c4 bc e4 65 da 3e 75 8f 2c be
       -0.19444792 -0.02401759 0.4265586 -0.168516
000250 35 3c 81 3b 49 7f 2c 3d ee 04 d9 3c 18 f2 3b 3e
       0.003943945 0.042113576 0.026491608 0.1835407
000260 5e 3a 98 bc 45 92 42 bd c9 97 72 bd 86 0e 8f bc
       -0.01858252 -0.047502775 -0.059226785 -0.01746298
000270 f8 a8 27 be 1f 29 e9 bd 16 b2 ae bd db ee 41 be
       -0.1637305 -0.11384796 -0.08530061 -0.18938772
000280 f6 fa 50 3e e2 a2 96 3e 43 df 71 3d 50 b6 00 bd
       0.20408234 0.29421145 0.05905081 -0.031423867
000290 20 c1 b0 be 26 25 b6 bc 8a 12 89 bc 0a 0e 17 3d
       -0.34522343 -0.02223451 -0.016732473 0.036878623
0002a0 21 26 3a 3e 37 af 86 3d d3 b9 d6 bd 6c ab 8c be
       0.18178608 0.06576388 -0.10484662 -0.27474535
0002b0 90 07 50 be a4 f4 d4 3c 7d b6 41 be b0 d5 ec bc
       -0.20315385 0.02599556 -0.1891727 -0.028910488
0002c0 70 be 66 bc ab 03 27 3e 60 24 46 bd 48 9f 1a 3d
       -0.01408349 0.16309993 -0.048374534 0.03774956
0002d0 a4 ff 74 3c 7d 95 04 bf e7 6b 59 3d c5 56 10 3d
       0.014953528 -0.517906 0.05308142 0.035239
0002e0 77 9b 37 be af c9 de 3c 5c d4 8a bd 6b 10 1b be
       -0.17930399 0.02719578 -0.067787856 -0.15142982
0002f0 c8 b9 8a 3c 98 8d cd bd fe 1b 8e 3b 91 0d d2 bd
       0.01693429 -0.100367725 0.004336833 -0.10256494
000300 45 d1 10 3e b8 bf e3 bd 36 b4 80 3b cc 7c 0a 3d
       0.1414233 -0.11120552 0.003927733 0.03381042
000310 8c 5b c2 be ad d3 aa 3c b8 d7 03 3d ff f7 94 bc
       -0.3796047 0.020852888 0.032188147 -0.01818466
000320 43 9d f8 3d 7b 65 99 bc 6a 67 ac bd 45 fc b5 3d
       0.1213937 -0.018725147 -0.08418162 0.08886007
000330 d1 36 02 3e 79 23 0d be 48 25 4a be d3 0f 61 3e
       0.12716223 -0.13783063 -0.19740784 0.21978693
000340 07 e7 59 bd 67 f9 3d 3e 8f 2b d4 3d b7 0d a7 bd
       -0.05319884 0.1855217 0.10359871 -0.08156913
000350 16 0e 92 3e 84 ae 9a 3e 9c 4c b6 3e ac 0e c1 bd
       0.28526372 0.3021127 0.35605323 -0.094266266
000360 a8 ea dc 3d 57 be bb 3d e1 6a 76 3d 97 d3 c7 bb
       0.10786945 0.09167164 0.06016052 -0.0060982215
000370 06 0e 03 3f de f1 18 3d c7 99 ff bb 87 1b 82 bd
       0.51193273 0.037340038 -0.007800314 -0.06352907
000380 9e e7 52 be 30 35 4b be 22 d8 95 3e 87 87 bb bd
       -0.20596167 -0.19844508 0.2926646 -0.09156709
000390 82 31 05 be 2e 64 72 3e d4 24 63 3d 4d f8 af be
       -0.13007167 0.23671028 0.055455044 -0.34369126
0003a0 8f e1 b8 be 01 e6 16 bd 2c 1e b9 bd 51 0a 7d be
       -0.36109588 -0.036840443 -0.09038958 -0.24710967
0003b0 32 c0 9b be f3 2d 6e be 5a 62 f7 3c 68 84 7c be
       -0.3042007 -0.23259716 0.030198265 -0.24659884
0003c0 ea a3 b0 bd a7 04 f0 bd 58 00 f0 3d 75 7d 3f be
       -0.08625014 -0.11719637 0.117188156 -0.18700202
0003d0 57 20 a8 3e 23 fe 5c be 29 c7 58 bd c6 aa cb 3e
       0.32837173 -0.2158132 -0.05292431 0.39778727
0003e0 2c 4c 5a bd 43 7a d8 bd 81 8c d2 be e8 89 60 3d
       -0.0532953 -0.105701946 -0.4112282 0.054819018
0003f0 1f 04 2a be 0e f0 2d be 7e 53 fb 3d c7 36 4d bd
       -0.16603135 -0.16986105 0.12271784 -0.050101068

actor.2.bias f4 [128]
000000 ae 10 38 be 5d 9f 93 be 93 72 e5 3c 7d dd db bd
       -0.17975113 -0.28832522 0.028008735 -0.10735605
000010 a5 1e e2 3b 38 9e 8c be 6b 26 11 3e fa 80 93 be
       0.006900626 -0.2746446 0.14174812 -0.2880934
000020 03 88 0e 3c ab 80 a4 be 4a ce a3 bc 35 0d 36 be
       0.00869942 -0.32129416 -0.019995827 -0.17778476
000030 22 f7 b8 be bf 1f 01 3e 5c 43 70 be 3b 63 94 be
       -0.36126047 0.12609766 -0.23463196 -0.28981957
000040 f1 00 9d be 92 62 5c bd b0 bf 11 be 5f ec 37 3e
       -0.3066478 -0.05380494 -0.14233279 0.17961262
000050 05 d7 4f 3d 93 63 c3 be 7f 70 1d be dd d8 12 bd
       0.050742168 -0.38161907 -0.15374945 -0.03585135
000060 44 b1 c3 bd 21 72 45 3b dc d2 f6 3c ed 3d 03 be
       -0.09555295 0.003012784 0.030129842 -0.12816592
000070 d0 8a 9d bd 65 4b a3 be 37 3c a8 3d 03 a6 3c be
       -0.07692492 -0.3189346 0.0821461 -0.18422703
000080 49 53 d2 be 77 92 c8 be 9f 21 dc bc 59 83 41 be
       -0.41079167 -0.39174244 -0.0268715 -0.18897761
000090 46 09 d7 bd 39 ea 4f 3e b4 ab 9e 3d 58 8d c6 bc
       -0.10499816 0.20304193 0.077475935 -0.02423732
0000a0 5e 62 9e bd 8c 9d 90 be a4 25 03 3e 26 fa b0 3c
       -0.07733606 -0.282452 0.12807328 0.021603655
0000b0 3a 1c 4d 3c 8d 4c 8f bf 90 27 fa 3d 64 07 cd bc
       0.012518937 -1.1195236 0.12214577 -0.025027938
0000c0 ab 51 91 be 58 21 81 bd 95 57 94 be bb 47 c5 be
       -0.2838262 -0.06305188 -0.2897307 -0.38531289
0000d0 7a bd 42 be a7 e7 e0 be bb a8 fe bd 7f 53 d4 bd
       -0.19017592 -0.43926737 -0.124345265 -0.10367488
0000e0 19 64 2f be 44 f1 81 bd bb 1f 4f be 7d 20 1d bf
       -0.17128028 -0.06344846 -0.20226948 -0.613777
0000f0 be 78 60 3e 06 88 68 be 94 10 ae be e6 bc 4e be
       0.2192106 -0.22708139 -0.33997023 -0.20189247
000100 e9 aa 86 bd ee 88 b3 be ed 90 ed bc 25 5d 3e be
       -0.06575567 -0.35065407 -0.02899977 -0.1859022
000110 66 81 d3 3c 4f ba 9e be 7e 40 c9 3c c8 f7 7a be
       0.025818538 -0.31001517 0.024566885 -0.24508584
000120 4a 6b fa be 34 a7 02 3d 4e e2 b1 be 1e b7 95 be
       -0.4890998 0.03189774 -0.3474297 -0.2924127
000130 db 44 cd be 95 61 87 bf e5 f1 a2 be 15 1d 3c 3e
       -0.40091595 -1.0576655 -0.31825176 0.18370469
000140 ea 56 a5 bd 90 85 32 3e 69 55 1d bf fa 47 9d be
       -0.08073218 0.17433763 -0.6145845 -0.30718976
000150 da c4 3c be 71 cc 97 be 28 f0 dd bd 4c 40 90 be
       -0.18434468 -0.29648164 -0.10836822 -0.28174055
000160 6c e6 f5 bc cf d1 92 be a5 51 67 be 7f 68 49 be
       -0.0300171 -0.28675696 -0.22589739 -0.19668768
000170 88 ea 98 bd c8 09 e9 bd 3b 41 59 3e 97 3d e4 be
       -0.07466608 -0.11378819 0.2121629 -0.4457824
000180 c8 b9 be bd d7 1c 54 be 9b 07 28 be e6 2f 60 be
       -0.09312779 -0.20714127 -0.16409151 -0.21893272
000190 36 66 fa be f8 18 3d 3d f9 01 68 be 04 58 91 be
       -0.48906106 0.04616639 -0.22657003 -0.28387463
0001a0 14 81 40 3e 95 e0 c7 bc de 68 e1 bb af 9e d7 bd
       0.1879924 -0.024399081 -0.006878956 -0.10528313
0001b0 4f 3e 91 be 9c 17 c4 be e0 22 a1 bc 53 91 07 be
       -0.2836785 -0.38299263 -0.01966995 -0.1323903
0001c0 5b d7 50 3e 38 65 0b 3e 98 f5 0a be 05 7b a0 be
       0.20394652 0.1361283 -0.13570249 -0.31343856
0001d0 49 a3 b3 be e2 73 96 be f1 96 3f be 78 7e 62 bb
       -0.35085514 -0.29385287 -0.18709923 -0.0034560245
0001e0 53 30 d3 bd 72 e0 55 be 73 99 d7 3d 4a b2 14 be
       -0.103119515 -0.208864 0.10527315 -0.14521137
0001f0 30 c1 c5 bc 9a 41 e8 be 84 47 be bd 76 f9 c3 be
       -0.02413997 -0.4536255 -0.09290984 -0.3827626

actor.4.weight f4 [128, 128]
000000 be 7f 2e 3d 25 f8 64 bc 2f 97 c3 3d 23 d1 a2 bd
       0.042602293 -0.013975178 0.0955032 -0.07950046
000010 c4 1e 4c 3d 09 eb 1b 3c d7 e0 a7 bd fa a0 97 3d
       0.049834028 0.009516486 -0.08197182 0.07403751
000020 c8 c9 52 3d a9 d3 ec bd 55 d0 5d 3e 73 f5 05 3e
       0.051461965 -0.115638085 0.21661504 0.13081913
000030 15 ad 64 3d fc 54 39 be b1 b9 81 3d 18 a7 9d ba
       0.055829126 -0.18098825 0.06334246 -0.0012027947
000040 2a 6a 04 3d da 6f 91 bc 6e b4 fb bc 11 92 c1 bd
       0.03232781 -0.01775353 -0.030725684 -0.09451688
000050 2c 89 0f 3e 75 46 38 3d f3 3a e3 3d 09 b9 13 be
       0.1401717 0.044989068 0.11095228 -0.14426054
000060 04 86 fc ba 1d ab 93 3c c5 35 be bd 02 a0 a6 bd
       -0.0019266014 0.01802593 -0.092875995 -0.08135988
000070 13 1f 4e bd 8d 38 05 bd 86 a7 46 be 69 4a 82 bd
       -0.050322603 -0.032524634 -0.19399843 -0.06361849
000080 bb db 8c bd 1d e9 07 3e 3b 6d 86 3b 30 52 26 3d
       -0.06877848 0.1327252 0.0041023768 0.040605724
000090 1f 21 60 be 24 e9 fe bd c9 77 46 be 1a 34 3c be
       -0.21887635 -0.12446812 -0.19381632 -0.1837925
0000a0 18 ee e3 bd f2 c0 54 bd 8e 44 45 be 31 8c af bd
       -0.11129397 -0.05194182 -0.19264433 -0.08571661
0000b0 02 89 9e 3c e9 3f 81 3d fb 79 8b bd 67 7e 62 3e
       0.01935244 0.06311018 -0.06810375 0.22118531
0000c0 c5 30 8c 3d 12 ce 0b bc fd 48 35 3d 24 1b 20 3d
       0.068452395 -0.008533018 0.04425906 0.039088383
0000d0 02 0d 84 bd 45 77 ec bd 5c 66 36 3d a5 07 5f be
       -0.064477935 -0.11546186 0.04453121 -0.2178026
0000e0 59 5c 01 bd 78 02 0d bc 54 4b 06 bd ab f8 1b 3e
       -0.03158221 -0.008606546 -0.032786682 0.15231578
0000f0 b7 fa 5b bd f4 4c d0 ba a3 52 d8 bd fc 73 05 bd
       -0.053705897 -0.0015892074 -0.10562637 -0.032581314
000100 d5 38 31 3c 72 4e 57 3d 49 28 0f bd 96 a6 01 3b
       0.0108167725 0.052565046 -0.03495053 0.001978313
000110 1c 84 88 bd 55 4d 01 3d 64 b9 7a bd 02 f8 dc bd
       -0.06665823 0.03156789 -0.06121196 -0.10789491
000120 0c fe 88 3c 3e 2b bb 3d 86 c1 18 3e c6 e6 74 bb
       0.016722701 0.09139107 0.14917573 -0.0037368997
000130 a9 21 08 3e a1 69 ac bc 71 59 ed bd 8f c4 44 3e
       0.1329409 -0.021046462 -0.11589325 0.19215606
000140 7e 75 e1 bd 73 65 c2 bd dc a0 1b 3e 14 1f ec bc
       -0.11008738 -0.09492006 0.15198082 -0.028823413
000150 f9 05 0f 3b 50 f3 42 3c be 83 8b 3c b8 85 47 bc
       0.0021823628 0.0118988305 0.017030593 -0.012177877
000160 ea 12 10 bd 37 2a 46 bd 23 6a 60 bb fa d2 58 bd
       -0.035174288 -0.048380103 -0.003424295 -0.052935578
000170 12 18 4b bd fd 21 a3 bd 18 39 5e bd 45 0d 16 be
       -0.049583502 -0.07965467 -0.054253668 -0.146535
000180 e2 15 3c bc 70 c2 6c 3b 22 0a e0 bc 2c dc 8d 3d
       -0.011479827 0.0036126636 -0.027348582 0.0692676
000190 ff 2f 87 3c 71 6c 0d 3e d5 87 df bd db e4 99 3d
       0.016502379 0.13810898 -0.1091458 0.07514354
0001a0 bb 64 41 3e 0b 5b bc 3b 53 d1 04 3d f3 fb 2b bc
       0.18886082 0.005748158 0.03242619 -0.010497081
0001b0 02 52 3a 3d 9a 16 3f 3d 25 bc 40 be 18 39 34 3d
       0.045488365 0.046652414 -0.18821771 0.04399976
0001c0 f0 ea fa bd aa d0 aa bd b7 5d 0a bd 9d 39 8b bc
       -0.12251842 -0.08340581 -0.03378078 -0.016995246
0001d0 51 38 17 3e 71 41 85 3d e6 43 0f 3e b3 9c 08 3d
       0.14767577 0.065066226 0.13990745 0.033352565
0001e0 eb d8 9f 3c 4f 47 ef 3a b1 0c 94 bd 06 0d e2 3d
       0.019512614 0.0018255505 -0.07228983 0.1103764
0001f0 8b 08 13 be cf 71 b5 3b 80 1b f0 b9 53 7b 25 3d
       -0.14358728 0.0055372487 -0.00045796856 0.040400814
000200 ab be 8b 3e 3a 30 53 3e c9 da 2c 3e c8 81 5b 3e
       0.27293906 0.20623866 0.16880335 0.21436226
000210 6d d9 32 3e 48 c6 1c bd 0a cb 02 be 5b 77 52 be
       0.17465754 -0.038275033 -0.12772766 -0.20553343
000220 44 b8 32 3e 3a 8a 81 3e bf fa 6d bd ba f7 46 3e
       0.17453104 0.2530077 -0.05810046 0.19430438
000230 5b df 74 be 76 6e bd be bf 57 94 3e 61 a1 8b 3d
       -0.23913328 -0.36998338 0.28973195 0.0681789
000240 f9 19 a6 3c 8f e3 7e 3d 0c 8b 1b be f9 e1 19 3e
       0.020276057 0.062228736 -0.15189761 0.15027608
000250 77 12 54 3d 11 6e e3 3c 50 53 f9 3d 6d ca da 3d
       0.051775422 0.027762445 0.12174094 0.10683141
000260 36 e8 12 be ef 68 af be f5 4a 3d be 73 ba 64 be
       -0.14346394 -0.34259745 -0.18485625 -0.2233675
000270 89 ea aa 3d 6a 5c 5f bc 68 c3 74 bd 10 41 53 bd
       0.08345515 -0.013632873 -0.059756666 -0.05157572
000280 81 f2 a7 bd 12 0d 97 3e 82 7d 14 be b1 7b 8a 3e
       -0.08200551 0.2950216 -0.14501002 0.27047494
000290 fc 1d 62 be 7f 40 c3 3d ff 31 56 bd 15 5a f6 bd
       -0.2208175 0.09533786 -0.052293774 -0.120289005
0002a0 a8 12 4e be 9b 2b d5 bd 01 05 c2 be 1d 7d 37 be
       -0.20124304 -0.10408708 -0.37894443 -0.1791882
0002b0 b2 f6 ab be cd 6b 43 3e c7 5c ca bb bb 90 7b bd
       -0.3358665 0.19084091 -0.0061756107 -0.061417323
0002c0 3e 76 b7 be 99 02 3b be 19 ca 24 3e 18 7a c8 3e
       -0.358324 -0.1826271 0.16092719 0.3915565
0002d0 fd 84 62 bd c8 92 6b be 64 56 df 3c 28 60 66 be
       -0.05530261 -0.23005211 0.027262874 -0.22497618
0002e0 6b eb 8b 3c 45 9e 3b be b6 5f 8a bd e4 2f 45 3e
       0.01708003 -0.18322094 -0.06756537 0.1925655
0002f0 a3 ad cb bc b1 c5 22 3e 5e b3 ea 3d 73 5d 84 bd
       -0.02486307 0.15895726 0.11459993 -0.064631365
000300 8d 4a a0 3d f4 38 77 be c1 24 1d 3a 54 85 c2 3c
       0.078267194 -0.2414282 0.00059945515 0.023745216
000310 64 bb 5c 3e 45 b6 77 3c 37 15 5b 3e d4 de bc bd
       0.21555859 0.01511914 0.21394812 -0.092221886
000320 dc 3e 49 be 87 a4 30 3e fd 6d 1e ba 8d ce 90 3d
       -0.19652885 0.17250262 -0.0006043611 0.070706464
000330 fb b3 97 3e 41 84 d5 3d 4e c0 83 3e e1 a5 20 bf
       0.29629502 0.10425616 0.25732654 -0.6275311
000340 b8 e7 50 be 05 d4 1a 3e 99 c0 48 3e 00 0d 76 bc
       -0.20400894 0.15119942 0.1960472 -0.015017748
000350 37 7b c3 3c 40 41 1c bd e5 0e 1c be aa c7 5b 3e
       0.023862464 -0.038148165 -0.15240057 0.21462885
000360 0c 65 89 3b db bd c3 bd f3 31 1f 3e f4 97 9d 3e
       0.004192954 -0.095576964 0.15546398 0.30779994
000370 25 b1 b1 3d 69 70 57 3e af 30 e4 bc 89 37 90 be
       0.08676366 0.21038975 -0.027855245 -0.2816737
000380 47 3b 27 be 01 71 cb be 7a 46 88 3c d7 f4 94 3e
       -0.16331206 -0.39734653 0.016635168 0.29093048
000390 88 56 4d be 62 28 57 3d d1 0f c6 bd 12 49 51 be
       -0.2005254 0.052528746 -0.096709855 -0.2043803
0003a0 f0 f1 1f bf 78 83 18 be 53 6e 77 be 25 77 29 be
       -0.6247854 -0.14893901 -0.24163179 -0.16549356
0003b0 6b 8e 22 3e 79 79 ac 3c ec 70 f1 bd ff 2c a2 3c
       0.1587464 0.021054016 -0.11789116 0.019796846
0003c0 fc 1f cb 3d 87 97 06 be c9 ca 19 be 74 62 84 bc
       0.0991821 -0.1314374 -0.15018763 -0.016160227
0003d0 af 65 b5 3a 9d 42 b8 be 1b 43 45 3e 46 e5 76 be
       0.0013839508 -0.35988322 0.1926388 -0.24110898
0003e0 5c 13 1c be 69 7b cf be 5c 76 eb bb 89 52 f7 3d
       -0.1524176 -0.40523842 -0.0071857404 0.12076289
0003f0 08 83 e4 3d c4 d9 80 bd b5 e0 12 be 4e 91 c6 3e
       0.11157805 -0.062915355 -0.14343531 0.38782734

actor.4.bias f4 [128]
000000 d7 93 1c be 2c 40 69 be 9d 80 1a be 4b bb 17 be
       -0.15290771 -0.22778386 -0.15088125 -0.1481754
000010 db bc 36 be cc e4 a7 be a1 fd 83 be 1b f2 0b 3d
       -0.1784548 -0.32791746 -0.2577944 0.034166437
000020 63 74 86 be 10 25 a3 bc 6f e7 8b be f2 1e ab be
       -0.2626067 -0.019915134 -0.27325007 -0.33422047
000030 a1 a0 13 3e 31 7a 65 be c6 23 3e be 16 71 a3 be
       0.14416744 -0.22409894 -0.18568334 -0.31922215
000040 a9 54 bc bb 11 4b c5 be 57 52 73 bf f1 90 52 ba
       -0.005747397 -0.38533834 -0.95047516 -0.0008032462
000050 18 0e 98 be c9 a8 04 be 32 be 5d 3b 3d 4b 3b 3d
       -0.29698253 -0.12955011 0.003383529 0.04572605
000060 20 e8 1e be f0 3a a9 bd d3 3f c6 bd 30 7a dd bd
       -0.15518236 -0.082631946 -0.09680142 -0.10814321
000070 91 34 9f be 99 48 31 be 9b 16 a1 be 19 8e 17 be
       -0.31094792 -0.1731285 -0.3146256 -0.148003
000080 d2 3a ce be f2 e1 4e be d0 3a b0 be 49 03 b3 bd
       -0.4027925 -0.20203379 -0.3441987 -0.08740861
000090 ff 60 16 bd 37 3f 36 bd 8c c7 85 be 47 52 4b be
       -0.036713596 -0.04449388 -0.26128805 -0.19855605
0000a0 f3 27 58 3c 34 ab b6 be 35 d4 31 be ef 29 94 be
       0.013193118 -0.35677493 -0.17366107 -0.28938243
0000b0 87 82 05 be a9 f3 26 be 99 2a 47 be 62 73 a2 bc
       -0.13038073 -0.16303886 -0.19449843 -0.01983041
0000c0 56 e5 d0 bc 84 9d b9 be c9 a7 0c be 75 3c 2c bf
       -0.02549998 -0.36252987 -0.1373588 -0.6727975
0000d0 5d e0 b8 bd 40 f4 71 be 79 c6 99 be e2 6d 08 bf
       -0.09027169 -0.2362833 -0.30034235 -0.5329267
0000e0 e9 94 51 be ea c3 3f be 5e 32 71 bf 50 2b c7 bd
       -0.20466961 -0.18727079 -0.9421748 -0.09725058
0000f0 af 98 8a be 42 14 3d be 3d 04 9c be 34 2e d0 bd
       -0.27069613 -0.18464759 -0.30471984 -0.101650625
000100 80 13 45 bc 30 03 32 be 91 46 b8 bc b2 da 90 be
       -0.012028575 -0.17384028 -0.022494586 -0.2829185
000110 5c 14 15 be 83 97 a2 be 77 f4 14 be 1a 87 89 be
       -0.14558548 -0.3175622 -0.14546381 -0.26860887
000120 24 dd 0e 3e 03 b6 14 be f7 cd fb bd 0f 6a 99 be
       0.13951546 -0.14522557 -0.12295144 -0.2996373
000130 87 6e 0f bf f1 58 2c be 8e eb 8d bd 1b ce cd be
       -0.56028026 -0.16830803 -0.06929694 -0.40196308
000140 7c a8 46 be 4b cb 19 be de 80 3c be 5d dd 0b bd
       -0.19400209 -0.15018956 -0.18408534 -0.034146655
000150 c1 a2 b3 bd a3 ce e2 bd a9 5a 9c be e2 8d 1e be
       -0.08771277 -0.11074569 -0.30537918 -0.15483811
000160 68 87 a0 be 1a d9 08 be 10 11 8b be ac 80 5d be
       -0.31353307 -0.13364068 -0.27161455 -0.21631116
000170 27 87 a7 bd 5d f8 45 be 1c 99 53 be d9 94 34 be
       -0.08180075 -0.19333024 -0.20663875 -0.17634906
000180 a5 15 41 be 47 85 56 be 35 f9 a7 be 08 69 3d be
       -0.18855913 -0.20949279 -0.32807317 -0.18497097
000190 41 b5 50 be e1 70 03 bd 17 d1 a9 3a e7 65 38 be
       -0.20381643 -0.03209007 0.001295599 -0.18007623
0001a0 98 62 8e be b3 3b 25 be 5c 0f c5 3c b4 5e af be
       -0.27809596 -0.16136055 0.024055175 -0.3425194
0001b0 69 53 a2 be 95 6d d7 be 34 fc cb bd 87 1d 8c be
       -0.31704262 -0.42075792 -0.09960213 -0.27366278
0001c0 63 55 a2 be e1 f8 a1 bd 91 78 95 be 4d a5 89 be
       -0.3170577 -0.07908798 -0.29193547 -0.26883927
0001d0 98 6e 16 3d dd 1b 25 be b3 c8 04 bd ed 39 15 be
       0.036726564 -0.1612391 -0.032417964 -0.14572878
0001e0 fd b7 1a be db 40 1e be 6c 45 90 be d0 c4 60 be
       -0.15109248 -0.15454428 -0.28177965 -0.21950078
0001f0 20 e2 10 be 6d 99 9a be 5d 6a 1e be 4b fa a2 3c
       -0.1414876 -0.3019518 -0.15470262 0.01989474

actor.6.weight f4 [12, 128]
000000 90 a7 c8 3c 63 a2 1d ba cc 10 30 bc 0f 9d 9f 3c
       0.024493963 -0.0006013272 -0.010746192 0.019484071
000010 d8 6b 16 3e f2 57 0e 3b d2 e8 d8 bb 0a e4 6b bb
       0.14689577 0.00217199 -0.006619551 -0.0035994076
000020 09 29 e4 bc f0 d6 97 3c c7 d6 d7 ba 27 02 9e bc
       -0.027851598 0.018535107 -0.0016467207 -0.019288136
000030 a8 58 93 bc a7 3a a9 bc 5a 67 14 3d db f8 00 bc
       -0.01798661 -0.02065785 0.036231376 -0.007871832
000040 1a 92 aa 3c ab 5c f9 bb aa dd 0c 3d f5 87 26 bd
       0.02082162 -0.007609924 0.034391083 -0.040657002
000050 93 3b aa 3b e1 ea 8f 3b 97 9e bf ba ad df 2d bc
       0.00519509 0.0043920134 -0.0014619407 -0.0106124105
000060 69 be aa 39 19 c8 f7 bb 94 4c 18 3d 33 7b bc 3a
       0.00032566793 -0.0075616953 0.037182406 0.0014379978
000070 3c 54 2d 3b 70 84 61 bc 34 f6 fb bb 61 ae 98 bb
       0.0026447913 -0.013764486 -0.007689262 -0.0046594595
000080 7d 51 da ba d4 7a b4 bc c8 4c b7 bb e0 b4 a0 3a
       -0.0016656365 -0.022031225 -0.00559387 0.0012260936
000090 75 76 66 bc a8 22 a5 3a 26 00 12 bc ff 5c 89 3d
       -0.014066328 0.0012598829 -0.008911168 0.06707191
0000a0 a2 ae a0 bc 6b ee 6b 3c b5 cb 88 3b f9 6b 38 bc
       -0.019614521 0.014400105 0.0041746744 -0.011256211
0000b0 af b9 b7 3b 64 87 05 bb 74 b1 1a 3b f8 8a 3b 3c
       0.005606852 -0.0020374889 0.0023604305 0.011446707
0000c0 36 cc 3e 3c a9 6e 8e bc b7 c0 70 bc d0 64 af 3a
       0.011645367 -0.017386751 -0.014694384 0.0013381485
0000d0 79 5a 86 bc 42 95 17 3c 31 43 77 bc a0 1b cb bb
       -0.016400563 0.009251894 -0.015091703 -0.0061983615
0000e0 b1 d9 7b 3a 69 f8 77 bc c7 67 e7 3c 0b a2 0e bd
       0.00096073287 -0.015134909 0.028247727 -0.034822505
0000f0 73 34 55 bd 39 4f 28 bc c1 0e 8c bc 0f db 0b 3d
       -0.052051973 -0.010272794 -0.017096879 0.034144457
000100 c4 72 0e 3b ee df 52 3c bf 53 8a 3c 94 ea ff 3b
       0.0021735886 0.012870772 0.016885636 0.0078099463
000110 12 0d a8 3b b0 fa 25 bb 65 8b d2 3a 5e 9f 8b 3c
       0.005128511 -0.0025326423 0.0016063271 0.017043766
000120 f7 a0 3d bc fc 36 89 bc b0 5a f3 3c a0 8f ac 3c
       -0.011574022 -0.016749851 0.02970633 0.02106458
000130 b6 61 6f bb de 4b b8 3d 90 b4 f7 3b a1 49 8a bc
       -0.0036526746 0.089988455 0.0075593665 -0.016880812
000140 aa fe 47 bb 90 a7 82 3c 43 be 86 3b 43 6b 79 bb
       -0.0030516782 0.01594904 0.0041120364 -0.0038058318
000150 d1 57 d8 bc 90 73 e9 bc 30 29 03 3d b6 6a 92 3c
       -0.026409062 -0.028497487 0.0320217 0.01787315
000160 3d ca c8 3b 25 a0 ed bd 15 ac 71 3b db 1d 17 bc
       0.0061276243 -0.11602811 0.003687625 -0.009223427
000170 17 4a 54 bc 7a 93 77 bd e4 33 9d 3c e7 5e 97 3d
       -0.0129571175 -0.06044338 0.019189782 0.07391148
000180 17 b6 1a bb 20 b8 8d 3c e1 57 28 3c 50 81 12 bc
       -0.002360707 0.017299712 0.010274858 -0.008941963
000190 b3 1e 55 3b 34 dd df 3c 4c 9c 3f bb d1 e5 6a bd
       0.003251952 0.027327158 -0.0029237447 -0.057348076
0001a0 83 6e 98 bc 0f 89 18 3d a1 09 db bc 41 71 4e bc
       -0.018607384 0.037240084 -0.02673799 -0.012600244
0001b0 e6 a6 f4 3c a3 26 b6 37 23 ba c4 bb 40 92 83 bb
       0.02986474 2.1714082e-05 -0.0060036345 -0.004015237
0001c0 54 fb 2e bb fd 4b 38 bb 9f 3c c8 3b ef 29 55 bd
       -0.0026700096 -0.0028121464 0.006110742 -0.052041944
0001d0 13 36 8a bc e2 74 4d 3d 4f 68 3f bd 82 58 80 b9
       -0.016871488 0.050160296 -0.046730336 -0.00024480006
0001e0 1e 30 03 3c 7f 18 ce bc 0c ac 1c 3b c7 4f f0 bc
       0.0080070775 -0.025158165 0.002390626 -0.029334916
0001f0 5e 1b ad 3c fa ba 3b bb 93 24 20 bc 11 dd 94 3c
       0.021131214 -0.0028645382 -0.009774345 0.018171819
000200 b4 6d d0 bc e9 32 6a 39 a6 ad c8 ba 4d ef 99 3b
       -0.025442936 0.00022334945 -0.001531054 0.0046977163
000210 5d da ed 3c 90 3f ba 39 5e 37 1c bb d1 35 28 3b
       0.029034788 0.00035524042 -0.0023836712 0.0025666843
000220 b7 8a 08 bb bc 02 54 3c c8 1a f1 bc 32 6b 50 3c
       -0.0020834634 0.012940105 -0.029431716 0.01272087
000230 5a 8c 42 3c dd 5f 97 bd 0c 3c 6c 3d 29 06 02 bd
       0.011874283 -0.07391331 0.057674453 -0.031744156
000240 29 2a 27 3d c1 36 8c 3c 56 57 e2 bc be e2 a8 bc
       0.04081169 0.017115952 -0.027629536 -0.020615932
000250 f5 96 ac bc cb a2 04 ba d2 e7 66 3c 0e 15 2d 3c
       -0.021068076 -0.00050596584 0.014093356 0.010564102
000260 f8 02 87 bb ba 31 88 3c 62 65 64 3b 47 5e 03 bc
       -0.004120227 0.016625274 0.0034850468 -0.008018083
000270 58 b7 cf bb 18 ba aa bc 5e 72 4c 3b 76 12 9a bc
       -0.006338995 -0.02084069 0.0031196098 -0.018807631
000280 2a ec 2b 39 43 b8 46 bb fb f5 c2 bb 24 08 33 3c
       0.00016395809 -0.003032223 -0.0059497333 0.010927234
000290 5f 12 be 3a a8 24 90 bc be 55 38 3c b6 5d ba bd
       0.0014501325 -0.017595604 0.011250911 -0.09099905
0002a0 a4 6b 8b bc b3 f5 8d 3c ad 73 ce 3c 7e d9 0f 3c
       -0.0170191 0.017329073 0.025201643 0.0087798815
0002b0 be e4 c2 bb 5c 94 b9 bb 23 d5 d4 3b 84 f8 0a bd
       -0.0059476783 -0.005663438 0.0064951344 -0.03392841
0002c0 d4 78 fb ba 84 93 6e bc 68 7f 2c 3c e8 4d b9 ba
       -0.001918579 -0.014561538 0.010528423 -0.0014137598
0002d0 ca ed ee 3b cf e4 8a bc d8 d4 22 bc 6a f7 7f 3b
       0.0072915303 -0.016954808 -0.009938441 0.0039057382
0002e0 79 f2 0f 3c 54 4a 39 3b 75 47 0e bd 2e cb d9 3c
       0.008785837 0.0028273063 -0.034736115 0.026586141
0002f0 fe 6a f3 bc 4d c0 7b bb 86 4a 8b 3c 4d 54 41 bc
       -0.029714104 -0.003841418 0.017003309 -0.011799884
000300 44 fb 35 bc 04 d5 47 bc 06 d2 a1 3c f5 bb 8f bc
       -0.01110727 -0.012196783 0.019753467 -0.01754568
000310 0d 30 98 3a cf 8a 0b 3b b2 57 03 bb 24 af 07 bc
       0.0011611 0.0021292453 -0.0020041284 -0.008281503
000320 03 8b 8f 3c e7 18 81 bc f2 61 ad 3a 07 c0 b1 bb
       0.01752234 -0.015758945 0.0013228043 -0.005424503
000330 9a ff e3 3b 06 bd 89 bd ac ab 3f 3d e1 c1 00 3c
       0.0069579603 -0.067255065 0.04679458 0.007858724
000340 8b 0a 13 3c 15 db 8c 3c c9 f7 28 3c 47 5d 3d 3b
       0.008974682 0.01719431 0.010312983 0.002889471
000350 4e 76 0c 3d 54 8c eb 3c 39 a6 02 3c 3c 14 90 bc
       0.03429251 0.028753437 0.007974201 -0.017587774
000360 b2 19 58 bb 81 b4 bf 3b c1 cf 95 bc 86 75 47 3b
       -0.00329743 0.005850375 -0.018287541 0.003043504
000370 43 dd 98 bc eb 68 4e bd 85 16 4f bb 84 60 ab 3c
       -0.018660193 -0.050393026 -0.0031599116 0.020920046
000380 30 14 71 3c d5 d2 16 bc ec 9f 75 3c 4d 20 85 ba
       0.014714286 -0.00920554 0.014991742 -0.0010156721
000390 28 a8 b6 3c f4 18 da 3c 5a 6c 8a 3b 56 48 13 bd
       0.02229698 0.026623227 0.0042243423 -0.035957657
0003a0 c5 1f 57 3d 5a 2f f9 39 78 cc de bc a4 7e a0 3c
       0.052520532 0.0004752826 -0.027197108 0.019591637
0003b0 ea 94 57 3d 83 e1 b4 3a bf c5 ed 3d 63 eb 86 3b
       0.05263225 0.0013800118 0.11609983 0.0041174158
0003c0 47 0f 42 3a df a3 17 bd 97 d3 a5 3b 7b 0b 96 3c
       0.0007402789 -0.037021514 0.005060624 0.018316021
0003d0 3e 40 8a 3c c7 84 75 3d 9e e4 00 bc 56 25 16 bd
       0.016876336 0.05994108 -0.007867007 -0.0366567
0003e0 9c 86 e8 ba 8a a2 8a bb 69 e9 e4 3c 4e a0 17 be
       -0.0017740312 -0.004230802 0.02794333 -0.14807245
0003f0 28 87 65 3c 3f 14 f8 3b 2a 72 74 3c 37 d3 76 ba
       0.014009275 0.007570773 0.014919797 -0.0009415629

actor.6.bias f4 [12]
000000 eb 19 99 39 ca 66 ac ba e9 a6 69 3c 8e 3b 80 bc
       0.00029201744 -0.0013153192 0.014260986 -0.015653398
000010 c8 02 de bc f5 d7 df bc d3 3c af 3d c5 19 b2 3d
       -0.027100936 -0.027324656 0.08556523 0.086963214
000020 83 b2 6a 3e d5 94 6a 3e f2 81 a9 3e 88 43 a9 3e
       0.2291966 0.22908337 0.33106953 0.33059335
