tested_policies/aliengo/8k_128_128_128_stop/exported/policy.onnx (onnx, 273175 bytes, 8 tensors)

actor.0.weight f4 [128, 260]
0	0x3e849c2b	0.25900397
1	0xbec8ffbe	-0.39257616
2	0x3f5d6a8c	0.864907
3	0x3daeb3c1	0.08530379
4	0xbd3729bb	-0.04471753
5	0xbea001ee	-0.31251472
6	0x3e0a60d3	0.13513498
7	0x3f295711	0.6614848
8	0xbe99249c	-0.29910743
9	0x3e9ff7cb	0.3124374
10	0x3e12f7a9	0.14352287
11	0x3c073c4c	0.008254122
12	0xbe065b65	-0.13120802
13	0x3b667a44	0.003516809
14	0xbe27c5f1	-0.16384102
15	0xbded5fbd	-0.11590526
16	0xbc8b7e6c	-0.017028056
17	0x3c86b692	0.016444478
18	0x3d95d65e	0.07316278
19	0x3efb32df	0.4906225
20	0xbe4751d6	-0.19464812
21	0x3ddfb327	0.109228425
22	0xbd5bfc36	-0.053707324
23	0x3e6a4f3f	0.22881792
24	0x3d9f04c4	0.07764581
25	0x3b3a00c7	0.002838181
26	0x3d188f9a	0.037246324
27	0xbbbda059	-0.005786937
28	0xbbd81c81	-0.006595195
29	0x3d2b8f5b	0.04188476
30	0x3d86fe41	0.06591464
31	0xbca20d74	-0.019781806
32	0x3c017d2c	0.007903378
33	0x3cdaceba	0.026709903
34	0x3dc5da6a	0.096608
35	0x3aa387d3	0.0012476392
36	0x3d82a9a0	0.0638001
37	0x3d38610d	0.04501443
38	0x3da2bf0e	0.07946597
39	0xbda97a95	-0.08275334
40	0x3d9debc1	0.07710982
41	0xbce392ab	-0.027779898
42	0xbc7353f4	-0.014851559
43	0x3c9f78ff	0.019466875
44	0x3bff26b3	0.0077865957
45	0x3d046651	0.03232414
46	0x3dc06d84	0.093958884
47	0xbd4676ce	-0.048453145
48	0xbda15258	-0.07877034
49	0xbf58839a	-0.8457581
50	0xbf4a341a	-0.7898575
51	0xbcad4f1e	-0.02115589
52	0x3e52fd8d	0.20604534
53	0xbe999e2a	-0.30003482
54	0x3e47d9f3	0.19516735
55	0xbe1fb0c8	-0.1559478
56	0xbdf6fa26	-0.12059431
57	0xbe618648	-0.2202388
58	0x3e041639	0.12899102
59	0x3f1f8b23	0.6232168
60	0xbebe5b65	-0.37179103
61	0x3e9c6e1d	0.3055276
62	0x3e1dd825	0.15414484
63	0xba732718	-0.000927554
64	0xbdc92c29	-0.09822876
65	0xbc26efe1	-0.0101890275
66	0xbe6876de	-0.22701594
67	0xbe2ae8ba	-0.1669034
68	0x3c8ee91d	0.017445141
69	0x3d0253af	0.03181809
70	0x3d825436	0.06363718
71	0x3ee2e112	0.4431234
72	0xbe57e2c5	-0.210826
73	0x3e02b697	0.12764965
74	0x3c0beb4c	0.008539986
75	0x3e9e6775	0.30938306
76	0xbdc811ef	-0.097690456
77	0xbcf58631	-0.029971214
78	0x3de1e85e	0.11030649
79	0x3c47cacc	0.012194347
80	0xbc973b52	-0.018460903
81	0xbdc243ad	-0.094855644
82	0xbd94ea16	-0.07271211
83	0xbc195976	-0.009359708
84	0x3bc3a56e	0.0059706485
85	0x3d3016a7	0.042990353
86	0xbc039093	-0.008030075
87	0xbd5ff03e	-0.054672472
88	0x3e4c5f55	0.19958241
89	0x3e0d5ede	0.1380572
90	0xbd86fe63	-0.06591489
91	0xbe81a701	-0.25322726
92	0xbd2009cc	-0.039071843
93	0x3ca7d046	0.020485055
94	0x3cb18a7e	0.021672484
95	0x3dda9b05	0.10674099
96	0x3da1e516	0.07905023
97	0x3d6655fe	0.056234352
98	0x3df94f38	0.12173313
99	0x3d258f01	0.040419582
100	0xbdb20d98	-0.08693999
101	0xbf5d82d7	-0.8652777
102	0xbf60718b	-0.8767325
103	0xbd93113a	-0.0718102
104	0x3dc10f27	0.09426718
105	0xbdaa8c70	-0.083275676
106	0x3e08329f	0.1330056
107	0xbcc88cd2	-0.02448121
108	0x3ddcb6b0	0.107770324
109	0xbe5fa3b0	-0.21839786
110	0x3df5575b	0.11979552
111	0x3f328153	0.69728583
112	0xbe9cce21	-0.30626014
113	0x3eb16dbd	0.34654036
114	0x3e158182	0.14600185
115	0xbd7ec1ee	-0.062196665
116	0xbe51c9aa	-0.20487085
117	0xbc9ae79f	-0.018909274
118	0xbe3efc8f	-0.18651031
119	0xbdf26188	-0.11835009
120	0xbd43e8c1	-0.047829393
121	0x3c7b80a2	0.015350493
122	0x3c4d7b5f	0.012541621
123	0x3ec10c86	0.37704867
124	0xbe0d0ab2	-0.13773611
125	0x3db48173	0.08813753
126	0x3d1f70b6	0.03892585
127	0x3eb91c0a	0.36154205
128	0xbd24664a	-0.040136613
129	0x3da71957	0.0815913
130	0xbd69fba7	-0.05712476
131	0xbcf06f2d	-0.029349888
132	0x3d004b30	0.031321704
133	0x3dba56d2	0.09098591
134	0xbdd3b255	-0.103367485
135	0xbd861648	-0.065472186
136	0x3cfffe59	0.031249212
137	0xbd89348d	-0.066994764
138	0xbde062b1	-0.10956324
139	0xbcc4b340	-0.024011254
140	0x3d75c220	0.059999585
141	0x3d0b18d3	0.03395922
142	0xbbfdeacc	-0.0077489372
143	0xbda196c4	-0.078900844
144	0xbd423621	-0.047414903
145	0xbdc7b641	-0.09751559
146	0xbdb7e7a5	-0.089797296
147	0xbb5118f0	-0.0031905733
148	0x3e3324f4	0.17494565
149	0x3d9e9ae7	0.07744389
150	0x3dee189d	0.11625788
151	0xbde1ef4f	-0.110319726
152	0xbd7bc9a9	-0.061471615
153	0xbf58d881	-0.8470536
154	0xbf5eba99	-0.87003475
155	0xbd6ff76c	-0.05858557
156	0xbdf14a07	-0.11781698
157	0x3ddc2bae	0.10750519
158	0x3c9a0b82	0.018804315
159	0xbd9483c8	-0.07251698
160	0x3df8061c	0.1211054
161	0xbe5ec04d	-0.21753044
162	0x3e342100	0.17590714
163	0x3f3cb009	0.7370611
164	0xbe9a83c2	-0.30178648
165	0x3ed088e2	0.40729433
166	0x3e55f28e	0.20893309
167	0xbde3c0c7	-0.11120754
168	0xbe6e6dab	-0.23284023
169	0xbd1dee65	-0.03855743
170	0xbded0886	-0.11573891
171	0xbe3cb949	-0.18430056
172	0x3c8b2e7f	0.016989945
173	0x3bbb43d0	0.005714871
174	0x3df2c833	0.11854591
175	0x3e8817ec	0.2658075
176	0xbdbde7c2	-0.0927272
177	0x3daccb32	0.08437194
178	0xbd9929eb	-0.07478698
179	0x3ed1d8f2	0.4098583
180	0xbcfb1e00	-0.030653954
181	0x3ce0d797	0.027446551
182	0xbcdf5067	-0.027260019
183	0x3b89e228	0.004207868
184	0xbc28d65a	-0.010305012
185	0x3e182cd7	0.14860855
186	0xbcf66dca	-0.030081648
187	0xbde89e9c	-0.11358377
188	0xbc8ee299	-0.017442035
189	0xbd585a36	-0.052820407
190	0x3c4fef71	0.012691365
191	0xbdd71654	-0.105023056
192	0xbba24798	-0.0049523823
193	0x3e20a63c	0.15688413
194	0xbdcaefae	-0.099089965
195	0x3b473780	0.003039807
196	0xbd8b29a5	-0.067950524
197	0xbe35ec29	-0.17765869
198	0x3d2430d4	0.04008563
199	0x3e505e41	0.20348455
200	0x3e22440e	0.15846273
201	0x3cb7ba09	0.022427576
202	0x3dc3735c	0.095434874
203	0xbdf9e118	-0.12201136
204	0xbd942ecb	-0.072354876
205	0xbf8182c2	-1.0118029
206	0xbf6f2569	-0.9341646
207	0xbdc2b718	-0.095075786
208	0xbec5d74b	-0.38640818
209	0x3f074475	0.5283883
210	0xbf362786	-0.7115406
211	0xbf0407a2	-0.51574147
212	0xbe9d64bf	-0.30740926
213	0x3fb1fd3c	1.3905406
214	0x3dce7350	0.10080588
215	0x3f350419	0.7070938
216	0xbeac27b4	-0.3362404
217	0x3f0980b4	0.5371201
218	0x3ed2f3dd	0.41201678
219	0x3d2b9d62	0.04189814
220	0xbe4e29db	-0.20133154
221	0xbdbe88e1	-0.09303451
222	0xbdf51345	-0.11966566
223	0xbe04baf4	-0.12961942
224	0x3abbe233	0.001433438
225	0x3e01d416	0.1267856
226	0x3ddd68b3	0.108109854
227	0x3e9bb428	0.30410886
228	0xbe067ac2	-0.13132766
229	0x3c1aa53d	0.00943881
230	0xbd9f6b19	-0.07784099
231	0x3eb4a67e	0.35283273
232	0xbdeb8024	-0.1149905
233	0xbef0e81d	-0.47052088
234	0x3ecc128c	0.398579
235	0xbe02dcb3	-0.12779503
236	0x3db26fad	0.08712707
237	0x3bc26a37	0.005933072
238	0x3d0ddccc	0.034634396
239	0xbc2f6125	-0.010704313
240	0x3e090c8a	0.1338369
241	0xbe81a413	-0.2532049
242	0xbe4c4f3a	-0.19952098
243	0x3d4ba621	0.04971898
244	0x3e51ece1	0.20500518
245	0x3e428a78	0.18998134
246	0xbe3fe369	-0.18739094
247	0x3dc23ac8	0.09483868
248	0xbda9e6dc	-0.08295986
249	0x3d9674cf	0.07346498
250	0xbdb41f8b	-0.08795079
251	0xbe07d5a3	-0.1326509
252	0xbea239ba	-0.31684667
253	0x3d3b433d	0.04571842
254	0x3e69a9b0	0.22818637
255	0xbf2bba12	-0.67080796

actor.0.bias f4 [128]
0	0x3ea95063	0.33069143
1	0x3c92a183	0.01789928
2	0xbe190f13	-0.14947157
3	0x3da91f71	0.0825795
4	0xbd90b7c6	-0.07066302
5	0x3bc97627	0.006148118
6	0xbdb65eb6	-0.089047834
7	0xbdc5f836	-0.09666483
8	0xbd9a70b0	-0.07541025
9	0xbe6fef18	-0.23431051
10	0xbd2efed8	-0.042723507
11	0x3bdc209f	0.006717756
12	0x3dc40b3b	0.095724545
13	0x3d387724	0.045035496
14	0xbdfa2713	-0.12214484
15	0xbdac23dc	-0.08405277
16	0x3d0771b7	0.03306743
17	0xbd7966e3	-0.060889136
18	0xbd5be617	-0.053686228
19	0xbd3c578e	-0.045981936
20	0xbc8d39d3	-0.017239487
21	0xbdcddbf2	-0.10051717
22	0x3da30f93	0.07961955
23	0xbdd284c4	-0.10279229
24	0x3cea39b6	0.028591972
25	0x3cca7e70	0.024718493
26	0x3d6ddd42	0.058072336
27	0xbd2c0c28	-0.04200378
28	0xbd8b42bf	-0.0679984
29	0x3e1ed131	0.15509488
30	0x3da7d5a3	0.08195045
31	0xbd99768d	-0.07493315
32	0x3e81186b	0.25213942
33	0x3af5d828	0.0018756436
34	0xbe9f99a5	-0.3117191
35	0xbdeddae2	-0.11614014
36	0x3d9c2320	0.07623887
37	0xbe57cb88	-0.21073735
38	0xbe0261b0	-0.12732577
39	0xbea7dfe7	-0.3278801
40	0xbe0a1406	-0.13484201
41	0xbdd37aee	-0.10326181
42	0x3df36dbc	0.118861645
43	0xbcba3910	-0.022732288
44	0xbddca6df	-0.10774016
45	0x3d106ca7	0.03525987
46	0x38889586	6.512836e-05
47	0x3d42bcac	0.047543213
48	0xbdc111ed	-0.09427247
49	0x3e40b4e8	0.1881901
50	0xbead7fbc	-0.33886516
51	0x3c8edee4	0.017440267
52	0x3d27ae6e	0.040937833
53	0x3da5f01f	0.0810244
54	0xbdf3e295	-0.119084515
55	0x3e3780d8	0.17920244
56	0x3dc967a3	0.0983422
57	0xbbeccc4d	-0.007226503
58	0xbd020b47	-0.031749036
59	0x3c6e0b0f	0.014529004
60	0x3eabbbb7	0.33541653
61	0x3e308d6f	0.17241453
62	0xbd9051a9	-0.070468254
63	0x3d8253d8	0.06363648
64	0x3e7754bc	0.24153417
65	0x3da48a12	0.08034147
66	0xbd7f0889	-0.062264
67	0x3d1cc0f2	0.038269944
68	0xbded7d01	-0.11596108
69	0x3d87b1e6	0.06625728
70	0xbe05eb1e	-0.13077971
71	0x3e163309	0.14667906
72	0xbcd00076	-0.025390845
73	0xbbec7e1b	-0.0072171814
74	0x3d93271b	0.07185193
75	0xbe17b667	-0.14815675
76	0xbdd7348d	-0.1050807
77	0xbe02b242	-0.12763312
78	0xbdb8d8ea	-0.09025748
79	0x3e0a6046	0.13513288
80	0xbe11d0e5	-0.14239843
81	0xbd1b21f2	-0.03787417
82	0xbbd816c8	-0.0065945126
83	0x3e8a0776	0.26958817
84	0x3e1c33eb	0.1525418
85	0x3d77dea5	0.060515065
86	0x3eaf9f09	0.34301022
87	0xbdb4997f	-0.088183396
88	0xbe1d7374	-0.15376073
89	0xbe1b8749	-0.15188326
90	0x3d56fc40	0.052486658
91	0x3dd4f9f5	0.10399238
92	0xbe012597	-0.12611996
93	0xbeb36b70	-0.35042906
94	0xbc1c7de2	-0.009551497
95	0xbe24a742	-0.16079429
96	0x3e0b7174	0.13617498
97	0xbd06c6bd	-0.032904375
98	0x3e114358	0.14185846
99	0xbc9dafdb	-0.019248893
100	0x3d5897f1	0.052879278
101	0x3b8f55fb	0.0043742633
102	0xbb50178c	-0.0031752316
103	0xbcf33787	-0.029689563
104	0xbd896874	-0.06709376
105	0xbdab9e93	-0.08379855
106	0x3eab28be	0.3342952
107	0x3dd51e1a	0.10406132
108	0xbe05bcd7	-0.13060318
109	0x3c7efc38	0.015563063
110	0x3cb02c61	0.021505537
111	0xbdf095f5	-0.11747352
112	0xbd839e1f	-0.064266436
113	0xbd87ad0d	-0.06624804
114	0x3c9d4a64	0.019200511
115	0xbb47f1ab	-0.0030509036
116	0xbe5698ad	-0.20956679
117	0xbda98a08	-0.082782805
118	0xbeaff5f4	-0.34367335
119	0xbdbf264f	-0.09333479
120	0x3d5b1f45	0.053496618
121	0xbe9a88e6	-0.3018257
122	0x3e912b6b	0.28353438
123	0x3d5898f5	0.052880246
124	0x3d25b7ed	0.04045861
125	0xbc41af14	-0.011821527
126	0x3d473d2d	0.048642326
127	0x3e7edcf8	0.2488898

actor.2.weight f4 [128, 128]
0	0xbe516289	-0.20447744
1	0xbdff9f6d	-0.1248158
2	0xbd0b6364	-0.034030333
3	0xbd08ed73	-0.033429574
4	0x3d9310a8	0.07180911
5	0xbd14fd97	-0.036374655
6	0xbe217017	-0.15765415
7	0x3d466670	0.048437536
8	0xbe826c62	-0.25473315
9	0xbd0b2821	-0.033973817
10	0xbe945314	-0.28969634
11	0xbd6c7776	-0.057731114
12	0xbcf8298a	-0.030293245
13	0xbf45a387	-0.7720265
14	0x3e25da34	0.16196519
15	0x3e99d6b4	0.30046618
16	0x3e16254c	0.14662665
17	0x3e3c9151	0.18414809
18	0xbde27de4	-0.11059168
19	0xbe62003a	-0.22070399
20	0xbecde75f	-0.40215585
21	0xbe9195e2	-0.28434664
22	0xbf1471ac	-0.5798595
23	0x3e64724a	0.22309223
24	0xbdc75425	-0.09732846
25	0xbd7b1a79	-0.061304543
26	0xbda446dc	-0.08021328
27	0x3e1a0e0f	0.15044425
28	0xbe548391	-0.20753314
29	0x3e88a5bb	0.26688942
30	0x3c4629fc	0.012094971
31	0x3e9ea858	0.3098781
32	0xbe0d990f	-0.13827918
33	0xbd4b9e49	-0.0497115
34	0xbebceace	-0.36897892
35	0x3e80974e	0.25115436
36	0xbc898189	-0.0167854
37	0xbbe29201	-0.0069143777
38	0xbe73d7ab	-0.2381274
39	0x3eee8cdd	0.46591845
40	0xbe85f5e1	-0.26164153
41	0xbdd2e184	-0.1029692
42	0xbeb6bf58	-0.3569286
43	0xbd7ea8a7	-0.06217256
44	0x3e335c85	0.17515762
45	0x3e852a0c	0.26008642
46	0xbd02bebc	-0.03192018
47	0xbe00d757	-0.12582146
48	0x3e26942a	0.16267458
49	0xbe308e6b	-0.17241828
50	0x3cfb3ef2	0.030669663
51	0x3d8201d4	0.06348005
52	0xbc3af514	-0.01141097
53	0xbe745121	-0.23859073
54	0xbd84228d	-0.064519025
55	0x3d04afa8	0.03239408
56	0x3e2a45fe	0.16628262
57	0xbe22f8ce	-0.15915224
58	0xbe447684	-0.19185835
59	0x3e65ad54	0.224294
60	0xbe7fca94	-0.24979621
61	0x3d5bb03a	0.05363486
62	0xbc8a0df7	-0.016852362
63	0x3c4e7ed6	0.012603482
64	0x3daa978d	0.08329687
65	0xbdeaf162	-0.11471821
66	0x3eb5b947	0.35492918
67	0xbef2b1c7	-0.47401258
68	0x3c4647fd	0.012102124
69	0xbd1ef96b	-0.038812082
70	0xbe766fd8	-0.24066103
71	0xbe4d7410	-0.20063806
72	0xbd8e78ac	-0.0695661
73	0x3e9d8994	0.30769026
74	0xbdb7f118	-0.08981532
75	0xbe9b6e78	-0.30357718
76	0xbb39c3ee	-0.0028345543
77	0x3dd3b236	0.103367254
78	0xbcf4f1ad	-0.029900396
79	0xbd1b334c	-0.037890717
80	0xbf26cc45	-0.6515544
81	0x3d1c6093	0.038178038
82	0xbe571dd9	-0.2100748
83	0x3e0670a5	0.13128908
84	0x3e64dbf1	0.22349526
85	0xba87d0e8	-0.0010361942
86	0x3daba52f	0.08381116
87	0xbf05d6c6	-0.52280843
88	0xbcdea4aa	-0.027178127
89	0xbe187131	-0.14886929
90	0xbd8744e5	-0.066049375
91	0x3e41f4d2	0.18941048
92	0x3e563579	0.20918836
93	0x3f156a7c	0.5836561
94	0x3d890414	0.06690231
95	0xbce6f2ff	-0.028192041
96	0x3e179b20	0.14805269
97	0x3e28e5b3	0.16493873
98	0xbe6f70c8	-0.23382866
99	0x3eaec7e4	0.3413688
100	0xbd513920	-0.05107987
101	0x3d4a20f1	0.04934782
102	0x3e157458	0.14595163
103	0x3debc7cb	0.11512717
104	0xbe82d3c5	-0.25552192
105	0xb9a9d0af	-0.00032389673
106	0xbe1d883d	-0.15384002
107	0x3e9d0b59	0.3067272
108	0xbdb15d39	-0.08660359
109	0x3cf2e424	0.029649802
110	0x3cdc1765	0.026866624
111	0xbe6c2aa0	-0.23063135
112	0xbef2af13	-0.47399196
113	0xbc9510e9	-0.01819654
114	0xbe6dd06b	-0.23224036
115	0x3ddd27d4	0.10798612
116	0x3d983118	0.07431239
117	0x3c2b0b7f	0.010439753
118	0x3dd1371f	0.10215592
119	0xbe0c6be0	-0.13713026
120	0xbe8967b8	-0.26836944
121	0x3d8d8e8b	0.069119535
122	0x3e080f8f	0.13287185
123	0x3e3a25f9	0.18178548
124	0xbe86193d	-0.2619113
125	0x3d096ef2	0.03355307
126	0xbe7c818d	-0.24658795
127	0x3d23693f	0.039895292
128	0x3eb49b7c	0.35274875
129	0xbc31bb2e	-0.01084785
130	0xbb92923e	-0.004473
131	0x3d912d39	0.07088704
132	0x3e081b12	0.13291577
133	0xbe2d21d3	-0.16907434
134	0x3db16a8a	0.08662899
135	0x3d4cd7cf	0.0500105
136	0xbe0dc777	-0.13845621
137	0xbb679f54	-0.003534277
138	0xbcb27471	-0.02178404
139	0xbc24dab5	-0.010061909
140	0x3abb685b	0.0014298068
141	0x3e1a58bb	0.1507291
142	0xbdd9ddcf	-0.1063801
143	0xbd1f969d	-0.038961995
144	0xbdee02a3	-0.11621597
145	0xbe8d12b7	-0.2755334
146	0xbe6a7a8e	-0.22898313
147	0x3d6e4f3f	0.058181044
148	0xbec3fd06	-0.3827898
149	0xbd8a2bd0	-0.06746638
150	0xbe1ed0e0	-0.15509367
151	0xbdf36eb8	-0.11886352
152	0x3dd0f184	0.102023154
153	0xbe099dee	-0.13439152
154	0xbe0ed170	-0.13947082
155	0x3eb8cf5f	0.36095712
156	0xbe82992e	-0.25507492
157	0xbe4b8508	-0.19874966
158	0xbe171232	-0.14753035
159	0xbcb68e6a	-0.022284705
160	0xbe48e950	-0.19620252
161	0xbdbe96a2	-0.09306075
162	0xbe2022ea	-0.15638319
163	0x3d80f805	0.06297306
164	0x3db3c57e	0.08777903
165	0xba1d33b1	-0.00059967773
166	0xbd881eee	-0.06646524
167	0xbe61a2c4	-0.22034746
168	0xbeedb3e1	-0.464263
169	0x3d8b3c75	0.06798641
170	0xbd96729a	-0.07346077
171	0xbe7b9169	-0.24567188
172	0x3dcfc488	0.10144907
173	0xbe052c6e	-0.1300523
174	0x3d6a1862	0.05715216
175	0xbe53a6c7	-0.2066909
176	0xbe1b83d0	-0.15187001
177	0x3cb85231	0.02250013
178	0x3d1bf381	0.03807402
179	0x3c4136cc	0.01179285
180	0xbe50695b	-0.2035269
181	0xbdb946c2	-0.09046699
182	0xbe600176	-0.21875557
183	0x3dcdd904	0.10051158
184	0xbd1ab4e7	-0.03777018
185	0xbf3fdd4e	-0.7494706
186	0x3e9c1429	0.3048413
187	0xbe0046a8	-0.12526953
188	0xbec1318d	-0.37733117
189	0x3de294eb	0.1106356
190	0xbd733e7f	-0.059385773
191	0xbc32bdc5	-0.010909502
192	0x3e23d5b2	0.15999487
193	0xbe06c046	-0.13159284
194	0xbd856341	-0.06513072
195	0xbe26132c	-0.16218251
196	0xbdf05f98	-0.11736983
197	0xbe8bf346	-0.2733404
198	0x3e426ef8	0.18987644
199	0xbeb5e8e4	-0.35529244
200	0xbeb7f6b2	-0.359304
201	0x3e3e943f	0.18611239
202	0xbe15ecad	-0.14641066
203	0xbda776e4	-0.081769735
204	0xbe0823aa	-0.13294855
205	0x3e4c08ed	0.1992528
206	0xbec4b0d4	-0.3841616
207	0x3e623b4d	0.22092934
208	0x3e171c1b	0.14756815
209	0xbc72dae1	-0.014822693
210	0xbde0ee6a	-0.10982974
211	0xbe09d1a1	-0.13458873
212	0x3d904c9f	0.07045864
213	0xbb67982f	-0.0035338511
214	0x3d6942c8	0.056948453
215	0x3d74ee51	0.05979759
216	0xbd586e24	-0.052839413
217	0xbd291ec1	-0.041289095
218	0xbd8fc80d	-0.070205785
219	0x3d324850	0.043525994
220	0x3d33a345	0.043856878
221	0x3cd4d520	0.025980532
222	0xbde0f8eb	-0.10984977
223	0xbd679e25	-0.056547303
224	0x3cddc67d	0.027072186
225	0x3d858e03	0.06521227
226	0x3be8de66	0.00710659
227	0x3de11056	0.10989444
228	0xbeac1c0b	-0.33615145
229	0x3d86dd49	0.065851755
230	0x3e9342ba	0.28761846
231	0xbe052524	-0.1300245
232	0xbc58ba6e	-0.013228042
233	0x3c86e3d8	0.016466066
234	0xba86a961	-0.0010273868
235	0x3e5de133	0.21667938
236	0xbe1d59d2	-0.15366295
237	0x3e0e04d1	0.13869025
238	0x3e23c396	0.15992579
239	0x3e129b7a	0.14317122
240	0x37413d08	1.1517906e-05
241	0xbe52e27d	-0.20594211
242	0x3e5c381c	0.21505779
243	0x3dbaef9b	0.09127732
244	0x3cd0ee5c	0.025504284
245	0xbe4217f2	-0.18954447
246	0xbebec42c	-0.37259042
247	0xbcb4d31b	-0.02207332
248	0xbbfe6f19	-0.0077647087
249	0xbdcaccff	-0.09902381
250	0x3d6995ce	0.05702763
251	0x3e12f7f1	0.14352395
252	0xbe200ec6	-0.15630636
253	0xbd1022a8	-0.0351893
254	0xbea3faf9	-0.32027414
255	0x3daa481c	0.08314535

actor.2.bias f4 [128]
0	0xbe7953f6	-0.24348435
1	0xbd840be6	-0.06447582
2	0xbe107c7f	-0.14109991
3	0xbe09e112	-0.13464764
4	0xbe05c288	-0.13062489
5	0xbf668944	-0.900532
6	0x3ee3d537	0.44498608
7	0xbdda0fe7	-0.106475644
8	0x3dddfec1	0.10839606
9	0xbd0f7655	-0.03502496
10	0xbe5001cf	-0.2031319
11	0xbc6d7885	-0.014494066
12	0xbeacb3fd	-0.3373107
13	0xbe7a49d4	-0.24442226
14	0xbec10606	-0.37699908
15	0xbe5ee0f3	-0.21765499
16	0xbe044d6b	-0.12920158
17	0xbe82f446	-0.2557699
18	0xbe425284	-0.1897679
19	0x3d6e2b00	0.058146477
20	0xbe2a52a5	-0.16633089
21	0xbe3a132e	-0.18171379
22	0xbf0882ad	-0.53324395
23	0xbe05a71d	-0.1305203
24	0xbe23b057	-0.15985237
25	0xbeae6be6	-0.34066695
26	0x3ecfe725	0.40606037
27	0xbe9273ad	-0.2860388
28	0xbe006cf7	-0.12541567
29	0x3e333916	0.17502245
30	0x3d978020	0.07397485
31	0xbe1fd821	-0.1560979
32	0xbcbeb3f0	-0.02327916
33	0xbe88029e	-0.26564497
34	0xbe739f6f	-0.23791288
35	0xbe81017f	-0.25196454
36	0x3baa8086	0.0052033095
37	0xbd2aea86	-0.041727565
38	0x3d802b87	0.06258302
39	0xbf4a61c7	-0.79055446
40	0xbe20246c	-0.15638894
41	0xbe892c90	-0.2679181
42	0x3de4fc89	0.1118098
43	0xbddbd327	-0.107336335
44	0xbe6bf1bd	-0.23041435
45	0xbedfd1b3	-0.43714675
46	0xbe26a5b3	-0.16274147
47	0x3e22ba54	0.15891391
48	0x3e5404da	0.20704976
49	0xbe127190	-0.14301133
50	0xbe30a9be	-0.17252252
51	0xbf355fe7	-0.7084946
52	0xbec24bbe	-0.37948412
53	0xbf50b44d	-0.8152512
54	0x3afdb245	0.0019355497
55	0x3e195a79	0.14975919
56	0xbdb84f3c	-0.08999488
57	0x3d7fde65	0.06246795
58	0xbe91eaa5	-0.28499332
59	0xbdaab66c	-0.083355755
60	0x3d4b3594	0.049611643
61	0xbe504a6b	-0.20340888
62	0xbf1341c5	-0.5752223
63	0x3dc0b5bf	0.09409665
64	0x3e2ac80f	0.16677879
65	0xbe64bf79	-0.22338666
66	0xbd75e184	-0.06002952
67	0xbd7e67bb	-0.062110644
68	0xbbb3dd6c	-0.005489042
69	0xbe15c304	-0.14625174
70	0x3985460a	0.0002541992
71	0x3d15b07b	0.036545258
72	0xbe52a2d4	-0.20569927
73	0xbe2f16fe	-0.17098615
74	0x3de79c75	0.11309139
75	0xbd9d092a	-0.076677635
76	0xbe63c7c5	-0.22244175
77	0xbe4f97ac	-0.20272702
78	0xbdf7150c	-0.12064561
79	0x3d083e26	0.033262394
80	0x3e2fe04f	0.1717541
81	0x3d0811eb	0.033220213
82	0xbf6d0625	-0.925875
83	0x3dcde230	0.100529075
84	0xbf08b914	-0.53407407
85	0xbe576ed7	-0.21038376
86	0x3ebc6799	0.3679779
87	0xbe586a94	-0.21134406
88	0xbaf66766	-0.0018799126
89	0xbbb85b83	-0.0056261434
90	0xbe60bcf8	-0.21947086
91	0xbe89965a	-0.26872522
92	0xbe530239	-0.20606317
93	0xbe677bdd	-0.22605844
94	0x3da19e9d	0.07891581
95	0xbea5dc6f	-0.3239474
96	0x3e13119e	0.14362189
97	0xbe8ba567	-0.2727463
98	0x3e83c81d	0.25738612
99	0xbe4294d7	-0.1900209
100	0xbead4009	-0.33837917
101	0xbb52b4bd	-0.0032151185
102	0xbeaf6136	-0.34253854
103	0xbebb8af6	-0.36629456
104	0xbdb2ef80	-0.08737087
105	0xbeb1dbb3	-0.3473793
106	0xbe3808c4	-0.17972094
107	0x3e49dbdd	0.19712777
108	0x3e92efe6	0.28698653
109	0xbe96b658	-0.29435992
110	0x3ebbc06a	0.36670238
111	0xbe9c5ab4	-0.3053795
112	0xbdf2f7b4	-0.11863652
113	0xbe6bcd25	-0.23027475
114	0xbdb7bb80	-0.0897131
115	0xbe308e12	-0.17241696
116	0x3c895151	0.016762407
117	0x3d064053	0.032776188
118	0x3c18b7e7	0.0093211895
119	0x3dc07f93	0.09399333
120	0x3df653d6	0.12027709
121	0x3d0fb31e	0.03508293
122	0xbe422947	-0.18961059
123	0x3e3bdd15	0.18346055
124	0x3ec5ab52	0.3860727
125	0xbebe665d	-0.37187472
126	0xbe968ec8	-0.29405808
127	0xbea3cd26	-0.31992453

actor.4.weight f4 [128, 128]
0	0xbf2f633c	-0.68510795
1	0x3e9ffcad	0.31247464
2	0xbdee6c9b	-0.116418086
3	0x3e7f7596	0.24947199
4	0xbf1f960b	-0.6233832
5	0x3de5fd76	0.112299845
6	0xbd99c96b	-0.075091206
7	0x3d74af79	0.059737656
8	0x3dfce520	0.123483896
9	0xbce51925	-0.027966091
10	0xbe2e07d4	-0.16995174
11	0xbe2e0e5e	-0.16997668
12	0x3da1bcf5	0.07897369
13	0xbe1e0652	-0.15432099
14	0x3e870b1b	0.2637566
15	0xbe319060	-0.17340231
16	0x3dc76c49	0.09737451
17	0x3e89c71e	0.26909727
18	0x3cc07d7a	0.023497332
19	0x3b8ba723	0.0042618676
20	0x3e7870cf	0.24261783
21	0x3e4f7a38	0.20261467
22	0x3e7cb638	0.24678886
23	0xbba39029	-0.0049915505
24	0x3c8040a3	0.015655821
25	0xbebb6f49	-0.3660834
26	0xbdaec4aa	-0.085336044
27	0xbd427970	-0.047479093
28	0x3e8e7fab	0.27831778
29	0xbe0b6908	-0.13614285
30	0x3de4e1c7	0.11175876
31	0xbd430dad	-0.047620464
32	0x3a530a71	0.0008050567
33	0x3e107f92	0.14111164
34	0x3ccf1ddb	0.02528279
35	0x3d8140e0	0.06311202
36	0xbdc114ed	-0.094278194
37	0x3d086a42	0.03330446
38	0xbebfcd2c	-0.3746122
39	0x3d60fcd7	0.054928627
40	0x3d0411ab	0.032243412
41	0xbe93e1f3	-0.28883323
42	0x3d5b3ee0	0.05352676
43	0x3cd9fddb	0.026610306
44	0x3e117354	0.1420415
45	0x3d1b92a2	0.037981637
46	0xbe5ee691	-0.21767642
47	0xbe08e7ef	-0.13369726
48	0xbe750ca3	-0.23930602
49	0x3cd5a2bf	0.02607858
50	0xbd85618e	-0.06512748
51	0x3e1be66e	0.1522462
52	0x3e959f26	0.29222983
53	0x3e04f22a	0.12983003
54	0x3e02c324	0.12769753
55	0xbd83be9c	-0.0643284
56	0x3d5bc209	0.053651843
57	0x3ed00902	0.40631872
58	0xbd0b3813	-0.033989023
59	0xbe8d16cd	-0.27556458
60	0xbe099ffb	-0.13439934
61	0xbdd46cae	-0.103722915
62	0x3be3599d	0.006938173
63	0xbe2f82a4	-0.17139679
64	0xbd80bc47	-0.06285911
65	0xbd07c969	-0.033151064
66	0xbe3992ff	-0.18122481
67	0x3e0b9bdd	0.13633676
68	0xbdd2f3cc	-0.10300407
69	0xbdd10d0b	-0.10207566
70	0xbd4fd952	-0.050744362
71	0xbce37cab	-0.027769407
72	0xbe9a3d53	-0.30124912
73	0x3e1cff3b	0.15331738
74	0xbc7f31c3	-0.015575829
75	0xbe717f52	-0.23583725
76	0xbe9b06e7	-0.30278704
77	0xbf1d5f7b	-0.61473817
78	0x3e266233	0.16248398
79	0x3d865afe	0.06560324
80	0xbdc9dc37	-0.09856456
81	0x3efa1363	0.48842916
82	0xbdd50fc0	-0.10403395
83	0xbd3d0a2d	-0.046152283
84	0x3e814615	0.2524878
85	0xbd695c0c	-0.05697255
86	0xbcebf225	-0.028801987
87	0xbe3aeddb	-0.18254797
88	0xbe09352e	-0.13399193
89	0x3ceddc82	0.02903581
90	0x3df60197	0.12012022
91	0xbda5a462	-0.08087994
92	0x3e0b0f91	0.13580157
93	0x3e0e9bbf	0.139266
94	0x3d55ea26	0.052225254
95	0xbd978aa7	-0.07399493
96	0x3e405908	0.18783963
97	0xbcecf624	-0.028925963
98	0xbcc2559f	-0.023722468
99	0x3e50a856	0.20376715
100	0x3d1acd91	0.0377937
101	0x3dfe3629	0.12412674
102	0x3d1d7104	0.03843786
103	0xbda3824b	-0.07983836
104	0x3e7bfa05	0.24607094
105	0x3df06351	0.11737693
106	0x3e9a2a02	0.30110174
107	0xbde64a1b	-0.11244603
108	0x3c94c586	0.018160593
109	0xbe6c8db1	-0.23100926
110	0xbe21e9e8	-0.15811884
111	0x3c9feb0f	0.019521264
112	0x3deb951d	0.115030505
113	0x3da4483e	0.080215916
114	0xbd5a46ad	-0.053290058
115	0xbe899a93	-0.26875743
116	0x3e267b27	0.16257916
117	0xbe1671e4	-0.14691883
118	0xbd0bbad1	-0.03411371
119	0x3d58ab86	0.052897952
120	0xbd1eb998	-0.038751215
121	0xba247d9b	-0.000627482
122	0x3e153e6e	0.14574596
123	0xbe70e2c1	-0.23524
124	0xbe9da389	-0.3078883
125	0xbe06a7bf	-0.13149928
126	0x3e51c5b8	0.2048558
127	0x3bb424a6	0.005497533
128	0xbb9c5ad6	-0.0047715707
129	0x3c082b27	0.00831107
130	0x3b8b8986	0.0042583374
131	0x3d105110	0.035233557
132	0x3cfa6200	0.030564308
133	0x3a5fc9f9	0.0008536871
134	0xbd2440e4	-0.040100947
135	0xbd54c8fb	-0.051949482
136	0x3d0414cd	0.0322464
137	0xbc896707	-0.01677276
138	0x3c1f612d	0.009727758
139	0xbcd46964	-0.02592916
140	0x3d646e10	0.055769026
141	0xbd55e142	-0.052216776
142	0xbd23b100	-0.039963722
143	0x3b9349e7	0.004494894
144	0xbd13b40f	-0.03606039
145	0x3b284407	0.0025675313
146	0xbc93f968	-0.018063262
147	0x3c397f40	0.011321843
148	0x3c5ee82f	0.013605162
149	0xbce2556f	-0.027628629
150	0xbb9e267e	-0.004826366
151	0xbcd99f97	-0.026565356
152	0xbd0a653a	-0.033787943
153	0xbdaf8bac	-0.08571562
154	0xbc3cf2af	-0.01153247
155	0x3cfcff07	0.030883325
156	0x3db643e6	0.08899669
157	0x3c5bc67e	0.013414023
158	0x3d3d904b	0.046280187
159	0x3d5d93bb	0.054095965
160	0x3d7832fd	0.0605955
161	0xbcb2e398	-0.02183704
162	0xbd316d4d	-0.043317128
163	0x3c48021c	0.012207534
164	0x3d354f19	0.044264887
165	0x3c9e5644	0.019328244
166	0x3cc5aebd	0.024131173
167	0x3dac735c	0.084204406
168	0xbc76f5cf	-0.015073254
169	0xbb1e4f0c	-0.0024156002
170	0x3bc48720	0.0059975535
171	0x3bd1da41	0.0064041917
172	0xbc1e30db	-0.009655203
173	0x3b1ba142	0.002374724
174	0x3c54c098	0.012985371
175	0xbcadeae6	-0.021230172
176	0xbd1f707a	-0.038925625
177	0x3c5e9ce5	0.013587211
178	0x3cba5842	0.022747163
179	0xbd8b417d	-0.067996
180	0x3d227f5b	0.039672237
181	0xbdad6103	-0.08465769
182	0xbcf120a1	-0.029434504
183	0x3cbe4b1b	0.023229172
184	0x3bd467e0	0.0064821094
185	0x3e022b66	0.12711868
186	0xbbc1a1e8	-0.0059091933
187	0x3ca688c8	0.020328894
188	0x3c550fd5	0.013004263
189	0xbcb8de4f	-0.022566942
190	0x3cac8ec7	0.021064175
191	0xbcca1cd1	-0.024671944
192	0xbd2b3330	-0.041796863
193	0xbc9b1f6f	-0.018935887
194	0x3cac167a	0.021006811
195	0x3c02a5c3	0.007974091
196	0xbc0c3387	-0.008557207
197	0xbd8f8491	-0.07007707
198	0x3d4540d8	0.048157543
199	0xbc2c8fa9	-0.010532298
200	0xbad639db	-0.0016344147
201	0xbb7e23ad	-0.0038778589
202	0x3cc4021b	0.023926785
203	0xbdaceae1	-0.08443237
204	0x3c299aab	0.010351817
205	0xbd3f6024	-0.046722546
206	0x3caebef2	0.021331284
207	0x3c1628f7	0.00916504
208	0xbd1df7ea	-0.038566507
209	0xbc786ff8	-0.015163414
210	0xbb53778e	-0.0032267305
211	0xbb396682	-0.002828986
212	0xbcee1a33	-0.029065227
213	0xbd94bd96	-0.07262723
214	0xbd2555f6	-0.040365182
215	0xbd541a10	-0.051782668
216	0xbc1cf9e1	-0.00958106
217	0xbd14b3f3	-0.036304425
218	0x3d28c09c	0.04119931
219	0xbcef12b0	-0.029183716
220	0x3d5cb8ea	0.053887285
221	0xbcb72652	-0.02235714
222	0x3d15a708	0.036536247
223	0xbc1ae25d	-0.009453383
224	0xbcbbf4b3	-0.02294383
225	0xbc98fb6d	-0.018674577
226	0xbd1abe58	-0.037779182
227	0x3ce0c370	0.027436942
228	0xbc8a085d	-0.016849691
229	0x3d80d04d	0.0628973
230	0x3d4d1e74	0.05007787
231	0x3ca225c4	0.019793399
232	0xb9ef8c32	-0.00045690086
233	0xbb411190	-0.002945993
234	0x3d344cd3	0.044018578
235	0x3d2ef19c	0.042710885
236	0x3d128d4d	0.035779286
237	0xbc4dd420	-0.012562782
238	0x3cffb9be	0.031216498
239	0x3b6b00d4	0.0035858648
240	0x3d6f658e	0.05844646
241	0x3d20f1e4	0.039293185
242	0xbc3ea9ae	-0.0116371345
243	0x3c8651df	0.016396461
244	0x3d3a8a9c	0.045542344
245	0xbd15bf1a	-0.0365592
246	0x3c8d66fd	0.017261023
247	0xbc7b9d6a	-0.015357355
248	0xbbe9d034	-0.0071354154
249	0xbd990152	-0.07470955
250	0xbd23075c	-0.03980194
251	0x3d85549e	0.0651028
252	0x3c45ac21	0.0120649645
253	0x3c92795c	0.017880134
254	0x3a588a9e	0.00082604017
255	0x3ba55782	0.005045832

actor.4.bias f4 [128]
0	0xbebfb11d	-0.37439814
1	0xbd95cecc	-0.07314834
2	0xbda293e6	-0.07938366
3	0xbde74eef	-0.11294352
4	0xbe8e2676	-0.27763718
5	0xbf2bbad3	-0.67081946
6	0xbe176fcc	-0.14788741
7	0xbc49cf50	-0.012317494
8	0xbf6d6b91	-0.9274226
9	0xbc1e5cca	-0.009665677
10	0xbe4314f1	-0.19050957
11	0xbe8659de	-0.26240438
12	0x3c86aae2	0.016438905
13	0xbda02a0c	-0.0782052
14	0xbda950f3	-0.08267393
15	0x3cf674e2	0.030085031
16	0xbe649087	-0.22320758
17	0xbdc7d097	-0.09756582
18	0xbe80259f	-0.25028703
19	0xbe747e18	-0.23876226
20	0xbe1537b1	-0.14572026
21	0xbde4e38b	-0.11176213
22	0x3ded55b4	0.11588612
23	0x3c6392f7	0.01389002
24	0xbe7021b4	-0.23450357
25	0x3b73fd13	0.0037229701
26	0xbdf97d45	-0.121820964
27	0x3c1fc335	0.009751131
28	0xbed5ceb2	-0.41759259
29	0xbe3b0937	-0.18265234
30	0xbea7de27	-0.32786676
31	0xbdd4bdf3	-0.103877924
32	0xbe62d010	-0.22149682
33	0xbec553f4	-0.38540614
34	0xbe635371	-0.22199799
35	0x3d8a236a	0.06745036
36	0xbdc1300e	-0.09432994
37	0xbe04ffb3	-0.12988167
38	0xbd26c321	-0.040713433
39	0xbe4911a5	-0.19635637
40	0x3d26834d	0.040652562
41	0xbdb5f7c6	-0.0888515
42	0xbdf5293e	-0.11970757
43	0xbf643815	-0.89148074
44	0xbe8628a0	-0.2620287
45	0xbe80a44a	-0.25125343
46	0xbdf45898	-0.119309604
47	0x3e0a5acd	0.135112
48	0xbe7d9ff8	-0.24768054
49	0xbe92833f	-0.28615758
50	0xbc91c8dd	-0.017795974
51	0xbee78f8b	-0.45226702
52	0xbe0d23a1	-0.13783123
53	0xbe449a15	-0.19199403
54	0xbe9896a1	-0.2980242
55	0xbe906bf5	-0.28207365
56	0xbe58ab10	-0.21159005
57	0xbe35681a	-0.17715493
58	0xbdb84acc	-0.08998641
59	0xbe4f1590	-0.20223069
60	0xbde36910	-0.111040235
61	0xbe0b51e2	-0.13605455
62	0xbe7e367c	-0.24825472
63	0xbe5b7f5a	-0.214353
64	0x3d891cca	0.06694944
65	0xbdcace2f	-0.09902608
66	0xbe759bed	-0.23985262
67	0xbd9e1c4a	-0.077202395
68	0xbe4fc901	-0.2029152
69	0xbd4b06d5	-0.049567062
70	0xbec2e721	-0.38066962
71	0xbdcc3b56	-0.09972255
72	0x3c40bc37	0.011763624
73	0xbb6cc962	-0.0036130776
74	0xbdcab48c	-0.09897718
75	0xbdf86de2	-0.121303335
76	0xbe242fca	-0.16033855
77	0xbe266d67	-0.16252671
78	0x3e21fb3a	0.15818492
79	0xbe3fe4c8	-0.18739617
80	0xbedaade7	-0.42710802
81	0xbecb8797	-0.39751884
82	0xbe0b1b5c	-0.13584656
83	0xbe1af641	-0.15133001
84	0xbe2596f7	-0.1617087
85	0xbd975949	-0.07390077
86	0xbe26cb80	-0.16288567
87	0xbd88d51e	-0.06681274
88	0xbe1f4020	-0.15551805
89	0x3c5dad57	0.013530097
90	0xbfa87ccb	-1.3163084
91	0xbf5b7123	-0.8571951
92	0xbe3d509c	-0.18487781
93	0xbe66b95b	-0.22531645
94	0xbe59399c	-0.21213382
95	0xbde364b9	-0.11103196
96	0x3b80fe20	0.003936544
97	0xbe73b95d	-0.23801179
98	0xbe8e100d	-0.2774662
99	0xbd8a53b9	-0.0675425
100	0xbf591741	-0.8480111
101	0xbe1b637c	-0.15174669
102	0xbdb77671	-0.08958138
103	0xbcdcf06c	-0.02697011
104	0xbdbad65d	-0.09122918
105	0xbd9f1e15	-0.077694096
106	0xbcb60c1d	-0.022222573
107	0xbe907e29	-0.28221253
108	0xbe3129fa	-0.17301169
109	0xbda53ea3	-0.08068588
110	0xbde85504	-0.113443404
111	0xbe3150fb	-0.17316048
112	0xbf2f0932	-0.68373406
113	0xbe06c3bc	-0.13160604
114	0xbe82e610	-0.2556615
115	0xbeb85540	-0.3600254
116	0x3e1ae4da	0.15126362
117	0xbd2aac94	-0.04166849
118	0xbea1d915	-0.31610933
119	0xbd4d0e50	-0.050062478
120	0x3b8064f2	0.0039182836
121	0xbe129b0a	-0.14316955
122	0xbe1fb5f7	-0.15596758
123	0xbe732a7b	-0.23746674
124	0xbe5e22bc	-0.21692938
125	0xbea17c84	-0.3154031
126	0x3d498713	0.049201082
127	0xbd548861	-0.051887874

actor.6.weight f4 [12, 128]
0	0x3b993ef5	0.0046766945
1	0x3b2e8402	0.0026628976
2	0xbbb95b01	-0.0056566005
3	0x3c62639b	0.013817693
4	0x3ca52c2b	0.020162662
5	0x3c69689f	0.014246135
6	0xbd9a1540	-0.07523584
7	0xbbf4a7e5	-0.0074663037
8	0xbd32fbec	-0.043697283
9	0xbabc55b9	-0.0014368809
10	0x3bfdf6ac	0.007750353
11	0xbcbad184	-0.022804983
12	0x3b974667	0.004616547
13	0xbb0ee4f3	-0.0021803945
14	0x3b38fb2f	0.002822589
15	0x3c398d37	0.011325172
16	0x3b9154be	0.004435151
17	0xbcb09031	-0.02155313
18	0xbcdc7473	-0.026910996
19	0x3cd0bd0e	0.025480773
20	0xbc37f7f0	-0.0112285465
21	0x3c5c4572	0.013444291
22	0xbca4dcae	-0.02012476
23	0x3c5f6563	0.013635012
24	0x3c08200d	0.008308423
25	0x3baac2c3	0.0052112057
26	0x3ca07eef	0.019591777
27	0x3cc63918	0.024197146
28	0x3a916507	0.001109273
29	0xbb4195ed	-0.0029538826
30	0xbd529657	-0.051412906
31	0x3c5d9a91	0.013525621
32	0xbce2b857	-0.02767579
33	0xbc3438c6	-0.010999864
34	0xbd0201ce	-0.031740002
35	0xbc1eb045	-0.009685581
36	0x3d210208	0.039308578
37	0x3b48726d	0.0030585781
38	0xbbdcf722	-0.0067433277
39	0x3c97d1c6	0.018532645
40	0xbbeac9b0	-0.0071651563
41	0x3b0d4dc5	0.0021561247
42	0x3a930993	0.0011218063
43	0x3d0b5054	0.034012154
44	0x3bd38428	0.0064549632
45	0xbc9c9863	-0.019115632
46	0xbbe7d351	-0.0070747514
47	0xba32fc8d	-0.0006827794
48	0xbccaaf73	-0.024741864
49	0x3d919b30	0.07109678
50	0x3b859b82	0.004077376
51	0xbc325a10	-0.01088573
52	0xbdf56b9d	-0.11983416
53	0x3bb93d63	0.00565307
54	0x3bb62b34	0.0055593494
55	0xbba98a19	-0.005173933
56	0x3ac7bad4	0.0015238174
57	0xbc0542d1	-0.008133606
58	0xbd14f882	-0.036369808
59	0x3d346965	0.044045825
60	0xbb9e8b38	-0.0048383735
61	0xbc429e1f	-0.011878519
62	0xbb1e36bd	-0.0024141513
63	0x3aac5d4d	0.0013150364
64	0x3c13ffed	0.009033185
65	0x3c515644	0.012776915
66	0xbb90e539	-0.0044218567
67	0x3d65fe60	0.056150794
68	0x3c007503	0.007840398
69	0x3b0ed99a	0.002179718
70	0x3cac89c6	0.02106179
71	0x3b52f8e9	0.003219182
72	0x3b08c199	0.0020867346
73	0x3b4752de	0.0030414383
74	0xbc18a13b	-0.009315784
75	0x3ae30868	0.0017321231
76	0xbd295f68	-0.041350752
77	0xbd706df3	-0.058698606
78	0x3b977992	0.0046226466
79	0x3cd1530a	0.025552291
80	0xbc07d78f	-0.008291139
81	0x3c41b83f	0.011823713
82	0x3c2ceb88	0.010554202
83	0xbbae28a2	-0.0053149024
84	0xbcbcdbb5	-0.023053983
85	0xbca1f621	-0.019770684
86	0xbb8f92a4	-0.0043814946
87	0xbc54dbf6	-0.012991896
88	0x3badeeef	0.005308024
89	0x3b61e29f	0.0034467352
90	0x3c335b89	0.010947117
91	0x3d52f1e8	0.05150023
92	0xba8dd5f8	-0.0010821214
93	0x3d0e0b8c	0.03467898
94	0x3c9f7bdc	0.01946824
95	0x3be4bf60	0.0069808215
96	0x3ba42ae0	0.005009994
97	0xbc2bea40	-0.010492861
98	0xbcbb2a02	-0.02284718
99	0x3c6f438c	0.014603507
100	0x3c33ae45	0.010966842
101	0x3c7ac7f0	0.015306458
102	0x3cd4ae22	0.02596194
103	0xbc6e56ba	-0.014547044
104	0xbca1244e	-0.019670632
105	0xbc88a99d	-0.01668244
106	0xbccf9278	-0.025338396
107	0x3ce8d387	0.028421177
108	0xbb17a8b2	-0.0023141322
109	0x3bcd47ea	0.0062646763
110	0xbcd116ef	-0.02552363
111	0x3d2b17a1	0.04177058
112	0x3c8e0fae	0.017341461
113	0xbcd84c28	-0.026403502
114	0x3b949d3d	0.004535346
115	0x3ca94944	0.020664819
116	0xbc5ea390	-0.013588801
117	0x3bcd1ea3	0.0062597557
118	0xbc045fa7	-0.008079446
119	0xbce302f2	-0.027711365
120	0xbb224421	-0.0024759846
121	0xbb75a7e5	-0.0037484106
122	0x39f65acd	0.00046988428
123	0x3c0f55ce	0.008748485
124	0x3c5f396b	0.013624529
125	0x3ca3e9b0	0.020008892
126	0xbb12f4e3	-0.0022423796
127	0xbd5537d9	-0.052055214
128	0x3c11cf21	0.008899481
129	0x3bf17641	0.0073688333
130	0x3b831b46	0.004001054
131	0x3d13face	0.036127858
132	0xbc209807	-0.009801871
133	0xbc8a1164	-0.016853996
134	0x3df5cb20	0.12001634
135	0x3c74a9d7	0.014933071
136	0xbc31a2e8	-0.0108420625
137	0x3ae73224	0.0017638844
138	0x3b3f9b71	0.0029236937
139	0xbceb3f20	-0.028716624
140	0xbacd318d	-0.0015655026
141	0xbbd42aff	-0.006474852
142	0x3b04f72e	0.0020288932
143	0xbc40bb04	-0.011763338
144	0xbc006dd2	-0.007838683
145	0xbd1e452e	-0.038640194
146	0x3cbdce39	0.023169624
147	0xbd0d111a	-0.034440137
148	0xbad31b14	-0.0016106092
149	0xbb57839e	-0.0032884846
150	0x3ca524cf	0.020159153
151	0x3c5e44e2	0.013566228
152	0xbb025f7c	-0.001989334
153	0xba9852ee	-0.0011621395
154	0x3cd164a8	0.025560692
155	0xbcc004e5	-0.023439834
156	0x3c3635c1	0.011121214
157	0x3a9363d5	0.0011244962
158	0x3bf8ad01	0.007588983
159	0xbcd3dde9	-0.025862651
160	0xbaacdf93	-0.0013189189
161	0xbcabb387	-0.020959629
162	0xbcd2e6e5	-0.025744865
163	0x3c18977a	0.009313459
164	0x3cad256c	0.021136008
165	0xbc6274ab	-0.013821761
166	0x3d592486	0.053013347
167	0xbc8fc64d	-0.017550612
168	0xbc1801a5	-0.009277736
169	0xbb76e9c2	-0.0037675952
170	0x3c414899	0.011797094
171	0xbd53b018	-0.051681608
172	0x3c24d26d	0.010059935
173	0x3b9efcc2	0.0048519084
174	0xbc4da914	-0.012552518
175	0x399a0848	0.0002937934
176	0xbc5c3631	-0.013440655
177	0x3b9fa51e	0.0048719784
178	0xbbb9d780	-0.0056714416
179	0xba656372	-0.0008750475
180	0x3d9a7567	0.07541924
181	0xbcd5e06d	-0.026107991
182	0xbb5d4c81	-0.0033767524
183	0xbd910ca0	-0.07082486
184	0x3cddbee8	0.02706857
185	0xbc69680b	-0.014245997
186	0xbc597a67	-0.013273812
187	0x3cbd45dd	0.023104602
188	0xbb699523	-0.003564187
189	0xbc31d5cb	-0.010854195
190	0x3b3635e3	0.0027803115
191	0xbc112fae	-0.008861465
192	0x3bf11d22	0.007358209
193	0x3beac999	0.0071651456
194	0x3c9cbe9f	0.019133864
195	0x3ccae5ee	0.024767842
196	0xbb7254b6	-0.0036976761
197	0xbb9affa0	-0.00473018
198	0xbc431086	-0.011905795
199	0xbb7fc97d	-0.0039030008
200	0xbb93f1bb	-0.0045149005
201	0xbbb9512a	-0.0056554275
202	0x3ca08f82	0.01959968
203	0xbb3ec280	-0.002910763
204	0x3b45af91	0.003016446
205	0xbd2c33bf	-0.042041536
206	0x3c75f53f	0.0150120845
207	0xbbb6d1cf	-0.0055792104
208	0xbb97d11d	-0.0046330825
209	0xbcaa3cfe	-0.020781036
210	0x3c4bbe47	0.012435502
211	0xbba2f870	-0.0049734637
212	0xbd35ef9d	-0.044417966
213	0xbc6c16b7	-0.0144097125
214	0xbc038eff	-0.008029698
215	0xbc5f6515	-0.01363494
216	0xbbc44473	-0.005989605
217	0xbb23f58e	-0.0025018188
218	0xbc39d93e	-0.0113432985
219	0xbd084cf0	-0.0332765
220	0x3b333f80	0.0027351081
221	0xbcd2c039	-0.025726425
222	0x3cb0df66	0.0215909
223	0x3ba263bc	0.004955737
224	0xbb39679c	-0.0028290516
225	0xbb9dec84	-0.0048194546
226	0x3cd77631	0.026301475
227	0x3ca26d59	0.019827532
228	0x3d31c519	0.043400858
229	0x3c095cd2	0.0083839465
230	0xbc545091	-0.012958662
231	0x3be45ad2	0.0069688344
232	0x3c158bec	0.009127598
233	0x3cdf36c3	0.027247792
234	0xbd6159fa	-0.05501745
235	0x3cbea96b	0.023274144
236	0x3d2804d2	0.041020222
237	0xbba5fd97	-0.0050656307
238	0x3b904324	0.004402535
239	0x3d72d67f	0.05928659
240	0xbc5f8c01	-0.013644219
241	0xbc9ee87a	-0.019397963
242	0x3c318394	0.010834593
243	0x3c3d5cab	0.011557738
244	0xbbc0e78c	-0.0058869775
245	0xbb35698a	-0.0027681314
246	0x3d53c5bf	0.051702257
247	0x3c85e8e6	0.016346406
248	0x3ad967c7	0.0016586714
249	0x3ccffc66	0.025388908
250	0xbb4a3517	-0.0030854398
251	0xbc9b97e1	-0.01899332
252	0x3cc9ff91	0.024657996
253	0xbca2fe4b	-0.019896647
254	0xbb2674c0	-0.0025399178
255	0x3ba2c990	0.004967876

actor.6.bias f4 [12]
0	0x3cf85253	0.030312693
1	0xbcfd8812	-0.030948672
2	0xbe08b535	-0.13350375
3	0x3e09efd5	0.13470395
4	0xbcd5a29e	-0.026078518
5	0xbcbf6fb1	-0.023368688
6	0x3dced6b2	0.10099544
7	0x3dc0f7a0	0.09422231
8	0x3e8b5114	0.27210295
9	0x3e8b2bce	0.27181858
10	0x3e94c98c	0.29060018
11	0x3e98a759	0.29815176
