tested_policies/go2/go2_imu_only/exported/policy.onnx (onnx, 273175 bytes, 8 tensors)

actor.0.weight f4 [128, 260]
0	0x3ccc771d	0.024959141
1	0xbcafe323	-0.021470612
2	0x3c72e551	0.014825181
3	0x3cae0e23	0.021246975
4	0xbd9240e3	-0.071412824
5	0x3ebad2e7	0.3648903
6	0xbf0f4954	-0.55971265
7	0x400a6268	2.1622562
8	0x3e0b4ae6	0.1360279
9	0xbdf742d2	-0.12073292
10	0x3f70ad4b	0.94014424
11	0xbd4592c1	-0.04823566
12	0x3ec0b304	0.37636578
13	0x3f0f0606	0.55868566
14	0x3e11d2a7	0.14240514
15	0xbe87834f	-0.26467368
16	0xbefdad8e	-0.49546474
17	0xbe1c826d	-0.15284128
18	0xbdfe5b8e	-0.124198064
19	0x3db2b765	0.08726386
20	0x3efa9011	0.4893804
21	0x3f38d619	0.7220169
22	0x3d3e833c	0.046511874
23	0x3c92f4fb	0.017939081
24	0xbc8b9aef	-0.017041652
25	0x3d047805	0.032341022
26	0xbe293988	-0.16525853
27	0x3d1fe134	0.03903313
28	0xbd73d1a4	-0.0595261
29	0xbcf54274	-0.029938914
30	0x3caabc90	0.020841867
31	0x3d2dffa2	0.04248012
32	0x3cfc1c7c	0.030775301
33	0xbd3ff3cb	-0.04686336
34	0x3bf29ef1	0.007404201
35	0xbc822c1b	-0.015890172
36	0xbdefc8e3	-0.11708238
37	0xbd1cc101	-0.03827
38	0xbdb44bc7	-0.08803516
39	0xbe8fe30c	-0.2810291
40	0xbd230705	-0.039801616
41	0x3e0d91c4	0.13825136
42	0xbce298e0	-0.027660787
43	0xbd42f373	-0.047595453
44	0x3d3a0608	0.045415908
45	0xbdbd3c9f	-0.09240078
46	0x3dd9f435	0.10642282
47	0xbe891f71	-0.267818
48	0x3f32e80e	0.6988534
49	0x3ec32be1	0.38119414
50	0x3e9700f1	0.29492906
51	0x3f3122b0	0.69193554
52	0x3b1eb155	0.0024214585
53	0x3cd48aa4	0.025945015
54	0xbb833601	-0.0040042405
55	0xbe8c6157	-0.27418014
56	0xbe70c962	-0.23514321
57	0xbd9576f2	-0.07298078
58	0xbf1a9f0f	-0.60398954
59	0x4017a93d	2.3697045
60	0x3e013658	0.12618387
61	0xbe5df4e7	-0.21675454
62	0x3fa85d22	1.3153422
63	0xbe2848d7	-0.16434036
64	0x3eaae4d3	0.33377704
65	0x3f15dd32	0.5854064
66	0x3e4b578d	0.19857617
67	0xbea0db4d	-0.31417313
68	0xbec80dcc	-0.39073026
69	0xbdd410aa	-0.10354741
70	0xbdaec8cb	-0.08534392
71	0x3d7a59cb	0.06112079
72	0x3ed0dafd	0.40792075
73	0x3f1d7d00	0.6151886
74	0xba149779	-0.0005668323
75	0x3d8ca266	0.068669125
76	0xbd13b88d	-0.036064673
77	0xbda3c16b	-0.07995876
78	0x3c5e2f76	0.01356112
79	0xbd6b8321	-0.0574981
80	0xbd7aac85	-0.061199684
81	0xbd743bce	-0.059627347
82	0xbd522588	-0.051305324
83	0xbce67b8d	-0.028135085
84	0x3da0463b	0.078258954
85	0x3cbf806f	0.023376672
86	0xbd5df86d	-0.054191995
87	0xbc648ebf	-0.013950049
88	0xbd9a2cba	-0.07528062
89	0xbead0a9b	-0.33797154
90	0xbe86c3b6	-0.2632119
91	0xbe66f258	-0.22553384
92	0x3cccd3c7	0.025003327
93	0x3e556201	0.20838167
94	0xbde8c70f	-0.113660924
95	0x3e0d7a9d	0.13816305
96	0xbd09682c	-0.03354661
97	0xbe718d02	-0.23588946
98	0x3e13ea4a	0.14444843
99	0xbe7e9c25	-0.24864252
100	0x3f34c172	0.70607674
101	0x3ef3dc29	0.47628906
102	0x3ee5094b	0.44733652
103	0x3f2160a1	0.6303807
104	0xbc117d2b	-0.00887994
105	0x3cd6299c	0.026142888
106	0xbbb38838	-0.005478885
107	0xbe12adf0	-0.14324164
108	0xbe359389	-0.17732061
109	0x3e078c72	0.1323717
110	0xbf1b70fc	-0.60719275
111	0x401a7204	2.413209
112	0x3dc25bd1	0.09490169
113	0xbe29f80e	-0.16598532
114	0x3fee13d7	1.8599805
115	0xbe13e5e0	-0.14443159
116	0x3eac29d9	0.33625677
117	0x3f1fc624	0.62411714
118	0x3df9c127	0.12195044
119	0xbe738f51	-0.2378514
120	0xbea235d3	-0.3168169
121	0xbc586750	-0.013208225
122	0xbe22d10e	-0.1590006
123	0x3db850a1	0.08999754
124	0x3e8339a0	0.25629902
125	0x3ea0bf08	0.31395745
126	0xbd5fff8a	-0.05468706
127	0xbd76841a	-0.060184576
128	0xbc92aa88	-0.017903581
129	0xbdcbaa14	-0.09944549
130	0xbda63899	-0.08116264
131	0xbbff20ed	-0.0077859075
132	0x3c4e7dae	0.012603207
133	0xbd388a1b	-0.045053583
134	0x3c9a3d68	0.018828109
135	0xbdb5662e	-0.0885738
136	0xbd34fa1e	-0.044183843
137	0xbd243e7f	-0.040098663
138	0xbd4cf62c	-0.050039455
139	0xbb0d51fd	-0.0021563761
140	0xbdabbef2	-0.08386029
141	0xbe9dbc20	-0.3080759
142	0xbe1050b3	-0.14093284
143	0xbe4eee37	-0.20208059
144	0x3d084b97	0.033275213
145	0x3e61540d	0.22004719
146	0xbd81093d	-0.0630059
147	0x3e0fab82	0.14030269
148	0x3dbf40d6	0.09338538
149	0xbe7c4e39	-0.24639215
150	0x3ceaadb4	0.028647281
151	0xbe71503c	-0.23565763
152	0x3f02aa0a	0.5104071
153	0x3f1008b1	0.5626326
154	0x3f09d9c8	0.5384793
155	0x3f08288d	0.53186876
156	0xbc1c2c1c	-0.009532001
157	0x3d4f5e60	0.050627112
158	0x3c346b9c	0.011011984
159	0xbe9bf9ab	-0.3046392
160	0xbf43198b	-0.7621085
161	0x3ea466dd	0.32109728
162	0xbf334c06	-0.7003788
163	0x401b768d	2.4291108
164	0x3d441f70	0.047881544
165	0xbd597e7a	-0.053099133
166	0x401a032c	2.4064436
167	0x3d4a077e	0.04932355
168	0x3e70e59d	0.2352509
169	0x3f363786	0.7117847
170	0x3df6e29a	0.120549396
171	0xbe5e74cf	-0.21724246
172	0xbe6d7fb0	-0.2319324
173	0x3d848367	0.064703755
174	0xbe2923e1	-0.16517593
175	0x3dbf4c55	0.09340731
176	0xbd882030	-0.06646764
177	0x3df59a2b	0.11992296
178	0xbd6f14d9	-0.05836949
179	0xbe0533e8	-0.13008082
180	0x3de15bd6	0.110038444
181	0x3ba6e501	0.0050932174
182	0xbe007f2e	-0.12548515
183	0xbc90c47e	-0.01767182
184	0xbc4ec1e7	-0.012619472
185	0xbd1ab84f	-0.037773427
186	0xbd529456	-0.051410995
187	0xbcd0be70	-0.025481433
188	0xbd4bb5d3	-0.049733948
189	0xbd1c6e1b	-0.038190942
190	0xbb653dc6	-0.0034979447
191	0x3c9b6305	0.018968115
192	0xbc183b98	-0.009291552
193	0xbee45ada	-0.44600564
194	0xbd8b4e3f	-0.06802034
195	0xbce96c7c	-0.028494112
196	0x3d18b0a1	0.03727782
197	0x3ea23067	0.31677553
198	0xbe34f350	-0.17670941
199	0x3e9d0e03	0.30674753
200	0x3e1aea93	0.15128545
201	0xbe6df76d	-0.23238917
202	0x3dc364a0	0.09540677
203	0xbe5dee98	-0.21673048
204	0x3ea832c0	0.3285122
205	0x3edae3eb	0.42752013
206	0x3ed0b7e6	0.40765303
207	0x3eb8bcda	0.36081582
208	0xbd696121	-0.056977395
209	0x3d4bfa06	0.049798988
210	0xbcc97e90	-0.024596483
211	0xbf408263	-0.75198954
212	0x3f721365	0.94560844
213	0xc01fd0c6	-2.4971175
214	0xbf3c9ce4	-0.73676896
215	0x401ffd25	2.4998257
216	0x3da3c446	0.079964206
217	0xbca07025	-0.019584725
218	0x403df305	2.9679577
219	0x3ea63a43	0.32466325
220	0x3da1a634	0.07893029
221	0x3f1cf531	0.6131163
222	0x3e4ec025	0.20190485
223	0xbe829c7c	-0.25510013
224	0xbe2bb3fb	-0.16767876
225	0x3d6a9656	0.057272278
226	0xbdf0c235	-0.11755792
227	0x3d6b738a	0.057483234
228	0xbf28841e	-0.65826595
229	0xbab15537	-0.0013529424
230	0xbe9b4614	-0.30326903
231	0x3d188e5a	0.037245132
232	0xbdaaaed2	-0.083341256
233	0x3d03c82d	0.032173324
234	0xbdde8985	-0.108660735
235	0xbda4d5b2	-0.08048572
236	0xbeb227b6	-0.34795922
237	0xbcfba8e4	-0.030720182
238	0xbd64bdf0	-0.0558452
239	0x3e0e438a	0.13892952
240	0x3e644855	0.22293217
241	0xbe1c262c	-0.15248936
242	0x3bb3af62	0.0054835537
243	0xbe686451	-0.22694518
244	0x3e30535e	0.17219302
245	0xbec52372	-0.38503605
246	0xbe22343b	-0.15840237
247	0x3b1c6ac9	0.002386736
248	0x3e03b599	0.12862243
249	0x3dcab90f	0.098985784
250	0xbe2cd183	-0.16876797
251	0x3d7bdc45	0.061489362
252	0xbe63f3f5	-0.22261031
253	0xbe7c6efb	-0.2465171
254	0x3ecb9c8d	0.39767876
255	0xbe0f94ec	-0.14021653

actor.0.bias f4 [128]
0	0xbd45d413	-0.048297953
1	0x3dd5e83c	0.10444686
2	0xbed92e23	-0.42418012
3	0x3a8b3865	0.0010621665
4	0xbe123ba3	-0.14280562
5	0xbdd5386b	-0.104111515
6	0x3c6acda6	0.014331257
7	0xbe1e5373	-0.15461521
8	0x3e77ef08	0.24212277
9	0xbe06fbf2	-0.13182047
10	0xbd6f498e	-0.058419757
11	0xbe254794	-0.16140586
12	0x3ea7ad4e	0.32749408
13	0x3db272d7	0.0871331
14	0xbeb1f9a4	-0.34760773
15	0x3dca2937	0.09871142
16	0x3d0cb8ff	0.034356114
17	0x3e8f1f46	0.27953547
18	0xbe130489	-0.14357199
19	0xbcb8c192	-0.022553239
20	0x3de28657	0.110607795
21	0xbd153435	-0.03642674
22	0xbecef07f	-0.4041786
23	0xbd618534	-0.055058673
24	0xbe4d891e	-0.20071837
25	0xbe62d61b	-0.22151987
26	0xbe72fdfc	-0.237297
27	0xbe9132c4	-0.28359044
28	0x3e2bb315	0.16767533
29	0x3e6c91ee	0.23102543
30	0xbe87d6f3	-0.2653118
31	0xbe001106	-0.12506494
32	0x3c7938d9	0.015211307
33	0x3de616e5	0.112348355
34	0xbecd532e	-0.40102524
35	0xbe6a6325	-0.22889383
36	0xbf8f9e0a	-1.1220105
37	0x3e19007e	0.14941594
38	0xbbff86ca	-0.0077980505
39	0xbed57d17	-0.41696998
40	0x3b5d89dd	0.0033804097
41	0x3d3717f4	0.044700578
42	0xbe999987	-0.29999945
43	0xbb907499	-0.004408431
44	0x3d43c725	0.04779734
45	0x3d0ebbfb	0.03484724
46	0xbdf0126b	-0.11722263
47	0xbe8adfdc	-0.27123916
48	0xbfef40f5	-1.8691698
49	0xbe37bdb0	-0.17943454
50	0xbb9db33d	-0.0048126266
51	0x3ddfcf00	0.10928154
52	0xbef13088	-0.4710734
53	0xbdfb487f	-0.12269687
54	0xbdf64316	-0.120245144
55	0x3d3c1f00	0.045928
56	0xbce824fd	-0.02833795
57	0xbe258362	-0.161634
58	0xbd894e1e	-0.06704353
59	0x3d291f8a	0.041289844
60	0xbcea6565	-0.028612802
61	0xbebb97c8	-0.36639237
62	0xbe9cb75a	-0.30608636
63	0xbbf75cdb	-0.007548911
64	0xbe932729	-0.28740814
65	0xbed9c5fc	-0.42533863
66	0xbf7673a5	-0.9627021
67	0xbde1699e	-0.11006473
68	0x3d174d00	0.036938667
69	0x3d19aa34	0.037515834
70	0xbd93cd5f	-0.07216906
71	0x3d4c9887	0.04995015
72	0xbcbbdf1c	-0.022933535
73	0x3c8e35e8	0.017359689
74	0x3dc7eb7e	0.097617134
75	0x3e4991e4	0.19684559
76	0xbec5da24	-0.3864299
77	0xbe3223c3	-0.17396455
78	0xbe184964	-0.14871746
79	0x3c0bd6d6	0.008535108
80	0xbdc21892	-0.09477343
81	0x3d9f9063	0.077912115
82	0x3df69a8d	0.12041197
83	0xbbb530ff	-0.0055295224
84	0xbe8205fc	-0.2539519
85	0xbd6a0dfb	-0.05714224
86	0x3ce88b02	0.028386597
87	0xbd7ec656	-0.062200867
88	0xbf812120	-1.0088234
89	0x3e0e21ea	0.13880125
90	0xbed7f35c	-0.42177856
91	0xbb96b229	-0.004598875
92	0xbcdc0770	-0.026859015
93	0x3dfc52ed	0.12320504
94	0xbf06d791	-0.5267268
95	0x3d57ed00	0.052716255
96	0xbe0f1d87	-0.13976108
97	0xbd100f27	-0.0351707
98	0xbe238715	-0.15969498
99	0xbe677c8b	-0.22606103
100	0xbc4e4d83	-0.012591722
101	0x3de3dca1	0.11126066
102	0xbe6f5302	-0.23371509
103	0xbe40f134	-0.18842012
104	0x3d17209e	0.03689634
105	0xbd57d02d	-0.052688766
106	0xbed782bd	-0.42091933
107	0xbb9ce4ba	-0.0047880085
108	0xbdf2cb6a	-0.118552044
109	0xbdb82636	-0.08991663
110	0xbe86f779	-0.26360682
111	0x3d954757	0.072889976
112	0x3d19af5f	0.037520763
113	0xbed17871	-0.40912202
114	0xbe0d0de4	-0.1377483
115	0x3db5a271	0.08868874
116	0x3de32fc6	0.110930964
117	0xbdacf0e4	-0.08444384
118	0xbc2a045b	-0.010377015
119	0xbe0d0639	-0.13771905
120	0x3d34412d	0.04400747
121	0xbe1b4715	-0.15163834
122	0xbe5c888e	-0.21536466
123	0x3de0fe64	0.10986021
124	0xbe496b2a	-0.19669786
125	0x3d869519	0.06571407
126	0xbee7a72b	-0.45244727
127	0x3c6f217b	0.014595385

actor.2.weight f4 [128, 128]
0	0xbe833efc	-0.2563399
1	0xbe8aff2c	-0.27147806
2	0x3d4d15ed	0.05006974
3	0xbe1bdab1	-0.15220143
4	0x3b9bcf1a	0.004754913
5	0xbcde502c	-0.027137838
6	0xbe401194	-0.18756706
7	0xbdc4c9e0	-0.09608817
8	0xbdb3a676	-0.08771984
9	0xbdea2fee	-0.11434923
10	0x3d88b80a	0.06675728
11	0xbd8d4dca	-0.06899603
12	0x39b00488	0.00033572712
13	0x3c37506d	0.011188609
14	0x3afeddf1	0.0019444806
15	0xbd573d06	-0.05254843
16	0xbc1c4be4	-0.009539578
17	0x3de47d6e	0.11156736
18	0x3e1e380f	0.15451072
19	0x3d46fbc8	0.04857996
20	0x3d0ecad4	0.0348614
21	0x3d3db9ef	0.0463199
22	0x3da3f028	0.080047905
23	0x3e35f08f	0.17767547
24	0xbd074dd5	-0.03303321
25	0x3dd99355	0.106238045
26	0x3d5167ec	0.0511245
27	0x3e11c62b	0.14235751
28	0x3e673956	0.22580466
29	0x3e0f714d	0.14008065
30	0xbe51f202	-0.20502475
31	0x3e076b94	0.13224632
32	0x3c523ccc	0.012831878
33	0xbd50c577	-0.050969567
34	0xbe1a1cff	-0.15050124
35	0xbda70856	-0.08155887
36	0x3d3fd8aa	0.046837486
37	0xbe0ef21f	-0.1395955
38	0xbc637542	-0.013882937
39	0xbd843e98	-0.06457251
40	0xbd9875fc	-0.07444379
41	0xbd375617	-0.044759836
42	0xbdadc0da	-0.08484049
43	0x3d8eba3a	0.06969114
44	0xbd8d36bb	-0.06895205
45	0x3dd410da	0.10354777
46	0x3d8c30f0	0.068452716
47	0xbd7535f7	-0.059865918
48	0x3dae36ab	0.08506521
49	0x3e62b162	0.22137979
50	0x3d83d357	0.06436794
51	0x3dac0107	0.083986335
52	0x3d2a6c1a	0.041607
53	0x3de4bbbe	0.111686215
54	0x3d88a1d6	0.06671493
55	0xbd60da83	-0.05489589
56	0xbe01b09f	-0.12665032
57	0x3e41e981	0.18936731
58	0xbcb2029d	-0.021729762
59	0x3e190b6e	0.14945766
60	0xbd9b807f	-0.07592868
61	0xbe453313	-0.19257765
62	0xbc13c280	-0.00901854
63	0xbd585d17	-0.052823152
64	0xbd59f453	-0.05321152
65	0xbe4ac754	-0.198026
66	0xbe82b3bf	-0.2552776
67	0xbca1e1f0	-0.019761056
68	0xbe2defab	-0.16985957
69	0xbd8b3165	-0.06796531
70	0xbd8beb96	-0.06832044
71	0xbe7bc68c	-0.24587458
72	0x3da64787	0.081191115
73	0x3dff457d	0.12464426
74	0x3dc89ba7	0.09795313
75	0xbe11b230	-0.1422813
76	0xbdeb57ea	-0.11491378
77	0xbd3bf0ed	-0.04588406
78	0x3d893166	0.06698875
79	0xbd3025eb	-0.04300491
80	0xbbdecb72	-0.006799155
81	0x3e544fc8	0.20733559
82	0x3dcab420	0.09897637
83	0xbd466119	-0.048432443
84	0x3e7ebdce	0.24877092
85	0x3d7254a5	0.059162755
86	0xbf1b899c	-0.6075685
87	0x3d9baefc	0.07601735
88	0x3c9e1ca0	0.019300759
89	0xbdab1866	-0.08354263
90	0x3d6cf1a3	0.05784763
91	0x3c56be2e	0.013106866
92	0x3ad88c7c	0.001652136
93	0x3ddc9915	0.107713856
94	0xbdee5958	-0.11638135
95	0x3d158b49	0.036509786
96	0x3e0fe768	0.14053118
97	0x3dc79aca	0.097463205
98	0xbe243a00	-0.1603775
99	0xbe2b13ca	-0.16706768
100	0x3dff7962	0.12474324
101	0x3ca7064c	0.020388745
102	0x3e67cb49	0.22636141
103	0xbe1ced0d	-0.15324803
104	0xbd0cbcea	-0.03435985
105	0xbd020abc	-0.03174852
106	0xbda378b5	-0.079820074
107	0xbda4c5c9	-0.08045537
108	0xbd642f98	-0.05570945
109	0x3b30cd4c	0.0026977835
110	0x3dbc6c6f	0.092003696
111	0xbd3bc4bc	-0.045841917
112	0xbdd45e8b	-0.10369595
113	0xbd8208e8	-0.06349355
114	0xbd25a483	-0.040440094
115	0xbf2335db	-0.6375405
116	0xbdb9105e	-0.09036325
117	0x3d4542a5	0.04815926
118	0xbdfeb202	-0.12436296
119	0x3e04d67d	0.12972446
120	0x3e2e92e7	0.17048226
121	0xbdc460ae	-0.09588753
122	0x3b6d8b83	0.0036246486
123	0xbe242401	-0.1602936
124	0xbd3b861c	-0.045782194
125	0xbe1788d8	-0.14798295
126	0x3dc7e135	0.09759752
127	0xbd2bfd55	-0.041989643
128	0x3de485d5	0.11158339
129	0xbd9a4fe5	-0.0753477
130	0xbd81cab7	-0.06337493
131	0x3bd086a3	0.006363706
132	0xbba81b36	-0.005130197
133	0x3e1e819f	0.15479134
134	0x3e99768f	0.29973266
135	0xbcda0d28	-0.026617602
136	0x3c93e46d	0.018053258
137	0xbce07c69	-0.027403073
138	0xbdb3f975	-0.087878145
139	0xbdb93640	-0.090435505
140	0xbc9e503c	-0.019325368
141	0xbd36c27a	-0.04461906
142	0x3cff5a57	0.031171007
143	0x3e093e36	0.13402638
144	0x3dc93e49	0.09826333
145	0x3d9c9028	0.07644683
146	0x3cf6b782	0.0301168
147	0xbda5f420	-0.08103204
148	0x3e681eee	0.22668049
149	0x3cfc012d	0.03076228
150	0x3d64fa57	0.055902805
151	0x3e04df48	0.129758
152	0x3d3b099d	0.045663465
153	0xbcb4c887	-0.022068275
154	0x3d8b82b2	0.068120375
155	0xbd5b9a13	-0.053613734
156	0x3d6f907e	0.058487408
157	0x3d314d2e	0.043286495
158	0x3c58c094	0.013229508
159	0x3ddf4eea	0.109037235
160	0x3d0c7490	0.03429085
161	0x3e430307	0.19044124
162	0x3e5b2579	0.21401013
163	0xbd9daad6	-0.076986
164	0xbd3330e2	-0.04374779
165	0x3eb1b914	0.34711516
166	0x3e1878d8	0.14889848
167	0x3d22e5d5	0.039769966
168	0x3b0ce8c4	0.0021501044
169	0xbd1986ef	-0.0374822
170	0x3c89c62f	0.016818134
171	0x3cd60701	0.026126387
172	0xbcbc5b78	-0.022992834
173	0xbdd97053	-0.10617127
174	0xbd994684	-0.07484153
175	0x3c4e89ec	0.012606125
176	0x3cf5cf01	0.030005934
177	0x3e53a8b6	0.20669827
178	0xbe79c69f	-0.24392174
179	0x3e22d015	0.1589969
180	0xbdb0054e	-0.08594762
181	0xbd5ca56b	-0.053868692
182	0x3de0bb10	0.10973179
183	0x3c9a15b3	0.018809175
184	0x3d0c33ab	0.034228962
185	0x3de8140a	0.11331947
186	0xbda1b6ec	-0.07896218
187	0xbdc5efe2	-0.09664895
188	0xbe340101	-0.17578508
189	0x3b5d3a2f	0.0033756604
190	0x3d4fde73	0.050749253
191	0xbd7e200e	-0.06204229
192	0xbd1ee12b	-0.038788956
193	0xbbf0f390	-0.0073532537
194	0xbc46d9dd	-0.012136904
195	0x3d08ec0b	0.033428233
196	0xbca2cb9b	-0.019872477
197	0xbcbdf63c	-0.023188703
198	0x3d112df5	0.03544422
199	0x3e0e2ce0	0.13884306
200	0xbe1d981a	-0.15390053
201	0xbcae84b1	-0.021303507
202	0xbe5b2757	-0.21401726
203	0xbdbcb34a	-0.09213884
204	0x3d12150e	0.03566461
205	0x3dd4e5d7	0.10395401
206	0x3bdc13db	0.006716234
207	0xbe2a6a4a	-0.16642109
208	0x3ce1db01	0.02757025
209	0x3d49a921	0.04923356
210	0x3db2c083	0.08728125
211	0xbd112f42	-0.03544546
212	0x3d694017	0.056945886
213	0xbd81221d	-0.06305335
214	0xbe165a7d	-0.14682956
215	0xbc7e9203	-0.015537742
216	0xbddc51f9	-0.107578225
217	0xbd5f3fb5	-0.054504115
218	0xbc65110f	-0.013981118
219	0xbc30c95c	-0.010790195
220	0x3e89df6f	0.2692828
221	0xbeaf5b52	-0.3424936
222	0x3c5bb474	0.013409723
223	0x3dc06e05	0.093959846
224	0x3da04984	0.07826522
225	0xbcd59467	-0.02607174
226	0xbc7dfc5e	-0.015502064
227	0x3d8c98fa	0.068651155
228	0xbdf6f27f	-0.12057971
229	0x3e1b8299	0.15186538
230	0x3cf02c55	0.029318014
231	0xbd2bbd66	-0.04192867
232	0x3de27c05	0.11058811
233	0x3da18af5	0.07887832
234	0x3d8d886e	0.069107875
235	0x3b884a15	0.004159222
236	0x3db0c38c	0.086310476
237	0x3d8855ff	0.066570275
238	0xbc10c300	-0.008835554
239	0xbcfcdd64	-0.030867286
240	0x3d25663e	0.04038071
241	0xbd1e3bb0	-0.03863114
242	0x3d9fe243	0.07806828
243	0x3ea1ab88	0.3157618
244	0x3ecfc3cf	0.40579078
245	0xba8dd202	-0.0010820033
246	0xbe990233	-0.2988449
247	0x3d965ba3	0.07341697
248	0xbd900a2d	-0.07033191
249	0x3dbf8a15	0.09352509
250	0x3dd0de28	0.10198623
251	0x3d8028fc	0.06257817
252	0xbbf8de69	-0.0075948727
253	0x3d123c95	0.035702307
254	0xbe293fd9	-0.16528262
255	0x3de6219b	0.112368785

actor.2.bias f4 [128]
0	0xbe41532e	-0.18879387
1	0x3e825497	0.25455162
2	0xbad40337	-0.0016175275
3	0x3ca5a963	0.020222371
4	0xbe8268cc	-0.2547058
5	0xbf31ee25	-0.69504005
6	0xbe424f1e	-0.18975493
7	0xbf686778	-0.9078288
8	0xbedbb136	-0.4290864
9	0xbee73749	-0.45159367
10	0xbdb658db	-0.089036666
11	0x3d472047	0.048614766
12	0xbe0abe6b	-0.13549201
13	0x3da4650b	0.08027085
14	0xbe052c1b	-0.13005106
15	0xbe077a46	-0.13230237
16	0x3dafb41b	0.08579274
17	0xbeeef9e5	-0.4667503
18	0xbe8e1b9f	-0.27755448
19	0xbe1a147f	-0.15046881
20	0xbbbb82f9	-0.0057224003
21	0x3c93f99b	0.018063357
22	0x3e44cb19	0.192181
23	0xbe58744b	-0.21138112
24	0xbedc57a3	-0.43035612
25	0xbadabae1	-0.0016687774
26	0xbe7fe95a	-0.2499136
27	0xbee5a08c	-0.4484905
28	0xbdb81f52	-0.08990349
29	0xbe9b95a1	-0.30387595
30	0x3dfb7e28	0.12279922
31	0xbf404435	-0.75104076
32	0xbd8c2bab	-0.068442665
33	0xbe1f2d1f	-0.15544556
34	0xbdd3913d	-0.103304364
35	0xbe1ac46b	-0.1511399
36	0x3e287ee5	0.16454656
37	0xbde34de2	-0.11098839
38	0xbdb38d6a	-0.08767207
39	0xbe359d9f	-0.17735909
40	0xbf4ebc92	-0.80756485
41	0xbe8f09d2	-0.2793718
42	0xbf46f32f	-0.7771482
43	0xbeaecf4b	-0.34142527
44	0xbe36eb4b	-0.17863195
45	0xbcf561ed	-0.029953921
46	0xbdfce8c7	-0.12349086
47	0xbe213033	-0.15741043
48	0xbc44540d	-0.01198293
49	0xbd2c54c4	-0.042073026
50	0x380402d1	3.1473875e-05
51	0xbc79d1e4	-0.015247796
52	0x3eaa7590	0.33292818
53	0xbddc38f5	-0.10753051
54	0xbecc7997	-0.39936516
55	0xbe2b2f4f	-0.16717266
56	0xbf27ee25	-0.65597755
57	0xbe01b655	-0.1266721
58	0xbea818fe	-0.32831568
59	0xbe2d9629	-0.16951813
60	0xbec2b6ac	-0.38029993
61	0xbe82f1e1	-0.25575164
62	0xbcfcc0a2	-0.030853573
63	0xbe09d186	-0.13458833
64	0xbc14acd8	-0.009074412
65	0xbe44e176	-0.19226632
66	0xbd8f1ae9	-0.069875546
67	0x3e57fa8a	0.21091667
68	0xbec2a51e	-0.380166
69	0xbe119d5d	-0.14220186
70	0xbc9a2ce7	-0.01882024
71	0xbebc4a72	-0.36775547
72	0xbd483ba9	-0.04888502
73	0xbe828812	-0.25494438
74	0xbe88e3bb	-0.26736245
75	0xbdb103c5	-0.08643297
76	0xbe76af5e	-0.24090335
77	0x3ddf9ee5	0.109189786
78	0xbe9e6ba8	-0.3094151
79	0xbe3a09e4	-0.18167835
80	0x3dda86f2	0.1067027
81	0xbeacfda3	-0.3378726
82	0x3e717531	0.23579861
83	0xbe577cf6	-0.21043763
84	0xbe1633af	-0.14668153
85	0x3e16aa08	0.147133
86	0xbe7009d1	-0.23441245
87	0xbd6cf609	-0.057851825
88	0xbe4d1877	-0.20028864
89	0xbe528b4a	-0.20560947
90	0x3e470b23	0.19437842
91	0xbf03571c	-0.51304793
92	0xbd56f368	-0.052478224
93	0xbe0637c5	-0.13107212
94	0xbe88a775	-0.2669026
95	0xbe24bb9d	-0.16087194
96	0x39f09a09	0.00045891132
97	0xbf5ecfe5	-0.8703597
98	0xbe5c2af4	-0.2150076
99	0xbdbb914a	-0.09158571
100	0xbe16c746	-0.14724454
101	0xbe3701b5	-0.17871745
102	0xbab8c569	-0.0014096919
103	0xbea1c9ea	-0.3159936
104	0xbda5dd00	-0.08098793
105	0xbe753231	-0.23944928
106	0xbe0dea8c	-0.13859004
107	0xbe755d58	-0.23961389
108	0x3e2c4776	0.16824135
109	0xbdb95514	-0.090494305
110	0xbfa5e0cd	-1.2959229
111	0xbe39a0f8	-0.18127811
112	0xbe9c92e3	-0.30580816
113	0xbe58489d	-0.2112145
114	0xbe63d2ce	-0.22248384
115	0xbdc76314	-0.097356945
116	0xbd243aaa	-0.04009501
117	0xbe474927	-0.19461499
118	0xbe00ceb8	-0.12578857
119	0xbe5948cd	-0.21219178
120	0xbdbef3b7	-0.09323829
121	0xbc70fc91	-0.014708654
122	0xbe3338e0	-0.17502165
123	0xbd1a6b47	-0.037699964
124	0xbf2f18bc	-0.68397117
125	0xbe8f6bf9	-0.28012064
126	0xbd26759c	-0.040639505
127	0xbe5503e9	-0.20802273

actor.4.weight f4 [128, 128]
0	0xbda983b8	-0.082770765
1	0x3c9d560c	0.01920607
2	0xbdd8a7cd	-0.105788805
3	0x3dc531de	0.09628652
4	0x3d4bfb93	0.049800467
5	0x3d3e4597	0.046453085
6	0xbd6b1c50	-0.057400048
7	0x3dee04f9	0.11622042
8	0xbca57f7f	-0.020202396
9	0xbda117ea	-0.07865889
10	0xbc809b7f	-0.015699146
11	0x3e0d989a	0.13827744
12	0x3e202a8c	0.1564123
13	0xbe34c8a8	-0.1765467
14	0xbd78e203	-0.060762417
15	0x3e320903	0.1738625
16	0x3cf3895b	0.029728582
17	0x3c44a5ec	0.0120024495
18	0xbd767dce	-0.06017857
19	0x3d5ea21d	0.054353822
20	0xbe946578	-0.28983665
21	0xbe0ff969	-0.14059986
22	0x3e237e32	0.15966108
23	0x3c282c0d	0.010264409
24	0xbdfe6e30	-0.1242336
25	0x3d8139c7	0.06309848
26	0x3c7b1421	0.015324623
27	0x3dbd8759	0.09254331
28	0xbdfd72e8	-0.12375432
29	0xbc4f3d44	-0.012648884
30	0xbe0e7ce9	-0.13914837
31	0x3deed05f	0.116608374
32	0xbdec6cc3	-0.11544182
33	0x3df8337b	0.12119194
34	0x3d21ae4b	0.03947286
35	0xbe08be33	-0.13353805
36	0x3ddcbba9	0.10777981
37	0x3e6b227d	0.22962375
38	0xbe8ea5e1	-0.2786093
39	0xbea8f296	-0.32997578
40	0x3e6ac6d5	0.22927411
41	0xbe59bb54	-0.21262866
42	0x3ea1e999	0.31623533
43	0xbd51b07a	-0.05119369
44	0x3cfc476c	0.030795775
45	0x3cf5cf2f	0.03000602
46	0x3d9a4d9b	0.07534333
47	0xbd9071f0	-0.07052982
48	0xbe22862f	-0.158715
49	0x3d97827e	0.07397936
50	0xbc3bf1ec	-0.011471253
51	0x3df24fa3	0.11831596
52	0xbde3856f	-0.11109435
53	0xbe90e0d4	-0.2829653
54	0x3c763e02	0.015029432
55	0x3e40c8f1	0.18826653
56	0xbe00605c	-0.12536758
57	0xbd322938	-0.04349634
58	0xbda6500c	-0.081207365
59	0x3e3e8cfa	0.18608466
60	0xbc82aa0d	-0.015950227
61	0xbe955ff0	-0.29174757
62	0xbbbd09ec	-0.005769005
63	0xbe00ed3b	-0.12590496
64	0xbc732490	-0.01484026
65	0xbe5304fe	-0.20607373
66	0x3e4d0702	0.20022205
67	0xbd175341	-0.03694463
68	0xbd219b81	-0.03945494
69	0xbe06e113	-0.13171797
70	0xbda44bb5	-0.080222525
71	0xbe371007	-0.17877208
72	0xbe348950	-0.17630506
73	0x3c73fd3b	0.014891918
74	0x3df3f171	0.11911286
75	0x3c58fd0a	0.013243923
76	0x3df79a9f	0.120900385
77	0xbe46dda6	-0.1942049
78	0x3d92ed89	0.071742125
79	0x3df7e349	0.12103898
80	0x3c08f568	0.008359291
81	0xbdd59632	-0.10429038
82	0xbe1de1c4	-0.15418154
83	0x3e2056b4	0.15658075
84	0x3e35caba	0.17753115
85	0xbe0bfae0	-0.1366992
86	0x3cac1fb9	0.02101122
87	0xbddc442f	-0.107551925
88	0xbd0a3cbd	-0.03374933
89	0xbd719d6c	-0.05898802
90	0xbeb5424e	-0.3540215
91	0xbc76e160	-0.015068382
92	0xbcf805b3	-0.030276155
93	0xbc70fced	-0.01470874
94	0x3e6b2bc6	0.22965917
95	0xbe259ac4	-0.1617232
96	0x3dd6c559	0.1048686
97	0x3dfd3896	0.123643085
98	0xbd01278a	-0.031531848
99	0xbe417dba	-0.18895617
100	0xbdcc4eec	-0.09975991
101	0xbe6eebac	-0.23332089
102	0x3e0d2f4d	0.13787575
103	0x3e065577	0.1311854
104	0xbd95ea80	-0.07320118
105	0x3d731c7a	0.05935333
106	0x3e2437dd	0.16036935
107	0xbe66d096	-0.22540507
108	0xbda55562	-0.08072926
109	0x3daf971a	0.08573742
110	0x3d96898a	0.07350452
111	0xbdd6baff	-0.104848854
112	0xbe5895bc	-0.21150869
113	0x3db988b4	0.09059277
114	0xbcda623e	-0.026658174
115	0xbce909e6	-0.028447103
116	0xbdf8b3be	-0.12143658
117	0x3c9f01f1	0.019410105
118	0x3d5295ce	0.051412396
119	0x3d7066bf	0.058691736
120	0xbc96b181	-0.018395187
121	0x3db53089	0.08847148
122	0xbcc7e4b7	-0.024401052
123	0xbde16033	-0.11004677
124	0x3d01eaeb	0.031718176
125	0xbe005a95	-0.12534554
126	0x3d1946a4	0.037420884
127	0xbe25f8ac	-0.16208142
128	0x3e2ee7fa	0.1708068
129	0x3d8d0d5d	0.068873145
130	0x3d6c60ad	0.057709385
131	0xbd96eb3e	-0.07369088
132	0xbd29df77	-0.04147288
133	0x3e066d60	0.13127661
134	0x3ec01267	0.3751404
135	0x3dfb4607	0.12269216
136	0x3e4d60b4	0.2005642
137	0x3de282e0	0.11060119
138	0x3d03c281	0.032167915
139	0x3df9cda3	0.12197425
140	0xbd8f1f67	-0.069884114
141	0x3e12b0d0	0.14325261
142	0x3e2d63db	0.16932623
143	0x3db7e049	0.08978326
144	0xbe3ca295	-0.18421395
145	0xbe06ddb3	-0.13170509
146	0x3e83eecc	0.25768125
147	0x3e671405	0.2256623
148	0xbe107ed8	-0.14110887
149	0x3e01f0a4	0.12689453
150	0xbe0bf979	-0.13669385
151	0x3e3f84bc	0.18702978
152	0x3d6bf205	0.057603855
153	0xbe277c9b	-0.16356127
154	0x3e81620b	0.25270113
155	0x3dc1b9e5	0.09459285
156	0xbdcd41ed	-0.1002234
157	0xbc2131c0	-0.0098385215
158	0x3d1634f1	0.036671583
159	0x3d8115cf	0.06302988
160	0xbe5bc9b2	-0.2146366
161	0xbb0d778e	-0.0021586153
162	0xbdcd84fb	-0.1003513
163	0x3de372d7	0.11105888
164	0x3db0571a	0.08610363
165	0xbee0c072	-0.43896824
166	0xbdac9f26	-0.08428793
167	0x3bcef624	0.0063159633
168	0x3e9e6cf7	0.3094251
169	0x3ca569ae	0.020191994
170	0x3e942b8b	0.2893947
171	0x3cde4028	0.027130201
172	0xbe01e349	-0.12684359
173	0xbdd78862	-0.1052406
174	0xbe1fbb76	-0.15598854
175	0xbd9c698b	-0.07637318
176	0xbdb91386	-0.09036927
177	0x3b6bec67	0.003599906
178	0x3e5e0b03	0.21683888
179	0xbdde324c	-0.10849437
180	0xbd8a8920	-0.06764436
181	0x3dc2650a	0.09491928
182	0x3da7ce56	0.08193652
183	0xbd98b1a1	-0.07455755
184	0x3e78a93a	0.24283305
185	0xbe20cf96	-0.15704188
186	0x3e49baf4	0.19700223
187	0x3de94905	0.113908805
188	0x3e513f3b	0.20434277
189	0x3e14d847	0.14535628
190	0x3e3b6ec2	0.1830397
191	0x3da8b417	0.082374744
192	0xbdb88182	-0.09009077
193	0xbb567825	-0.003272542
194	0xbd6089b9	-0.054818843
195	0x3c676e2a	0.014125386
196	0x3de2fc24	0.11083248
197	0xbd9611ba	-0.073276
198	0xbda91996	-0.08256833
199	0xbd61c699	-0.055121038
200	0x3ddc6ad8	0.10762566
201	0xbdad567e	-0.08463763
202	0xbc61f810	-0.013792053
203	0xbe16cb07	-0.14725886
204	0x3cdfe9cb	0.02733316
205	0xbc52beeb	-0.012862901
206	0xbcb01073	-0.021492219
207	0x3da65c4f	0.08123075
208	0xbdc1ef73	-0.094694994
209	0x3ca4f763	0.020137494
210	0x3e1b6944	0.15176874
211	0x3d90b142	0.07065059
212	0x3e88ca0a	0.26716644
213	0x3dfe419c	0.12414858
214	0xbe984865	-0.29742733
215	0xbde93adb	-0.11388179
216	0x3e2872f4	0.16450101
217	0xbe9e215e	-0.30884832
218	0x3e3c4f94	0.18389732
219	0xbd8796a5	-0.0662053
220	0xbd663ceb	-0.05621044
221	0xba8d1a35	-0.0010765257
222	0x3d287561	0.041127566
223	0xbdef51eb	-0.116855465
224	0x3d741c7e	0.059597485
225	0x3e073b13	0.13206129
226	0x3e568fb9	0.20953263
227	0xbdacc71a	-0.08436413
228	0xbdc1ae8c	-0.0945712
229	0xbe0aa08f	-0.1353781
230	0x3d986175	0.074404635
231	0x3de100c0	0.10986471
232	0xbe880afc	-0.2657088
233	0x3b6066bf	0.003424093
234	0x3df0d53f	0.117594235
235	0xbcefec96	-0.029287618
236	0xbdc8fca2	-0.09813811
237	0x3dcc47d1	0.099746354
238	0x3ecd3b7c	0.40084445
239	0xbca11f46	-0.019668233
240	0x3e169358	0.14704645
241	0xbc9d080d	-0.019168878
242	0xbe7bd9dd	-0.24594827
243	0xbe44f1b9	-0.19232835
244	0x3dbf7c49	0.093498774
245	0x3e79f311	0.24409129
246	0x3d05ba7b	0.032648545
247	0xbe08cb76	-0.13358864
248	0xbe7b1a51	-0.24521758
249	0xbd3b37d2	-0.04570753
250	0x3d38faef	0.045161184
251	0xbe3a3fbe	-0.18188378
252	0x3e492e77	0.19646631
253	0x3e32b8eb	0.17453353
254	0xbd8e3349	-0.069433756
255	0x3d50da64	0.050989524

actor.4.bias f4 [128]
0	0xbe7ec8bc	-0.24881262
1	0xbe84f078	-0.25964713
2	0xbebb3f5d	-0.3657178
3	0xbe758fae	-0.2398059
4	0xbe00b253	-0.12568025
5	0xbe74a5fd	-0.23891445
6	0xbe1afd98	-0.15135801
7	0xbeea894d	-0.45807877
8	0xbec8ad7d	-0.3919486
9	0xbeb0611b	-0.34449086
10	0xbe058c8e	-0.13041899
11	0xbe8218fb	-0.25409684
12	0xbd53c19c	-0.051698312
13	0xbdb096a4	-0.086224824
14	0xbeaf9225	-0.34291187
15	0xbeabdb34	-0.33565676
16	0xbdad5c7f	-0.08464908
17	0xbe0b3963	-0.1359611
18	0x3c3b8f4b	0.011447738
19	0xbebb2718	-0.36553264
20	0xbe37c86d	-0.1794755
21	0xbe843597	-0.25822136
22	0xbdfa5843	-0.12223866
23	0xbd99fb5b	-0.075186454
24	0xbeb0b5f3	-0.34513816
25	0xbdec7b52	-0.11546959
26	0xbeaeceda	-0.3414219
27	0xbe4efd34	-0.20213777
28	0xbe576f5d	-0.21038575
29	0xbe98a7bf	-0.2981548
30	0xbe741f34	-0.23840028
31	0xbd5725da	-0.052526332
32	0xbe87a20b	-0.26490816
33	0xbe85f803	-0.2616578
34	0xbe299116	-0.16559252
35	0xbef2df90	-0.4743619
36	0xbeae344e	-0.3402428
37	0xbea7866a	-0.32719737
38	0xbe8a2e63	-0.26988515
39	0x3b1afbbf	0.0023648588
40	0xbeb1ee61	-0.3475218
41	0xbe4321e1	-0.19055893
42	0xbe811488	-0.25210977
43	0xbeaabad1	-0.33345655
44	0xbe23689a	-0.15957871
45	0xbd9747fe	-0.07386778
46	0x3d2e6a8d	0.042582083
47	0xbd60e74a	-0.054908074
48	0xbe8dcdeb	-0.27696165
49	0xbea7ea82	-0.32796103
50	0xbe85883b	-0.26080498
51	0xbce02e96	-0.027365964
52	0xbe198165	-0.14990766
53	0x3d37aafa	0.04484079
54	0xbdca0492	-0.09864153
55	0xbe29c474	-0.16578847
56	0xbd85f44c	-0.065407366
57	0xbe04144d	-0.12898369
58	0xbba4a974	-0.005025083
59	0xbdb0cfa1	-0.08633352
60	0xbcd5afc4	-0.026084788
61	0xbdfaf376	-0.12253468
62	0xbe143f7e	-0.14477345
63	0xbeca1ab6	-0.39473504
64	0xbe802bd3	-0.25033435
65	0xbed830ab	-0.4222463
66	0xbe1f5915	-0.15561326
67	0xbeadeb08	-0.33968377
68	0xbe8a808f	-0.27051207
69	0xbd9598da	-0.07304545
70	0xbea6b20f	-0.32557723
71	0xbd9ba933	-0.076006316
72	0xbe96bdfc	-0.29441822
73	0xbe83c845	-0.2573873
74	0xbede716b	-0.43445906
75	0xbef803a5	-0.4844028
76	0xbeb7726c	-0.35829484
77	0xbe3d3748	-0.1847812
78	0xbe217cac	-0.15770215
79	0xbea198fb	-0.31562027
80	0xbe040e4a	-0.12896076
81	0xbcbed438	-0.023294553
82	0xbe6cfaa6	-0.2314249
83	0x3d0408ad	0.032234836
84	0xbebfceef	-0.37462565
85	0xbe6093d0	-0.21931386
86	0xbeafc2aa	-0.34328204
87	0xbdd10b57	-0.10207241
88	0x3cc3c672	0.023898337
89	0xbe9c01e7	-0.304702
90	0xbeaf75d2	-0.34269577
91	0xbdf9081a	-0.121597484
92	0xbe06432b	-0.1311156
93	0xbdf0ec7a	-0.11763854
94	0xbe340d4c	-0.17583197
95	0xbe96ef7c	-0.29479587
96	0xbdebf85c	-0.1152198
97	0xbeb0b26d	-0.34511128
98	0xbd8ee1ee	-0.069766864
99	0xbeb283dc	-0.34866226
100	0xbe302405	-0.1720124
101	0xbe773aa4	-0.24143463
102	0xbdd26715	-0.102735676
103	0xbde84017	-0.11340349
104	0xbe4833d3	-0.1955102
105	0xbea0b80c	-0.31390417
106	0xbeb544c5	-0.3540403
107	0xbd5d50da	-0.054032184
108	0xbde17d4f	-0.11010229
109	0xbe4ff035	-0.20306475
110	0xbe3766b0	-0.17910266
111	0xbe44a8ce	-0.19205019
112	0xbe6f7ed4	-0.23388225
113	0xbe215fb8	-0.1575917
114	0xbecbdb66	-0.39815825
115	0xbd205e7f	-0.03915262
116	0xbeb422a2	-0.35182673
117	0xbd56d539	-0.05244944
118	0xbe24f13f	-0.16107653
119	0xbdca28d5	-0.09871069
120	0xbe0dc484	-0.13844496
121	0xbee0a8dc	-0.4387883
122	0x3d99d310	0.0751096
123	0xbdd5e546	-0.10444121
124	0xbea785ef	-0.3271937
125	0xbe821d22	-0.25412852
126	0xbd299949	-0.04140595
127	0xbe2f80f7	-0.1713904

actor.6.weight f4 [12, 128]
0	0xbd0a715f	-0.033799525
1	0x3d094e9a	0.033522226
2	0x3c9987f7	0.01874159
3	0x3ce7d0d3	0.028297817
4	0x3b2331d3	0.0024901524
5	0xbcb360e4	-0.021896787
6	0xbbb857b6	-0.0056256903
7	0x3ca9361f	0.02065569
8	0x3c092d4f	0.008372619
9	0x3b08fe22	0.0020903428
10	0xbb2d8015	-0.0026474048
11	0xbbb34a1f	-0.0054714824
12	0x3c15dd8c	0.009147059
13	0xba8d28ec	-0.0010769642
14	0xbb38fed3	-0.002822806
15	0x3afee7cd	0.0019447744
16	0xbc18ca12	-0.009325521
17	0xbadc9143	-0.0016827959
18	0x3a3085a8	0.00067337835
19	0xbd16462d	-0.03668802
20	0x3c2de523	0.0106137125
21	0xbc1be5dc	-0.009515252
22	0xbcec76eb	-0.028865298
23	0x3a3c0b1c	0.0007173286
24	0x3a4e31f4	0.000786572
25	0x3bad1aca	0.0052827345
26	0xbc497da1	-0.012298019
27	0x3c62cbb8	0.013842516
28	0x3c97dd83	0.018538242
29	0x3b5e72fe	0.0033943052
30	0xba0ea02b	-0.0005440737
31	0xbba19267	-0.0049307826
32	0x3bc686c4	0.006058546
33	0x3c06696c	0.0082038455
34	0x3c3a485f	0.011369794
35	0x3b70a456	0.0036719046
36	0xbd38a63e	-0.045080416
37	0x3b6f8204	0.0036546001
38	0xbcac20ba	-0.021011699
39	0xbaf7792c	-0.0018880717
40	0xbd083bae	-0.03326004
41	0xba91a8ab	-0.0011112889
42	0x3a8f9f57	0.0010957521
43	0x3c285537	0.010274223
44	0xbbf8d6f3	-0.0075939833
45	0xbb8441a7	-0.0040361467
46	0xbb51a6a6	-0.00319902
47	0xbc61acae	-0.01377408
48	0xbca122e2	-0.019669954
49	0x3bd4fb72	0.006499701
50	0xbc49b7a5	-0.012311851
51	0x3bb352ac	0.0054725017
52	0x3c0f5202	0.0087475795
53	0x3c4a6ac7	0.012354559
54	0xbc0c4f01	-0.008563758
55	0x3c9b6cb8	0.01897274
56	0xbb0c422c	-0.0021401746
57	0x3b55bc59	0.0032613485
58	0x3ac421f0	0.0014963727
59	0x3b4114aa	0.002946178
60	0x3b44ff12	0.003005926
61	0x3cc5c66f	0.024142472
62	0x3cac589f	0.021038352
63	0x3cd97f8d	0.026550079
64	0x3c23fd94	0.010009188
65	0xbbede4e1	-0.0072599505
66	0x3beb0060	0.0071716756
67	0xbcff7166	-0.031182002
68	0x3cc65e78	0.024214968
69	0xbbc1d8c4	-0.005915733
70	0xbd0d0751	-0.034430806
71	0x3b0ec11b	0.002178258
72	0xbd12ad43	-0.035809767
73	0x3c155d4d	0.009116483
74	0xbbe4221c	-0.006962074
75	0xbbe267fe	-0.0069093695
76	0xbc1fed04	-0.009761099
77	0xbcb525a0	-0.022112668
78	0x3c0e2909	0.008676776
79	0xbbd381e2	-0.006454692
80	0xbc26fe72	-0.0101925
81	0x3db94bf6	0.090476915
82	0xbc5c5133	-0.013447094
83	0x3a81d7dc	0.000990625
84	0xbc9d28ac	-0.019184433
85	0xbb8023c0	-0.0039105117
86	0x3c940edd	0.018073494
87	0xbbd5a416	-0.0065198047
88	0x3b40ff51	0.0029449055
89	0x3bc9f40d	0.0061631263
90	0xbca14857	-0.019687815
91	0xbcfc0c37	-0.030767543
92	0x3cd48e9a	0.025946904
93	0xbcc55512	-0.024088416
94	0xbcbc1d1b	-0.022963097
95	0x3c4ead08	0.012614496
96	0xbccad80a	-0.024761219
97	0x39cb302c	0.00038755068
98	0xbb4feaf0	-0.0031725727
99	0x3d0ae18f	0.033906516
100	0xbd0ffd7e	-0.03515386
101	0xbbaf078c	-0.005341476
102	0x3bc4c400	0.0060048103
103	0xbc9aea0f	-0.018910436
104	0xbca27898	-0.019832894
105	0xbc422406	-0.011849409
106	0xbc2990ee	-0.010349495
107	0x39d8da7a	0.00041361508
108	0x3c66cb35	0.014086534
109	0x3d614159	0.05499396
110	0x3b0902f3	0.00209063
111	0x3c11ebd4	0.008906323
112	0xbc1d738c	-0.009610068
113	0xbbb8aa72	-0.005635553
114	0x3baf5936	0.005351211
115	0x3ceb438b	0.02871873
116	0x3c7166b9	0.014733964
117	0x3bb07a38	0.0053856634
118	0xbb74aa83	-0.0037333078
119	0x3c95f5d0	0.01830569
120	0x3c3adba5	0.011404906
121	0x3ce2fc17	0.027708096
122	0x397ecfa0	0.00024300674
123	0x3cd5a65d	0.026080305
124	0x3b0824f9	0.002077399
125	0x3b81e9bf	0.0039646323
126	0x3b919cf0	0.0044437572
127	0xba47158d	-0.0007594459
128	0x3cb20fa9	0.021735983
129	0xbc06c3a8	-0.008225359
130	0x3b9fb9c1	0.0048744385
131	0xbc1af498	-0.00945773
132	0x3ab12187	0.001351402
133	0x3d0aa3fa	0.033847786
134	0xbcc904df	-0.024538456
135	0x3bd54aa9	0.0065091443
136	0x3be67901	0.0070334678
137	0xbba049ff	-0.0048916335
138	0x3b38f210	0.0028220452
139	0xbb7fe512	-0.0039046449
140	0xbb478f3a	-0.003045036
141	0x3a63e923	0.0008694103
142	0x399c4a1e	0.0002980986
143	0x3d0cbaf0	0.034357965
144	0xbb4aaa61	-0.0030924308
145	0xbb19a6be	-0.0023445333
146	0xbb5b9e58	-0.0033511128
147	0x3c26943f	0.010167181
148	0x3d0f343c	0.034961924
149	0xbbbf5e72	-0.005840116
150	0xbcd5cdb1	-0.026099058
151	0xbc96b517	-0.018396897
152	0xbb640ac8	-0.0034796465
153	0x398e9137	0.00027192544
154	0xbd15ce5e	-0.03657376
155	0x3cb7c0ce	0.022430804
156	0xbd615de7	-0.055021193
157	0x3caeacaf	0.021322576
158	0x3c4d9402	0.012547495
159	0xbb07fabf	-0.0020748822
160	0x3ca60c17	0.020269437
161	0xbd091d53	-0.03347523
162	0xbc09d378	-0.0084122345
163	0x3bf00303	0.007324578
164	0x3cfeebc6	0.031118285
165	0xb9f9882e	-0.00047594443
166	0xbb44a709	-0.0030006787
167	0xb8ef3cf0	-0.000114077586
168	0xbd092e81	-0.033491615
169	0x3c24c2a2	0.01005617
170	0x3b9dc163	0.0048143133
171	0xbbb98812	-0.005661973
172	0x3cca5572	0.024698947
173	0x3c673d74	0.014113773
174	0x395e6770	0.00021210103
175	0x3b9a4c15	0.0047087767
176	0xbbc183eb	-0.0059056184
177	0xbc204f25	-0.0097844945
178	0x3a8bf7af	0.0010678674
179	0xbc4f7248	-0.012661524
180	0xbc9c973a	-0.01911508
181	0xbba525e7	-0.0050399187
182	0xbc173774	-0.00922953
183	0xbc1550be	-0.009113489
184	0xbb1677a2	-0.002295949
185	0xbcab8302	-0.020936493
186	0xbb2d8bd0	-0.002648104
187	0x3c1e47d8	0.009660684
188	0xbc1706ee	-0.009217961
189	0x3bd448ee	0.0064784205
190	0xbb56a3ab	-0.0032751362
191	0xbce4ae2a	-0.02791508
192	0x3d12e292	0.035860606
193	0xbc0881c3	-0.008331719
194	0x3c28d51b	0.010304715
195	0x3d38e274	0.045137838
196	0x3c59e0c4	0.013298217
197	0x3bd04856	0.0063562794
198	0xbb097d5b	-0.0020979259
199	0x3bace07e	0.005275785
200	0xbc2186de	-0.009858815
201	0xbce54e28	-0.02799137
202	0xbca87e57	-0.020568056
203	0xbb6f4cbf	-0.003651425
204	0x3d19ae81	0.037519936
205	0x3ca25497	0.019815726
206	0x3c0ef2c3	0.008724871
207	0xbb19e386	-0.0023481562
208	0xbbf5b820	-0.007498756
209	0xbcee8472	-0.02911589
210	0xbcc88c2d	-0.024480904
211	0xbbaae998	-0.005215835
212	0x3ca2cca3	0.019872969
213	0x3b78afb8	0.0037946533
214	0x3bf04d5b	0.0073334402
215	0x3bc22c80	0.005925715
216	0xba48c410	-0.000765861
217	0x3c1efe7a	0.009704227
218	0x3c9e9f76	0.019363146
219	0xbc649a4e	-0.013952805
220	0x3ceea205	0.029129991
221	0xbcd78134	-0.026306726
222	0xbc5b34eb	-0.013379316
223	0x3c4b9733	0.012426185
224	0x3bf8d67c	0.007593928
225	0x3b227cee	0.0024793702
226	0xba654718	-0.00087462505
227	0x3d06d0be	0.032913916
228	0xbc2c36db	-0.010511125
229	0xba2b84f0	-0.00065429416
230	0xbbaf23fd	-0.0053448663
231	0x3c9b6e7c	0.018973581
232	0x3cb28844	0.021793492
233	0xbc4b2717	-0.012399456
234	0xbc6d66dc	-0.014489856
235	0x3b3f0928	0.0029149745
236	0x3d009c77	0.031399217
237	0xbc93f784	-0.01806236
238	0x3b675be8	0.0035302583
239	0xbc3f31be	-0.011669574
240	0x3a69640d	0.00089031534
241	0x3bb042c8	0.0053790547
242	0xbb0181de	-0.0019761245
243	0xbdb8b638	-0.090191305
244	0x3c310edb	0.0108067645
245	0x3b2df0d3	0.0026541247
246	0xbae1c484	-0.0017224704
247	0xb998c2f9	-0.00029136965
248	0xbc3b5a92	-0.011435168
249	0xbcd83982	-0.02639461
250	0x3b66dbd6	0.0035226247
251	0x3cc747ae	0.024326172
252	0x3bdb68b5	0.0066958317
253	0x3bcdd64e	0.0062816506
254	0x39316b03	0.000169199
255	0x3a9e4092	0.0012073687

actor.6.bias f4 [12]
0	0xbc97e32a	-0.018540937
1	0x3c9ae83a	0.018909562
2	0xbe341ee8	-0.17589915
3	0x3e326e02	0.17424777
4	0xbd364ad9	-0.044504974
5	0xbd38cae5	-0.04511537
6	0x3ca1d4d1	0.0197548
7	0x3ca420b9	0.020035135
8	0x3e7cc1a4	0.24683243
9	0x3e7cce31	0.24688031
10	0x3e9f4230	0.31105185
11	0x3e9f0239	0.31056383
