tested_policies/hyqreal2/2025-09-03_15-21-35_8k_128_128_128_hyqreal_second_order_delay/exported/policy.onnx (onnx, 273175 bytes, 8 tensors)

actor.0.weight f4 [128, 260]
00000000: 52fb 22bc 33b7 d2bc aff0 413e 38a9 363b
00000010: 81b3 84be 5c9b ddbc 95cd 973e b711 203e
00000020: af4c b23c 927c 9c3e ca8d dcbd 5615 95be
00000030: 7746 793d b22e fc3c 10b7 aebe d03e b7be
00000040: 35d9 a2be 2881 d73d e791 db3c 7c1b e7be
00000050: 8527 0ebe f261 a23e 94c2 1cbf d90e 893d
00000060: 83a3 5b3d 59b6 b5bd 9c21 91bd 84f8 903d
00000070: 787a 39bb d3c6 3dbd b17f 403c e66f f63c
00000080: b73c dfbc 07f4 543a 24ad c33b cd95 0e3e
00000090: f8d5 ecbd bc8b 0b3c ca1b 803e 472b 463e
000000a0: c534 ce3c b4a3 30bb 53b4 73bd 0a6d 6a3c
000000b0: aad2 c93d 067e 833d 73a3 cc3d 16ce 243b
000000c0: f154 fabd 7e44 19be 2cbd c9bd 1cb4 6dbd
000000d0: 32ca 5bbe a76c 2e3e 7103 e33d 34c5 9a3e
000000e0: 348f afbd 413d 2f3e 341d 453e 5dc9 183e
000000f0: ef63 59bd 16cf 9f3e 9833 743c 3c3a fabd
00000100: 96b1 de3d 7171 e93d c35f aebe dbe7 d2be
00000110: 742b 53be 4981 0d3e f7ba 5fbc 772c ccbe
00000120: 66b5 72be efff 853e 3297 23bf 21b8 9e3d
00000130: b840 1d3d bc27 0a3d c81f 65bd 2740 da3c
00000140: 3ae0 e7bc 1743 483d 1d80 f83c e1b5 92bd
00000150: e80a 053c e789 9fbd 713b c63c e9d1 a03d
00000160: 2296 9abc d0c8 1c3e fe17 d63d 165c ae3d
00000170: f207 1d3e f9d3 cebd 7a28 043d e31f 353e
00000180: cea7 a43c 2afd eb3d d33a ae3d 752b edbc
00000190: b4e9 8cbe b8cb 8dbd 64ff 9fbd e51c 86be
000001a0: 0ace fabe e23c 903e 14fa a43e a72c 3a3e
000001b0: 8778 adbe 45e9 5d3e 2c4a 073e 6937 033d
000001c0: 40df 2c3c 309d 063f 5d64 8e3d 61d3 8ebd
000001d0: 1a14 4c3d 48d0 023e db6b a1be 22b3 aabe
000001e0: da9a 87be 466a 5a3e 3a0b debc 2b49 08bf
000001f0: 328c 6bbe 01fe a83d c6d9 2dbf 3fe2 413e
00000200: 6c38 2e3d d229 6abc 5a91 913c bf80 763c
00000210: 0322 623d fd50 67bc 6096 cdbb 369c 573d
00000220: 014a e33c 618f ce3c 94cf f93b 9372 b63d
00000230: 9ef6 0f3d 529a 98bc 0f61 ff3d 4f35 b33c
00000240: aab8 c53d 6b41 90bc 97fc 8c3c 7530 893e
00000250: 28bf d63d c46c 403e 9b43 1dbe 5e6d 7cbd
00000260: 6e10 9dbe 9e2b 6a3d e9ac 013d a02b 9abe
00000270: f822 90bf 7b8f c53c c1d4 0d3f 6668 adbe
00000280: f4d7 633e be47 ffbe 0917 843d 2f8c e93d
00000290: c5ce a33c 919b 513f a285 6c3e eef6 d8bc
000002a0: 3e86 7e3d a021 0a3e cc22 16be 10e9 c7be
000002b0: 33e0 bdbd 8c6a 463e 90a0 533d e54d 16bf
000002c0: 0eb1 abbe 0309 ec3d a197 61bf fce0 653e
000002d0: e984 e8bd 5feb f33c 981a a3bd ccf0 bf3d
000002e0: 7861 023d fad6 633d 6a53 ffbb e226 30bd
000002f0: ceee b73c 98c6 69bd c379 a23c 0289 4a3b
00000300: 765e 0ebd fb46 babb 7d5f bfbb e387 1d3d
00000310: c4f6 10be b807 b6bd 2c96 ad3d 4e28 e53e
00000320: 61b0 553e 061b 363e 5b2a f73c 18e4 1cbe
00000330: 3229 77be 28ac a33d e126 293e 5683 87be
00000340: 3c6e 0cc0 4adc 02bf b42a c73e 79cf 123f
00000350: 52f8 89bf ed89 b63c 015a ddbd 1699 973d
00000360: 2fd1 50bc 0e71 e83f 1e85 283f 4283 1b3e
00000370: 65f8 a93d e963 473e b275 6ebe f46e 42be
00000380: cf64 5d3c e23a 003f b4ee f83d fedf 4bbf
00000390: cf34 21bf 0cd8 dbbe 98be 76bf 7faa 213f
000003a0: 6b02 c63d 3078 15be c77d 13bd d9e1 6abd
000003b0: a0d1 97be 6689 c83d a147 33bd f807 af3d
000003c0: 3696 09be 837b 84be 1f01 90bc 5520 983d
000003d0: eab6 df3d 3026 81bd 1672 a83d 1487 6c3e
000003e0: 1763 b63c 91ff d1be 57f3 5d3d 5886 c83e
000003f0: c935 723d 3f0f 923e ecc6 943d 12f7 77be
-0.009947615 -0.025722122 0.1893947 0.0027871858 -0.259182 -0.02705162 0.29649034 0.15631758
0.021765081 0.3056379 -0.107692316 -0.2911784 0.060858216 0.030783985 -0.3412404 -0.3579011
-0.3180634 0.105226815 0.02680297 -0.45138156 -0.13882263 0.3171535 -0.612344 0.06692285
0.053622734 -0.08872671 -0.070864886 0.070786506 -0.0028301757 -0.04633219 0.011749194 0.030082654
-0.02725063 0.0008123521 0.0059715677 0.13924332 -0.11564249 0.008517202 0.250212 0.19352446
0.025171647 -0.0026953043 -0.059498142 0.0143082235 0.09854634 0.064205214 0.09992113 0.002514725
-0.122232325 -0.14967534 -0.09850535 -0.058033094 -0.2146385 0.17033635 0.11084641 0.3022858
-0.08572236 0.1711321 0.19249421 0.14920564 -0.05307382 0.31212682 0.014904879 -0.122181386
0.108737156 0.1139859 -0.34057435 -0.41192517 -0.20622045 0.1381885 -0.013655416 -0.39877674
-0.2370201 0.26171824 -0.6390258 0.077499636 0.0383918 0.0337293 -0.055938512 0.026641918
-0.028305162 0.048892107 0.030334527 -0.07163597 0.008120276 -0.07789975 0.024198266 0.07852537
-0.018870417 0.15310979 0.10453795 0.08513658 0.15335062 -0.10099024 0.032265164 0.17687945
0.020099547 0.115228966 0.085073136 -0.028951386 -0.2752205 -0.06923622 -0.07812384 -0.2619392
-0.4898532 0.2817145 0.32222044 0.18181096 -0.33881018 0.21671017 0.13211888 0.032035265
0.010551274 0.525836 0.069527365 -0.06973911 0.049823858 0.12774765 -0.315276 -0.33339792
-0.2648533 0.21329603 -0.027104963 -0.53236645 -0.23002699 0.082515724 -0.6791042 0.18933962
0.042534277 -0.014292197 0.017769504 0.015045344 0.055208217 -0.01411843 -0.0062740296 0.05263921
0.027745249 0.025214853 0.007623622 0.08908572 0.0351473 -0.018628273 0.12469684 0.021876005
0.096543625 -0.017609319 0.017210288 0.26794782 0.10485679 0.18791491 -0.1535782 -0.06162774
-0.30676597 0.057170503 0.03165904 -0.30111408 -1.1260672 0.024116268 0.5540276 -0.33868712
0.22250348 -0.49859422 0.06449706 0.11403691 0.019996056 0.81878 0.23097852 -0.026484933
0.062139742 0.1348939 -0.14661711 -0.39045 -0.09271278 0.19376582 0.051666796 -0.5871261
-0.3353352 0.11525156 -0.8812199 0.22449106 -0.113534756 0.02977532 -0.07964057 0.093721
0.031831235 0.05562494 -0.007791926 -0.04300583 0.022452738 -0.05707416 0.019833451 0.0030904417
-0.034758054 -0.005684731 -0.0058402405 0.03845967 -0.14156634 -0.08888191 0.08475909 0.44757313
0.20868064 0.17783746 0.030171564 -0.15321386 -0.24136809 0.079918206 0.16518737 -0.2646739
-2.1942282 -0.51117384 0.38899767 0.5734783 -1.0778906 0.022282565 -0.108081825 0.07402246
-0.012745186 1.8159502 0.6582812 0.1518679 0.082993306 0.19471706 -0.23287085 -0.18987638
0.013512804 0.5008985 0.12154904 -0.7963866 -0.62971205 -0.42938268 -0.96384573 0.6315078
0.0966843 -0.14596629 -0.036008622 -0.05734429 -0.2965212 0.09791832 -0.043769483 0.08546442
-0.13436207 -0.25875482 -0.01757866 0.07428042 0.1092356 -0.06306112 0.08224885 0.23098403
0.022264047 -0.41015294 0.054187145 0.39164996 0.059133325 0.28527257 0.07264504 -0.24215344

actor.0.bias f4 [128]
00000000: 7fe2 7abb 9985 1c3d c8ec c1be e58c 6fbe
00000010: e7eb 823d 3ed9 3e3d 127e b73d 8114 29bd
00000020: f676 21bf c8f8 873c dc69 44be b680 913e
00000030: 81cc 9a3d 72fe bcbd 965c 1cbe b1d6 8dbe
00000040: 488b 95bd 5bb8 d6be 77d3 37be 21b1 31be
00000050: 418d 6fbe 2e08 17bd 3ebe c5bd b302 c8bc
00000060: 47c6 b6bb 8123 8abd 5584 a1be 98e7 043d
00000070: 3737 4abd 51a0 593d fea5 823d a030 21be
00000080: 29e9 3f3d c5ee 5d3e 188e 273d 2826 e53c
00000090: da28 e1ba 0091 9fbe 3d6e d53c 53bd 313d
000000a0: ac18 03be 3de8 f73d 0c5c 2abe 73ba 2b3d
000000b0: 6d2f 0bbe e617 5c3d 350a dd3d 878a 3abd
000000c0: b77f 95bc a174 903d b5c9 99be f621 d53c
000000d0: 4b84 8e3c 4cb0 1fbe 39b9 cabe 362e 583e
000000e0: 4286 34be 3b81 823d 42d5 58be ebd7 573d
000000f0: 471d 67be f212 1cbd 65d3 2bbe 695f c3be
00000100: cee9 cb3b 3149 06be 1af2 b93d 2ae3 a4be
00000110: 8bea 74bd 9cd5 9dbe dfbf a0be 881e 8e3c
00000120: b55d 15be 74cb 2ebe 678e 753d a7e2 113d
00000130: 0935 9d3d 4cd1 7abd 19a2 5a3e a957 ab3e
00000140: 041c e0bd 0a42 2ebe 6cb8 0b3b 070c aabe
00000150: 5815 edbe 0bad 2b3e 2270 1b3d 6958 bc3b
00000160: d149 55be 454e 873d 59ed c6bd a314 073e
00000170: 2b9e 18be e9b5 193c 675b 9d3e a359 20be
00000180: b30a bcbd 912c 8dbd 03f1 1cbf eb4f 093d
00000190: a359 46be 955a 8a3c 7fa2 93bd f465 8ebe
000001a0: 7704 11be 8015 a1be 941b 92be 3e41 4abb
000001b0: 9320 ad3d 7349 72be 6fb7 e5bd 7df6 0f3e
000001c0: 02fc debd cf6b 90bd e6ac e3bc 9a63 76be
000001d0: 557a c53d b635 973e 57bc b8be 6fdd 993d
000001e0: 60b5 443c dd94 6d3c 1158 77be ee6f d63d
000001f0: ebae 2fbe 0d62 e93e ff71 c43d c278 c73d
-0.0038281975 0.038213346 -0.37875962 -0.23393591 0.06392651 0.046593897 0.08959593 -0.04127932
-0.63072145 0.01659812 -0.19181007 0.2841851 0.07558537 -0.09228219 -0.15269694 -0.2770286
-0.073019564 -0.41937527 -0.17951761 -0.17352726 -0.23393728 -0.036873035 -0.096554264 -0.02441535
-0.0055778357 -0.06745053 -0.31546274 0.032447428 -0.049369063 0.053131405 0.06379317 -0.15741205
0.04685322 0.21673115 0.040906996 0.027972296 -0.0017178312 -0.31165314 0.026053542 0.043393444
-0.1280238 0.12104843 -0.16636676 0.04192586 -0.1359231 0.05373373 0.107929625 -0.045542266
-0.018249376 0.07053495 -0.30036703 0.02601717 0.017397067 -0.15594596 -0.3959444 0.21111378
-0.1762934 0.06372305 -0.21175101 0.05269615 -0.22569762 -0.038104005 -0.1677986 -0.3815873
0.00622294 -0.13113858 0.0907938 -0.32204562 -0.05979399 -0.30827034 -0.31396386 0.017348543
-0.14586528 -0.17069799 0.05995026 0.035616543 0.07676131 -0.061234757 0.21350898 0.33465317
-0.109428436 -0.1701738 0.002131964 -0.332123 -0.46305346 0.1676523 0.037948735 0.005747844
-0.2082894 0.066067256 -0.09713239 0.13191466 -0.14904086 0.00938175 0.30733797 -0.15659194
-0.09181728 -0.06893266 -0.61305255 0.03352348 -0.19370131 0.016888896 -0.07208728 -0.2781216
-0.1416186 -0.31461716 -0.28536665 -0.0030861641 0.08453479 -0.23660831 -0.11216628 0.14058872
-0.108879104 -0.07051813 -0.027792405 -0.24061432 0.096424736 0.29533166 -0.36081192 0.07512938
0.012006134 0.014500824 -0.24154688 0.10470568 -0.1715657 0.4558262 0.095920555 0.097398296

actor.2.weight f4 [128, 128]
00000000: 9eb7 183e 571a 143e 8354 7c3d c91d 2d3d
00000010: 5709 8fbe 6679 323e b3d8 213d 24f5 0d3d
00000020: eac4 a9be df9f 05bf a911 1f3e faa6 f63d
00000030: 2552 283d 491c f33e 354f 77be f1ee 7abd
00000040: dc0d a6bd 5273 64bd e648 723d 1ead a6bd
00000050: c83b d43c 1e2d ccbd 68da 89be 0a49 833d
00000060: 967c 13be 6ffe febc ccbd a0bd 5093 0cbd
00000070: 9a95 cbbc 8613 50bd 5bec a8bc 58f9 d8bc
00000080: 437d 003e ac55 a5bc 1455 b4bd 1dde b4bc
00000090: ffb2 063e 9dfc 7f3c 02dd 3cbb f038 743d
000000a0: c52e 33bc df53 1d3e 1f6c b2bc a792 0cbd
000000b0: ebe9 62bf ee67 8b3e 7749 4bbe a2ea cebd
000000c0: 4e32 5e3e 17b2 493d af5d 153e c5ec 7f3c
000000d0: d295 2e3d d8c7 6fbe 465f 89be 8e0f ed3d
000000e0: 2a4f 693d 4ca2 f5bd 67b5 853d c588 8cbc
000000f0: d189 68be 7546 bc3b a955 4abd af56 d2bb
00000100: 847f d5be a882 5f3d a530 ebbd f857 053e
00000110: 5fb9 933d 6921 c63c 2453 dcbe 3558 5fbd
00000120: 5c97 f73d 6334 f93d cd77 d6bd 15ec 0bbe
00000130: 1041 3f3e c793 9e3d 6df3 273b fbd8 b1be
00000140: d638 d4be 8acc 27be c1fe 49be 0a27 6b3c
00000150: 568e 9d3c 0f4d 523c 052b 9bbd 17a2 90bd
00000160: f2dd e4bb b3ce cbbd 837f dfbc 925c 8dbd
00000170: f70a 93be ce90 79bc 8f14 2c3d e0ea 0bbd
00000180: 1658 39bc c38f 8c3c b98f d93d e1c0 9cbd
00000190: 4ee7 1ebd c8e8 553d 4401 46be 6cbb fb3b
000001a0: 3b25 63bd c4a0 1f3d 165a 94bc d267 48be
000001b0: 620e b73d a288 773d deaf 12bf f665 333d
000001c0: dbbd 21bc 90c3 8f3d c177 213e 7655 14be
000001d0: c53e 8f3c af0a 473e 5b9c e3bb adb4 a73c
000001e0: 0062 ae3c f775 533e a0d1 04bd fb6a d83d
000001f0: 71be 0dbe 08a0 ff39 7210 00be 624f af3d
00000200: d673 dfbd 2794 68be 8d75 4f3c 9e4a cabc
00000210: c591 683e 773d d6bd 8f9f fc3d 56c4 503d
00000220: 2ded 8abd ddc6 433e 9206 1f3e 54e2 6f3c
00000230: a8dc 423d 4729 21be 1c17 093e 88e7 05be
00000240: e492 12be b05c 7f3b fd04 a23b 0faa ebbc
00000250: 90c6 b43d 3886 a2bd c985 803e e273 353d
00000260: 9647 8c3d ff95 063e 9993 89bb 03b1 383b
00000270: 6c81 ff3d 5e1e f63d 03ca e43c 37dd afbd
00000280: 8605 26be aafd 63bd e4b0 30be 5db2 71bb
00000290: 6459 e0bd 5345 cc3d 8c9c 56bd 2dfc 713b
000002a0: c48e 9bbc 7606 393e 67b2 883d be9b 21bf
000002b0: c1e9 0cbe ff17 b3bd 1d81 863e fcd4 953c
000002c0: b9b0 69ba 4079 8fbe 1515 fd3d b1af c9bd
000002d0: c2eb c43c 0ef9 013e 9b50 783e 4358 d5bc
000002e0: 1669 d6bd bf12 6e3b d35e 093d 77f3 b6bd
000002f0: ec16 aa3d 45f2 803d ac30 753d 96b8 4d3d
00000300: ad66 0b3e 520b 073d 6139 4c3e e593 dfbd
00000310: 2720 74bd 0eb6 9c3e 2a06 1b3d 32e0 c43e
00000320: e217 dcbc 5889 a3be f092 483d 8079 203d
00000330: d0a5 5b3d 5f7c 89bb 137c 1bbd 24c6 903e
00000340: 77ab 413d 8d19 163d 9c91 c5bd 2f33 163e
00000350: e53a 113e 556d 1ebe 1999 043e 6896 873d
00000360: 58b9 0f3e f539 74be ab0f bd3c 1d2c b8bd
00000370: 0d03 c53d 9e3b b7bd 9a20 e0bd aaca 853d
00000380: 583c 13be d1f9 7f3e a040 a43d f577 453d
00000390: dae0 e9bc 726c 24bc ca08 103e 49b8 c73c
000003a0: 800b fe3d 9a03 95bd fd30 d33d cc29 83be
000003b0: 44d9 893d c3e1 b23c 23b4 b63e e6fe 75be
000003c0: 9833 ccbd 7782 8bbe 8130 f1bc 9709 16bd
000003d0: 507e debc 2800 993d 7d66 623e 7d27 47be
000003e0: 373a c93b 0edb 38bd 3ab0 663d 4c2d a1bd
000003f0: 1132 89bc 5e17 00be 46b1 12be 9059 67bb
0.14913794 0.14463173 0.061604034 0.042264733 -0.27936813 0.17429122 0.0395133 0.034657612
-0.33158046 -0.5219707 0.1553408 0.12043567 0.041093964 0.47482517 -0.24151309 -0.06126303
-0.08108112 -0.05577404 0.059151553 -0.08138488 0.025907412 -0.09969543 -0.26924443 0.064104155
-0.14402995 -0.031127183 -0.07848701 -0.034320176 -0.024851609 -0.05079987 -0.020620516 -0.026486084
0.12547784 -0.020182453 -0.0880529 -0.022078568 0.13154219 0.015624193 -0.0028818254 0.059624612
-0.010936444 0.15364026 -0.021780072 -0.034319546 -0.8863818 0.2722773 -0.19852243 -0.101033464
0.21698877 0.049242105 0.14586519 0.015620415 0.04262335 -0.23416078 -0.268305 0.115752324
0.056960262 -0.11993846 0.065287404 -0.01715506 -0.22708823 0.005745704 -0.0493981 -0.006419025
-0.4169885 0.054567963 -0.114838876 0.13021839 0.07213091 0.024185853 -0.4303218 -0.05452748
0.120894164 0.12168195 -0.10472069 -0.13664277 0.18677163 0.0774303 0.002562727 -0.34735855
-0.41449612 -0.16386619 -0.19726087 0.014352569 0.01923291 0.012835755 -0.07576565 -0.07062166
-0.0069844658 -0.09951534 -0.027282482 -0.06902422 -0.28719303 -0.015232278 0.042011794 -0.03415954
-0.011312505 0.017158395 0.10623116 -0.07653976 -0.038794808 0.05222395 -0.1933642 0.0076822545
-0.055455428 0.038971677 -0.018109363 -0.19570854 0.0893829 0.060433038 -0.572996 0.04379841
-0.009871925 0.070197225 0.15768339 -0.14485726 0.017485986 0.19437669 -0.0069461293 0.020471895
0.021286964 0.20650469 -0.032426476 0.1056728 -0.13842179 0.00048756623 -0.12506273 0.08560063
-0.10910766 -0.22712766 0.012662304 -0.024693783 0.22711857 -0.10460942 0.12335121 0.05096849
-0.06783519 0.19118829 0.1552985 0.014641363 0.047573715 -0.15738402 0.13387722 -0.13076603
-0.14313847 0.0038965158 0.0049444423 -0.028767614 0.08826935 -0.079357564 0.2510207 0.044299968
0.068495914 0.13143156 -0.004198503 0.002818168 0.12475857 0.12017511 0.027928358 -0.08587115
-0.16213045 -0.055661835 -0.17254978 -0.0036879994 -0.1095455 0.0997416 -0.05239539 0.003692399
-0.018988974 0.18068871 0.066746525 -0.6312827 -0.13761045 -0.08744811 0.2627038 0.018290035
-0.00089145784 -0.28022194 0.12357537 -0.098479636 0.0240382 0.12692663 0.24249499 -0.026043063
-0.10469262 0.0036327092 0.033537697 -0.08933156 0.08305153 0.06296209 0.05986087 0.050224863
0.13613386 0.03296978 0.19943763 -0.109168805 -0.059600975 0.30607647 0.037847675 0.38452297
-0.026866857 -0.31940722 0.048968256 0.03917837 0.053624928 -0.0041957344 -0.037960123 0.2827617
0.047282662 0.03664546 -0.096469134 0.14667962 0.14182623 -0.15471394 0.12949027 0.066204846
0.14035547 -0.23850234 0.02307876 -0.08992789 0.096197225 -0.08946918 -0.10943718 0.06532796
-0.14378488 0.24997641 0.08020139 0.048210103 -0.0285496 -0.010035621 0.14065853 0.024379866
0.12404537 -0.072760776 0.10312078 -0.25617826 0.06730893 0.021836167 0.35684308 -0.24023017
-0.09970778 -0.27247974 -0.029442074 -0.03663024 -0.02715984 0.07470733 0.22109409 -0.19448657
0.006140973 -0.04513078 0.056320406 -0.07869968 -0.016747506 -0.12508914 -0.14325437 -0.0035301186

actor.2.bias f4 [128]
00000000: f644 c4bd 0ddd e9bd f5e4 8dbd 5274 f5bc
00000010: 9971 bb3b cc56 d5bd be9d b73e e7fd fdbe
00000020: a9d5 07be 6d9a a6be c1da afbe d843 90bd
00000030: eb61 38be 81cf b7bb c1e7 f1bd ce6c dbbe
00000040: dc7d 92bd 004f a5bd 3d50 503d fee9 463e
00000050: ed7b f8bb 3a5a 66be a327 49be 1016 b0be
00000060: f889 08bd 3698 cbbc 6578 04be ec16 cdbe
00000070: 8e96 44be c8c7 663d fafb 16be 1d58 dabd
00000080: 75ae 5fbe ce61 643d bf8d debd 9e47 a3be
00000090: 726f 81bc c822 3dbe 2930 02be c690 c6bc
000000a0: 5b53 acbd 00ab a83d 569a 4dbd 5e88 5fbe
000000b0: 026c 1f3e f11b 9c3c 5b28 eebc 813c 1dbd
000000c0: 4b64 81be 2f71 96bd a6f3 8abe 052d 0ebe
000000d0: 3f33 61be f51b ffbe 80b3 8c3d 9358 b8bd
000000e0: 6ac1 87bd fad7 b9bc cd41 26be 0675 8cbe
000000f0: 37ad c63d 067d ebbd a6d2 f0bd e22b b0be
00000100: 8f85 82be 295e 673d 3db4 a5bd a1d8 80bd
00000110: a9a2 90be c9f2 1ebe a956 d63d bc6d 663d
00000120: 8494 85be eeea a83c d225 1ebd 0b26 0bbe
00000130: e234 00bf 9e57 95bd 9d53 5cbe af8c 3dbe
00000140: a469 483d 2950 cb3d 3ea6 63be 2f80 f0be
00000150: acef b73d b2f2 37bf 78aa a13d e7aa ddbe
00000160: c6c7 33be be11 82be 1386 1cbe 4e8e ffbc
00000170: 7f61 bb3c ee5a 04bf 3e79 c43d b4c4 43be
00000180: eb7e a53c c0c1 fbbe e614 c43c 13d2 1abc
00000190: 758d 04bf 4da5 4b3e de24 2ebf 87c5 cebe
000001a0: 1a28 7abe 6423 e63d 74b5 feba 8ca4 c9be
000001b0: ba94 8dbc b9d1 31be 27d4 d13d cad0 d0bd
000001c0: e53d 3bbe a735 86be 0cc1 c0be b2cf a6be
000001d0: 37c2 28bc cf3e 3cbe 46f9 0ebe aaf2 32be
000001e0: 2cd0 f1be 5c35 a2be 7af5 e2bd 70bc dbbc
000001f0: 66a0 213e 6742 38be f2cb 17be 3a50 44be
-0.09583466 -0.11419115 -0.06928436 -0.029962692 0.005720329 -0.10416946 0.35862535 -0.49607775
-0.13265099 -0.32539693 -0.34346583 -0.0704419 -0.18006103 -0.005609453 -0.11811782 -0.4285645
-0.07152912 -0.08071709 0.05085777 0.19425198 -0.0075831325 -0.22495356 -0.19644026 -0.34391832
-0.033334702 -0.024852853 -0.12936552 -0.4005655 -0.19198057 0.05634287 -0.14744559 -0.106613375
-0.21843894 0.055757336 -0.1086688 -0.31890577 -0.015800212 -0.18470299 -0.12713684 -0.024238955
-0.08414336 0.08235741 -0.050196014 -0.21829364 0.15568545 0.019056292 -0.029071977 -0.03838778
-0.2527183 -0.07345807 -0.27139014 -0.13884361 -0.21992205 -0.49826017 0.068701744 -0.09001269
-0.06628688 -0.022685993 -0.16236039 -0.27433032 0.09701007 -0.11498456 -0.11758928 -0.3440848
-0.25492522 0.056486282 -0.08091018 -0.06291319 -0.282491 -0.15522303 0.10465748 0.056256995
-0.2608987 0.020619836 -0.038610287 -0.13588731 -0.5008069 -0.07292102 -0.21516271 -0.18510698
0.04892887 0.09927399 -0.22231385 -0.46972796 0.08981261 -0.718547 0.078938425 -0.4329445
-0.17556676 -0.2540416 -0.1528552 -0.031195786 0.022873638 -0.5170125 0.095934376 -0.19118005
0.02020212 -0.49171257 0.023935746 -0.0094495 -0.51778346 0.19887276 -0.68025005 -0.40385076
-0.2442936 0.11237219 -0.0019432739 -0.39383352 -0.017282832 -0.17365159 0.10245543 -0.10196073
-0.1828533 -0.26212808 -0.37647283 -0.32580334 -0.010300211 -0.18383335 -0.13962278 -0.17475381
-0.47229135 -0.31681335 -0.11081977 -0.026823252 0.15783843 -0.1799408 -0.14823893 -0.19171229

actor.4.weight f4 [128, 128]
00000000: 11b3 453d 70b6 e3bb 500e 2abd 3701 7cbd
00000010: 4c57 bdbd 8fa1 8cbe a304 54be cd69 5e3e
00000020: 20cc 373e 3ccd 1fbd 0dff 4e3d de5b 333d
00000030: 81b5 2dbe 36d2 9e3b cfe7 003e d729 233e
00000040: cdf9 723d 1224 a23d 4dad 1dbe 2749 bebd
00000050: 70f4 083e fda4 083e a7d4 e93c f166 06be
00000060: 2041 cdbd abe2 0bbe 83ae b73c 14b6 8e3a
00000070: eb17 c4bd 2c9c 96be 82ea 9f3d c75e 09be
00000080: 1508 66bd 1400 37be 7635 023e 15e9 96bd
00000090: 628b 813e f9c3 70bd 844f 6ebc 84f1 6a3b
000000a0: 1149 fe3d a46a e9bd d2e8 13be 2d93 5bbe
000000b0: 765b f5bc 6a42 583d a576 3b3c ef9e 31be
000000c0: 1cac 0dbe 808a eabd 6ac0 e63c f978 593d
000000d0: d514 c4bd 830f ee3c 3224 c8bd a0c7 1bbc
000000e0: b7df 1b3e 7a91 65bd 1eaa 173e ab80 40bd
000000f0: 87c2 a33d a071 ff3b a175 893d 1d07 823e
00000100: 947c b23c 6608 433e 0999 b6bc 960e cbbd
00000110: 9c81 1a3d 4e81 0fbe 2d85 10be c184 d0bd
00000120: 06e4 4dbe 8fef 8fbb 97c0 9f3d 02b1 7fbd
00000130: 3a88 05bd 45b5 6c3d 7e8a 293e 3b56 b8be
00000140: e5f8 c9bd 9187 723d 50d7 c6bd 7079 bf3d
00000150: 9e1f 543d 0f8c cd3e 8d5f a43d d4a5 17bd
00000160: b75d adbc afa6 0fbe 0bbd e83c 822a 1a3e
00000170: 54b2 bb3a a23e 8f3b 320a 6d3e f6ce cabe
00000180: 1fad 883d f4cf 933d 1af4 0abd 3a01 b6be
00000190: 4859 06be 4ed5 043e 9cc8 33bd a049 28be
000001a0: 0936 afbd af3d 2abe 54ae 063e e8f5 4cbe
000001b0: c001 833d f0b6 543e bc54 9e3c 8c28 b3bd
000001c0: f406 583e 980d e53d a393 883e d352 3e3e
000001d0: a58c 54bd 34d5 e03d 5357 a3bd 2933 273e
000001e0: 61b2 c33d 1a03 ddbc 75aa 1c3d b870 f9bc
000001f0: e661 c7bc 9df5 e33c 7baa 203e 87a9 4f3e
00000200: 8c46 37bd bd25 42bd 0a62 b9bd afe0 bbbe
00000210: bd56 48bd 8e04 4cbd 7461 a739 4b50 d6bc
00000220: 1c55 da3d 853b 08be 928e f5bd 60c4 d03d
00000230: dfe9 273d a1c2 b3bb d3f7 d6bd 6ae2 d23d
00000240: 014c 94bd 69e5 913d 183a a73d 50b8 943d
00000250: fe4f 90bd 9dcd 82be 7b9f 343e 087c 453c
00000260: 5161 f6be 835e d23c 98e0 c63c 6545 d23d
00000270: c064 e83d ace7 89bd eb06 3c3e a88c 19be
00000280: 64e0 243e 5b74 0abe 4c67 25be dffd f83d
00000290: 2686 a5bd fa66 29bd cef9 03be e661 513e
000002a0: e543 6a3d ce2d 6a3c c5be 34bd 11ab 26be
000002b0: 9ed3 0a3d 48d3 7b3e a981 85be dc3d 113e
000002c0: 17c6 c63d cf88 60be a00d 43be 1670 52be
000002d0: 1560 2ebe 32e2 9abe 6661 51bc d873 203e
000002e0: 8cb1 0bbe 3668 6b3d 7443 28be d3d3 c43c
000002f0: da58 033d 38ce db3c 0dd6 d7bc a3ca d93c
00000300: 5e08 413d 3ea4 883d ca03 063e d511 62be
00000310: a1d7 b63d 0e72 27bd de05 143d c915 483d
00000320: e6ec 393d 8362 51be 8ad4 203d 55b4 1dbe
00000330: 3a21 68bd ac03 73bd c0a4 6e3e 0a95 a73d
00000340: 662e 1c3d 35a2 1abe 7ed4 80bd d554 fb3d
00000350: de2a 8dbe 6140 5d3e e3f5 daba fcb1 603d
00000360: f3ed 3cbe 2e58 1abe a5e2 853d c3ff a13e
00000370: cae4 6b3d 4250 c5bc 7e07 073e 161e 7cbe
00000380: 46e0 18be 71f8 ff3d 64fc 953c a0cd 5f3d
00000390: 563f a6bd 026c 54be 772e 833e ed0d e3bd
000003a0: 28b3 9a3d 433e 4cbd 8f65 70bc 7cb2 dc3c
000003b0: e005 a63d 678f 653e 9834 30bd 3a18 ac3d
000003c0: e7b0 183e 1ff0 ba3d 2001 eebc f9c1 443e
000003d0: 0cdb b73c 18c8 b4bd a30c fb3d f071 c93c
000003e0: bc9b 283e d0ee 843d b55e 43bd 82f0 8d3e
000003f0: d2c1 b23d 494a 823d a21a 1cbe 4bbd 54be
0.048266474 -0.0069492385 -0.041517556 -0.061524596 -0.09245166 -0.2746701 -0.20704894 0.21720047
0.17948961 -0.039014086 0.050536204 0.043788783 -0.1696377 0.0048468364 0.12588428 0.1593393
0.05932026 0.07917036 -0.1539814 -0.092912965 0.13374496 0.13344188 0.028543783 -0.13125207
-0.10022187 -0.13660686 0.02242208 0.0010888004 -0.095748745 -0.29416025 0.07808401 -0.13415061
-0.05616005 -0.17871124 0.12715706 -0.073686756 0.25301653 -0.058780644 -0.014545325 0.003584952
0.1241628 -0.11397293 -0.14444283 -0.21442862 -0.029950839 0.052797712 0.011441861 -0.17345785
-0.13835186 -0.11452198 0.028167922 0.053093884 -0.09574286 0.029060131 -0.09772529 -0.0095080435
0.15222059 -0.05604694 0.14810988 -0.046997707 0.079960875 0.0077955276 0.06711889 0.25396052
0.02178792 0.19046172 -0.02228977 -0.099148914 0.03772126 -0.1401417 -0.14113303 -0.10181571
-0.20106515 -0.0043925713 0.078004055 -0.062424667 -0.03260062 0.05779006 0.16556737 -0.3600329
-0.09861926 0.059211317 -0.09709036 0.09349334 0.051787965 0.4014592 0.08026037 -0.03702338
-0.02116285 -0.14028428 0.028410455 0.15055278 0.0014320114 0.00437148 0.2314842 -0.39611024
0.06673645 0.07217398 -0.0339242 -0.3554781 -0.13119996 0.12971994 -0.043892488 -0.16434336
-0.08555228 -0.16625093 0.13152438 -0.20015681 0.06396818 0.2077291 0.019327514 -0.08747968
0.21096402 0.111842334 0.26675138 0.18586282 -0.05189194 0.10978165 -0.0797564 0.1632811
0.095555075 -0.026979018 0.038248498 -0.030449256 -0.024338674 0.027827078 0.15690033 0.20279513
-0.044745013 -0.04739927 -0.090519026 -0.36694857 -0.048910845 -0.04980903 0.0003192533 -0.026161334
0.106607646 -0.13303955 -0.11990084 0.101937056 0.04099452 -0.005485848 -0.104964875 0.10297091
-0.07241059 0.07123835 0.081653774 0.07261717 -0.07046507 -0.25547495 0.17638962 0.012053497
-0.48121122 0.025679832 0.024277017 0.10267142 0.113473415 -0.06733641 0.18362014 -0.14995062
0.16101223 -0.13520949 -0.16152686 0.12157797 -0.080822274 -0.04135797 -0.12888262 0.20447502
0.057193656 0.014293147 -0.044127245 -0.16276194 0.03389322 0.24592316 -0.26075485 0.14183754
0.097057514 -0.21927188 -0.19048166 -0.2055057 -0.1702884 -0.30250698 -0.012779569 0.15669191
-0.13641948 0.05747243 -0.16431981 0.024026787 0.032067157 0.026831731 -0.026347185 0.026585883
0.04712712 0.06671952 0.13087383 -0.22077115 0.08927847 -0.040880255 0.036138408 0.0488489
0.04539194 -0.20447735 0.039265193 -0.15400822 -0.056672312 -0.059329674 0.23305035 0.08182724
0.038130186 -0.1510094 -0.0629053 0.1227204 -0.27571768 0.2160659 -0.001670536 0.05485724
-0.18450145 -0.150727 0.0653737 0.31640443 0.057591237 -0.024086121 0.13186452 -0.24620852
-0.14929304 0.12498558 0.018308826 0.05463946 -0.08117549 -0.20744327 0.25621387 -0.110866405
0.075537026 -0.049864065 -0.014672651 0.026940577 0.08106589 0.22417985 -0.043018907 0.08403058
0.14911233 0.09127831 -0.02905327 0.1921462 0.022443317 -0.08827227 0.1225827 0.024590462
0.16465658 0.06490862 -0.04769774 0.27722555 0.087283745 0.06361825 -0.15244535 -0.20775335

actor.4.bias f4 [128]
00000000: dc8a 36be 8791 8fbe 4dbf a3be 83f1 06be
00000010: 0e5e c5be 1d25 39be 0f71 9cbe 4df6 cbbd
00000020: c0fe c1be d33a ebbd cb2c 76be 3f39 30be
00000030: 36bd 12bf 3a79 92be c59c 24be 99fe d3bd
00000040: f00d 85be bd2e 0b3d 4dd7 a0be a183 3ebe
00000050: cdda debd cbe9 d6bd 4fb1 1ebe df6a a4bc
00000060: c771 1fbf e93e c1bd e60a 7bbe 1e4d 18bd
00000070: ae22 08be e125 1bbe 1613 c6be 7b2d 42be
00000080: 1b27 79be eefa 59be 9cbc 9bbe 48ac d6bc
00000090: f500 1cbd 3068 bebd 721c 5fbe bb8c ffbd
000000a0: 4082 9dbe c9fb 22be 8219 1bbe ed5e dcbd
000000b0: 43ac 9cbe 2d35 5bbe 24ea 19be 3ab2 e0bc
000000c0: 9bf2 2cbd 61bf 0fbf 9bb9 1cbe 94b0 e9be
000000d0: a742 57be ed6f 30be ae9f 3fbe f642 0bbf
000000e0: a992 0bbf 0e96 29be 7056 b3bd 316f a8bb
000000f0: fc30 c3be e1ea 073d 3699 80be 5013 97bd
00000100: acec a3bd 2f83 dabd 1cc1 3fbd 5ef2 18be
00000110: 7c5a 81be 6d60 0dbf af24 88be 286c 01be
00000120: b008 443d 22f3 72bd 7b43 90be a289 7abe
00000130: 0854 01be 8e15 89be 3bcb 00bd 173b f0be
00000140: fa69 99be b739 88be 6fd4 edbd ae89 89be
00000150: eb71 3abe abf5 1ebe 3856 20be bf24 6ebe
00000160: 0ea1 3abe 2271 b8be e298 65be 6ad2 e5bd
00000170: 0e60 a4be e335 37be 2405 60be f85b 58be
00000180: 2837 35bd 1300 90bc 2dfb 243c d3be 40be
00000190: a11c 63be bb83 5fbe cfa6 32be 81f7 96be
000001a0: dac5 97be 232f 98bd 7259 eebd 1c50 5bbe
000001b0: c3fc 0abe ddd4 57bd a278 f33c 2267 49be
000001c0: 650c f4bd fc0a 28be 3f41 8fbe 10bf 99be
000001d0: 0423 9c3d f465 1cbe a486 abbd 10fe 8cbd
000001e0: 34ab 78be 2cf9 333d e3e3 c0be 3f92 1ebe
000001f0: 8a8c a4bd 03f9 05bf 62d9 7abd 8b5a 02bd
-0.17826408 -0.28040716 -0.31981888 -0.13178067 -0.3854832 -0.18080564 -0.30555007 -0.099590875
-0.3788967 -0.11485829 -0.24040525 -0.17209338 -0.5731996 -0.28608114 -0.16075428 -0.10351295
-0.25987196 0.03398012 -0.3141426 -0.186049 -0.10881577 -0.10493811 -0.15497325 -0.020070491
-0.62282985 -0.09435827 -0.24515876 -0.03718292 -0.13294479 -0.15151168 -0.38686436 -0.18962662
-0.24331324 -0.21287128 -0.30417335 -0.026205197 -0.03808685 -0.09297216 -0.21788195 -0.12478014
-0.30763435 -0.15916361 -0.15146449 -0.10760293 -0.30600175 -0.21407004 -0.15030724 -0.027428735
-0.042223554 -0.56151396 -0.15305178 -0.4564253 -0.2102152 -0.17230196 -0.18713257 -0.5439905
-0.5452066 -0.16561148 -0.08756721 -0.005140208 -0.3812331 0.033182982 -0.2511689 -0.073767304
-0.08004126 -0.106695525 -0.046815023 -0.14936206 -0.25264347 -0.5522526 -0.26590487 -0.12638915
0.047859848 -0.0593139 -0.28176484 -0.24466565 -0.12629712 -0.26774257 -0.031443816 -0.46920082
-0.29963666 -0.26606533 -0.11612784 -0.26862854 -0.18207519 -0.15523402 -0.1565789 -0.23256205
-0.182255 -0.36023813 -0.22421601 -0.11221774 -0.32104534 -0.1789165 -0.21876961 -0.21128833
-0.044242054 -0.01757816 0.010069651 -0.18822794 -0.2217889 -0.21827595 -0.17446445 -0.29485705
-0.29643136 -0.074308656 -0.11638154 -0.21417278 -0.13572983 -0.052693237 0.029720608 -0.19668248
-0.119164266 -0.1641044 -0.27979466 -0.30028582 0.07623866 -0.15273267 -0.0837529 -0.06884396
-0.24284059 0.0439388 -0.37673864 -0.15485476 -0.08034618 -0.52333087 -0.06124247 -0.03182463

actor.6.weight f4 [12, 128]
00000000: 871d 10bc 13bf 4abb fa83 893c 34de 7bbb
00000010: a87d 8e3b 124c 723d 2bb1 013d e4d0 d8bb
00000020: 5891 46bc c1c3 53bd da67 99bb 9e6e 1b3c
00000030: b3c0 50bc ada1 503c 4107 bc39 77e3 b23c
00000040: 1b02 ec3c 67a4 743b 760b 4a3d 7233 e7ba
00000050: 8741 8ebd 795b 03bc fdaf 83bd c2f4 183c
00000060: 4b06 103c 29ee d8bc 4b77 8c3c 4494 8c3c
00000070: 2594 2f3b 0675 10bd 90ea 09bc 64ad 72bc
00000080: 5a4c e53c 2a21 c9bc 1f58 863c 9073 dfbc
00000090: 9ed5 fe3c 3737 883c 8fe5 5dbc df04 433c
000000a0: 8834 17bd fac7 b63c 9940 0f3b b123 beba
000000b0: e964 14bc f1c6 893c 8b7c 953d f2cf 6abc
000000c0: 5ad9 afbc d61b 8abb ef19 63bc 0316 d7bc
000000d0: 8c33 dabd 38ba 153a 2b66 85bb e126 ef3b
000000e0: f3bf bbbc 7596 fa3a c128 c33b 4ff0 333d
000000f0: 2743 433b 4fae 76bc 657f 8e3c 1672 18bb
00000100: 4963 a43c ac1b 46bb 0ca4 8d3c 2901 11bc
00000110: 372e 3fbb bbd8 b03c f081 dd3c d866 20bb
00000120: a7af 11bc 6cc3 823c 060a ec3b 0e8b 35bc
00000130: a3fc f0bb 1361 b7bc 4d0e c3bc 6541 f6bb
00000140: 5479 17bc 6974 6f3c 4536 cd3b bbe2 8abc
00000150: 433b 433c 20ef b0bc 506d e23d fd63 88bc
00000160: fb30 3fbb 2d98 2abc 6a17 46bc e95f a73c
00000170: 80df 4b3c 44fc 05bc f07f 723c cd24 293e
00000180: 9c4b a6ba a931 1c3b 6336 32be 7093 99bb
00000190: 531d ba3b 375f 473d b096 a43b 608c 5dbc
000001a0: 056e 76bc 835d 15bc c6b5 07bc 09f4 623b
000001b0: 3a6e 013d 5313 62bb f661 983b ab1c 283d
000001c0: 2b3d 9abd 95d9 d4bc 6fbb 64bc 5d4d 403c
000001d0: 7a44 f8ba 15af a4bd 8e3c 0f3c 8227 e939
000001e0: 6a93 d53c 1f51 153b 0f7d 043c 9978 973c
000001f0: 53d7 1abc 1d93 0f3c 2d88 9bbb 8ff2 09bc
00000200: 56c8 813b f793 7c3c 7489 8cbc 14d9 3dbc
00000210: 4751 423c d810 d63c 7586 f9bb fe25 e3bb
00000220: 2258 a7bb 3359 543d 7dff 8dbc 44e6 0a3c
00000230: 5bae b4bc 7813 b73c b37f b13c 2f8c b3bc
00000240: 14e7 dfbc 2a25 14bb 7ee6 5d3c cd31 0b3c
00000250: fc7b 0bbb 52b5 093c ced2 95bd fe39 0a3c
00000260: beed 18bc 3004 213b 466a 603c 38c0 91bc
00000270: c78b 4fbb ea65 ffbc 4006 283c a6b5 27bd
00000280: 3d7b 8c3c 366e b5bb 275c 293c 5239 d93c
00000290: 8593 683c 4012 aabc fbfa 543c a399 843b
000002a0: 3d74 47bc 2cb6 9fbc c64a 8d3d b3a4 abbb
000002b0: 71c2 87bc e4f6 88bc c895 823d ef29 01bd
000002c0: a5d2 8dbc e8cc dbbb 5ac7 47bc 768a 033c
000002d0: be21 62bb 198b 1bbb aa96 0d3c 0dd3 a43b
000002e0: ce59 13bc 26cf 9dba 5be5 2b39 14de 2e3e
000002f0: a7f1 06bc 4d41 1abb 4b51 883b acf3 d73c
00000300: eda7 a1bc 1b67 5a39 d4f1 b33c 7c4a 14bc
00000310: 47b0 833c 4502 563c c4bf efbc 1525 d2bb
00000320: 0f3b 1cbb 4d98 7c3b 80e3 fcbc d391 72bc
00000330: d902 103c af77 53bc a392 c33a 3b23 db3c
00000340: a6f4 3ebc fb22 343c b58a 433b f1e9 463b
00000350: e1d4 5b3c d7c7 1339 da98 2cbe cbf4 e7bc
00000360: a2da 453b 312c 013c 30db 74bc 6085 8abc
00000370: b8ec 173d 65df b23a aaa5 4b3c e263 dcbd
00000380: 30d4 c23c c369 93bb 185c 36bd 63ca 973b
00000390: 22e7 c43c 1356 d3bc acf6 a0bb c6d5 49bd
000003a0: 74cc 413b 2bdd 143c 85bf 0e3c 5bdc d93d
000003b0: 3d79 0f3d 4f20 83bc 25c6 903c 6217 713c
000003c0: 1391 a93d d494 73bd a8ba 8bbc 2a98 153c
000003d0: 25a2 be3a fd1b 973d c31a c53b 1e9b 09bc
000003e0: 2b66 44bd 1baa 0d3c 7973 2abb 0ed6 b3bc
000003f0: 7bdf 173c 535b b73c 8624 a43b 1839 19bc
-0.008796102 -0.0030936643 0.016786564 -0.0038432004 0.0043484755 0.059154578 0.0316631 -0.0066166986
-0.012119614 -0.051700357 -0.0046815695 0.009486822 -0.012741256 0.012733859 0.0003586356 0.02183698
0.028809598 0.0037329437 0.049327336 -0.0017639233 -0.06946092 -0.008017414 -0.064300515 0.009335699
0.008790563 -0.026480751 0.017146727 0.017160542 0.0026791182 -0.035267852 -0.00841774 -0.014811847
0.027990509 -0.024551947 0.016399441 -0.027276784 0.03110772 0.016627891 -0.013543501 0.011903017
-0.036915332 0.022312153 0.0021858572 -0.0014506486 -0.009057262 0.016818495 0.07299145 -0.014331805
-0.021465946 -0.004214744 -0.0138611635 -0.026255613 -0.10654363 0.00057116477 -0.0040710173 0.007298336
-0.022918677 0.0019118326 0.005955786 0.043930348 0.0029794665 -0.015056207 0.01739473 -0.002326136
0.020066874 -0.0030228896 0.017290138 -0.008850374 -0.0029171833 0.02158772 0.027039498 -0.0024475362
-0.008891976 0.015962325 0.0072033433 -0.0110805165 -0.0073543354 -0.022385156 -0.02381053 -0.00751512
-0.0092452355 0.014615157 0.006262573 -0.016953817 0.011915985 -0.021598399 0.11056006 -0.01664924
-0.0029173482 -0.010412258 -0.012090543 0.020431476 0.012443423 -0.008177821 0.0148010105 0.16517945
-0.0012687328 0.002383331 -0.1740356 -0.0046867654 0.0056797653 0.04867479 0.005022846 -0.013522238
-0.015040879 -0.009116533 -0.008283084 0.003463032 0.03159926 -0.0034496381 0.0046503497 0.041042965
-0.07531198 -0.025982657 -0.013960703 0.011737195 -0.0018941306 -0.08041207 0.008742465 0.0004447066
0.026071269 0.0022783948 0.008086457 0.018490123 -0.009450751 0.008763102 -0.004746458 -0.008419647
0.0039606495 0.015416137 -0.017155387 -0.0115874 0.011860198 0.026131079 -0.0076149055 -0.0069320193
-0.005106942 0.05184288 -0.01733374 0.008477751 -0.022055795 0.02234815 0.021667337 -0.02191743
-0.027331866 -0.002260516 0.013543723 0.00849576 -0.0021283617 0.008405047 -0.073155984 0.008436678
-0.009334026 0.0024569146 0.013697213 -0.017791852 -0.0031669007 -0.031176526 0.010255396 -0.040944718
0.017148608 -0.00553682 0.010336912 0.02651659 0.014195328 -0.020760655 0.0129992915 0.0040466352
-0.012173709 -0.019496046 0.068990275 -0.0052381395 -0.01657221 -0.01671929 0.06376225 -0.03153413
-0.017312357 -0.0067077763 -0.012193525 0.008028617 -0.0034504975 -0.0023734032 0.008641878 0.005030042
-0.008993579 -0.0012039884 0.00016393272 0.17076904 -0.008236325 -0.0023537457 0.0041600815 0.026361309
-0.019733394 0.0002082851 0.021965899 -0.009050962 0.016075267 0.013062065 -0.029266246 -0.006413112
-0.0023838913 0.0038542927 -0.0308702 -0.014805275 0.008789741 -0.012906953 0.001492102 0.026750198
-0.011655008 0.010994668 0.0029837315 0.0030351842 0.0134174535 0.00014093459 -0.16855183 -0.028314969
0.003019013 0.007884071 -0.0149448365 -0.016909301 0.037090987 0.0013646899 0.012429634 -0.10761239
0.02378282 -0.0044986918 -0.04452142 0.0046322807 0.024035994 -0.02579788 -0.004912218 -0.049276136
0.0029571326 0.009085934 0.008712654 0.106377326 0.03502773 -0.016006617 0.017672608 0.014715048
0.08279624 -0.059468105 -0.017056778 0.009130517 0.0014544172 0.07378385 0.006015153 -0.008398799
-0.047948997 0.008646513 -0.0026008768 -0.021952655 0.0092695905 0.022382414 0.0050092367 -0.009351991

actor.6.bias f4 [12]
00000000: 72e8 1fbc 0fc7 a43b 27f5 a23d 0b8d a6bd
00000010: 4086 893d c232 8b3d 92d1 4a3c 4a47 663c
00000020: c895 a93e 79bc a93e d369 8d3e 4134 8d3e
-0.009760009 0.0050286124 0.07956915 -0.081323706 0.06715059 0.06796791 0.012379067 0.014055083
0.33122087 0.33151606 0.276198 0.2757893
