tested_policies/aliengo/data_aug_policy_feet_stumble_good_orientation/exported/policy.onnx (onnx, 273175 bytes, 8 tensors)

actor.0.weight f4 [128, 260]
00000000: 4af9 ff3e eea9 1fbd 18b0 9a3e b386 e4bd
00000010: b239 b7be ac32 02be c78e bb3e 45d0 993e
00000020: 02ac 983d 3e54 cd3e 64e9 203e c3c0 8ebd
00000030: da54 8c3b 9afc fbbd 37be c93e 12c1 f3be
00000040: d012 12bc 0941 58be d068 b53d 6ab1 533f
00000050: 87ba 12be 13ca aabd 5195 2ebd 6225 293f
00000060: f21e 243d 4ebc 6b3c e93d 0e3e 4b9b dfbd
00000070: 1a25 f9bb d964 b83b b6b5 213d f7c5 043c
00000080: 1f26 8cbd 3858 ce3c a05d cf3c 54db 10bd
00000090: 4289 cebd 048a 9cbd fc98 69bc a897 f8bb
000000a0: 347b eabc e18a af3b 88c1 033e 3beb 99bc
000000b0: 8fa7 d73d 6f9f 4abd 3146 df3d f294 0cbe
000000c0: 99d9 da3c abfa 50be 8dee 19be fac4 ac3d
000000d0: deca b13e 098c e5bd ec13 de3e 0036 30be
000000e0: e8f3 603e d0f9 93bd 1b1a 943e 06c0 ae3e
000000f0: e4c6 f33a 3672 d63e e2d7 8c3e 1d03 dd3c
00000100: 0b88 9d3c 4339 d7bd 9392 ae3e 0f7f 03bf
00000110: c93b 0a3d 297d 31be 5687 c13d 15a3 523f
00000120: db8d e5bd 9ebd 2ebe e037 e1bd cd89 3a3f
00000130: 40de 013e 9bf2 85bd 9232 88be 1165 873b
00000140: 2add 873c 43c5 ae3c ef5c 2ebc f4ee a43c
00000150: dc66 48bc a5fa 3abd f3ad 9dbc 4750 89bd
00000160: 3f3b d83d 14f1 67bb e26c 3bbd 3f2c 27bd
00000170: 9edf cbbc d5e7 0b3e 5521 273d ab4f 2cbe
00000180: 82bb cf3d 7cf3 8abd 8407 1b3e 5ae1 84be
00000190: c6fe bd3d 9d67 acbe 601c b3be 63d5 e03d
000001a0: 9169 2a3d f274 a3be 0890 223f ad20 77be
000001b0: abd1 15be 82b2 d8bd ece8 8a3e ae99 b53e
000001c0: 84d8 8e3d 3547 ed3e 75b3 5c3e 28f5 f83c
000001d0: 5947 8fbd d777 0dbe f312 b33e a3bf e7be
000001e0: ab6b 36bd 82fa 70be eb5c 3d3d 1b04 493f
000001f0: 450e 763b 6f04 83be fe67 30be 1e67 503f
00000200: 50d5 a03c dfd1 0e3d 015b 0bbe d2c3 8abd
00000210: 8f71 183d 914b 403d a5c5 aebd 7b3e 00bd
00000220: 300f 54bd b12a 453b c50b cd3d 9119 17bd
00000230: 2ed5 683d 328d 30be 5d40 2dbc fe66 1d3e
00000240: f863 93bd 2ff9 bd3d 23f9 803d 0ff2 65bd
00000250: 0d6b 79bc ea95 bbbd 7364 0b3e 1a99 9cbe
00000260: 92bd c33d 3cf3 f5be b069 00bf 29fe ca3d
00000270: c197 a8be f50d 09bf 7451 a63e 7dae 7bbe
00000280: adcb 0ebd 1a21 6fbe 9e66 7a3e d1a1 ba3e
00000290: 69eb 933d 81fb de3e 5205 553e 40c3 22bd
000002a0: caf9 acbd 731b d1bd 28ec c73e c3ab 02bf
000002b0: 3275 afbb 7376 a2be 54bd fb3d 61ab 323f
000002c0: 6c9b 8cbc 353c 9bbe a711 9dbe b0ef 523f
000002d0: f089 ecbd 2853 c03d d107 56be a791 49bd
000002e0: c6a7 88bc a6cc 57bd 0bac 75be c021 933d
000002f0: 0837 9d3c ae47 743b 75b6 17be 0d7d 5fbb
00000300: 2746 8a3e 8653 08be 19ec 45bd 942a 673e
00000310: 6de6 9ebc 4a8d b43d 6c20 b6bd c3dd 8ebe
00000320: 7ac7 b83d 4d50 febd d50f 193e 085c 15bf
00000330: c80b a93d 0178 e0be 78c1 b6be 1e4e 7c3d
00000340: 3983 57bf 9b63 86bf 5ad3 e1bf 501d 0fbf
00000350: 0125 46bf 63a6 ad3e b355 773e 392a 803e
00000360: 00f4 333d 7985 073f bf06 8a3e 7b2b 76bd
00000370: 8e77 90bd 8f9c 5fbd 245c df3e 5493 cfbe
00000380: d002 72bc c9d4 9fbe 5770 c73c 1849 523f
00000390: 7d27 863d aea5 cebe 83a3 a2be 64f9 473f
000003a0: c76c c8be 1aa8 6c3e 11aa 543d c009 1cbe
000003b0: 4e26 cb3d 37af 1a3d 8416 e2be a175 473e
000003c0: 9706 d83d b3bb 8abe 1ffa dfbe a9a5 413e
000003d0: 42a3 123f bc8f 713b 86d0 aabc f154 40bd
000003e0: 9d39 89bd 4152 b33c 4f59 903d 6f5c dcbe
000003f0: a2ef cfbe 1657 abbd 2358 ad3e f545 c6bf
0.4999488 -0.038980417 0.30212474 -0.11158504 -0.35786206 -0.12714642 0.36632368 0.3004171
0.07454683 0.40103334 0.15714031 -0.0697036 0.004282576 -0.12304039 0.39402935 -0.47608238
-0.008915618 -0.21118559 0.08857882 0.8269259 -0.14328967 -0.08339324 -0.042622868 0.66072667
0.040068574 0.014388157 0.13890804 -0.10918292 -0.0076033 0.0056272564 0.039479934 0.008103839
-0.068432085 0.02518855 0.025313199 -0.035365418 -0.100847736 -0.07643512 -0.014257666 -0.007586438
-0.028623201 0.005357132 0.12866795 -0.018788924 0.10530006 -0.049468454 0.1090206 -0.13728693
0.026715087 -0.20408122 -0.15032406 0.08436008 0.34725088 -0.1120835 0.43374574 -0.172081
0.21968043 -0.07225382 0.28926167 0.34130877 0.0018598703 0.4188401 0.27508456 0.026979024
0.01922991 -0.10508969 0.34096202 -0.5136575 0.03374842 -0.17332901 0.094496414 0.82280093
-0.112086974 -0.1706452 -0.109969854 0.7286652 0.12682438 -0.06540414 -0.26601082 0.004131921
0.016584951 0.021334296 -0.010642274 0.020133473 -0.012231555 -0.04564919 -0.019247985 -0.06704765
0.10558175 -0.0035391496 -0.045758136 -0.04081368 -0.024886902 0.13662656 0.040803272 -0.16827266
0.10143186 -0.06784722 0.15139586 -0.2595318 0.0927711 -0.336728 -0.34982586 0.109782
0.041604582 -0.3192516 0.63501024 -0.24133559 -0.14630763 -0.10580923 0.2713083 0.3546881
0.06974891 0.4634339 0.21552832 0.030390337 -0.0699603 -0.13815247 0.34975395 -0.45263395
-0.044536274 -0.23533061 0.04623119 0.7852189 0.0037545126 -0.2558932 -0.1722717 0.81407344
0.019632965 0.034868117 -0.13608934 -0.06775631 0.037217673 0.046947066 -0.085337915 -0.031309586
-0.051772296 0.003008526 0.100120105 -0.036889616 0.05684393 -0.17241362 -0.010574427 0.1537132
-0.07196802 0.092760436 0.06297519 -0.05613905 -0.015223277 -0.09159453 0.13612537 -0.30585557
0.09557642 -0.48037136 -0.50161266 0.099117585 -0.3292828 -0.5353692 0.3248402 -0.24578281
-0.03486221 -0.23352471 0.24453208 0.3645158 0.07222635 0.43551257 0.20802811 -0.039736986
-0.08446081 -0.10210314 0.3904736 -0.5104334 -0.005354547 -0.31730995 0.12291971 0.69792753
-0.017163955 -0.30319372 -0.3067753 0.82396984 -0.11549747 0.09390861 -0.20901419 -0.04921117
-0.016681563 -0.052685402 -0.2399141 0.07184172 0.01919128 0.003727417 -0.14815696 -0.0034101636
0.27006647 -0.13313112 -0.048320863 0.22574836 -0.019396985 0.08816011 -0.08892903 -0.27903566
0.09022422 -0.1241766 0.14947446 -0.58343554 0.082542 -0.43841556 -0.3569448 0.061597936
-0.84184605 -1.0499147 -1.7642624 -0.559041 -0.77400213 0.33916005 0.24153785 0.25032213
0.04393387 0.5293804 0.26958272 -0.06010006 -0.07054053 -0.054592665 0.43624985 -0.4054209
-0.014771178 -0.3121703 0.02434556 0.8214278 0.065505005 -0.4036078 -0.31765375 0.78114915
-0.3914549 0.23111 0.05192 -0.15238094 0.099194154 0.037764754 -0.44157803 0.19478466
0.10548132 -0.27096328 -0.43745515 0.1891085 0.5728036 0.0036859354 -0.020851385 -0.046956006
-0.06700442 0.021889808 0.07048284 -0.4303927 -0.40612513 -0.0836622 0.33856305 -1.5490099

actor.0.bias f4 [128]
00000000: c76a 27bd 35e6 cfbc 448a 283e eba9 073c
00000010: 7029 63bd 6c6f 3cbe d258 3cbd 5ead bf3b
00000020: 08f4 373e 340f 203e a427 493d e69e 1e3d
00000030: edf2 aabd 1b05 513e 466c 2fbe a346 2dbe
00000040: 025b aebb 06c6 78bc 4927 923e f681 8d3d
00000050: 201c 75bd a6ce d9bd b908 d7bd 1594 f13d
00000060: 94c6 abbe b8be e13c 6969 363c 6a16 ec3d
00000070: c912 08be 636a bc3d c4b3 a73d 4812 eabe
00000080: 3ff0 8bbc aaa1 173e a82f dcbd 1839 ccbd
00000090: e3cc 82bc 8137 ee3d 35e1 1dbe 14a1 64bd
000000a0: ed8e 08bc ce05 d33c dd1f b9bb 0f63 cdbd
000000b0: a524 67bc 519b b03d 4852 6f3d b3c6 0cbe
000000c0: b33a efbd e24d 323e 50b2 05bd 6967 4abe
000000d0: eed7 28be 6075 97bc a699 8cbd 6110 e03d
000000e0: 079b 12bd 7c72 98bc 950a c3bd 939c 563b
000000f0: 0773 8bbc 2480 7dbd e7f4 cb3d 1139 cb3d
00000100: c246 7e3e 36e7 c93e 6fc1 533d 5246 f7be
00000110: 4767 8dbe 8c7c 69bd ccac f5bd 409c a63d
00000120: 3a1f e5bd 83d4 a7be 7e8d cdbd 4b3a ed3c
00000130: 69c3 0abe 61e3 4ebe e35d 0b3e 4b9a 9b3d
00000140: acad 32bd df50 0b3d 73a1 cabc 18ca 23bd
00000150: ae91 0ebe 8716 20be ceaa 06bd 329b d0bd
00000160: acb0 193e af0d 9c3d 657f 0e3b bbe8 22bc
00000170: 930a 54bd 80bc 11bd 5bc4 a03e f9c5 dcbd
00000180: d0ce c93c 22d1 34be ab54 b33d 4978 82be
00000190: b338 1cbc cbb7 213d de02 03bc 8963 6ebe
000001a0: 488b 933b e1b4 853d da21 f23c 7b47 443c
000001b0: 33e0 9a3d 0772 653d 704d bd3d 0f5c 95be
000001c0: d80d 27bd 7797 6a3e 89ad 6abd 227a 543d
000001d0: bdc2 9f3e dce5 17bb 5b95 76be 6678 dc3c
000001e0: a341 afbc 99e9 2e3d 4664 45be fe5e 08be
000001f0: 3069 94bd 2e4b 893d 17a0 5bbd 2791 003d
-0.040873315 -0.025378326 0.16458994 0.008280258 -0.05545944 -0.18401879 -0.045983143 0.0058495244
0.17964184 0.156308 0.04911007 0.038725756 -0.08347116 0.20412104 -0.17131147 -0.16921477
-0.0053209076 -0.015183931 0.28545597 0.06909554 -0.059841275 -0.10635118 -0.104997106 0.117958225
-0.3354994 0.027556762 0.01113353 0.11527713 -0.13288416 0.09199979 0.081885844 -0.45717072
-0.017082332 0.14807764 -0.10751277 -0.09971827 -0.015966838 0.1163168 -0.15417941 -0.05581768
-0.008334857 0.025759604 -0.0056495504 -0.100286596 -0.014107858 0.08623374 0.05842808 -0.13747673
-0.11681118 0.17412522 -0.032640755 -0.1976601 -0.1648862 -0.018488586 -0.068652436 0.10940624
-0.035792377 -0.018609278 -0.09523503 0.0032747134 -0.017022623 -0.061889783 0.09958821 0.09922994
0.2483168 0.39434212 0.051698145 -0.48295838 -0.27617857 -0.057003543 -0.11995849 0.08135271
-0.111875966 -0.3277932 -0.10036753 0.02895846 -0.13551106 -0.20203926 0.13610034 0.075977884
-0.043622658 0.03401267 -0.024735188 -0.039987653 -0.1392276 -0.15633593 -0.032877736 -0.10185851
0.15008801 0.076197974 0.0021743414 -0.009943183 -0.051767897 -0.03558016 0.31399807 -0.10779948
0.024634749 -0.17657903 0.087563835 -0.25482395 -0.0095350025 0.03948192 -0.007996289 -0.23280157
0.0045026876 0.065286405 0.029557157 0.011979933 0.07562294 0.056016948 0.09243286 -0.29171798
-0.040784687 0.22909342 -0.057294402 0.051874287 0.3120326 -0.0023177778 -0.24080412 0.02691288
-0.021393603 0.042703245 -0.19276533 -0.13317487 -0.072466254 0.067037925 -0.05361947 0.031388428

actor.2.weight f4 [128, 128]
00000000: 714c 89be 5114 2d3e 81c5 8f3c 2df6 c9bc
00000010: b9fc e53e da66 d03c 05d4 6f3b 50c1 4aba
00000020: 11be ecbc 09a1 5fbd 45f2 9c3d 43d6 a33e
00000030: 3699 c1bd 79b4 653e 2400 b4bd 7ec3 f43d
00000040: ea3f aabe 7949 13be 19cd 8ebd f2fd e7be
00000050: 8082 dbbc 18a4 1d3e 8bbc 02bf f08a d3bd
00000060: 9f20 fcbd 2006 c63e 785e 28bd f106 e5bc
00000070: 01cd 72be 646d 8b3e 5a35 073e 6507 19be
00000080: 5886 90bd 814a b3bd b529 ed3c adde af3e
00000090: ce73 69be 09ca a0bd deb4 08be 9f89 ed3d
000000a0: 48d5 b03d 16b9 933c dbf8 2f3e 009c bc3c
000000b0: 3283 dcbd eda6 30bd f4ca b83c df09 2abd
000000c0: 60cf 243e df6c 653c c5c5 623e ead7 0a3d
000000d0: 2cc0 0ebe 8d9d 94be 3017 043f 201f 103e
000000e0: 50ef 2b3e 2220 173e 6ef4 03be bb7e 57bd
000000f0: 7d14 363e 7792 03bc 62ed b8bc 5bda 573d
00000100: 0963 573d 06eb 22bf b8e7 c7be a1fa 35bc
00000110: f7f0 d63d e534 b23d ac19 293d cc62 a0bd
00000120: 37c2 2d3e eda9 4cbe f265 09be 4ba0 5cbe
00000130: ebff da3d d95b 9a3c 942a 15bd b5a2 b03d
00000140: e8e4 60be f79e b0bd c044 18be 32c5 0b3e
00000150: 8126 48be 722b ddbd 8d7a dfbc dba0 5f3c
00000160: d148 debb a29f b03c 2346 533e 6504 0a3e
00000170: 2429 693c 1dc1 333d 3464 43bd db2f 8c3e
00000180: c52f 04be 2396 1bbe f39a 0e3e 9402 25be
00000190: 5c09 a8be 9fa6 103d aff3 25bd e9a8 c6bc
000001a0: 6813 03be 15a7 853e 6eae 343e ebdf 35be
000001b0: df8d d43e 3ea4 5cbe 5513 36bf e84c 29bd
000001c0: acfd 0dbe 385f 61bd 9066 a53d 7f20 9fbc
000001d0: e1d5 893e fff8 513e 0e34 4cbe eacf 4d3c
000001e0: 51b2 183e d3f8 cdbb ef9b 14be 46d0 023e
000001f0: 63e6 3fbf 5e62 8bbd d4a8 5fbe d746 eb3c
00000200: 5ed5 8e3e 0469 ff3d da96 fd3d 17ea 433d
00000210: 32da 13be 0ff8 1c3e 27c4 11bf a483 e9bc
00000220: 2973 f23d d280 4b3d 18a1 a93d 243c 4dbe
00000230: 583b cabd 908d 44be 72f4 2ebd ef3a 18bd
00000240: 5210 193e f9f2 e0bd c7e6 58bd d0f1 a3bc
00000250: 963c 35bc 0237 053e fd48 2f3e fa7e 6ebd
00000260: 85ee 50bc a3d0 1c3a 365a 423e 278b 95bc
00000270: 85be b83d 94c1 39bc 0131 e2bd 0bd8 933c
00000280: 399d 79bb d9fa 83be 2344 763c 1d40 2d3e
00000290: 2a9c 6a3d 46d5 4e3e 0f5a 52bd 6296 d23d
000002a0: 6df5 af3d bf40 c2bd 2034 bdbe 9dbd 37be
000002b0: efd7 e1bd 6ef3 a739 7c27 71be 8d9a 273c
000002c0: bd59 4e3c 6735 22be 222e ea3c 3f82 543e
000002d0: ada5 833d 30dc 9abe 5af9 893d 1462 85be
000002e0: 802c 44be d1c2 9ebd 8464 e63d ea30 a13e
000002f0: f53b 80bc 9ffb be3d 4b14 0bbe 486f 143a
00000300: 703a 7fbd bd29 71be 98c7 d53d 2672 443e
00000310: cb63 43be 2e90 99bd 12fb 0b3e 59d3 3abd
00000320: 92be d33d e017 be3d 1c1d 893d 8c4d aa3d
00000330: af3b 32bd dcaf 39bd f253 0cbe a722 40be
00000340: 1cf3 30ba 018f 1a3d e4d2 68bd d06c b93d
00000350: c394 9b3c a86c 6a3d 0cc6 463e 2def e6bc
00000360: 412e f73d e9f8 953d b3fe edbe 2124 f43d
00000370: ae88 1fbd cc31 e43b 1774 103e aeb4 2e3c
00000380: 3639 6b3d 3795 853c 35ee 83be 982c 4bbe
00000390: 6211 7f3e c57e 1ebe f98f 8a3c 00a1 2d3e
000003a0: 80d5 49bd e947 97bd 6aab d93c 10aa afbd
000003b0: d360 4bbd fef9 47be 5a06 bfbc 271d 073e
000003c0: a4c2 fa3d 2594 58bd fef3 39be 3207 3abc
000003d0: 1eb7 26be 1e28 513d 6b6d 00be 998f fb3d
000003e0: f06a 83bd 7586 19bc b6a2 03bb cfd6 6a3d
000003f0: 2ec6 fe3d 2695 03be 1264 cdbd 8228 50be
-0.26816133 0.16902281 0.017550232 -0.024653519 0.44919375 0.025439668 0.003659488 -0.0007734494
-0.028899224 -0.054596934 0.07663397 0.31999406 -0.09453051 0.22432126 -0.08789089 0.1195135
-0.33251888 -0.14383496 -0.06972713 -0.45310932 -0.026795626 0.15394628 -0.51068944 -0.103292346
-0.123109095 0.38676548 -0.041105717 -0.027957411 -0.23711015 0.27231896 0.13203946 -0.14944227
-0.07056874 -0.08754445 0.028950552 0.34349576 -0.22798082 -0.07851035 -0.13350245 0.11598515
0.0863443 0.018032592 0.17184775 0.023023605 -0.10767211 -0.043127943 0.022557713 -0.04151332
0.16094732 0.014003008 0.22145756 0.033897318 -0.13940495 -0.29026452 0.5159788 0.14074373
0.16790509 0.14758351 -0.12886211 -0.052611094 0.17781253 -0.008030525 -0.02257413 0.052698474
0.05258468 -0.6363987 -0.39043975 -0.011107118 0.10495179 0.08701495 0.04128425 -0.07831344
0.16968618 -0.19986697 -0.13417795 -0.21545522 0.10693344 0.018842625 -0.03641756 0.08624784
-0.21962321 -0.0862407 -0.14869976 0.13649443 -0.19545938 -0.10799302 -0.027280116 0.013649191
-0.0067835827 0.021560494 0.20632224 0.13478239 0.014231 0.04388534 -0.047702983 0.2738026
-0.12908848 -0.15193991 0.13926296 -0.16114265 -0.3281964 0.035315152 -0.040515598 -0.024250465
-0.12800372 0.26104036 0.17644665 -0.17761199 0.4151449 -0.21547028 -0.7112325 -0.04133311
-0.138663 -0.05502245 0.08076203 -0.019424675 0.2692099 0.2050514 -0.19941732 0.012561778
0.14911772 -0.0062857657 -0.14512609 0.12774763 -0.7496092 -0.068058714 -0.21841747 0.028720303
0.2789716 0.12471202 0.12382288 0.047830667 -0.14438704 0.15329002 -0.5693993 -0.028505154
0.11838371 0.0496834 0.08282679 -0.20042473 -0.098746 -0.19194627 -0.04271359 -0.03716558
0.14947632 -0.10983843 -0.05295446 -0.020012766 -0.011061808 0.13009265 0.17117687 -0.058226563
-0.01275218 0.0005982017 0.18979725 -0.01825483 0.09020714 -0.0113376565 -0.11044503 0.018047353
-0.0038088097 -0.2577732 0.0150308935 0.16918989 0.057277836 0.20198545 -0.051355418 0.102825895
0.08591733 -0.094850056 -0.3695383 -0.17943425 -0.11027514 0.0003203409 -0.23550218 0.010229719
0.012594637 -0.15840684 0.028586451 0.2075281 0.064280845 -0.30246115 0.06737013 -0.2605139
-0.191576 -0.07752002 0.112496406 0.3148263 -0.01565359 0.09325337 -0.1358196 0.0005662334
-0.06231159 -0.23551078 0.1043846 0.19184169 -0.19081037 -0.07498203 0.13669994 -0.045611713
0.10339083 0.092818975 0.06695005 0.08315572 -0.04351395 -0.04533373 -0.13703898 -0.18763219
-0.00067500933 0.037734035 -0.056841746 0.090539575 0.018991834 0.05723253 0.19411486 -0.02819022
0.12069369 0.073228665 -0.46483383 0.119209535 -0.038948707 0.006963944 0.14106785 0.010663195
0.057427607 0.016306503 -0.25767675 -0.1984123 0.24908975 -0.15478046 0.016914355 0.16955948
-0.049275875 -0.07386763 0.026570994 -0.08577359 -0.049652886 -0.19528958 -0.023318458 0.13194714
0.12244156 -0.052875657 -0.18159482 -0.011354255 -0.16280791 0.05106365 -0.1254174 0.122832485
-0.06416881 -0.009370436 -0.0020085997 0.057333764 0.124401435 -0.12849864 -0.100288525 -0.20327953

actor.2.bias f4 [128]
00000000: 1088 e9bd 9a19 c5bd 5477 b3bd 78b1 143c
00000010: 4a07 e2be 6adb 41be 941e a93d ad5f 10be
00000020: 377c 5fbe 933d 80be cf9b 253e f210 50bd
00000030: ec75 5bbe dc10 78be d707 99be acb1 a0be
00000040: 9423 27be 3e3e 57be ffdc b8be b160 75bd
00000050: 34d2 77be 0bf1 883c 84c9 16be 324a 1cbb
00000060: 0cb4 f1be ccba 033e a331 84bd 722f 81bf
00000070: 4302 babc da3b 7f3d e1c2 09bd 5d00 03be
00000080: 04c3 8fbd 11e6 17be dbe1 babe 441e 75bd
00000090: ae90 d9bd 83f7 89bd 659d 00bd 1449 6abe
000000a0: f117 5b3d 2276 683d a5a1 d53d 35db f3be
000000b0: 7978 34be bcf7 a9be cd7a a3bd 2e2d bd3d
000000c0: a5b6 92bd c01f 27be f471 ecbe 7a5a f1bd
000000d0: 7287 f13c d2f1 bcbe a317 483d c39f 15bb
000000e0: 0716 07be 45ed b13b 38a4 85be 32ec 31bf
000000f0: 32f4 1dbe 2baa 86bf 6c55 cdbd 728d e3bd
00000100: 3551 583e f51e cebd 820a 07be 1836 ccbd
00000110: 7243 40be b668 5abe db6e cfbd 1591 86be
00000120: 8a07 85be de1c b2bd d572 21be 5624 41be
00000130: 07f5 7cbe c7d6 b4be c049 07be f484 73bd
00000140: df1d 6cbe e3cb e7bc 56dc 82be 2c5f 14be
00000150: 07fc 41bd e788 c6be 45c5 f63b 39d5 ffbd
00000160: 35ca 26be ff0d c1be aa00 3cbe 3dd8 acbe
00000170: 6f08 8e3e 789d 0bbe 17f9 13be e435 bfbe
00000180: 56e9 c8bd e5ea 27be 570d 28be f0a9 a7be
00000190: c82f b3be 933c a5be 668c 613d 4563 33bf
000001a0: 5b0c 863c 0c33 00be c194 81be 5ba0 00be
000001b0: e328 313e e4e9 b2be 9a43 953e 2567 31be
000001c0: 7cb7 6a3e c8eb 77bf 4619 62be f1c7 64bd
000001d0: 73b5 71bd b9e0 bc3d 006e 9dbe 1fe4 b63d
000001e0: c6ba 6abe 3dc3 103e cff0 b9bd 5fe9 b3bd
000001f0: 4caf 1c3d 95da 91be a645 27be 9c94 97be
-0.11402905 -0.09624024 -0.087629944 0.009075515 -0.44146186 -0.18931356 0.082577854 -0.14098997
-0.21824728 -0.25046977 0.16172718 -0.05079741 -0.21431702 -0.24225181 -0.29888794 -0.31385553
-0.16322166 -0.21019837 -0.36106107 -0.059906665 -0.2420128 0.0167165 -0.1472531 -0.0023847935
-0.47207677 0.12864226 -0.0645478 -1.0092604 -0.022706157 0.06231294 -0.033633117 -0.12793107
-0.07019618 -0.14833857 -0.3650044 -0.059843317 -0.106232986 -0.06736662 -0.031400103 -0.2287944
0.05348963 0.056753285 0.10431222 -0.4762818 -0.17624082 -0.3319682 -0.07982407 0.09237133
-0.07163743 -0.16320705 -0.4618069 -0.11784835 0.02948353 -0.36903244 0.048850667 -0.002283082
-0.13191997 0.005429896 -0.2610185 -0.6950103 -0.15425184 -1.0520681 -0.100260586 -0.11110963
0.21124728 -0.10064498 -0.13187602 -0.09971255 -0.18775728 -0.21329007 -0.10128566 -0.26282564
-0.25982314 -0.08696912 -0.15766461 -0.18861517 -0.24702846 -0.35320112 -0.13211727 -0.059452966
-0.2305827 -0.028295463 -0.25558728 -0.1448943 -0.047359493 -0.38776323 0.0075308406 -0.12491841
-0.16288073 -0.3770599 -0.18359628 -0.33758727 0.2774081 -0.13634288 -0.14450489 -0.37345803
-0.0981013 -0.16398199 -0.16411339 -0.3274684 -0.34997392 -0.32272777 0.055065535 -0.7007335
0.016363313 -0.12519473 -0.25308803 -0.12561171 0.17300753 -0.3494407 0.29153138 -0.17324503
0.22921556 -0.9684415 -0.22079954 -0.05585474 -0.059010934 0.0922255 -0.30747986 0.089302294
-0.22922811 0.14136977 -0.09079134 -0.087847464 0.038253114 -0.28487077 -0.16335163 -0.29605567

actor.4.weight f4 [128, 128]
00000000: 997b b73d 1ed9 1e3e be3e ba3d 83d9 e33d
00000010: d008 0e3e 640a b6bc bc7e 8e3d 6143 3a3d
00000020: de4d 6cbe c5f1 1bbe 0070 debe aaac 20bd
00000030: 6cba 7b3d 7b41 8dbe e398 5abd 0b0a 423e
00000040: e6aa 1c3e 133a 8c3d 04b8 5fbd 4927 99bd
00000050: dc02 7c3e 4348 adbd 209a 85bc a506 573d
00000060: a1ba 693d b9d7 033e 9289 19bd 5ee0 823d
00000070: a976 a23d 8d20 133d 88e4 11bc 2aa3 52bd
00000080: ae91 0fbe ab45 11be 73bc 4d3d 05d0 ddbd
00000090: 764e e83d 455e 733d 3b15 033d 7e1c 223d
000000a0: c5e0 4c3d 2937 88bd 238b e03b 8a54 94bc
000000b0: 9abf 2fbe b583 1dbe feb3 3dbd e61a 3fbd
000000c0: 9c23 c8be 6a14 17be 3921 4fbc af87 65bc
000000d0: 75f1 39bd bd1e 8ebc d9b2 33be d26d b33d
000000e0: 6a5b 17be 5a49 89be b128 c8bd 9539 8d3c
000000f0: 6eb7 133e 5abf 283e 449f 893d f434 103d
00000100: 7290 8dbd ea21 d0bb 361c a7bd cfb0 193d
00000110: 37bc 503d 022b 84bd 8174 203e ed8c 743d
00000120: 0bd4 78bd 76f0 413d 4636 08bd 38ad 5f3e
00000130: 19bb 8dbe bc3c 1e3e 7b0f 49bd 88f5 ecbd
00000140: 2500 8ebe f50f 553d 5254 ff3c d2f7 79be
00000150: 234f 9fbb fcda 91be b296 2ebe 4c19 973d
00000160: 15f4 843e 1643 4dbe 9c47 6ebe e6e2 aebe
00000170: 0dd2 52be c210 0abd bc90 903e 6614 7fbe
00000180: 054f 12be bcfd f1bd df64 ac3d a0f5 813d
00000190: 7f81 023e aadf 803d 8da9 9c3d 05af 353e
000001a0: 2061 abbe 9149 753e 4761 08be 815b 41be
000001b0: 44c5 e7bd 6493 113d b9a2 ddbd e33a bd3c
000001c0: 9cbb 11be 3cff fb3d 5577 f1bd 72a6 cc3d
000001d0: d200 763e 7073 25be 3f07 793d 36a8 cb3d
000001e0: 96c7 b4bd 6272 afbd f86e 0ebe 052d 11bd
000001f0: 9fb3 9fbd c321 5bbe e33d 243e 4bda ea3d
00000200: eb7d b9bc c91c b6bc 3470 943d 7537 0abe
00000210: b9bd 113e dedb 94bd c3a6 c1bd ba90 8ebc
00000220: c868 953d f9c5 ecbd 9e07 823d 319f 9abd
00000230: d6f1 38be c520 2d3e 000b c4bd 0e04 ccbc
00000240: 651a 673e 9cc4 2cbd 47f1 97be 32c0 c4bd
00000250: 4e50 e13d 081a dbbb 654c 273e bc57 93bd
00000260: 2ae8 dfbc 297e 7dbe 96b3 83bd fb97 473e
00000270: 5b14 913c 531c 293e 6465 6a3d ba7b 6aba
00000280: b31c f23d 9035 07be 0ba6 e33d 64d1 993c
00000290: 2038 1e3d 8329 da3d 0b6e bebd ae26 b63b
000002a0: 236b 0dbe 1270 883d c1e6 b7bc d768 31bd
000002b0: 9466 a8bd 4bef 50be b6b6 653e e393 52bd
000002c0: c507 6abd 169f bcbe fe76 7fbd 7b24 5fbd
000002d0: f208 ffbb a97b 743d 7d86 fd3d cbff efbd
000002e0: c0c8 463e 1aac 2cbd 642d 57be 8f06 633e
000002f0: 84e3 a13d ce2d 193e 680e c03d 2395 833c
00000300: 4165 cebd 6599 62bd ef49 4abe a68d 2bbe
00000310: 0266 1cbe 4700 b23e a648 cb3d fdd4 bc3d
00000320: 8376 023d 68f9 293e 875c 02be 90e7 58be
00000330: 45f4 28be 1442 afbe 0126 67bd 5d5b 503d
00000340: 1de1 e2bd 5813 44be 9b71 0d3e ef1c b7bc
00000350: ecd5 32be adb8 bc3e 0b7f e33c 39b0 14bd
00000360: 49ed 4b3e a1fb de3d bbad a83d 0606 b5bc
00000370: f442 8dbd a22a 423e 44fd bfbd 86a2 41be
00000380: 3d6b 24be b510 57be 03a0 e23d 7093 2bbe
00000390: ea91 303d 4cc0 85bd eb83 09bd 3247 c8bb
000003a0: f43c c0bd 103b 8d3e 1391 01be 7ed5 513d
000003b0: 400a 4dbd 4060 34bd cfee 14be 74ac 36bd
000003c0: d307 9a3d fc81 3e3e 07c6 cdbd 328b e23c
000003d0: 130c c03d 3e6c f9bd 629f 803e f479 87bd
000003e0: 5ffd ed3c 77d3 1b3e a4ba f8bd ae46 87be
000003f0: 0ff5 b0bc 3380 38be 4736 05be 6265 313e
0.08959121 0.15512511 0.090939984 0.111254714 0.13870549 -0.022221752 0.069577664 0.045474414
-0.23076579 -0.15228947 -0.43444824 -0.039227165 0.061457083 -0.2758902 -0.05336846 0.18949144
0.15299568 0.06847014 -0.05461885 -0.07478196 0.24610466 -0.084610485 -0.016308844 0.05249657
0.05706275 0.1287526 -0.037484713 0.06390451 0.07932789 0.035919715 -0.008904584 -0.051425137
-0.14020416 -0.14186732 0.050228547 -0.10830692 0.1134309 0.059416074 0.03200267 0.039577954
0.050019044 -0.06651146 0.006852524 -0.018106718 -0.17162934 -0.15382273 -0.046314232 -0.04665651
-0.39089668 -0.14753881 -0.012642198 -0.0140094 -0.045396287 -0.017348642 -0.17548694 0.08761181
-0.14780965 -0.26813775 -0.09773386 0.017239371 0.14425442 0.16479245 0.06719831 0.03520675
-0.069123164 -0.006351699 -0.08159678 0.037522133 0.050960746 -0.064535156 0.15669443 0.05970471
-0.060749095 0.047348462 -0.033254884 0.21843421 -0.27681807 0.15452856 -0.04908703 -0.11570269
-0.27734485 0.05201717 0.031168137 -0.24410942 -0.0048617288 -0.28487384 -0.17049673 0.07377872
0.2596747 -0.20045123 -0.23269504 -0.34157485 -0.2058794 -0.033707388 0.28235424 -0.24910125
-0.14287956 -0.11815974 0.08417677 0.063456774 0.12744711 0.062926605 0.07649527 0.17742546
-0.33472538 0.23953845 -0.13318358 -0.18882562 -0.11316922 0.035540953 -0.108220525 0.023099368
-0.14231724 0.123045415 -0.11790339 0.099926844 0.2402375 -0.16157317 0.060797926 0.09944193
-0.088271305 -0.08566739 -0.13909519 -0.035443325 -0.07797932 -0.21399598 0.16039233 0.11467417
-0.02264305 -0.022230523 0.072479635 -0.13497718 0.1423253 -0.07268499 -0.094556354 -0.017402995
0.07295376 -0.11561198 0.06349109 -0.075498946 -0.18061003 0.16907032 -0.095724106 -0.024904277
0.22568662 -0.04217969 -0.29676268 -0.09606971 0.11001645 -0.006686453 0.16337736 -0.071944684
-0.027332384 -0.24755158 -0.06430738 0.1949157 0.017709902 0.16514711 0.0572256 -0.00089448283
0.1182188 -0.13204026 0.111156546 0.018776603 0.038627744 0.10652449 -0.09298333 0.00555881
-0.138104 0.06662001 -0.0224489 -0.043312874 -0.0822269 -0.20403783 0.2243298 -0.051410567
-0.057136316 -0.36840123 -0.06236934 -0.05447815 -0.007783049 0.059688244 0.12379167 -0.117187105
0.19412518 -0.042156316 -0.21013409 0.2217047 0.07904723 0.1495888 0.09377748 0.016062325
-0.100779064 -0.05532207 -0.19754766 -0.16753253 -0.15273288 0.34765837 0.09925966 0.09220312
0.031851303 0.16599047 -0.12730609 -0.21182084 -0.16499431 -0.342301 -0.056432728 0.05086838
-0.11078093 -0.19148004 0.13812868 -0.022352664 -0.17464417 0.36859646 0.02777054 -0.03630087
0.19914736 0.10887838 0.082362615 -0.022097599 -0.06897536 0.18961576 -0.093744785 -0.18909654
-0.16056533 -0.21002467 0.11065676 -0.16755462 0.043107904 -0.06530818 -0.033573072 -0.006112003
-0.09386626 0.27584124 -0.12652998 0.051228993 -0.050058603 -0.044037104 -0.14544223 -0.044598058
0.075210236 0.18604273 -0.10047536 0.027654264 0.09377303 -0.12178849 0.251216 -0.066150576
0.02905148 0.15217386 -0.12144974 -0.26421112 -0.021601228 -0.18017654 -0.13008986 0.1732383

actor.4.bias f4 [128]
00000000: 9b46 c1be d28c bebd 8a31 41be dc00 fcbc
00000010: 5c40 ecbe 048c 09bf 14d2 18be cc80 02be
00000020: 3beb 0abf c818 38be 4c3a 1cbf a3c0 1fbe
00000030: a697 acbd 3ea5 36be 9ff4 78be f451 70be
00000040: 2ffe e3bd d389 d0bd 19e5 61be 30f1 a0be
00000050: 4f33 64be c10a 82be 37f6 533d 8b5f 9dbd
00000060: 7957 67be a310 2a3d 3e23 2cbe 9aba cb3c
00000070: f5de 93be e848 70be 45a0 dfbe aefd 0cbd
00000080: ae5f 6abf d748 f0bd f4d8 bebe 6e71 a13d
00000090: ca97 11be fdde d5bd 74b6 9ebe 9350 7bbf
000000a0: 1dcd abbd 97e0 74be 1181 3cbe 4754 69be
000000b0: bc1e b8be 92f1 fdbd 76ab 7d3c 45cc 90bc
000000c0: 9f79 5fbe 1774 91be 73dd c0be 7c1b 24be
000000d0: 47d9 33be f8bc 7cbe 3f04 8abe 2525 8dbe
000000e0: 20eb c5bd 7881 85bd f596 71be 5f2a afbd
000000f0: 3a54 b1be c13f 58be a706 b1be 49c4 f6bd
00000100: 5d14 54be 95f9 56bc 2b98 6bbd 3be0 ddbd
00000110: 887e e1bd 5e3e febd 7e5b ebbe dd2c d2bd
00000120: 9fd1 1bbe 00fa 68be 9b9b 3bbc cfe3 39be
00000130: a1c3 d4bd 44ff 65be ce9b 7e3d 8244 39be
00000140: a358 d4bb d52b 16be 2e0d e4bd ce28 dabd
00000150: 278b a5bd a3be 6cbd 85fd 7abd bf10 2ebe
00000160: 3141 22be a1ed c7bc 9707 76be c446 6ebf
00000170: c0e5 a1be f0ee 34be a829 13be c28f 1cbd
00000180: 31ec 81be 3fd8 1dbe cc9b 97be f243 24bc
00000190: d6ae e9be 7d9a 86bd 680f dfbd 6090 0ebe
000001a0: c1d7 ffbd 507b 3cbe 15ac cabd cd23 0dbe
000001b0: 5301 7cbe 482d 5abe 577e 2abe e43a 96be
000001c0: 749d 21bf cf34 7abe 4166 0bbe aad3 f4bd
000001d0: ffc2 983c eda8 74be 4cff 54be a60c 13be
000001e0: cdc7 5dbe 1f5b 7cbe 950a b3be 134e 943b
000001f0: e4cb 4dbe aac5 88be 7074 86be 0a8c 86be
-0.3774918 -0.09304203 -0.18866554 -0.030762129 -0.46142852 -0.5372927 -0.14923888 -0.12744445
-0.54265183 -0.17978203 -0.61026454 -0.15600829 -0.08427362 -0.17836472 -0.24312066 -0.23468763
-0.11132466 -0.10182538 -0.2206005 -0.3143401 -0.22285198 -0.2539883 0.05174848 -0.07684239
-0.22591962 0.041519772 -0.16810319 0.024869252 -0.2888104 -0.23465312 -0.43676963 -0.034421615
-0.91552246 -0.11732643 -0.37274897 0.07882963 -0.14218059 -0.10442922 -0.30998576 -0.9816982
-0.08388732 -0.23913799 -0.1840861 -0.22786056 -0.35960948 -0.123995915 0.015482774 -0.017675528
-0.21823739 -0.28408882 -0.37668952 -0.1602611 -0.17563353 -0.24681461 -0.26956365 -0.27567402
-0.09663987 -0.06518835 -0.23592742 -0.085530035 -0.34634572 -0.2111807 -0.34575388 -0.12049157
-0.20710893 -0.013121028 -0.057518166 -0.10833784 -0.11010462 -0.12414239 -0.4596824 -0.10262463
-0.15216683 -0.22751617 -0.011450673 -0.18153308 -0.10388876 -0.22460657 0.062160306 -0.1809254
-0.006480293 -0.14665158 -0.11135326 -0.10652314 -0.08083182 -0.057798993 -0.06127693 -0.16998576
-0.15845181 -0.024405302 -0.24026333 -0.9307673 -0.31620598 -0.17669272 -0.1437136 -0.038223036
-0.25375512 -0.15414523 -0.2961105 -0.010025965 -0.45641202 -0.06572435 -0.108916104 -0.13922262
-0.12492324 -0.18406415 -0.09896103 -0.13783188 -0.2460988 -0.21306336 -0.16649757 -0.29341805
-0.6313088 -0.24434207 -0.13613226 -0.11954434 0.018647669 -0.23892565 -0.20800513 -0.14360294
-0.21658249 -0.24644135 -0.3496901 0.0045259087 -0.2009731 -0.26713306 -0.2626071 -0.26278716

actor.6.weight f4 [12, 128]
00000000: f6ec 86bc 5fc9 50bc fe52 c5bc b67e 20bc
00000010: 497e 913c 3562 603b 9fca afbd 492b 48bc
00000020: 9488 5c3c e6d2 a0bc 8be3 003d 1503 06bd
00000030: cb15 15bb 9c7c 983b 2c63 a9bb d173 f73c
00000040: dde7 373d efc7 1abc 4310 ccba a206 213c
00000050: 9a77 efbc 770f 3d3d 7354 e5bc c1c2 fdbb
00000060: 1d30 37bc fea6 1a3c a736 3e3d 219e 733c
00000070: 1c3d 873a 3af5 f5ba 10ed f1bc a496 be3b
00000080: f4c8 653d 7093 6d3b 3784 fe3b 8fe8 803b
00000090: c5ef ce3c d1bd 96bb c672 1cbd 43a6 ae3d
000000a0: 7739 5c3a abaf 153a 8b02 a9bb 9839 843c
000000b0: 9bf7 3cbc 8017 2a3b 4173 3a3c 801e 80bb
000000c0: 264c dbbb 31ce 7f3d 2ed2 533b 3214 ba3b
000000d0: 3f75 d8bd 807d 70bc 1bf4 9dbb 7c86 653a
000000e0: f206 86bc df75 a4bb c98b dcbc 725d 4d3d
000000f0: 3b05 1e3c 6460 113c ed7d 77bc 41aa 04bc
00000100: 445e 493d 2e38 313b 82b2 413b e11e 0a3c
00000110: e3e9 ad3b ff4d 653c c361 ce3c 470b 703c
00000120: 1cf0 a5bc 63d3 98bc f352 39bb 622e fbba
00000130: 9486 0e3b 1dff 33bd f5f5 f639 adfc b03b
00000140: 94b8 9bbb 576e 9f3b 6f2f 103c f978 fdbb
00000150: 12b8 c6bc 4474 03bc 4c97 20bb 82cd 0c3d
00000160: 0eef 2f3d 5c58 b0bb 999f 4e3c fa1f c2bc
00000170: eed4 c33b cb0e 9c3c 100e 943c 0263 1d3c
00000180: 24d9 0abb 3a62 b7bb 9fb9 a2bc c3f9 4cbb
00000190: eb70 1d3b 5eb9 4c3c c496 a8bc f24e d8bc
000001a0: a60c 16bd 4a14 373c 69ef 0fbc fcd3 993c
000001b0: b699 b4bc fabc 09bd 0a99 f63b ffb5 dc3c
000001c0: 2f22 a6bb 8ded c9bb 36a8 ab3b df9d 84bc
000001d0: a1b5 083c 46f9 67bb 2d7a 05bc 50ce 8b3c
000001e0: 8580 63bc ebb1 85bc 5917 a13c f104 f339
000001f0: a2b2 983a 2922 a83c 38b8 ae3b e931 b23b
00000200: 303d 5bbb 7c23 99ba 4d1c 983a 7bb2 b4bb
00000210: e5a7 36bb 46c8 58bc 491a da3d f750 023c
00000220: 8b7e 27bb d263 9cbb e2f4 b33b 02c9 9abc
00000230: dbd8 7fbc 9db1 a43c ea44 31ba 3675 f6bc
00000240: 2e80 c5bb 73d3 22bc 99d5 c63c 39dd a4bc
00000250: de55 953b f6da 2e3d 70c9 4bbc 4995 6ebc
00000260: 2cef 073d 2db8 aa3b 5e44 9fbb ced5 77bc
00000270: 8075 a9bb e4c7 c4bb 4ec0 cbbc edca 213c
00000280: 29a3 be3c b869 87bb c550 393c fd58 413b
00000290: 6cd7 a83c e06d 9cbb 2255 b4bb decb b3bd
000002a0: 8834 503c ffd2 c13b b375 f23c c705 dc3c
000002b0: 77e2 02bc 12be 8dbc 34aa eb3c 4045 45bc
000002c0: 0c61 7f3b f7ba 0aba ae7f 883c 85af bb3b
000002d0: 589a af3d 45a1 47bc 353d 943b 3022 80bd
000002e0: f714 893c f653 f03a 955a 84bc f006 c13c
000002f0: 33f0 27bc 5b38 573c 550c a43c c3f6 4f3c
00000300: 75a5 48bd 368a 08bb f641 153a 437b 003c
00000310: 5b33 39bd c1b9 6a3b 5e2f ef3c 0185 f23b
00000320: f277 d1bc 3d31 44bc 03eb b43b e4d1 2f3a
00000330: 0f25 883b 74d1 3bbd a975 7abb d648 d13c
00000340: 8434 22bc aef9 3abd 24e7 1d3c 858d bbbb
00000350: b9e9 4dbd 29e5 3b3b cf8a caba ddad 30bd
00000360: 3b54 0ebd 95eb 33bc 1599 653c 9878 66bd
00000370: 8f6f 2e3b 4f2a a4ba 74fa 073c f962 bb3b
00000380: c7c7 dbbc d32e 9ebb 0076 703c a784 033c
00000390: dee7 92bc 459b 7a3b a23e a63c ec7e c8bb
000003a0: b654 823c 77c4 973c 6d07 13bc 3e05 043d
000003b0: c379 aabc 706b 363c 0518 f1bb dd1f 333b
000003c0: c85c 06bd 9fc8 853c f0d4 cb3b c609 183d
000003d0: 3d41 f8bb 0929 f03b 3bb9 91bc c8c7 22bb
000003e0: 3930 11bc b872 b33b 8581 26bc 711b 433b
000003f0: 6b13 9cbc 1aee a93c 6890 c5ba 185c 1d3d
-0.016470414 -0.012743323 -0.024087425 -0.009795835 0.017760413 0.0034238223 -0.08583569 -0.012217351
0.013460297 -0.019631814 0.031467002 -0.032717783 -0.0022748585 0.0046535265 -0.005169293 0.030206593
0.044898856 -0.009447082 -0.0015568811 0.009828242 -0.029231835 0.046157327 -0.02799437 -0.0077441637
-0.011180905 0.009439228 0.04643884 0.014869244 0.0010317895 -0.00187651 -0.029531986 0.0058162976
0.056099847 0.003625121 0.007767226 0.003933973 0.025260815 -0.0046002646 -0.038195394 0.08527806
0.0008400897 0.00057100755 -0.005157774 0.016140744 -0.011533643 0.0025953948 0.011380018 -0.003909886
-0.006692427 0.0624525 0.0032321322 0.005678677 -0.10569238 -0.014678359 -0.0048203594 0.00087556965
-0.016360734 -0.005018934 -0.026922124 0.050137945 0.009644802 0.008873079 -0.015105707 -0.008097232
0.049162164 0.0027041542 0.0029555862 0.008430214 0.0053074225 0.0139956465 0.0251931 0.014651126
-0.020256095 -0.018655485 -0.0028278201 -0.0019163603 0.0021747695 -0.043944467 0.0004710403 0.005401215
-0.004752228 0.0048654485 0.008800372 -0.0077353683 -0.024257693 -0.008023325 -0.0024504242 0.034375675
0.04295259 -0.005381627 0.012611293 -0.023696888 0.005976311 0.019050023 0.018073112 0.009606125
-0.0021186555 -0.0055964263 -0.019863902 -0.00312768 0.0024023603 0.012495367 -0.020579703 -0.026404832
-0.036633156 0.011174271 -0.008785107 0.01877784 -0.022045951 -0.033627488 0.007525568 0.026942251
-0.005069993 -0.0061623515 0.005238558 -0.01618856 0.008344085 -0.0035396381 -0.008146805 0.01706615
-0.013885622 -0.01632019 0.019664453 0.00046352253 0.0011649916 0.020524101 0.005332019 0.0054380787
-0.0033453219 -0.0011683549 0.0011605114 -0.0055144406 -0.002787107 -0.013231343 0.10649545 0.007953874
-0.0025557603 -0.0047726417 0.005491839 -0.018894676 -0.015615667 0.020104224 -0.0006762283 -0.030085187
-0.006027243 -0.009938109 0.024271773 -0.020125018 0.0045573553 0.042689286 -0.012438163 -0.01456196
0.033187076 0.0052099437 -0.004860445 -0.015126659 -0.005171478 -0.006005274 -0.024871971 0.009875041
0.02327116 -0.0041324757 0.011310761 0.0029502504 0.020610534 -0.0047738403 -0.0055033127 -0.08779119
0.012707837 0.0059150453 0.029597139 0.026858224 -0.007988564 -0.017302547 0.028767683 -0.012040436
0.0038967757 -0.0005292142 0.016662445 0.0057277107 0.085743606 -0.012184446 0.004523898 -0.06256521
0.01673363 0.0018335569 -0.016156474 0.023562878 -0.010250139 0.013135995 0.020025412 0.01269311
-0.048985917 -0.0020834333 0.0005693728 0.007841888 -0.045214992 0.0035816284 0.029197391 0.007401109
-0.02556989 -0.01197463 0.0055211796 0.00067069964 0.0041548084 -0.045854047 -0.0038217104 0.025547426
-0.009900216 -0.04564827 0.009637628 -0.0057236576 -0.050271723 0.0028670526 -0.0015452745 -0.04313456
-0.034748297 -0.01098146 0.014013548 -0.05626735 0.0026616787 -0.0012524816 0.008299459 0.0057185856
-0.02682866 -0.004827359 0.014676571 0.008027232 -0.017932829 0.003823952 0.020293538 -0.006118646
0.015909534 0.018526299 -0.008973938 0.03223156 -0.020810014 0.0111340135 -0.0073575997 0.0027332224
-0.032803327 0.016331015 0.0062204525 0.037118696 -0.0075761364 0.0073291105 -0.01778852 -0.0024838317
-0.008861595 0.005476322 -0.010162716 0.0029770995 -0.019052228 0.020743418 -0.0015072944 0.038417906

actor.6.bias f4 [12]
00000000: 900a 60bd bbf2 573d 3fc5 e4bd a698 e63d
00000010: 3899 03bd fc5e dabc 7477 e43d 18b3 e63d
00000020: d324 9b3e 9cbb 983e c7b8 9f3e 0ea2 a03e
-0.054697573 0.05272172 -0.11170434 0.11259584 -0.032128543 -0.02665662 0.111555964 0.11264628
0.30301532 0.29830635 0.3119566 0.31373638
