tested_policies/aliengo/equivariant_policy/exported/policy.onnx (onnx, 273678 bytes, 8 tensors)

actor.linear_0: in=260-out=128.weight f4 [128, 260]
00000000: 2932 88be 4034 32bf 9442 f63e 95c3 7c3c
00000010: 6f6b b03d 4c96 01bd 86a9 1240 b9d8 813f
00000020: 71b6 85bd 18e7 c13e 8b8c ce3e 773b c13e
00000030: edaa 40be 11b9 3bbe f0d0 17be e443 40bd
00000040: f419 1c3d 682c f33d 3c0c 653e afc7 0d3f
00000050: ec42 2fbe 9e1b 473d c297 42bd a0cb 513e
00000060: a26c 4b3d 5f2b b8bd 4530 443c c275 a9bc
00000070: 0cec babd e3ed 43bd e8c3 26bc 4af1 33bd
00000080: c307 42bd 3fe2 063d 6818 e03c db56 0fbd
00000090: e46e 2bbd d36a 4bbe 0c93 88bd 8f26 a03c
000000a0: 5c0a f9bb 8d24 9bbc 2cad c03c 834a 02bd
000000b0: 82c7 f23d f827 eabc b67f 62bd 10c6 07bb
000000c0: cac0 8abe 3c8c 1a3e ac83 143e 6860 8abe
000000d0: 2309 9cbe e2ed b6be f505 e53d e6e2 3dbe
000000e0: 6661 073e 90aa f63d b51d 1140 ed4f 943f
000000f0: 9287 e5bb 51c2 d63e bef2 ca3e 9b98 c33e
00000100: 83df 7cbe 3a4e 81be 8497 013c ca82 f3bd
00000110: 5067 b9bd 663e c2bc 9ffe 8d3e ad0c a83e
00000120: d140 17be d999 0d3e 9ce6 1abe 1241 0b3e
00000130: 7e78 ad3d 1caa e3bc 61a3 253d 30ee c6bb
00000140: 26d1 8abd 350d 643d 2cc5 913b 0487 3dbd
00000150: 08ed 2b3c 1eb4 a43b 8a01 d83d 8665 a13c
00000160: cc96 293c 501a 55bd 7148 c2bd a555 a9bd
00000170: 6100 45bd d61f c5bc 97ed d73c 2a9b 02bd
00000180: 8c4c e13d 7e76 e73c e713 92bd 96f1 0fbe
00000190: 5867 21be b890 b63c 6d2f 06be 4f98 6abe
000001a0: a62f 7cbe 86c4 25be 3662 e7bd a4d1 d3be
000001b0: bf89 09be 02a9 483d 9216 0d40 65df 9f3f
000001c0: c423 16bb 51e4 de3e a403 923e 53c9 b93e
000001d0: bd39 95be de44 49be 61bf 1bbd 5ae3 c73c
000001e0: c007 b039 5264 c73c bbdb 973e 4173 863e
000001f0: ee16 55be 8f97 a83d 4507 a3bd d28f 453e
00000200: a4a6 e23c c624 df3b c024 bd3a 9024 cbbd
00000210: ce37 583c 92c1 6e3d 980f 74bb 5c93 05bd
00000220: 2628 02bd 860c 4b3d 51a7 b13d a85d 5cbc
00000230: 47c0 9c3d 5633 37bd 8535 1abd dd55 58bd
00000240: 8626 a5bd 1878 87bd 6e71 d7bb fc4a dbbc
00000250: 70c3 a23d 6af1 023e 76b9 bdbc e6cb 92bc
00000260: 3853 fbbb e86b d2bd 76e3 51be 3085 50bd
00000270: caf1 8dbe c8d8 5e3e 15a7 babc 9e2f 6cbe
00000280: df8b ffbd 0c66 dd3c ce31 0f40 4b40 9f3f
00000290: 0a69 bc3c cfbc 413e 4327 fa3e 35ff ca3e
000002a0: 5222 b3be 1a7c aebe a411 22be 2f33 60bd
000002b0: de6f 433c 1610 8f3d f8c0 883e b0a9 d53e
000002c0: dc2a 0fbe 94b5 de3c 0654 bbbd bc64 123e
000002d0: 8e1a c33c 5b0e 05be 5910 58bc d164 0cbc
000002e0: a401 8c3d 4ca2 5f3d ce09 81bd 2878 93bd
000002f0: c503 94bd 9add 28bd 8aea e1bd fa31 88bd
00000300: b603 cdbd bfce 073d 96a4 7abd 763e 2cbd
00000310: 72a0 f23c b815 993c f8e4 07be c0fb 36be
00000320: 3cb7 153d 70a3 953d c081 7d3b 6a82 2bbd
00000330: bb44 e33d c018 81be d5e7 50be 2319 213e
00000340: 331a c8be 7ec7 ad3f b34d f3be 0cf1 bfbe
00000350: 913c 8e3f 88d8 413f cb2a 1b40 e273 a53f
00000360: 159a 753c 8049 8f3e 5eb9 b13e f23a d53e
00000370: 038f 1bbe 5ebe b3be c22f 79bd 1d8f f9bd
00000380: 7aed bc3c 7dbd 6d3d 5071 603e ac39 b03e
00000390: f3b9 1dbe 1372 383e 845e 593d 6757 813c
000003a0: ec8f 84bc 8e03 d73c d47b 963b 423a 5cbd
000003b0: 7cf1 ed3c a6a3 6bbd 3cd6 ce3d 0ac8 483e
000003c0: 4a7f 843d f6ae fcbd f06b 7cbd 0178 a2bc
000003d0: dc97 353d 807e 0e3d 61a3 18be 122a efbd
000003e0: 550c ae3d ac92 db3c f058 4a3b 57c3 02be
000003f0: 904c 17bb 00bf c43d fc27 d13c 2f0c 84be
-0.2660077 -0.6961098 0.4809767 0.01542749 0.08614241 -0.031637475 2.291597 1.0144264
-0.065289386 0.37871623 0.403416 0.3774068 -0.18815203 -0.18332316 -0.14825797 -0.046939746
0.03811069 0.11873704 0.22367948 0.5538282 -0.17115372 0.048610322 -0.04750801 0.20487833
0.049664147 -0.089926474 0.011974399 -0.020686034 -0.091270536 -0.04783429 -0.010178544 -0.043931283
-0.047370683 0.03293061 0.027355388 -0.03499494 -0.0418538 -0.19864969 -0.06668672 0.019549636
-0.007600112 -0.018938327 0.023520075 -0.03180934 0.11854459 -0.028583512 -0.055297576 -0.002071742
-0.2710021 0.15092558 0.14503354 -0.27026677 -0.3047572 -0.35728365 0.11182777 -0.18543586
0.13220748 0.12044251 2.2674382 1.1586891 -0.0070046866 0.41945127 0.39638323 0.38202366
-0.24694638 -0.25254995 0.007909659 -0.118901804 -0.090529084 -0.023711395 0.27733323 0.3282217
-0.14770819 0.1382822 -0.15127033 0.13599041 0.08470248 -0.027791075 0.040439013 -0.0060708746
-0.06778173 0.055676658 0.0044485535 -0.04627134 0.010493524 0.0050263545 0.105471686 0.01970173
0.010350894 -0.052027047 -0.09486473 -0.082682885 -0.048096064 -0.024063032 0.026358409 -0.031886257
0.11000928 0.028254744 -0.07132702 -0.14057001 -0.15762079 0.022285804 -0.13104029 -0.22909664
-0.24627551 -0.16188249 -0.11298029 -0.4137088 -0.13431452 0.048989303 2.2045026 1.249005
-0.0022909502 0.43533567 0.28518403 0.3628641 -0.29145613 -0.19655177 -0.03802431 0.024400402
0.0003357511 0.024339829 0.2965983 0.26259807 -0.20809528 0.082320325 -0.07960371 0.19293144
0.027667351 0.0068098037 0.0014430508 -0.09919083 0.013196899 0.05829007 -0.003724074 -0.032611236
-0.03177657 0.04957249 0.08674491 -0.013450064 0.076538615 -0.044726692 -0.037648696 -0.05281626
-0.080639884 -0.06614703 -0.006574801 -0.026769154 0.07947433 0.12787405 -0.023159724 -0.017919492
-0.0076698326 -0.10274488 -0.20496926 -0.050908267 -0.27723533 0.21762383 -0.022784749 -0.2306504
-0.1247785 0.027026199 2.2374148 1.2441496 0.022999305 0.18919681 0.4885808 0.39647833
-0.34987122 -0.34079057 -0.15827042 -0.054736312 0.011928527 0.0698549 0.26709723 0.41731024
-0.13981193 0.027186193 -0.091468856 0.1429624 0.023816373 -0.12993757 -0.013187491 -0.008568958
0.068362504 0.054598138 -0.06300698 -0.07200652 -0.072272815 -0.04122696 -0.11031063 -0.06650157
-0.100104734 0.033156153 -0.061192118 -0.042051755 0.029617522 0.018687114 -0.13270938 -0.17869473
0.0365517 0.07306564 0.0038682073 -0.04187242 0.11097094 -0.25214195 -0.20400937 0.15732245
-0.39082488 1.3576505 -0.47520217 -0.37488592 1.1112233 0.75721025 2.4244869 1.292599
0.014990349 0.27985764 0.34711736 0.41646534 -0.15191273 -0.35106176 -0.06083656 -0.121855
0.023062456 0.05804204 0.21918225 0.34419 -0.15402965 0.18012266 0.053068653 0.015788747
-0.016181909 0.026246812 0.004592398 -0.053766496 0.029045813 -0.057529114 0.10099456 0.19607559
0.06469591 -0.12338059 -0.061626375 -0.019832613 0.044334278 0.03478861 -0.14906074 -0.11677946
0.08498446 0.026803337 0.0030875765 -0.12769829 -0.0023086406 0.09606743 0.025531761 -0.25790545

actor.linear_0: in=260-out=128.bias f4 [128]
00000000: 6db8 32ba 6db8 32ba 687d 513d 687d 513d
00000010: e832 993d e832 993d 93c3 96be 93c3 96be
00000020: 2b02 303d 2b02 303d 4670 edbb 4670 edbb
00000030: f60d 03be f60d 03be 47c6 233d 47c6 233d
00000040: ae7f fdbd ae7f fdbd 0ac1 1b3c 0ac1 1b3c
00000050: 26ec 10be 26ec 10be 101c b4bd 101c b4bd
00000060: 3758 25bd 3758 25bd 83ac e2bd 83ac e2bd
00000070: e410 0cbc e410 0cbc f084 63be f084 63be
00000080: 81e4 a03d 81e4 a03d a0bf b6bb a0bf b6bb
00000090: cfbe eebd cfbe eebd 872b d53c 872b d53c
000000a0: afca 713c afca 713c 0473 023d 0473 023d
000000b0: 7707 d5bd 7707 d5bd 432f b3be 432f b3be
000000c0: 0428 e8bd 0428 e8bd 8cb2 84bd 8cb2 84bd
000000d0: d7ea 35bd d7ea 35bd ad91 1dbd ad91 1dbd
000000e0: 1500 80bb 1500 80bb db69 623c db69 623c
000000f0: 5bbc 15bc 5bbc 15bc 0213 aebd 0213 aebd
00000100: 4b57 383c 4b57 383c c003 24be c003 24be
00000110: 8596 90bd 8596 90bd 4bcd 7abc 4bcd 7abc
00000120: b517 c33c b517 c33c 933e 0bbd 933e 0bbd
00000130: 86e2 47bc 86e2 47bc c756 7bbc c756 7bbc
00000140: 207b 223d 207b 223d 982f 553d 982f 553d
00000150: 53dd 8c3c 53dd 8c3c 48fe c4bc 48fe c4bc
00000160: bba2 2fbd bba2 2fbd c475 43be c475 43be
00000170: 0deb c1bd 0deb c1bd a0c3 913d a0c3 913d
00000180: cf3f ab3d cf3f ab3d 3df4 4b3c 3df4 4b3c
00000190: 36c2 22bd 36c2 22bd 21a7 35bd 21a7 35bd
000001a0: d0ca 2b3c d0ca 2b3c 0c54 c0bb 0c54 c0bb
000001b0: 1d1c ddbb 1d1c ddbb 9495 1dbc 9495 1dbc
000001c0: 4aff 10be 4aff 10be 1d23 113d 1d23 113d
000001d0: 5151 173e 5151 173e c398 18bd c398 18bd
000001e0: 16c1 c1bd 16c1 c1bd 10e5 423d 10e5 423d
000001f0: 71df 543b 71df 543b 1ef6 09be 1ef6 09be
-0.0006817643 -0.0006817643 0.051144987 0.051144987 0.07480413 0.07480413 -0.29446086 -0.29446086
0.042970818 0.042970818 -0.00724605 -0.00724605 -0.12798294 -0.12798294 0.039984014 0.039984014
-0.123778686 -0.123778686 0.009506473 0.009506473 -0.14152583 -0.14152583 -0.08794415 -0.08794415
-0.04036733 -0.04036733 -0.1106806 -0.1106806 -0.008548949 -0.008548949 -0.2221868 -0.2221868
0.07856084 0.07856084 -0.0055770427 -0.0055770427 -0.116574876 -0.116574876 0.026021732 0.026021732
0.014757796 0.014757796 0.03184797 0.03184797 -0.104018144 -0.104018144 -0.34996995 -0.34996995
-0.113357574 -0.113357574 -0.064793676 -0.064793676 -0.044413414 -0.044413414 -0.038469005 -0.038469005
-0.00390626 -0.00390626 0.013819183 0.013819183 -0.009139146 -0.009139146 -0.08499719 -0.08499719
0.011251281 0.011251281 -0.16017056 -0.16017056 -0.07059959 -0.07059959 -0.015307735 -0.015307735
0.023815015 0.023815015 -0.033995222 -0.033995222 -0.0122000035 -0.0122000035 -0.015340514 -0.015340514
0.039668202 0.039668202 0.052047342 0.052047342 0.01719538 0.01719538 -0.024047032 -0.024047032
-0.0428798 -0.0428798 -0.19087893 -0.19087893 -0.094686605 -0.094686605 0.07117391 0.07117391
0.0836178 0.0836178 0.012448368 0.012448368 -0.039735995 -0.039735995 -0.04434884 -0.04434884
0.010485366 0.010485366 -0.005869394 -0.005869394 -0.006747736 -0.006747736 -0.009618182 -0.009618182
-0.14159885 -0.14159885 0.035433877 0.035433877 0.14777113 0.14777113 -0.03725506 -0.03725506
-0.09460656 -0.09460656 0.047581732 0.047581732 0.0032481814 0.0032481814 -0.13472793 -0.13472793

actor.linear_1: in=128-out=128.weight f4 [128, 128]
00000000: 7674 123e 14e6 0ebe 40e7 dbba b476 3cbe
00000010: 183b 4a3c 1f5f fcbd 984d 543e a8fe d0bd
00000020: 87be 3e3d 0211 9dbd 155a 0cbe baa8 d73d
00000030: 781a 7a3e 336f c93d f9ec 2f3e 5ced 4e3d
00000040: d0c9 6b3b c8de a2bd b4a2 d3bc 07ae 3abc
00000050: 6e08 373d d050 363e 625e 7b3d c2a5 703e
00000060: b5f2 703e 744e 193d ac03 de3c e79b d93d
00000070: e49f 0fbd f4a7 b5be ce09 223e f0d3 f23d
00000080: 4247 443d 6494 bb3c 6e2b 103d 1efb a5bc
00000090: 808b adba d48d f73d 16e6 95bd e3c8 44be
000000a0: b927 233e 634f 413e 53a7 123e f765 55be
000000b0: 989b 18bc 3609 68bb a5a9 61bd ffb9 003d
000000c0: 3e12 3cbd f050 153e 1b89 93bd fbce adbd
000000d0: da20 6c3e 075d bc3d 8967 edbd bd80 1c3e
000000e0: 8c61 003e 2218 dcbd c06b 253a ecb8 cb3d
000000f0: 5e7e 2fbd 8897 583d 374a 6cbd 07cd 32be
00000100: 4ecf 45bd 9c3b 4abc c87c b93c 4ad2 16be
00000110: 08fd aabd 6a4c bd3d 50f3 09bd 7dca 05be
00000120: 661f 903d 7599 2ebe b152 233e b0d6 a6bd
00000130: 7886 1f3c 7ca5 00be 3aa2 653d defc 843d
00000140: c815 9ebd 9060 2d3b 0fb7 45be 0773 62be
00000150: 5862 2a3d dc42 623e 5db7 56bd a0ed 963a
00000160: 6286 e03d 21e7 5f3d e54a 373e c073 b03c
00000170: c4b9 d2bc 8457 4f3d 7e64 20be 2852 363c
00000180: 8332 71be d14f 74be b22d 9abd 702f a2be
00000190: 74e0 8cbe 4227 593d 4894 cf3b 898b 85bc
000001a0: 21b0 4abe 0df9 0ebe a0f2 693d de4d 92be
000001b0: 69f4 49bd c527 0c3e 460d e23d 6854 cebb
000001c0: f4b7 e1bd 6885 5b3d dccc 093c fccf f0bd
000001d0: cd7f 14be bf34 6a3d 13d6 053d abf0 1f3e
000001e0: e164 d23c 5b18 9d3d a85b 82be cc56 1bbd
000001f0: 05ab 213e c6a0 92bd 7410 a9be b148 343e
00000200: 14e6 0ebe 7674 123e b476 3cbe 40e7 dbba
00000210: 1f5f fcbd 183b 4a3c a8fe d0bd 984d 543e
00000220: 0211 9dbd 87be 3e3d baa8 d73d 155a 0cbe
00000230: 336f c93d 781a 7a3e 5ced 4e3d f9ec 2f3e
00000240: c8de a2bd d0c9 6b3b 07ae 3abc b4a2 d3bc
00000250: d050 363e 6e08 373d c2a5 703e 625e 7b3d
00000260: 744e 193d b5f2 703e e79b d93d ac03 de3c
00000270: f4a7 b5be e49f 0fbd f0d3 f23d ce09 223e
00000280: 6494 bb3c 4247 443d 1efb a5bc 6e2b 103d
00000290: d48d f73d 808b adba e3c8 44be 16e6 95bd
000002a0: 634f 413e b927 233e f765 55be 53a7 123e
000002b0: 3609 68bb 989b 18bc ffb9 003d a5a9 61bd
000002c0: f050 153e 3e12 3cbd fbce adbd 1b89 93bd
000002d0: 075d bc3d da20 6c3e bd80 1c3e 8967 edbd
000002e0: 2218 dcbd 8c61 003e ecb8 cb3d c06b 253a
000002f0: 8897 583d 5e7e 2fbd 07cd 32be 374a 6cbd
00000300: 9c3b 4abc 4ecf 45bd 4ad2 16be c87c b93c
00000310: 6a4c bd3d 08fd aabd 7dca 05be 50f3 09bd
00000320: 7599 2ebe 661f 903d b0d6 a6bd b152 233e
00000330: 7ca5 00be 7886 1f3c defc 843d 3aa2 653d
00000340: 9060 2d3b c815 9ebd 0773 62be 0fb7 45be
00000350: dc42 623e 5862 2a3d a0ed 963a 5db7 56bd
00000360: 21e7 5f3d 6286 e03d c073 b03c e54a 373e
00000370: 8457 4f3d c4b9 d2bc 2852 363c 7e64 20be
00000380: d14f 74be 8332 71be 702f a2be b22d 9abd
00000390: 4227 593d 74e0 8cbe 898b 85bc 4894 cf3b
000003a0: 0df9 0ebe 21b0 4abe de4d 92be a0f2 693d
000003b0: c527 0c3e 69f4 49bd 6854 cebb 460d e23d
000003c0: 6885 5b3d f4b7 e1bd fccf f0bd dccc 093c
000003d0: bf34 6a3d cd7f 14be abf0 1f3e 13d6 053d
000003e0: 5b18 9d3d e164 d23c cc56 1bbd a85b 82be
000003f0: c6a0 92bd 05ab 213e b148 343e 7410 a9be
0.14302239 -0.13954955 -0.0016777292 -0.18404657 0.012343191 -0.123228304 0.20732725 -0.10204822
0.04656842 -0.076692596 -0.13706239 0.10530229 0.2442416 0.09835663 0.17180242 0.050519332
0.0035978444 -0.079526484 -0.025834419 -0.01139403 0.044685774 0.17804265 0.061369307 0.23500732
0.23530085 0.037428334 0.02710136 0.10625439 -0.035064593 -0.354797 0.15824053 0.1185683
0.04791952 0.022897907 0.035197668 -0.020261344 -0.0013240427 0.120875984 -0.07319276 -0.19217257
0.15933122 0.1887794 0.14321642 -0.20839678 -0.00931444 -0.003540588 -0.055093426 0.03142738
-0.045915835 0.14581656 -0.07203885 -0.08486744 0.23059407 0.09197431 -0.115920134 0.15283485
0.12537211 -0.107467905 0.00063103065 0.099473804 -0.042845123 0.052878886 -0.057687964 -0.17461024
-0.048293404 -0.012343314 0.022642508 -0.14728656 -0.08349043 0.092430905 -0.033679307 -0.13065524
0.07037239 -0.17050727 0.15949513 -0.08146417 0.00973665 -0.12563127 0.056062914 0.06493543
-0.07718998 0.002645526 -0.19308113 -0.22114192 0.041597694 0.22095817 -0.052420963 0.001151491
0.109631315 0.05466378 0.17899664 0.021539569 -0.025723346 0.05062057 -0.15663335 0.011127986
-0.23554425 -0.23858573 -0.07528247 -0.31676817 -0.27514994 0.053015955 0.006334815 -0.016301887
-0.1979375 -0.13962193 0.05711615 -0.28575033 -0.049305353 0.13687046 0.11037688 -0.006296683
-0.110214144 0.053594023 0.008410659 -0.1175842 -0.14501877 0.05717921 0.03267486 0.15619151
0.025682868 0.07670661 -0.25460553 -0.037924573 0.15787895 -0.07159571 -0.33020365 0.17605855
-0.13954955 0.14302239 -0.18404657 -0.0016777292 -0.123228304 0.012343191 -0.10204822 0.20732725
-0.076692596 0.04656842 0.10530229 -0.13706239 0.09835663 0.2442416 0.050519332 0.17180242
-0.079526484 0.0035978444 -0.01139403 -0.025834419 0.17804265 0.044685774 0.23500732 0.061369307
0.037428334 0.23530085 0.10625439 0.02710136 -0.354797 -0.035064593 0.1185683 0.15824053
0.022897907 0.04791952 -0.020261344 0.035197668 0.120875984 -0.0013240427 -0.19217257 -0.07319276
0.1887794 0.15933122 -0.20839678 0.14321642 -0.003540588 -0.00931444 0.03142738 -0.055093426
0.14581656 -0.045915835 -0.08486744 -0.07203885 0.09197431 0.23059407 0.15283485 -0.115920134
-0.107467905 0.12537211 0.099473804 0.00063103065 0.052878886 -0.042845123 -0.17461024 -0.057687964
-0.012343314 -0.048293404 -0.14728656 0.022642508 0.092430905 -0.08349043 -0.13065524 -0.033679307
-0.17050727 0.07037239 -0.08146417 0.15949513 -0.12563127 0.00973665 0.06493543 0.056062914
0.002645526 -0.07718998 -0.22114192 -0.19308113 0.22095817 0.041597694 0.001151491 -0.052420963
0.05466378 0.109631315 0.021539569 0.17899664 0.05062057 -0.025723346 0.011127986 -0.15663335
-0.23858573 -0.23554425 -0.31676817 -0.07528247 0.053015955 -0.27514994 -0.016301887 0.006334815
-0.13962193 -0.1979375 -0.28575033 0.05711615 0.13687046 -0.049305353 -0.006296683 0.11037688
0.053594023 -0.110214144 -0.1175842 0.008410659 0.05717921 -0.14501877 0.15619151 0.03267486
0.07670661 0.025682868 -0.037924573 -0.25460553 -0.07159571 0.15787895 0.17605855 -0.33020365

actor.linear_1: in=128-out=128.bias f4 [128]
00000000: df3f 89bd df3f 89bd 1fb9 bbbc 1fb9 bbbc
00000010: 8ec1 15be 8ec1 15be b2c7 41be b2c7 41be
00000020: 6127 b9bb 6127 b9bb 077d 3cbc 077d 3cbc
00000030: eb31 153c eb31 153c bde3 62be bde3 62be
00000040: a19f 8bbd a19f 8bbd bf78 863c bf78 863c
00000050: 750a 18be 750a 18be ac32 16be ac32 16be
00000060: 1aa0 07be 1aa0 07be 1e90 fb3a 1e90 fb3a
00000070: 7154 423d 7154 423d 0167 b2be 0167 b2be
00000080: 99c7 8abd 99c7 8abd 4228 bf3b 4228 bf3b
00000090: 8252 44be 8252 44be 5a52 17bf 5a52 17bf
000000a0: a17e 02ba a17e 02ba f6ca 2cbe f6ca 2cbe
000000b0: 4e66 7a3d 4e66 7a3d 6fd5 f0bd 6fd5 f0bd
000000c0: f857 bf3d f857 bf3d f121 61bd f121 61bd
000000d0: fa04 c7be fa04 c7be 51d5 1a3d 51d5 1a3d
000000e0: de2b eabd de2b eabd e77b cbbd e77b cbbd
000000f0: 7c6d cc3d 7c6d cc3d 384a 2fbd 384a 2fbd
00000100: a52f 693d a52f 693d 7f5f d7be 7f5f d7be
00000110: b7b4 92bc b7b4 92bc dd26 383d dd26 383d
00000120: f1df 95bd f1df 95bd 9aab 7bbc 9aab 7bbc
00000130: 772c c7be 772c c7be 066b 11be 066b 11be
00000140: 930c 27bd 930c 27bd d67b f4bb d67b f4bb
00000150: 4d32 3abe 4d32 3abe 31c5 7bbe 31c5 7bbe
00000160: 1092 04be 1092 04be 7aa3 10bc 7aa3 10bc
00000170: 9879 25be 9879 25be b81e 853d b81e 853d
00000180: 81b3 58be 81b3 58be c2f8 c6bd c2f8 c6bd
00000190: b715 f1bd b715 f1bd adf5 5cbd adf5 5cbd
000001a0: 0848 36be 0848 36be cf81 953d cf81 953d
000001b0: d478 8f3d d478 8f3d 5635 0fbe 5635 0fbe
000001c0: 03d0 87be 03d0 87be 8cef 6abe 8cef 6abe
000001d0: f8e0 a7bd f8e0 a7bd 1021 f9bd 1021 f9bd
000001e0: 23e5 11be 23e5 11be 8d09 b8bd 8d09 b8bd
000001f0: f116 42bd f116 42bd 428c abbd 428c abbd
-0.067016356 -0.067016356 -0.022915421 -0.022915421 -0.14624617 -0.14624617 -0.18923834 -0.18923834
-0.0056504463 -0.0056504463 -0.011504418 -0.011504418 0.00910614 0.00910614 -0.22157188 -0.22157188
-0.06817556 -0.06817556 0.016414998 0.016414998 -0.14847739 -0.14847739 -0.14667767 -0.14667767
-0.13244668 -0.13244668 0.001919273 0.001919273 0.04744381 0.04744381 -0.3484421 -0.3484421
-0.067763515 -0.067763515 0.0058336565 0.0058336565 -0.19172099 -0.19172099 -0.59110034 -0.59110034
-0.00049779756 -0.00049779756 -0.16874298 -0.16874298 0.06113272 0.06113272 -0.11759459 -0.11759459
0.093429506 0.093429506 -0.05496401 -0.05496401 -0.38870984 -0.38870984 0.03780109 0.03780109
-0.11434148 -0.11434148 -0.09935742 -0.09935742 0.0998182 0.0998182 -0.04279539 -0.04279539
0.056930203 0.056930203 -0.42065045 -0.42065045 -0.017908437 -0.017908437 0.044958938 0.044958938
-0.07318104 -0.07318104 -0.015360737 -0.015360737 -0.3890111 -0.3890111 -0.14200982 -0.14200982
-0.040783476 -0.040783476 -0.0074610515 -0.0074610515 -0.1818325 -0.1818325 -0.24586941 -0.24586941
-0.12946343 -0.12946343 -0.008828038 -0.008828038 -0.16159666 -0.16159666 0.065 0.065
-0.21162225 -0.21162225 -0.097154155 -0.097154155 -0.1177172 -0.1177172 -0.053945232 -0.053945232
-0.17800915 -0.17800915 0.0730015 0.0730015 0.07005468 0.07005468 -0.1398519 -0.1398519
-0.26525888 -0.26525888 -0.22942942 -0.22942942 -0.08197206 -0.08197206 -0.12164509 -0.12164509
-0.14247565 -0.14247565 -0.08986197 -0.08986197 -0.04738516 -0.04738516 -0.083763614 -0.083763614

actor.linear_2: in=128-out=128.weight f4 [128, 128]
00000000: ee22 993e 146e 0e3d a0b5 d33b 9472 fabd
00000010: 5ca1 163e b08f 77be 0a08 03bc e2d3 5cbd
00000020: f5c0 adbe 0098 d4ba 3414 213d 75d6 a03c
00000030: 20c8 83bd 2ed8 41be 34fb 3f3e 0490 b1be
00000040: 1072 bebe dabc 98bd a260 fabd 60a1 ef3c
00000050: aa72 823d b3ae c4bc 6a7a 503e 2c07 f1bc
00000060: 8a85 cd3d 84ef 8c3d 528f a2bd c93d 143e
00000070: c4a8 5d3b c030 b6bc e3af 3e3e eaa0 bcbe
00000080: 77b5 e8bd 5559 b6bd 5f55 d23d af30 e33d
00000090: fef5 3b3e 7a45 21be 4a6a afbc f8ae e3bd
000000a0: 3087 8abd 1045 a9bd 76c3 05be 31ed 5f3d
000000b0: 0e8c 6dbd 2b9f a4bc f638 1abe 644a f53d
000000c0: b46a efbd d878 42be 001f 303c 7cc5 cd3b
000000d0: 7a45 8dbd bee5 8f3e 59e2 f8bd 6cf6 c43c
000000e0: bd6a 55be 70a0 073d e68d 8cbd b3e3 213e
000000f0: ae6e 07bd 9fe7 9bbd 6c66 32bd 3706 56be
00000100: a4f7 93bc 4047 183e 5908 2a3d 21c5 383d
00000110: a929 b73d 2fc4 05be 9c7c 81be 0373 c4bd
00000120: d6b5 a6bd f0cb 153b 7357 be3d 299f 93bd
00000130: d643 32be 18ea 2a3e b1de 413e 5079 773c
00000140: 0a23 83bd d757 8d3c 9f6b f73c 2529 a13d
00000150: 91f9 373d 40cc 333b a2fa 36be 1235 473e
00000160: d57d e43d 1fd1 c6bd d66e fcbd af6a 53be
00000170: c780 84bd e077 173d 8826 da3b 5ccc 97bd
00000180: 93a8 89bd 672a aa3d 7253 a23e af76 79be
00000190: 13bd 11be 023e a3bd 1794 013e c323 923d
000001a0: bcdc 1e3e 2a1e 253d 5e26 8abd ea8f 133e
000001b0: 6c4a 8abe 9675 443d 74bf 98be e72d ecbd
000001c0: c8ce 263e 240a bebd 3438 82bd 6712 463d
000001d0: c033 fb3d fadd 713e a44b aabc f3a5 ebbd
000001e0: 80c9 b83a 5e4f 6dbe bac7 413d c2ac 77bc
000001f0: 95bf f5bc 62de 5dbc b280 483d 5208 2c3c
00000200: 146e 0e3d ee22 993e 9472 fabd a0b5 d33b
00000210: b08f 77be 5ca1 163e e2d3 5cbd 0a08 03bc
00000220: 0098 d4ba f5c0 adbe 75d6 a03c 3414 213d
00000230: 2ed8 41be 20c8 83bd 0490 b1be 34fb 3f3e
00000240: dabc 98bd 1072 bebe 60a1 ef3c a260 fabd
00000250: b3ae c4bc aa72 823d 2c07 f1bc 6a7a 503e
00000260: 84ef 8c3d 8a85 cd3d c93d 143e 528f a2bd
00000270: c030 b6bc c4a8 5d3b eaa0 bcbe e3af 3e3e
00000280: 5559 b6bd 77b5 e8bd af30 e33d 5f55 d23d
00000290: 7a45 21be fef5 3b3e f8ae e3bd 4a6a afbc
000002a0: 1045 a9bd 3087 8abd 31ed 5f3d 76c3 05be
000002b0: 2b9f a4bc 0e8c 6dbd 644a f53d f638 1abe
000002c0: d878 42be b46a efbd 7cc5 cd3b 001f 303c
000002d0: bee5 8f3e 7a45 8dbd 6cf6 c43c 59e2 f8bd
000002e0: 70a0 073d bd6a 55be b3e3 213e e68d 8cbd
000002f0: 9fe7 9bbd ae6e 07bd 3706 56be 6c66 32bd
00000300: 4047 183e a4f7 93bc 21c5 383d 5908 2a3d
00000310: 2fc4 05be a929 b73d 0373 c4bd 9c7c 81be
00000320: f0cb 153b d6b5 a6bd 299f 93bd 7357 be3d
00000330: 18ea 2a3e d643 32be 5079 773c b1de 413e
00000340: d757 8d3c 0a23 83bd 2529 a13d 9f6b f73c
00000350: 40cc 333b 91f9 373d 1235 473e a2fa 36be
00000360: 1fd1 c6bd d57d e43d af6a 53be d66e fcbd
00000370: e077 173d c780 84bd 5ccc 97bd 8826 da3b
00000380: 672a aa3d 93a8 89bd af76 79be 7253 a23e
00000390: 023e a3bd 13bd 11be c323 923d 1794 013e
000003a0: 2a1e 253d bcdc 1e3e ea8f 133e 5e26 8abd
000003b0: 9675 443d 6c4a 8abe e72d ecbd 74bf 98be
000003c0: 240a bebd c8ce 263e 6712 463d 3438 82bd
000003d0: fadd 713e c033 fb3d f3a5 ebbd a44b aabc
000003e0: 5e4f 6dbe 80c9 b83a c2ac 77bc bac7 413d
000003f0: 62de 5dbc 95bf f5bc 5208 2c3c b280 483d
0.29909462 0.034772947 0.0064608604 -0.12228885 0.14709991 -0.24175906 -0.007997522 -0.053913005
-0.33936277 -0.0016219616 0.039325908 0.019633511 -0.06434655 -0.18930122 0.1874817 -0.34680188
-0.37196398 -0.074578956 -0.122254625 0.029251754 0.06369527 -0.024009084 0.20359197 -0.029422365
0.10035236 0.068816215 -0.079374924 0.14476694 0.0033822516 -0.022240043 0.18621783 -0.36841518
-0.11362737 -0.089037575 0.102701895 0.1109327 0.18355557 -0.1574916 -0.021412987 -0.11117357
-0.06764066 -0.08265126 -0.13062844 0.054669563 -0.057994895 -0.020095428 -0.15060791 0.119770795
-0.11690274 -0.1899141 0.0107495785 0.0062796455 -0.06898017 0.28104967 -0.121525474 0.024043284
-0.20841499 0.03311199 -0.068630025 0.15809517 -0.033064537 -0.076125376 -0.04355471 -0.20900808
-0.01806242 0.1487093 0.041511867 0.04510987 0.08943493 -0.1306312 -0.25290382 -0.09592249
-0.08140151 0.0022857152 0.09294023 -0.07208092 -0.1740869 0.16690862 0.18932606 0.015104607
-0.064031675 0.0172538 0.030202685 0.07869176 0.04491574 0.0027434975 -0.17869046 0.19453838
0.11156813 -0.097078554 -0.12325828 -0.20646165 -0.06469875 0.036979556 0.0066574253 -0.07412025
-0.06721606 0.08308869 0.3170429 -0.2436168 -0.14232282 -0.079708114 0.12654148 0.07135727
0.15513891 0.04031197 -0.06745599 0.14410368 -0.27009904 0.0479637 -0.29833567 -0.11532193
0.16289818 -0.09279278 -0.06358376 0.048357394 0.1226573 0.23619834 -0.020788021 -0.11506262
0.0014098138 -0.23174807 0.047309615 -0.015116872 -0.02999858 -0.01354179 0.04895086 0.010500031
0.034772947 0.29909462 -0.12228885 0.0064608604 -0.24175906 0.14709991 -0.053913005 -0.007997522
-0.0016219616 -0.33936277 0.019633511 0.039325908 -0.18930122 -0.06434655 -0.34680188 0.1874817
-0.074578956 -0.37196398 0.029251754 -0.122254625 -0.024009084 0.06369527 -0.029422365 0.20359197
0.068816215 0.10035236 0.14476694 -0.079374924 -0.022240043 0.0033822516 -0.36841518 0.18621783
-0.089037575 -0.11362737 0.1109327 0.102701895 -0.1574916 0.18355557 -0.11117357 -0.021412987
-0.08265126 -0.06764066 0.054669563 -0.13062844 -0.020095428 -0.057994895 0.119770795 -0.15060791
-0.1899141 -0.11690274 0.0062796455 0.0107495785 0.28104967 -0.06898017 0.024043284 -0.121525474
0.03311199 -0.20841499 0.15809517 -0.068630025 -0.076125376 -0.033064537 -0.20900808 -0.04355471
0.1487093 -0.01806242 0.04510987 0.041511867 -0.1306312 0.08943493 -0.09592249 -0.25290382
0.0022857152 -0.08140151 -0.07208092 0.09294023 0.16690862 -0.1740869 0.015104607 0.18932606
0.0172538 -0.064031675 0.07869176 0.030202685 0.0027434975 0.04491574 0.19453838 -0.17869046
-0.097078554 0.11156813 -0.20646165 -0.12325828 0.036979556 -0.06469875 -0.07412025 0.0066574253
0.08308869 -0.06721606 -0.2436168 0.3170429 -0.079708114 -0.14232282 0.07135727 0.12654148
0.04031197 0.15513891 0.14410368 -0.06745599 0.0479637 -0.27009904 -0.11532193 -0.29833567
-0.09279278 0.16289818 0.048357394 -0.06358376 0.23619834 0.1226573 -0.11506262 -0.020788021
-0.23174807 0.0014098138 -0.015116872 0.047309615 -0.01354179 -0.02999858 0.010500031 0.04895086

actor.linear_2: in=128-out=128.bias f4 [128]
00000000: b93d 84bd b93d 84bd 92bd b5be 92bd b5be
00000010: 6c24 babd 6c24 babd c44a 76bd c44a 76bd
00000020: 2800 e3bc 2800 e3bc d70e ccbd d70e ccbd
00000030: 2b7c b6bd 2b7c b6bd 4c04 f0bc 4c04 f0bc
00000040: 6754 04be 6754 04be 672a c8bc 672a c8bc
00000050: 2d9f cebe 2d9f cebe 0cb8 f2bd 0cb8 f2bd
00000060: 5dc7 51be 5dc7 51be 0b2e 82bd 0b2e 82bd
00000070: 82d3 60be 82d3 60be 29da 7dbd 29da 7dbd
00000080: 8a2c 06bd 8a2c 06bd 8b95 ccbd 8b95 ccbd
00000090: 55a5 62bd 55a5 62bd 0109 96bd 0109 96bd
000000a0: a161 75bd a161 75bd 5e62 07bd 5e62 07bd
000000b0: e344 6dbe e344 6dbe 37b7 0dbd 37b7 0dbd
000000c0: 411e 58bd 411e 58bd 42f9 a4bd 42f9 a4bd
000000d0: df7e 04be df7e 04be 76bc 66be 76bc 66be
000000e0: b314 b7bd b314 b7bd de50 b1bd de50 b1bd
000000f0: 8a90 d2bd 8a90 d2bd bd70 c4bd bd70 c4bd
00000100: a217 cdbd a217 cdbd 6eda 5bbd 6eda 5bbd
00000110: 913c adbd 913c adbd 58b9 afbd 58b9 afbd
00000120: 4741 d8bd 4741 d8bd 4ff6 b3bd 4ff6 b3bd
00000130: f54b 7cbe f54b 7cbe a29a 88bd a29a 88bd
00000140: a847 17bd a847 17bd a710 ebbd a710 ebbd
00000150: dfd3 18be dfd3 18be e8e0 11bf e8e0 11bf
00000160: 3ace dbbd 3ace dbbd 743a 4abd 743a 4abd
00000170: b299 81bd b299 81bd 4899 8abd 4899 8abd
00000180: b70f 09bf b70f 09bf 6ae4 00be 6ae4 00be
00000190: d657 b8bd d657 b8bd 4590 b2bd 4590 b2bd
000001a0: d361 96bd d361 96bd 7f97 ebbc 7f97 ebbc
000001b0: 0010 07be 0010 07be cdb6 b2be cdb6 b2be
000001c0: 6d83 c0bd 6d83 c0bd 0ad4 10bc 0ad4 10bc
000001d0: d564 27be d564 27be 50cf c5bd 50cf c5bd
000001e0: a3c5 26be a3c5 26be b2de ddbd b2de ddbd
000001f0: a8d6 39be a8d6 39be b521 21be b521 21be
-0.06457085 -0.06457085 -0.35496193 -0.35496193 -0.09088978 -0.09088978 -0.060129896 -0.060129896
-0.027710035 -0.027710035 -0.09963768 -0.09963768 -0.08910402 -0.08910402 -0.029298924 -0.029298924
-0.12922822 -0.12922822 -0.024434282 -0.024434282 -0.40355816 -0.40355816 -0.118515104 -0.118515104
-0.20486207 -0.20486207 -0.06356438 -0.06356438 -0.21955684 -0.21955684 -0.061975632 -0.061975632
-0.03275732 -0.03275732 -0.099894606 -0.099894606 -0.055333454 -0.055333454 -0.07325936 -0.07325936
-0.05990756 -0.05990756 -0.033052795 -0.033052795 -0.2317081 -0.2317081 -0.034598555 -0.034598555
-0.052763227 -0.052763227 -0.08055355 -0.08055355 -0.12939022 -0.12939022 -0.2253283 -0.2253283
-0.08939495 -0.08939495 -0.08658002 -0.08658002 -0.10281475 -0.10281475 -0.095918156 -0.095918156
-0.10014273 -0.10014273 -0.053675108 -0.053675108 -0.08458818 -0.08458818 -0.085802734 -0.085802734
-0.10559326 -0.10559326 -0.08787214 -0.08787214 -0.2463835 -0.2463835 -0.06670119 -0.06670119
-0.03693357 -0.03693357 -0.114777856 -0.114777856 -0.14924572 -0.14924572 -0.56983805 -0.56983805
-0.10732694 -0.10732694 -0.04937215 -0.04937215 -0.06328143 -0.06328143 -0.06767517 -0.06767517
-0.53539604 -0.53539604 -0.12587133 -0.12587133 -0.090011284 -0.090011284 -0.087189235 -0.087189235
-0.07342877 -0.07342877 -0.028758762 -0.028758762 -0.13189697 -0.13189697 -0.3490509 -0.3490509
-0.094000675 -0.094000675 -0.008839617 -0.008839617 -0.16347058 -0.16347058 -0.09658682 -0.09658682
-0.1628633 -0.1628633 -0.108334914 -0.108334914 -0.18148291 -0.18148291 -0.15735514 -0.15735514

actor.linear_3: in=128-out=12.weight f4 [12, 128]
00000000: e273 6a3c 6c0f 7e3c cc5f 8ebc 640d 373d
00000010: 6e7b 66bc 65d4 cfbc 04d3 acbc e807 8dbc
00000020: 8727 17bd 46d2 90bc 3f17 f53c 777e d63c
00000030: 2c1a 263c c855 16bc 039b 713d 9d78 373d
00000040: 8a41 723c f00b 4f3b 135e 1cbd 50ae 1bbb
00000050: 03ce 0bbd a0c5 623c 66ff 993c eccc 8b3c
00000060: f04d 9f3d f0f8 053d a7a6 b73c 4e83 6d3c
00000070: daa0 01bd b48c 04bd 0d4a 023d 3404 f03c
00000080: ddfb 98bc 3ab6 07bd c09e f73a f110 323d
00000090: 68ec babc 003e 79bd 7804 383d f6ec 4dbc
000000a0: 1ca5 59bb 84c2 b9bc 50e5 b2bc 05fe 243d
000000b0: e5c9 04bd 2331 1e3d c069 3d3b 4c47 52bc
000000c0: acfb 7abd 0ae9 853d 4327 d1bb 2f3c b33c
000000d0: aca1 8fbb 08b6 7cbd 161f fc3c 7826 a83a
000000e0: 0e01 9c3c bbff 95bb 9a54 fd3c 7019 0b3c
000000f0: 0cb0 273b 207c a73c 953f c8bc 0c83 29bd
00000100: c2b7 233d c474 a23b 0ce1 bebb e19d 833c
00000110: 8a25 9f3b 2a2a f8bb 5aaa 043d 2b60 83bc
00000120: 6c6a 2dbd 1509 9ebc 1a02 afbc 4d12 423d
00000130: 87b7 8d3d 26bf 083c c435 64bd d610 e8bd
00000140: e03f 4dbd 48ae 2fbc 105b 313d 5a56 9abc
00000150: 53a3 263c daf8 953c a54c b6bd 911a f23d
00000160: 102d ec3c a551 2f3c 981a 483d 6001 f2bc
00000170: ac21 6c3c 4f79 5d3d 8de7 54bc 7e83 b83c
00000180: 4ee1 163d 7d4e a2bc b857 c53c 02ce 0b3d
00000190: 2f45 643c 6462 bbbc 607c 07bd 099d f63c
000001a0: 56b5 97bd 0802 67bc 1574 8d3c d32f 98bc
000001b0: 6a07 f53b 02d1 0ebd 6075 d13d 5c35 82bc
000001c0: 0c81 5dbc 0602 acbc fcad cb3c 9dd3 0ebd
000001d0: d62e cbbc 2aa6 dc3c 7556 db3c 269c 243d
000001e0: 4aee b3bc fb82 1bbd 6af5 25bd 39d8 d43d
000001f0: d03c 9bbd 78ed b03b 4124 a43c b74a c2bb
00000200: 6c0f 7ebc e273 6abc 640d 37bd cc5f 8e3c
00000210: 65d4 cf3c 6e7b 663c e807 8d3c 04d3 ac3c
00000220: 46d2 903c 8727 173d 777e d6bc 3f17 f5bc
00000230: c855 163c 2c1a 26bc 9d78 37bd 039b 71bd
00000240: f00b 4fbb 8a41 72bc 50ae 1b3b 135e 1c3d
00000250: a0c5 62bc 03ce 0b3d eccc 8bbc 66ff 99bc
00000260: f0f8 05bd f04d 9fbd 4e83 6dbc a7a6 b7bc
00000270: b48c 043d daa0 013d 3404 f0bc 0d4a 02bd
00000280: 3ab6 073d ddfb 983c f110 32bd c09e f7ba
00000290: 003e 793d 68ec ba3c f6ec 4d3c 7804 38bd
000002a0: 84c2 b93c 1ca5 593b 05fe 24bd 50e5 b23c
000002b0: 2331 1ebd e5c9 043d 4c47 523c c069 3dbb
000002c0: 0ae9 85bd acfb 7a3d 2f3c b3bc 4327 d13b
000002d0: 08b6 7c3d aca1 8f3b 7826 a8ba 161f fcbc
000002e0: bbff 953b 0e01 9cbc 7019 0bbc 9a54 fdbc
000002f0: 207c a7bc 0cb0 27bb 0c83 293d 953f c83c
00000300: c474 a2bb c2b7 23bd e19d 83bc 0ce1 be3b
00000310: 2a2a f83b 8a25 9fbb 2b60 833c 5aaa 04bd
00000320: 1509 9e3c 6c6a 2d3d 4d12 42bd 1a02 af3c
00000330: 26bf 08bc 87b7 8dbd d610 e83d c435 643d
00000340: 48ae 2f3c e03f 4d3d 5a56 9a3c 105b 31bd
00000350: daf8 95bc 53a3 26bc 911a f2bd a54c b63d
00000360: a551 2fbc 102d ecbc 6001 f23c 981a 48bd
00000370: 4f79 5dbd ac21 6cbc 7e83 b8bc 8de7 543c
00000380: 7d4e a23c 4ee1 16bd 02ce 0bbd b857 c5bc
00000390: 6462 bb3c 2f45 64bc 099d f6bc 607c 073d
000003a0: 0802 673c 56b5 973d d32f 983c 1574 8dbc
000003b0: 02d1 0e3d 6a07 f5bb 5c35 823c 6075 d1bd
000003c0: 0602 ac3c 0c81 5d3c 9dd3 0e3d fcad cbbc
000003d0: 2aa6 dcbc d62e cb3c 269c 24bd 7556 dbbc
000003e0: fb82 1b3d 4aee b33c 39d8 d4bd 6af5 253d
000003f0: 78ed b0bb d03c 9b3d b74a c23b 4124 a4bc
0.014309855 0.015506607 -0.017379664 0.044690505 -0.014067514 -0.025369832 -0.021096714 -0.017215684
-0.03690293 -0.017678391 0.029918311 0.02618335 0.010138076 -0.009175725 0.05898572 0.04479276
0.014786134 0.0031592809 -0.038175654 -0.0023755021 -0.034132015 0.013841063 0.018798541 0.017065488
0.07778537 0.03270811 0.022418333 0.0144966375 -0.03164754 -0.032360747 0.0318089 0.02929888
-0.018674785 -0.03313277 0.0018891916 0.043473188 -0.022817805 -0.060850143 0.044926137 -0.012568703
-0.0033209985 -0.02267576 -0.02183786 0.040281314 -0.032419104 0.03862108 0.0028902143 -0.012834381
-0.06127517 0.06538589 -0.006382854 0.021879284 -0.0043832865 -0.061697036 0.030776542 0.0012828847
0.019043472 -0.0045776046 0.03092413 0.0084899515 0.002558711 0.02044493 -0.02444438 -0.04138474
0.039970167 0.004957767 -0.0058251675 0.016066493 0.00485677 -0.0075733857 0.032389022 -0.016037067
-0.04233782 -0.01929144 -0.021363307 0.047380734 0.06919771 0.008346355 -0.055715337 -0.11331336
-0.050109744 -0.010722704 0.043299735 -0.018840004 0.0101707755 0.018307138 -0.089013375 0.118214734
0.028830081 0.010700618 0.048853487 -0.029541671 0.014412325 0.054070767 -0.012994659 0.022523638
0.03683596 -0.019812817 0.02408968 0.03413201 0.01393251 -0.022874065 -0.033077598 0.030104177
-0.07407634 -0.014099605 0.017267266 -0.018577492 0.0074776905 -0.034867294 0.10227466 -0.015894584
-0.013519537 -0.020997059 0.024863236 -0.03486978 -0.024802607 0.026934702 0.026774624 0.040187977
-0.021964211 -0.03796671 -0.04051725 0.10392804 -0.075799584 0.005399402 0.020036818 -0.005929317
-0.015506607 -0.014309855 -0.044690505 0.017379664 0.025369832 0.014067514 0.017215684 0.021096714
0.017678391 0.03690293 -0.02618335 -0.029918311 0.009175725 -0.010138076 -0.04479276 -0.05898572
-0.0031592809 -0.014786134 0.0023755021 0.038175654 -0.013841063 0.034132015 -0.017065488 -0.018798541
-0.03270811 -0.07778537 -0.0144966375 -0.022418333 0.032360747 0.03164754 -0.02929888 -0.0318089
0.03313277 0.018674785 -0.043473188 -0.0018891916 0.060850143 0.022817805 0.012568703 -0.044926137
0.02267576 0.0033209985 -0.040281314 0.02183786 -0.03862108 0.032419104 0.012834381 -0.0028902143
-0.06538589 0.06127517 -0.021879284 0.006382854 0.061697036 0.0043832865 -0.0012828847 -0.030776542
0.0045776046 -0.019043472 -0.0084899515 -0.03092413 -0.02044493 -0.002558711 0.04138474 0.02444438
-0.004957767 -0.039970167 -0.016066493 0.0058251675 0.0075733857 -0.00485677 0.016037067 -0.032389022
0.01929144 0.04233782 -0.047380734 0.021363307 -0.008346355 -0.06919771 0.11331336 0.055715337
0.010722704 0.050109744 0.018840004 -0.043299735 -0.018307138 -0.0101707755 -0.118214734 0.089013375
-0.010700618 -0.028830081 0.029541671 -0.048853487 -0.054070767 -0.014412325 -0.022523638 0.012994659
0.019812817 -0.03683596 -0.03413201 -0.02408968 0.022874065 -0.01393251 -0.030104177 0.033077598
0.014099605 0.07407634 0.018577492 -0.017267266 0.034867294 -0.0074776905 0.015894584 -0.10227466
0.020997059 0.013519537 0.03486978 -0.024863236 -0.026934702 0.024802607 -0.040187977 -0.026774624
0.03796671 0.021964211 -0.10392804 0.04051725 -0.005399402 0.075799584 0.005929317 -0.020036818

actor.linear_3: in=128-out=12.bias f4 [12]
00000000: fb2d 10bd fb2d 103d d143 54bc d143 543c
00000010: ac21 99bc ac21 99bc cf6e be3b cf6e be3b
00000020: bdc6 ea3d bdc6 ea3d 937c 0a3e 937c 0a3e
-0.0352001 0.0352001 -0.012955622 0.012955622 -0.018692814 -0.018692814 0.0058115493 0.0058115493
0.114636876 0.114636876 0.13524084 0.13524084
