tested_policies/hyqreal2/2025-07-23_09-19-46_8k_128_128_128_hyq/exported/policy.onnx (onnx, 273175 bytes, 8 tensors)

actor.0.weight f4 [128, 260]
000000 09 9d b7 be 3b a8 0a bf ed 72 4a 3f 3f 8d 4d 3e
       -0.35861996 -0.5416295 0.7908161 0.20073412
000010 e4 bc 56 bf 74 90 e6 3c 9b 6f 17 3e 28 7f 45 3e
       -0.83881974 0.028145052 0.14788668 0.19286788
000020 80 f0 2f 3e 05 67 d8 3d bd 87 14 3e fa 32 fc 3d
       0.17181587 0.105665244 0.14504905 0.123144105
000030 c8 55 a8 bd a6 2b 67 3e a6 e2 69 3e 15 5e 2d be
       -0.082194865 0.22575244 0.22840366 -0.1693042
000040 85 69 c8 bf ab 55 b3 3e b0 5c 49 3d 8a 9c 96 3f
       -1.5657202 0.35026297 0.04916066 1.1766522
000050 29 4b 7e 3b b7 81 6d 3e ae 7a 33 bd 0a 27 f4 be
       0.0038802123 0.23194014 -0.04381817 -0.47686034
000060 89 ca 42 bd e6 24 74 bb 44 8e fe 3c 96 49 a5 3d
       -0.047556434 -0.0037253438 0.031073697 0.08070676
000070 c2 47 f4 3b 35 8f 6d bd 28 1d 3a 3d 26 3a 37 3d
       0.0074548433 -0.0579979 0.04543796 0.04473319
000080 44 44 79 be b4 8e 0c be d0 a9 b7 3d b3 52 22 3e
       -0.24342448 -0.13726312 0.08967936 0.1585186
000090 ff 8b 1a bc 07 01 d3 3b 4a ce 05 bd fc 7a be bc
       -0.009432792 0.0064393315 -0.032667436 -0.023252003
0000a0 fe 5c 6f 3d e5 14 25 3e c2 e2 ff bc 65 07 f1 bc
       0.058438294 0.16121252 -0.031236056 -0.029422471
0000b0 a3 c4 83 be 41 b2 0d 3c 27 0b cb 3d 46 12 6e be
       -0.2573596 0.008648456 0.099142365 -0.23249158
0000c0 2b 7d 12 3d 13 64 00 bf fd 93 e5 be 60 bf bd 3d
       0.0357639 -0.501527 -0.4483947 0.092650175
0000d0 48 ac aa be 85 e0 7d be fe c8 e7 3e 71 3f de b8
       -0.33334565 -0.24792679 0.45270532 -0.00010597602
0000e0 4e f3 fc be 8f b2 35 be 94 82 87 3d 11 ae 77 3e
       -0.49404377 -0.17743896 0.06616703 0.24187495
0000f0 93 1b c7 3d 44 f4 8e 3e 8d b9 5d 3e 26 25 8e 3e
       0.09722056 0.27920735 0.21652813 0.27762717
000100 e0 6e 32 3c 5d 78 a2 3e 50 73 5d 3e 17 5f 27 be
       0.0108906925 0.31732455 0.2162602 -0.16344868
000110 6a aa b0 bf a4 36 a4 3e 48 f9 80 3d f4 49 8d 3f
       -1.3802006 0.32072937 0.062975466 1.1038194
000120 5b 38 a0 bd 88 8e 2b 3e 74 ef e2 bc 88 af 98 be
       -0.07823249 0.1675359 -0.02770207 -0.2982142
000130 3f c1 aa 3c 23 f8 8d bd fa 9e 5e 3c ab cb ab 3d
       0.0208441 -0.06932094 0.013587708 0.08388456
000140 2c 42 89 bd 23 42 e1 bd 22 6a 3f 3d 4c d0 ef 3c
       -0.067020744 -0.10998943 0.046732076 0.029274128
000150 8f a5 ad 3d 72 f3 4a be 68 e9 b9 3b 42 b8 4b 3c
       0.084788434 -0.1981943 0.005673576 0.012434067
000160 e3 90 91 3e 85 eb e9 3d f2 85 30 be a0 90 c9 3d
       0.28430852 0.11421875 -0.17238596 0.09842038
000170 97 6b da 3d 66 86 05 3e 4c a7 47 bd 7b 77 2b 3e
       0.106650524 0.1303955 -0.04874353 0.16744797
000180 0a b8 0e bf ef d2 db 3d 64 10 49 3b 16 05 68 bd
       -0.5574957 0.10733592 0.0030679936 -0.056645475
000190 bd 75 08 3e 89 dd f8 be 49 6c 00 bf 21 7e 16 3e
       0.13326164 -0.48606518 -0.5016523 0.14696552
0001a0 4d 12 95 be 9c 98 1f bd a7 89 61 3e fb b0 a6 bd
       -0.29115525 -0.0389639 0.22025166 -0.08139225
0001b0 d1 49 c0 be 45 25 93 3d eb f3 5f 3d c2 54 9d 3e
       -0.37556317 0.07184843 0.054675978 0.30728728
0001c0 ef d9 26 3e 92 85 e0 3e 83 70 34 3e 25 85 78 3e
       0.16294073 0.43851906 0.17621045 0.2426954
0001d0 b8 3f 2b bd f8 d7 99 3e b0 d5 8e 3e c2 36 8b bc
       -0.041808814 0.30047584 0.27897406 -0.016993884
0001e0 30 b4 b0 bf 04 57 62 3e 39 14 b5 bb 1f 3b 86 3f
       -1.3804989 0.22103506 -0.0055260924 1.0486792
0001f0 9a a0 84 bd 07 2b 41 3d dc 46 83 3d e0 6c 37 be
       -0.06475945 0.047160175 0.0641 -0.17912626
000200 3c de 53 bd ef c6 37 be d7 99 bb 3d be 83 8c bb
       -0.05172561 -0.17946981 0.09160202 -0.004288166
000210 10 54 c3 bd e5 64 e5 bd a2 43 56 3d 68 ec ba 3d
       -0.09537518 -0.11200885 0.052310593 0.09127122
000220 1e ab 4d 3d 35 d1 43 be 3e dc 47 3d 08 27 b5 3d
       0.05021202 -0.19122775 0.048794024 0.08845335
000230 9d b7 c8 3d ae 5f 89 3d 6b dc 29 bc c4 7a 30 be
       0.098006465 0.067077026 -0.010367493 -0.17234331
000240 d9 5f 32 3e 5a 4f 44 3b 2e a7 1b 3d 6a 27 79 3d
       0.17419375 0.0029954524 0.03800123 0.060828604
000250 d9 fa 20 bf d3 2a a6 3c c4 59 a3 3d 62 59 10 be
       -0.62882763 0.020284092 0.07976106 -0.14096597
000260 c9 7f b9 3d 20 9a b2 be de 3a bd be f2 09 c2 3d
       0.09057576 -0.34883213 -0.36958975 0.09474553
000270 dc 18 e0 be 02 11 74 be d5 14 84 bf bf 85 fc be
       -0.43768966 -0.23834613 -1.0318857 -0.4932079
000280 15 d3 9d bd bf 58 e4 3d 9c 66 16 3e e0 c8 bd 3e
       -0.07706276 0.111497395 0.1468758 0.37067318
000290 ef c5 2a 3e 14 cf 35 3f 0b 9c 5e 3e ad 7a dc 3e
       0.16677068 0.710191 0.21739213 0.43062344
0002a0 bb 97 20 bd e4 0a a1 3e 85 4d 8b 3e 2d 3d 21 be
       -0.0392072 0.3145362 0.2720758 -0.15745993
0002b0 5f 32 a6 bf d6 cf 02 3e 4f e6 0e bd 71 3b 72 3f
       -1.2984122 0.12774596 -0.03488761 0.9462195
0002c0 44 f1 3c be 12 7d 08 3d ae f9 88 3d 64 62 02 be
       -0.1845141 0.0333224 0.066882476 -0.12732846
0002d0 2f 0d d9 3c c2 0d d0 bd e4 48 2e bd c7 b4 e1 3c
       0.026495544 -0.10158874 -0.042549983 0.027552022
0002e0 c7 f8 e7 bd 5b 6a 66 b9 2b 81 73 bc 25 56 99 3d
       -0.113267474 -0.0002197413 -0.014862339 0.07487134
0002f0 2b 11 06 bd 10 e3 5e bc 4f 80 52 3c 95 cb 55 3d
       -0.032731216 -0.013603941 0.012847974 0.052196104
000300 05 8a 2d 3e 9f 9f 5d 3d f3 15 2a be 8b bd 03 bf
       0.16947182 0.054107305 -0.16609935 -0.51461095
000310 7b 27 c7 3d 48 df 1a 3e 82 7b e1 3c b0 33 c6 bd
       0.09724327 0.15124238 0.027524713 -0.09677827
000320 be c6 7e bf 34 83 84 bd 06 ff c9 bc dc 5c 51 3c
       -0.99522007 -0.064703375 -0.024657737 0.012778487
000330 31 2f 88 bb 97 18 66 be b6 ae 10 be 79 ac d8 bc
       -0.0041560163 -0.22470318 -0.14129147 -0.026449429
000340 bb 75 e3 be d0 ed 07 bf d5 c9 0a c0 f2 24 b6 bd
       -0.4442576 -0.5309725 -2.1685688 -0.088937655
000350 32 5e 8b 3e 40 69 53 bf 22 48 85 3e 3a 09 40 3e
       0.27220303 -0.82582474 0.26031595 0.1875352
000360 8a ce 0d 3e 77 44 9f 3f 4e 0d 2f 3f 1f 08 25 3f
       0.1384832 1.2442769 0.68379676 0.64465517
000370 e9 14 c8 bd c8 4d 0c 3e fc 89 07 3e 05 27 59 be
       -0.09769613 0.13701546 0.1323623 -0.21206291
000380 17 63 a3 bf df f5 14 3e d8 df 1a be 86 3d 76 3f
       -1.2764615 0.14546917 -0.15124452 0.9618763
000390 79 45 42 be 90 1a a8 bc 21 b5 76 3e 05 57 5b 3c
       -0.18971814 -0.020520478 0.24092533 0.013387446
0003a0 e1 c2 80 be eb c6 82 be 49 09 8b 3d c6 3d b8 3d
       -0.2514868 -0.25542387 0.067888804 0.08996157
0003b0 bb 78 f6 bd ee a6 8d be a5 f5 37 bc a9 38 7a 3e
       -0.12034746 -0.2766642 -0.011228 0.24435677
0003c0 51 54 2a 3e 0b 99 f8 be b8 8c 4e 3e d7 be b2 bc
       0.16633727 -0.48554263 0.20170867 -0.021819515
0003d0 02 7a 61 3e 6f 82 a8 3d 24 65 03 3e db 7e 00 bf
       0.22019199 0.08228003 0.12831551 -0.50193566
0003e0 ad 6a ec 3e 4a 61 83 3e 5e 2a 0a bd 21 21 2d be
       0.46175137 0.25660163 -0.03373181 -0.16907169
0003f0 f1 1e cd bf 3c 84 90 3e ed ab ae bd 02 16 c6 3d
       -1.6025068 0.28225887 -0.08528886 0.096721664

actor.0.bias f4 [128]
000000 4a 23 1b be 8f 3b 34 be 46 39 33 bc e0 8d 6b 3d
       -0.1515018 -0.17600845 -0.010938948 0.05750835
000010 24 49 04 be 17 eb 8b 3e da 41 47 bd 88 a6 4c 3d
       -0.12918526 0.27327797 -0.048646785 0.049963504
000020 6d b1 4a be 6c 4f 83 bd 30 bd d6 be ce 59 4d be
       -0.19794245 -0.06411633 -0.41941214 -0.20053789
000030 e8 ba 4a 3d ce f1 4b bc ea fe 06 be 52 99 24 be
       0.049494654 -0.012447787 -0.1318318 -0.16074112
000040 de dc 78 3d 73 54 b9 be b2 f4 98 3d df 2a 4c be
       0.06075751 -0.36197242 0.07468547 -0.19938229
000050 1c 90 04 3d 48 1a b5 3d 48 80 0f 3e ef 41 ac 3d
       0.032363996 0.088429034 0.14013779 0.08411013
000060 d3 3b 82 bd d1 2a bc 3d f4 d0 8c bd 9f d4 5f 3d
       -0.06359067 0.09187854 -0.06875792 0.05464613
000070 b4 2e 2c be cb 18 a0 3e 25 3c 9c be bb 07 e4 bd
       -0.16814691 0.31268916 -0.30514637 -0.11134287
000080 e1 c9 3e bd 73 d4 20 3e 78 de 2e 3e 08 e7 01 bf
       -0.046579245 0.15706043 0.17077053 -0.5074315
000090 5d f9 8c bd fe f6 8e 3d d5 80 7e be 16 d5 7e 3d
       -0.068835 0.06980704 -0.24853833 0.062214933
0000a0 2f 99 9a be b6 e3 35 be c7 05 ba 3c b4 af c9 be
       -0.30194995 -0.17762646 0.022707833 -0.39391863
0000b0 e2 d9 1b be 2c 71 94 3d 9c 26 b7 bd 6b 16 a1 bd
       -0.15219834 0.07248148 -0.08942911 -0.07865604
0000c0 83 f2 2c be 28 c5 a4 be ad 49 4d be ef 8e 30 bd
       -0.16889386 -0.32181668 -0.20047636 -0.043105062
0000d0 f0 39 89 be f3 cb 5a be 62 c4 1a be c0 85 3d 3e
       -0.26802015 -0.21366863 -0.15113977 0.18508053
0000e0 7e b7 d4 be 92 bb 60 bd 69 b6 af bd a0 22 c3 3c
       -0.41546243 -0.05486638 -0.08579714 0.023820221
0000f0 21 28 9f 3b 4c 7f 3a be 44 fd 1d be 6c e4 62 be
       0.0048570787 -0.18212622 -0.15428644 -0.22157449
000100 16 db af 3e c9 33 ae 3d b7 27 06 bf 9b 6a da bd
       0.34346837 0.08505971 -0.5240435 -0.10664865
000110 90 d5 32 be 6a 04 2b bd b5 35 88 be 48 78 e7 3d
       -0.1746428 -0.041752256 -0.26603475 0.11302239
000120 18 ba 2e 3e fe 7f 66 3d 2d ab 42 be df c6 1b be
       0.17063177 0.056274407 -0.19010611 -0.15212582
000130 dd 41 88 be 05 c0 35 bd 4d cd a6 be 4e de 8a 3c
       -0.2661275 -0.044372577 -0.32578507 0.016951706
000140 34 23 ea 3d 79 f0 07 bd 7e 06 38 3e f2 6c 0c 3e
       0.11432496 -0.033188317 0.17971227 0.13713434
000150 c4 82 9d be 78 04 db 3d 19 63 32 bd a1 60 bc 3c
       -0.3076383 0.10694212 -0.04355154 0.022995295
000160 29 d5 f4 bd 0d 26 3e be f2 6e 4f 3d 44 a3 37 3e
       -0.119547196 -0.18569203 0.050642915 0.17933375
000170 30 a9 7a bc 9d 09 ac 3d e9 d7 c1 3d b8 49 bc 3d
       -0.0152991265 0.08400271 0.0946501 0.09193748
000180 a0 2f 9b 3d 9b 6d bc 3d a2 12 3a be 92 9b 73 bc
       0.07577443 0.09200593 -0.1817117 -0.014868634
000190 0a 48 8a bd 1c d9 43 3e b1 c4 3c 3c c4 56 84 3d
       -0.067520216 0.1912579 0.011521504 0.06461862
0001a0 c3 60 bf bd c7 a9 47 be 98 1f c1 be 2a c6 bf 3d
       -0.09344628 -0.19498359 -0.37719417 0.09363969
0001b0 30 d7 a2 3d 54 35 77 3d 67 62 22 be 7a 47 29 bd
       0.079512 0.060353592 -0.1585785 -0.04132793
0001c0 0e 11 db bd 8d 3d b4 3c 6d d6 33 3d 07 67 cd 3c
       -0.10696612 0.022002006 0.043905664 0.025073541
0001d0 6b 09 f5 bd 1f 8d c5 bc db 43 38 be e8 d3 b3 3e
       -0.11964687 -0.024115143 -0.17994635 0.3512261
0001e0 8d 8c 3c be a2 6c df 3d df e5 6a 3e 92 3a a1 be
       -0.18412991 0.10909392 0.22939251 -0.31489998
0001f0 bd f0 dc 3d 9a 91 c9 3e ee c5 17 3e c9 4f 09 3e
       0.10788105 0.39368898 0.14821598 0.13409342

actor.2.weight f4 [128, 128]
000000 f4 57 a4 bd eb 5e b8 3c b9 a6 6a 3e 53 39 ee 3d
       -0.08024588 0.022506198 0.22915162 0.116320275
000010 3d ad 06 bd 48 b8 c3 bd be 57 3c 3e 49 4e a0 bb
       -0.032880057 -0.09556633 0.18392846 -0.004892145
000020 da f0 08 3e 37 e1 18 3d 90 39 83 bc b5 70 67 bb
       0.13373128 0.037324157 -0.016018659 -0.0035314981
000030 aa c0 b3 bc d2 c8 56 be df 26 92 be 51 8c 36 3e
       -0.021942455 -0.20975044 -0.2854528 0.17826964
000040 42 7a 10 37 97 40 d9 bd 06 8e 0a bd 8a 31 ba 3d
       8.611534e-06 -0.10608023 -0.03382685 0.0909148
000050 6b ff 48 3e e5 37 99 bc 2c 8f 81 3d 35 db 49 be
       0.19628684 -0.01870341 0.06326136 -0.19712527
000060 9d 30 27 be 9e 80 85 bb 6d 08 1b be c0 f9 e0 bd
       -0.16327138 -0.0040741703 -0.15139933 -0.10985136
000070 6d ea 9d bd 17 62 1e be 9a 4f 21 3e a4 ae e5 3c
       -0.07710729 -0.15467106 0.15753022 0.028037377
000080 0b 0d 97 bc d1 c7 3d bd 75 60 dd 3d 0a da cf bd
       -0.018438837 -0.046333138 0.10809413 -0.101490095
000090 0c 79 66 be 79 08 00 3d c0 3a 10 3e f9 3a 7a be
       -0.22507113 0.03125808 0.14084911 -0.24436559
0000a0 44 d9 90 3d 54 4c ec 3c 13 0f 80 3e 67 e5 b2 bd
       0.0707269 0.02884499 0.250115 -0.08735161
0000b0 a9 08 85 3e 31 eb a5 3e 84 ad 97 3e 91 23 5a 3d
       0.2598317 0.32406 0.2962457 0.053256575
0000c0 c7 02 81 be 5a 23 5e be 37 a9 20 3d 1c 8c d4 bc
       -0.2519743 -0.21693173 0.039223876 -0.025945716
0000d0 29 34 4d be 0f a3 32 be 79 01 64 bc 2a 32 3b 3e
       -0.20039429 -0.17445014 -0.013916367 0.18280855
0000e0 fb 79 24 3d aa a0 ec 3c 2e 83 b9 bc 63 e1 61 3d
       0.040155392 0.028885204 -0.02264556 0.055146586
0000f0 1f f8 53 3e f3 04 8c 3e 64 e3 77 bc d9 3d 81 be
       0.2070012 0.27347526 -0.015129898 -0.252425
000100 aa c7 11 3e 59 b0 40 3c 9b cf c4 3d cf a1 40 3c
       0.14236322 0.011760795 0.0960991 0.011757328
000110 ec 40 37 3d da f6 6d bc 9b 77 99 be d7 0f 78 3d
       0.04473965 -0.014524186 -0.29974064 0.06056198
000120 e8 50 3d 3e a1 fd ae bd 3a 7e 02 be 4a 2f 25 3e
       0.18487895 -0.085444696 -0.12743464 0.1613132
000130 f6 2d a2 3e 38 7e 73 3e 00 d2 0e be d8 39 72 3c
       0.3167569 0.23778617 -0.13947296 0.014784299
000140 0b 51 9a ba 9e cf b9 bd dd 6a 82 3c cf dc be 3d
       -0.001177342 -0.09072803 0.015920097 0.0931946
000150 3a 7c 6f be 77 44 d7 3d 1a ca d2 3d 30 45 d3 3d
       -0.23387232 0.105111055 0.10292454 0.10315931
000160 8e 86 03 bd ea 05 e2 be 26 9e df 3d 4b bb 5b be
       -0.032110743 -0.44145137 0.10918836 -0.21458165
000170 c2 16 06 be ac fe 7f 3d e6 07 36 3c 10 5e 94 bd
       -0.13094619 0.062498733 0.011110282 -0.072445035
000180 59 3d 28 3e f7 ea 5a 3e f4 84 9c bd bb 0f 4c bc
       0.16429652 0.21378694 -0.07642546 -0.012454922
000190 b3 20 0c 3e 2a a0 be be 1a c5 41 be 32 21 11 3d
       0.13684349 -0.3723157 -0.18922845 0.03543205
0001a0 24 27 9a 3b 45 16 a1 bd 77 69 cb 3d 4d 3e 7f be
       0.004704373 -0.07865576 0.09932225 -0.2492611
0001b0 75 76 84 bd 55 af cc bc 51 77 15 bc 57 a1 9f ba
       -0.064679064 -0.024985949 -0.0091226855 -0.001217882
0001c0 dc c4 d7 bd 3c b8 9a bc 7f 37 16 bd eb 00 9f 3d
       -0.10535595 -0.018886678 -0.03667402 0.07763847
0001d0 56 53 34 3e 6d 12 51 bd a6 cf f6 3d b3 c5 b5 be
       0.17609915 -0.051042963 0.120513245 -0.35502395
0001e0 3b f7 29 bc 33 a7 1d bc 7a 83 10 3e 6f f7 9d 3d
       -0.010373886 -0.009622383 0.14112654 0.0771321
0001f0 f1 09 5a bd a8 c9 9c 3e a1 fe a7 be 54 6e bc bd
       -0.053232137 0.30622602 -0.32811454 -0.09200731
000200 c8 5a 08 3d f6 ed c8 3c 89 09 30 3e 82 c7 26 be
       0.0332897 0.024527531 0.17191137 -0.16287044
000210 4e e0 e7 bd 32 01 a1 be c3 07 1c be 5c 05 d5 bd
       -0.113220796 -0.31446224 -0.15237336 -0.10401413
000220 13 76 b1 bc ae 1d 91 3e e6 14 16 be 35 4c 2f 3d
       -0.021662747 0.28342956 -0.1465641 0.042797286
000230 e8 d0 7c bd 48 10 ce 3d 68 cc 0f bd fa 15 14 3e
       -0.061722666 0.10061699 -0.035107046 0.14461508
000240 b2 d9 fd 3d 13 03 82 bb 47 eb c3 be a7 7c 7d be
       0.12395038 -0.0039676516 -0.3826544 -0.24754582
000250 4c 3e 65 be 45 95 07 be 03 be 9e 3d 1b f9 ba be
       -0.22387046 -0.13240536 0.077510856 -0.36518177
000260 fe 22 7a be 7f c8 89 be 5c e7 7d 3e 98 73 97 3c
       -0.24427411 -0.2691078 0.24795288 0.018487737
000270 b1 be d7 3d 26 b6 50 be 38 25 9c bc 11 3f f9 bd
       0.105344184 -0.20381984 -0.019060716 -0.12170232
000280 a2 e9 54 bd ab 23 e9 be e6 1a 8a be 21 23 2d 3f
       -0.051980622 -0.45535025 -0.26973647 0.6763173
000290 2a 21 02 3e aa 36 01 3e 34 05 9e bd af b8 f8 3c
       0.12707964 0.12618509 -0.07715836 0.030361502
0002a0 37 9e 0e 3d 27 cc 5a 3e be db 6d 3d bb a3 17 be
       0.034818854 0.2136694 0.05807089 -0.14808552
0002b0 82 5d f6 3d c0 36 1d be 63 8c b7 bd bc 7b db 3e
       0.12029554 -0.15352917 -0.089623235 0.4286784
0002c0 a5 32 2c 3d b4 b1 19 3e 29 96 4d be 67 c0 e5 bd
       0.042040486 0.15009195 -0.20076813 -0.112183385
0002d0 ee 02 46 3d 0f d1 1a 3e 81 df d7 3c d2 c5 bc be
       0.048342638 0.15118812 0.026351692 -0.36869675
0002e0 ea 47 6a be 72 1b 7a be d1 cf f6 3d ee 36 1b b9
       -0.22878996 -0.24424532 0.120513566 -0.00014802415
0002f0 46 5d 74 be d8 a5 3f 3e d1 c3 68 3d 22 59 d9 bd
       -0.23863706 0.18715608 0.05682737 -0.10612704
000300 bb d7 31 be 42 52 fe be 62 4f a0 3e ac 82 39 be
       -0.17367451 -0.49672133 0.31310564 -0.18116254
000310 48 7c c8 3d 0e 69 9e 3c d7 82 f4 3e fe d1 3e be
       0.0978933 0.019337203 0.47756073 -0.18634793
000320 49 67 3c 3e 0e a2 c2 be 39 15 1c bd 72 9f 1d be
       0.18398775 -0.38014263 -0.038106177 -0.15392855
000330 8d 8f db bd d0 78 2d 3d d0 9c 08 be 54 72 1d be
       -0.107207395 0.042351544 -0.13341069 -0.15375644
000340 9d ce 2d be b7 d4 f5 3d e1 99 24 3c 1c 39 fa 3d
       -0.16973348 0.12003463 0.010046453 0.12217924
000350 d1 18 40 be 57 2b 85 3e 89 61 b4 be 7d 92 fc 39
       -0.18759467 0.26009628 -0.35230663 0.00048174328
000360 3b 2c 8c 3d e8 0b 97 3e c5 99 02 3c dc ba e8 bc
       0.06844374 0.2950127 0.007971232 -0.028409414
000370 50 9c 76 3d 95 4b 89 be 73 e2 b5 3d 95 43 26 be
       0.060207665 -0.26815477 0.088810824 -0.16236718
000380 b5 95 2f 3e 2a bb 21 be 6f 76 15 3e 7c 67 3f bd
       0.17146952 -0.15794054 0.1459596 -0.04672955
000390 cf 52 97 3d 53 11 e1 3d 19 20 e4 3e a3 7d a5 3e
       0.07388841 0.109896325 0.4455574 0.32322416
0003a0 b7 20 8c be df d2 b3 3d 48 9b f4 bc df 04 8d be
       -0.2736871 0.08780455 -0.0298592 -0.2754278
0003b0 79 8a cb 3e f2 e0 fd 3d 69 12 d2 bd ec 77 d1 3c
       0.39754084 0.123964205 -0.10257418 0.025569879
0003c0 18 d2 1b 3d 2f 77 ab be 2a ee 0b bf 0a f6 b8 be
       0.038042158 -0.33489367 -0.54660285 -0.36125213
0003d0 20 c5 81 3b 70 82 e3 bb 74 b3 74 3b e6 1e e4 3d
       0.0039602667 -0.0069430396 0.0037338408 0.11138706
0003e0 27 be a9 3c 19 45 c6 3d 4c b0 c0 bb 5d 55 88 3e
       0.020720555 0.09681148 -0.005880391 0.26627627
0003f0 ef b2 69 3e 7f 37 50 be 25 3a 5f bd bd f3 7b be
       0.22822164 -0.2033367 -0.05449881 -0.24604698

actor.2.bias f4 [128]
000000 dc 10 7c bc ed bc b6 be c4 7c 47 3e c4 7c 29 be
       -0.015384879 -0.35691014 0.19481188 -0.165515
000010 5a 10 7c be b0 11 40 be ce f2 5f 3e 8c 87 14 bf
       -0.24615613 -0.18756747 0.21869966 -0.5801933
000020 56 d3 a4 3d 66 c7 06 bd dd 42 3e 3d c7 fb 89 be
       0.08048122 -0.032905005 0.046450485 -0.26949903
000030 14 0a c9 be 96 10 94 be 0e a5 eb bc 2b 97 ec be
       -0.39265501 -0.28918904 -0.028765228 -0.46209082
000040 be 6d 45 be 43 de ed be 75 e3 aa be 22 47 b8 bc
       -0.19280145 -0.46458635 -0.3337666 -0.022494856
000050 a4 7b b5 3c 1f 92 80 be 60 c2 54 be 8d 25 e0 bd
       0.022153683 -0.25111482 -0.20777273 -0.10944662
000060 bb 85 22 be 0d 50 37 3d 33 52 4c bb ea 0a 03 3e
       -0.15871327 0.044754077 -0.0031176924 0.12797132
000070 d4 f5 22 be 86 6c 3e 3b c0 cc 1e 3c 36 d0 8e bd
       -0.15914088 0.0029056384 0.009692371 -0.06973307
000080 7c d8 cc be 36 d4 da be 02 fa bb be cc 56 ab bd
       -0.40008914 -0.4274003 -0.36714178 -0.083661646
000090 82 a2 6a 3d f3 b5 8d 3e 1f da db be 9b 16 a8 bd
       0.057283886 0.2767788 -0.4293985 -0.08207437
0000a0 83 c2 2f bd 8d 5a 92 3d 08 d7 8e be fc 22 87 3e
       -0.04291011 0.071461774 -0.2789843 0.26393878
0000b0 95 9e b7 be f9 63 dd be 36 28 cd 3d 0f bf 35 3d
       -0.35863176 -0.43240336 0.10017435 0.04437166
0000c0 a9 87 40 3c 13 57 21 bd c1 37 96 be 54 16 a8 bd
       0.011751094 -0.03938968 -0.29339412 -0.08207384
0000d0 79 4c 5a be c6 f8 15 bf 91 0a b1 be a4 33 72 bd
       -0.21318235 -0.58582723 -0.34578374 -0.05913128
0000e0 a3 06 71 bc f5 70 07 3d 36 02 82 bd 9f ef 8a be
       -0.014711055 0.03306671 -0.06348078 -0.2713594
0000f0 cc f7 f5 be f9 52 b1 be 58 a8 8f be a9 0d 67 bd
       -0.48040617 -0.34633616 -0.28058124 -0.05640951
000100 1c 1c e1 bd 73 98 13 bd 2f df a1 bd 55 c4 42 be
       -0.109916896 -0.03603406 -0.07903897 -0.19020207
000110 bd b6 a0 3d c8 4f 41 be e0 4f d5 be 27 a8 d2 bc
       0.078473546 -0.1887809 -0.41662502 -0.025714947
000120 7b 38 48 bd 98 31 a9 3c 4d 62 8a be a4 36 ed be
       -0.04888199 0.020653531 -0.27028123 -0.4633075
000130 29 04 ec bd e8 cd 85 be 02 be da be 81 37 f4 3d
       -0.11524231 -0.26133657 -0.4272309 0.11924649
000140 a4 9d 21 bd 96 c6 95 3c c4 5a 13 bf 61 99 92 be
       -0.03945698 0.01828317 -0.5756037 -0.28632644
000150 5f a3 b0 bc 84 ef 10 bf 8c 08 3c bd 17 0c 96 bd
       -0.021562276 -0.5661547 -0.04590659 -0.07326525
000160 56 08 93 3d 5b 8a 81 be 43 b7 b6 be 8e 3b 12 3d
       0.07179324 -0.2530087 -0.35686693 0.035701327
000170 ad 5c 04 3d c3 55 24 3d f4 f2 52 3e a6 cc 87 be
       0.032314945 0.04012085 0.20600492 -0.26523322
000180 6f a7 5c be 74 4a 8e be fa 16 2e bd 2e 1a 73 be
       -0.21548246 -0.27791178 -0.04250238 -0.23740456
000190 1c 1b 7b be c2 4d 12 be c7 83 46 be ae 72 30 be
       -0.2452206 -0.14287475 -0.19386207 -0.17231247
0001a0 90 a5 8f be de 49 bc be b6 76 55 be db 10 5d be
       -0.28056002 -0.36775106 -0.20846066 -0.21588461
0001b0 1b 08 6e 3e 2a 48 98 be dc 02 d2 bc 45 10 aa be
       0.2324528 -0.29742557 -0.02563613 -0.33215538
0001c0 96 26 56 3d 0c f8 a0 3d 32 48 49 be 93 3e ca be
       0.052282892 0.07859811 -0.19656447 -0.39500865
0001d0 cc d7 29 be 08 2e b3 be a5 9f dc be 99 ba a9 3d
       -0.16586226 -0.34996057 -0.4309055 0.08287544
0001e0 ea 81 eb bd 50 2a 02 3e 86 49 b2 3d 84 92 08 3e
       -0.114993885 0.12711453 0.0870543 0.13337141
0001f0 3a d5 62 3d e4 d1 e5 be 0b a4 29 be 67 ac f1 be
       0.05537913 -0.44886696 -0.16566484 -0.47201845

actor.4.weight f4 [128, 128]
000000 93 32 8c 3c 54 c7 84 3d 1d 69 54 3d 7f 23 8f 3d
       0.01711396 0.06483331 0.051858056 0.06989192
000010 7b c4 33 3e 3e 36 09 3d 0d cc 36 3e 7c ef 21 3e
       0.1755542 0.033498995 0.17851277 0.15814012
000020 f0 7f df bd f7 75 9c bd 4c a6 81 3d 44 03 88 bd
       -0.10913074 -0.076396875 0.06330547 -0.06641248
000030 94 7e 10 3e da ec 8f bd 96 76 69 3d 93 73 c8 3d
       0.14110786 -0.07027598 0.056997858 0.09787669
000040 5e a2 7e be 5b c6 1b 3e f2 f2 8c bd f5 a5 85 3c
       -0.24866626 0.15212385 -0.06882276 0.016314486
000050 ff dc 0a 3e e6 73 7a 3e 4c 6c 56 bd cb 79 65 bc
       0.13560866 0.24458274 -0.052349374 -0.0140060885
000060 9a ed f2 3d e4 fd 1c 3e f4 d7 d1 3b 9d 01 d5 bd
       0.11861725 0.15331227 0.0064039174 -0.10400698
000070 a6 d5 b0 be 8f 59 eb be 3e 50 8f bd f2 ab 1c be
       -0.34538 -0.45966765 -0.06997727 -0.15299967
000080 f7 49 25 3e df f6 c5 bc df f4 52 be ec 96 f1 bc
       0.16141497 -0.024165569 -0.20601223 -0.02949091
000090 92 44 47 be fa 95 3b 3b f1 e1 2a 3e f8 2e 4d 3e
       -0.19459751 0.0028623329 0.16687752 0.20037448
0000a0 11 0b ff bd 6c 83 46 be 70 fb a9 be ab c1 16 bf
       -0.124532826 -0.19386071 -0.33199644 -0.58889264
0000b0 3d 92 39 3e 73 ac f5 3d 6f 06 cf bd 23 c8 f3 3c
       0.18122192 0.11995783 -0.10108649 0.029758519
0000c0 bf 70 bb bd bd 8d 96 bd b5 b9 bc bd 5f e7 54 bd
       -0.09152364 -0.07351253 -0.09215108 -0.051978465
0000d0 03 54 82 be 93 36 c3 3c 28 6b c1 bd 54 bc 03 3b
       -0.2545472 0.023829734 -0.094442666 0.0020101266
0000e0 7c 2c 4c 3e 43 87 02 3d da 33 50 3d 6f aa 71 3e
       0.19938844 0.031867277 0.0508307 0.23600172
0000f0 94 66 11 3e 3b 89 7e be 4c 31 0e be 27 14 3c bd
       0.14199287 -0.24857037 -0.13885993 -0.045917656
000100 6a 86 69 be 33 57 b7 3c c5 40 89 be 60 11 56 3e
       -0.22805181 0.022380447 -0.26807228 0.20905066
000110 00 34 0c 3e 0a 2a 1b bc 91 b9 7b 3e a6 06 f1 3d
       0.13691711 -0.009470472 0.24582507 0.11768846
000120 7b 5a d3 bd 02 9c 18 3f bf a6 50 be b1 34 43 be
       -0.10319992 0.5961305 -0.20376109 -0.19063069
000130 d7 fc ce bd 73 5d f8 bd a3 00 3c bd 27 18 02 be
       -0.10106819 -0.12127199 -0.045899045 -0.12704526
000140 a2 c3 1b be e3 c4 97 bc c7 08 37 be 81 25 28 be
       -0.15211347 -0.0185265 -0.17874442 -0.16420557
000150 d9 db 2c 3e 1b 74 16 bd 4f 11 80 3e 1e 65 ca bd
       0.1688074 -0.03673182 0.25013205 -0.09882568
000160 94 9a 9d bd 42 a9 7c 3c 61 d1 ff 3d d2 09 1e be
       -0.07695499 0.015421214 0.12491108 -0.15433434
000170 36 a4 e0 be bb 03 1d 3d ee f9 e4 3a 9d 37 6c bd
       -0.43875283 0.038333636 0.0017469504 -0.057670224
000180 15 ce 05 3e 55 e9 5d 3e 82 7c 5a be a2 ed 2a 3e
       0.13066895 0.2167104 -0.21336558 0.16692212
000190 36 ce d9 3d 5e b1 dd 3e de 11 74 3c de 9b 7a bd
       0.10635035 0.43299383 0.014896838 -0.061183803
0001a0 88 b5 bd 3e 07 d0 58 bc 65 a1 95 3d 67 d4 81 be
       0.3705256 -0.013233191 0.07306174 -0.25357363
0001b0 03 24 39 bc 2b f9 47 3d 77 c7 6f bd b3 f7 10 3d
       -0.01130009 0.04882161 -0.058539834 0.035392474
0001c0 ed 25 08 3e cc b6 51 3d d7 a4 86 be c4 8d 35 bd
       0.13295718 0.05119972 -0.26297638 -0.04432465
0001d0 eb c4 98 3a af 6b ac bb b3 da c6 3d cc 4b 0a be
       0.0011655366 -0.0052618603 0.09709682 -0.13505477
0001e0 7e 4b ef bc 8f cd 77 3d 40 05 6e 3c c0 45 92 be
       -0.029210802 0.06049877 0.014527619 -0.2856884
0001f0 29 eb 81 bb 8f c7 dd 3e e7 be 0f 3e 7b 08 ec 3d
       -0.003964801 0.43316314 0.14037667 0.11525055
000200 22 83 f9 3d d8 21 6e 3d d6 54 2b be 4d 25 b3 3e
       0.12183215 0.058137745 -0.16731581 0.34989396
000210 dc 71 c4 3d 43 1b a1 3e 88 34 c2 bc 81 e6 ad 3c
       0.095920295 0.31466112 -0.02370669 0.021228077
000220 83 05 95 3d fc bb 8e be d8 7b 24 3e 91 3e 1d be
       0.07276442 -0.27877796 0.16062868 -0.15355898
000230 42 51 e8 3d 76 df 6e bd 9f c2 83 be 44 60 85 3c
       0.11343624 -0.058318578 -0.25734422 0.016281255
000240 f4 21 0a be 0b 96 c8 3d a1 57 c0 bc 53 07 b7 3d
       -0.13489515 0.097942434 -0.023479285 0.08936944
000250 d9 ff bf 3c 64 b1 be bd 09 67 d8 bc eb b9 be bd
       0.023437427 -0.09311178 -0.026416318 -0.09312805
000260 1f c2 9d bd d5 68 28 be d4 c7 b2 3d b0 c1 86 be
       -0.07703041 -0.1644624 0.087295204 -0.26319647
000270 72 9d e3 3e f0 af 9d 3e af e6 7b 3d 76 2e b9 bd
       0.4445606 0.30798292 0.061499294 -0.09042065
000280 1b 20 d7 3d 7e cd a4 bd 69 ba f8 3e 45 84 ad 3d
       0.105041705 -0.08047007 0.4857972 0.08472494
000290 0a 6a 97 be 6e b9 9e bd de 1c 5b bd 0d 46 b4 3c
       -0.2957309 -0.07750212 -0.053494327 0.022006059
0002a0 e1 2a 0a be 68 0f b8 bd 60 cb cf 3b 3a 37 7b be
       -0.1349292 -0.089873135 0.006341383 -0.24532786
0002b0 31 cc 18 3e cd ea 8c 3d 66 fe 40 3d cc 1d 15 bd
       0.14921643 0.06880722 0.047117613 -0.03640537
0002c0 c2 72 5e be 1a 1e 85 bd 77 ac 7b 3b 61 e1 3e bd
       -0.21723464 -0.06499882 0.0038402358 -0.046601657
0002d0 82 52 8a be db 57 5e be 79 4c b0 bc d2 3b 08 3d
       -0.27016073 -0.21713202 -0.02152084 0.033260174
0002e0 a5 ee 48 bd 5c 51 e9 bd 32 0d c4 be 19 d3 e1 3d
       -0.049055714 -0.11392471 -0.38291317 0.11026592
0002f0 9d 04 df 3d 94 4c a6 3c 9b f5 4c bd 92 2b ce bd
       0.10889552 0.020300187 -0.050038915 -0.10066904
000300 4e 81 f9 39 93 dd 4a be 1a 63 9a 3d 6c c5 07 3d
       0.0004758932 -0.19811086 0.075384334 0.03314726
000310 be e8 d9 3b ae 30 e1 bd 2d 4c 21 3e c9 60 d1 bd
       0.0066500595 -0.10995613 0.15751715 -0.102235384
000320 fd 33 8d be c0 b6 30 bd 96 dd e6 3d 35 5a 38 bd
       -0.27578726 -0.043143034 0.11272733 -0.045007903
000330 d6 2c 2b bd 41 6d c5 3d f4 7e 5e 3e 27 d3 41 bd
       -0.041790806 0.09639979 0.21728116 -0.04732051
000340 1e 40 e1 be 05 cf 37 3e f5 21 03 be df dc 14 3e
       -0.4399423 0.17950065 -0.12805922 0.1453738
000350 e9 f5 91 3d 11 af 0b 3e d7 36 7d be e7 b3 63 be
       0.07126982 0.13641001 -0.24727951 -0.22236596
000360 4c 06 b7 be c8 13 4a be 48 36 ea bd 71 6e b5 bd
       -0.35746992 -0.19734108 -0.114361346 -0.08858956
000370 4a 74 3d 3e 47 6b 96 bb c9 59 ca 3d 4c a4 b7 be
       0.18501392 -0.004590425 0.098804064 -0.35867536
000380 09 6b 90 bd 4b d4 0c 3e 19 5a 8b 3e 5d d8 44 bb
       -0.07051665 0.13752858 0.27217177 -0.003003619
000390 53 09 ee 3d 15 70 bf 3a 82 4e d5 3d 0d f1 a8 be
       0.11622872 0.0014605547 0.10415365 -0.32996407
0003a0 43 77 92 bd e2 90 a0 bd d0 b4 66 be be 20 cd bc
       -0.071516536 -0.07840134 -0.22529912 -0.025040027
0003b0 6a 77 b1 bd b7 bf 57 3e a9 38 06 be ac 41 fd bd
       -0.086653545 0.21069227 -0.13107552 -0.123660415
0003c0 f6 fe 6b 3e bb a1 b0 be e0 18 1d be 71 64 f6 3d
       0.23046479 -0.3449839 -0.1534152 0.120308764
0003d0 d5 9a 80 be 3a 2d 21 3d e1 1e 58 3d 1e 37 5c 3d
       -0.25118127 0.039349772 0.052763823 0.0537635
0003e0 38 33 a8 bd 0a 33 de bc 12 3f 2b be 1b 27 71 3d
       -0.08212894 -0.027123947 -0.16723278 0.058875185
0003f0 8c 1c 5d be 1c 8d 58 3d b6 0c 79 3c 5c 06 90 3d
       -0.21592921 0.052868947 0.015200784 0.07032463

actor.4.bias f4 [128]
000000 62 a0 74 be 36 06 9b be d7 f1 ab be 55 2e 3a be
       -0.23889306 -0.30278176 -0.33582947 -0.18181737
000010 4a 1a 86 be 23 38 85 bf 9d 29 51 be 81 41 c4 be
       -0.26191932 -1.0407757 -0.2042603 -0.38331226
000020 58 82 84 bf ea 65 62 be a8 a9 ce be 57 ac 63 be
       -1.0352278 -0.2210919 -0.40363812 -0.22233711
000030 8a 34 a7 bd 74 b1 2a be e5 a5 1e bf 44 0d 3a bd
       -0.08164318 -0.16669255 -0.61971885 -0.045422807
000040 a5 5c b5 bd 9d 0f a1 bd 0a ab 23 bf 6a 4b 91 be
       -0.08855561 -0.07864306 -0.6393286 -0.2837785
000050 0b c1 0b be 8a e9 80 be 27 27 61 be d4 2e 64 bd
       -0.13647859 -0.25178176 -0.21987592 -0.05570872
000060 0c a2 99 be 1b cc 88 bd 96 cb b1 be bf 82 67 bd
       -0.30006444 -0.06679555 -0.34725636 -0.056521174
000070 e4 bc a5 be 3d de fc bd 75 98 8a be e4 46 3b be
       -0.32370675 -0.12347076 -0.2706944 -0.18288761
000080 2f 35 89 be 71 88 aa be 3d a4 91 be 2a d8 8d be
       -0.26798388 -0.33307222 -0.28445616 -0.27703983
000090 bc a1 19 bd 72 51 eb bd e4 8a 12 be 98 ad 19 be
       -0.037507758 -0.11490144 -0.14310795 -0.15007627
0000a0 b3 b2 cd bd 91 d0 7d be 35 e4 2e be 0f b5 9d be
       -0.1004385 -0.24786593 -0.17079242 -0.308022
0000b0 51 60 92 be b8 fc f6 bd 83 51 04 bd 64 f3 0c 3e
       -0.2858911 -0.12059921 -0.032304298 0.13764721
0000c0 87 8e a3 3c b3 c4 b7 be 3f ea 1c be dd 1d a6 be
       0.019965423 -0.35892257 -0.15323733 -0.3244466
0000d0 b1 0c c1 bd 94 8c 14 be e4 7c 66 be 72 33 9d be
       -0.09426249 -0.14506751 -0.2250858 -0.30703312
0000e0 c3 6c b4 be 45 bc 89 be 4d d1 29 be 57 d8 8b be
       -0.3523923 -0.2690145 -0.16583748 -0.27313492
0000f0 26 f1 81 be cb fd 0e be 45 6e b3 be 35 5c 65 be
       -0.25379294 -0.13964002 -0.35045066 -0.22398455
000100 45 fb b9 bd 44 c6 64 be 96 c5 fe bd 10 fb 6a be
       -0.09081129 -0.22341257 -0.1244003 -0.22947335
000110 8f 89 c9 be b8 51 6f be 4f 21 57 be 40 2f 9e be
       -0.3936276 -0.23371017 -0.210088 -0.30895424
000120 4d 1b a2 3d 81 af 38 be df 25 47 bd b3 2c 95 be
       0.079153635 -0.180357 -0.0486201 -0.29135665
000130 2a 9a 46 bd 4b c2 23 be 64 29 dc 3d a6 7f 89 be
       -0.048486866 -0.15992086 0.10750082 -0.268552
000140 ba e3 08 be d5 4b 66 bd 96 ef c2 bd b7 2c 85 bd
       -0.13368121 -0.056224663 -0.09518354 -0.06502669
000150 ca ea 68 bd 88 fa c3 bd 8b 26 2e bf c1 7f 68 be
       -0.056864537 -0.095692694 -0.6802756 -0.22704984
000160 0b 0d ce bd f2 98 af be cd 28 9f be 89 af 95 be
       -0.100610815 -0.34296376 -0.31085816 -0.29235485
000170 d1 bc 4e be af e5 88 be 1b 0d b8 be be ed 7a be
       -0.20189215 -0.26737735 -0.359475 -0.24504754
000180 39 f3 79 bd df f6 bd be eb 8a 98 be 58 ae 13 bd
       -0.06102297 -0.3710241 -0.29793486 -0.03605494
000190 5f 6d 99 be e8 4f 34 be e8 fa a1 be 0e 51 26 bd
       -0.29966256 -0.17608607 -0.3163674 -0.040604644
0001a0 28 20 66 be 29 51 18 be 4c 86 8a be 72 db 60 be
       -0.22473204 -0.1487471 -0.27055585 -0.21958712
0001b0 17 a6 fd bd eb d0 72 be 5c 16 35 be 31 74 99 bd
       -0.12385195 -0.23712508 -0.1768431 -0.07492865
0001c0 a0 f6 6c be 4f 0a 42 be c4 8e 29 bf 8b 0c b3 be
       -0.23140955 -0.18949245 -0.6623347 -0.34970507
0001d0 e7 3b fe 3d 52 85 33 bd 18 e8 f5 bc d7 90 80 be
       0.12413769 -0.043828316 -0.030017897 -0.25110504
0001e0 0a 0b 47 be 1e e7 74 be 6e b2 66 bf 6e 11 85 be
       -0.19437805 -0.23916289 -0.9011601 -0.2598986
0001f0 12 20 d3 bd c8 b0 c3 be 4b 41 a8 be e4 90 ce 3d
       -0.10308851 -0.3822081 -0.32862315 0.100862294

actor.6.weight f4 [12, 128]
000000 2a d1 53 3b f3 45 76 3a cb e2 45 3b 9c c0 22 3d
       0.0032320716 0.00093945785 0.0030194994 0.039734468
000010 20 f6 12 3b 86 a6 50 3c ec c9 79 bb 3a f1 a0 3c
       0.0022424534 0.012735015 -0.003811474 0.019646276
000020 df ce 1d bc c0 e6 72 bc 39 1e 14 3c d2 26 62 bb
       -0.009631841 -0.014825523 0.009040409 -0.0034508002
000030 e6 9e 94 bc 42 41 7f 3b a9 a5 a5 3c 74 eb 25 bc
       -0.018142175 0.0038948809 0.020220594 -0.010126937
000040 73 d9 29 bc a4 c2 10 bc 52 a2 e0 3b 67 ac 84 3a
       -0.010366785 -0.008835468 0.0068552876 0.0010122181
000050 35 6f 68 bd 94 43 d7 bb ea f6 a2 3c df e2 87 3c
       -0.05674668 -0.0065693352 0.019893128 0.016587673
000060 cc e7 2f bc 68 f2 d2 3b d6 4b 8d ba 50 58 e4 3b
       -0.010736417 0.0064375885 -0.0010780047 0.0069685355
000070 3d a6 02 3c b2 f7 e4 3c cf e7 e2 3b 61 88 1e 3c
       0.007974205 0.027950142 0.0069246064 0.00967607
000080 a6 64 c3 bc 14 d9 4d bd 2b 26 6e 3c 0d be 7e 3b
       -0.023851704 -0.05025585 0.014535467 0.0038870603
000090 37 d5 4f bb b5 1f 26 3b 7b de 17 3c b2 04 da 3c
       -0.003171278 0.0025348489 0.009269352 0.026613567
0000a0 7a 78 64 3c c5 fe 09 bb b2 bf af 3b c3 37 d1 bb
       0.0139447395 -0.0021056395 0.005363428 -0.006384821
0000b0 29 cb 06 bb d6 40 a0 ba 8a 44 d3 3c c7 88 6a bc
       -0.002056787 -0.0012226354 0.025789518 -0.014314837
0000c0 ca f0 3d 3c 44 a2 b1 3a de f5 40 3c ed 86 d5 bb
       0.011593053 0.0013552387 0.011777369 -0.0065163285
0000d0 6d 33 f5 3b e4 a7 d4 bb fd fd 5a bd 1d ca 25 bd
       0.007482937 -0.0064897407 -0.05346488 -0.040475953
0000e0 d7 45 32 bc 11 67 ec bb 23 82 55 3c cb ec 1c bb
       -0.010880909 -0.007214435 0.013031515 -0.002394485
0000f0 7d 9b 06 bd 81 16 75 3c 08 b6 e1 bb 4e 81 9f 3c
       -0.03286313 0.014958979 -0.006888155 0.019470837
000100 80 a4 87 3c be fc 97 ba 2c da c8 3b be 02 8b 3a
       0.016557932 -0.0011595709 0.0061295237 0.0010605676
000110 39 2a 1f bb 39 c2 f8 bb 90 22 a9 3d c0 b0 c0 bc
       -0.0024286641 -0.0075915125 0.082585454 -0.023521781
000120 6e c0 33 3c 2a a2 17 bc 6f 2b f6 bd 55 95 54 bb
       0.010971172 -0.0092549715 -0.12020003 -0.0032437642
000130 c1 db 14 bc 7d 70 dd 3d a5 c6 3b bc 4a 5a 49 3c
       -0.009085597 0.10812471 -0.011460935 0.012289593
000140 2a bf 53 3d 8c fe fb bb 5b ba 64 bb 75 c1 b2 3c
       0.05169598 -0.0076902565 -0.0034901116 0.021820763
000150 55 77 83 3c 42 7c 59 bb 36 0e 47 3d 87 0f 05 bb
       0.016048113 -0.0033185636 0.048597537 -0.0020303444
000160 9e fa cf 3c f2 d6 8d bb 8c 57 ab 3d 43 9e 8b bd
       0.025388058 -0.004328602 0.083663076 -0.068172954
000170 06 ef 17 bd fb e8 3a bc 87 33 0b 3c 34 01 9c 3c
       -0.037093185 -0.011408086 0.008496172 0.019043542
000180 45 8b 92 bc e8 42 1a 3c da b6 5f bc 9b 11 c0 3b
       -0.017888675 0.009415366 -0.013654435 0.0058614737
000190 98 af 3f 3d 3a f8 af 3c 85 04 12 bc ae 64 25 bd
       0.04679832 0.021480668 -0.00891221 -0.04037922
0001a0 e4 16 0c bd 59 6c 28 bd e6 b9 cf 3b bc 78 3d 3c
       -0.034201518 -0.041118953 0.0063392995 0.01156443
0001b0 6d b4 d2 3c 75 0f 3a 3d ab 5e 0d bc af da 39 3c
       0.0257208 0.045424897 -0.008628528 0.011343642
0001c0 23 2f 49 3b 95 e4 30 3b 25 91 95 3b 7a d2 e9 3a
       0.0030698262 0.0026991714 0.0045644217 0.0017839216
0001d0 d4 ba 9a 3a 25 c7 fd 3b 1d 4c 65 ba 8a 3f 0e bc
       0.0011804947 0.007744687 -0.00087469985 -0.008682141
0001e0 c8 88 5d 3c e1 ba 12 bc 3a 00 44 3c ef b5 65 bc
       0.013521381 -0.008955688 0.011962945 -0.014020427
0001f0 aa c4 ed bb a9 76 42 bc ec 20 9d 3b c3 22 ee 3b
       -0.00725611 -0.011869111 0.0047951844 0.0072673275
000200 9f 98 1c 3b ac 0a c6 3b 7f 16 06 bb bc 88 1e bc
       0.002389468 0.0060437527 -0.0020460186 -0.009676155
000210 80 15 66 3c 6a 06 18 3c d1 33 95 bb 21 d2 3b 3c
       0.014043212 0.009278873 -0.004553296 0.011463673
000220 5b 75 50 bc b5 80 9f bc 29 67 1f 3b 9f dd 43 bc
       -0.012723292 -0.019470552 0.0024322963 -0.011954694
000230 d8 8d 76 3b 59 d9 41 3b 27 2b ce bb 0f 5f 19 3c
       0.0037621167 0.0029579012 -0.0062917653 0.009361043
000240 02 4b 80 3b 8b ca 31 3c d1 a8 a4 bc 0e a0 3a 3c
       0.0039151916 0.010851513 -0.02010003 0.011390699
000250 2e 26 17 bc c6 2d 4c bc 18 05 7c 3c ec be 92 3c
       -0.009225411 -0.012462085 0.015382074 0.017913304
000260 a2 47 c1 3c ff a7 f8 bb 18 21 ae bb 82 96 1e 3c
       0.023593727 -0.007588386 -0.0053140037 0.009679439
000270 54 2f e0 3b a7 2e d2 bc f0 e4 cf bb f4 0e 23 bd
       0.0068415795 -0.025657011 -0.00634443 -0.039809182
000280 db 1f 14 3c ad 7e 90 3b 64 29 20 3b 1b c2 6c 3b
       0.009040798 0.004409632 0.0024438733 0.0036126438
000290 ad de 25 3d 8a aa d4 bc b1 6b 66 3d f3 10 e0 bd
       0.040495563 -0.025960226 0.056255046 -0.10940733
0002a0 ba b3 e8 3b c8 50 30 bb fb 94 53 bc 91 96 3c ba
       0.007101503 -0.0026903618 -0.012913938 -0.0007194067
0002b0 4b 13 6e bc bc a8 c9 bb 3d b6 d3 bc 0a bb 39 ba
       -0.014530967 -0.006154148 -0.025843734 -0.0007085061
0002c0 1b d9 4c bc 62 51 dd 3b 5f c2 08 3c 14 0a 03 bc
       -0.012502934 0.0067540864 0.008347123 -0.007998008
0002d0 b0 c8 d4 bb 8e 84 db 3b 2f a6 0e 3d 3a f3 a9 bd
       -0.0064936504 0.0066991514 0.034826454 -0.08298345
0002e0 52 4a 03 bc 0d 75 07 3b 80 e4 92 bb 6b 50 f4 3b
       -0.008013325 0.0020669133 -0.0044828057 0.0074558756
0002f0 2d 14 b3 ba 34 b8 78 bc 84 e7 18 ba 16 2c 3a bd
       -0.0013662629 -0.015180636 -0.00058328384 -0.0454522
000300 33 38 85 bc 9f d5 ef 3b bb 72 6d 3a 0e db 05 3d
       -0.01626215 0.007319167 0.00090579287 0.03267961
000310 3f c5 0d bc 2b dc c1 3a aa 73 13 3d 01 4c 30 3c
       -0.008652984 0.0014790347 0.035998978 0.010760308
000320 15 4a 32 bc a4 13 63 bc 74 13 f2 bb 5f 79 75 bb
       -0.01088192 -0.013859663 -0.007387573 -0.0037456376
000330 0a 71 fb bb 10 60 d9 bc 0f bd 40 bc f3 88 f0 3b
       -0.0076733874 -0.026535064 -0.011763825 0.0073405444
000340 2a 6b 26 3d 48 40 85 bc 02 51 97 3c ad e3 2f bc
       0.040629543 -0.016266003 0.018471245 -0.0107354345
000350 ec ca 05 3c af 9d 32 3c f4 f5 84 bb c3 0d 2a bb
       0.008166056 0.0109018525 -0.00405764 -0.0025948144
000360 da cb 4b bb 84 8a 4e 3d a0 cd 27 3d 09 b6 40 bd
       -0.0031096847 0.050425068 0.040967584 -0.047048602
000370 80 50 a9 bd 1b 9e a3 ba 22 cb 32 3c 27 4c 15 3c
       -0.08267307 -0.0012483032 0.010912688 0.009112394
000380 1a 5b 87 bc 89 5b 13 bc e5 52 5b 3c 43 8f 94 3a
       -0.016522933 -0.008993992 0.013386463 0.0011334199
000390 91 1a 8c 3d 71 cb 12 bb 84 81 22 3c b1 3c 63 3b
       0.06841005 -0.0022399093 0.009918574 0.0034673626
0003a0 85 8b 58 3d e2 92 55 bd ba de e8 bb e9 c7 3e 3b
       0.05286743 -0.05214203 -0.007106629 0.0029110855
0003b0 22 ec e2 bc f6 73 a2 bc 05 84 46 bc c4 3c b2 bc
       -0.027700488 -0.019830685 -0.012116437 -0.021757491
0003c0 f3 d6 0b 3b d3 80 ad bc 04 c8 46 bd cd c1 2b bb
       0.0021337837 -0.021179592 -0.048530594 -0.0026208044
0003d0 27 9b 66 3c 41 6d f6 3d 4c 46 bd bb 92 6f c3 3c
       0.014075077 0.12032557 -0.0057762023 0.023856912
0003e0 14 ec 15 3c 9a ee 9c bc b3 3a 3d bc 8b 9c 26 bb
       0.009150524 -0.019156743 -0.0115496395 -0.0025422897
0003f0 b1 af 65 bc 87 22 a5 bc 34 30 99 3a cf 3b c6 bb
       -0.014018939 -0.020158065 0.0011687339 -0.00604961

actor.6.bias f4 [12]
000000 7b a6 2b 3b a8 83 8b bb 92 f1 39 3d 89 03 43 bd
       0.002619176 -0.004257638 0.045396395 -0.047610793
000010 f5 75 ae 3c 48 20 bf 3c e2 14 38 3e f7 e0 36 3e
       0.02129648 0.023330823 0.17976716 0.17859255
000020 06 c2 82 3e 1a e2 81 3e 1c 2a 8f 3e d9 df 8e 3e
       0.25538653 0.25367814 0.27961814 0.27905157
