tested_policies/hyqreal2/hyqreal_second_order_delay_new_friction/exported/policy.onnx (onnx, 273175 bytes, 8 tensors)

actor.0.weight f4 [128, 260]
00000000: 0e76 303d 8092 04bf 09a0 593e 6062 ca3e
00000010: 7618 fa3d f931 b63d a08b 2e3d 25b9 3b3e
00000020: 89e4 1c3e fefa 2d3e b3ef adbe 591e f73e
00000030: 852c afbe 72aa bb3c c62a cfbf 282b 51be
00000040: 9e30 53be 47c6 e7bb 6f0f 4bbb 34c0 f5bd
00000050: 0343 c63d 6b84 083e f22c 67be 1882 a43e
00000060: 6d92 31bb c8e8 92bd bacf 12be 56c7 0f3e
00000070: 16ef 8b3d 47ee 3abc da18 43bd 1ea9 27be
00000080: 6d1a bebb 9f6a 103d 811d f3bc 9721 64bc
00000090: 143f d0be e9f6 a5be eb62 3fbf b7f6 a2be
000000a0: fd3b 133e 997e 023d ee57 e3bd b1d9 75bd
000000b0: a52d 2c3d 78ea a3bc fe32 01bd 4c0a 2dbd
000000c0: 79d8 44be e157 943d 664f fb3d 77a3 0abe
000000d0: a800 cfbd c476 70be 49b5 a9bc f9cf b4bc
000000e0: 43c5 d23b 1e3e 91be 7c3e 833d 6802 093e
000000f0: 4ce7 923d 81b6 063e 4455 67be 8499 1a3f
00000100: c7de 093d dc6a c53e e950 bbbf 13b0 e6bc
00000110: d377 36be eeb3 973c 0e2d c4bc 8b62 a8bd
00000120: bbd3 593e 91f5 8b3d ebe3 27be 93d0 af3e
00000130: 2c0f 3ebd 48b1 b6bc a2d1 6e3d fc60 143a
00000140: 3bcc 11bd 2adc bf3d 77c8 14bd 26bc e73d
00000150: cc0e 523d 842c 863c dbbf e23d f91b 4c3b
00000160: 9d6d 2bbf f6da f5be 8116 71bf 2467 bfbe
00000170: 0f79 d3bd 9837 233e bef4 a7bc e7ed 1c3e
00000180: 07a9 acbd ad89 e53c 32f4 c9bd 65ea abbd
00000190: 8b09 d6bc 1b2e 833d 187d 583d 04bc 2ebc
000001a0: 7301 50be 4a0b c3bc cf5c c4be f866 16be
000001b0: 3569 41bc 5ed7 adbe 9cbb c73d 80cc 703e
000001c0: a5e3 093e 9354 e73d 42f7 00bf 637e 213f
000001d0: 00c3 bf3e 8ea1 3c3f 0d80 95bf b902 b93e
000001e0: bd1c 6bbe 7725 853c 4023 68bc 4f37 1bbe
000001f0: 9616 453e 9b0f 993d 58e0 aabd ac6f d13e
00000200: 12c5 b53c 773f 0a3d d4d2 16be 994c 0e3d
00000210: 5f49 bfbd 47ea c13d 1a83 a43d b033 5ebd
00000220: 7c26 5f3d b12c 913c 4ea5 da3c e634 d0bb
00000230: c3db 48bf 10ad e7be 4d39 83bf b62e 9dbe
00000240: b34c 40bd 80cd 133e f192 133d a75a 2a3e
00000250: dcff 88bd 79e5 843d c243 d7bc 1ecc 10bc
00000260: aad4 073e c911 71bc 47e8 14bd 4c6e 0c3e
00000270: 0f08 bbbe 2b54 773f 8b83 e6be b9d1 213f
00000280: 87d2 3abd 17c7 6cbf ac6e 113e 1c07 893e
00000290: a7b4 0f3e cd86 ed3d 06a6 21bf 0c4a 063f
000002a0: e75d 2b3f e0c6 983f f45c 5dbf 3405 233f
000002b0: 6d69 3dbe 36f5 e73d 34d7 943b 1aed 4dbe
000002c0: 903a 543e a50b 193d 90dd c1bc 6607 a93e
000002d0: cc84 9abd e070 d0bd bfd6 8abe b78e 343e
000002e0: dc99 ad3d 24ce e53d e818 f03c e696 91bd
000002f0: 46ff 953b 75c9 d63c 1493 9dbc 1922 a73d
00000300: 7b0f 38bf 3f44 8dbe 0600 6abf 7872 d23d
00000310: 071a 373e e08f e53d 2073 46be aff7 9a3d
00000320: 767b 7ebe b4d4 d33d 718a 13be 8f58 6cbe
00000330: e605 f33d b23e 0abe ef59 4abd a418 c93d
00000340: 4f60 15bf 8660 3940 9998 d93c 033d 3f3f
00000350: 33e5 84be 6b9b 90be d0c2 7a3d 1848 4f3e
00000360: d862 d93d 5339 683e c6a4 6abf 9c6b 203f
00000370: a641 9b3f 7367 c53f c5d4 20bf f0fc 943f
00000380: 07ce 57be 06a0 433e 26ff 3a3c 9aa8 95be
00000390: 667d 953e 05da 98bc 1e84 173e cc52 073f
000003a0: 833a 143e 0c8d e33e 6416 7fbe 4c66 4f3f
000003b0: eb93 bfbc 1d6e 09be 2e2a 8ebd dd23 8ebd
000003c0: 3e8b eb3d aff7 e63c d063 69bd d409 ed3d
000003d0: 2831 53be 91dd 1fbf 2d83 27bf 384b c13d
000003e0: 91f3 de3d 16e7 123e 8696 3cbe dddb 543e
000003f0: bf62 aabe 8bf3 c73b f30e c23d 93fb 70be
0.043081336 -0.5178604 0.21252455 0.3952818 0.12211697 0.0889625 0.042613626 0.18332346
0.15321554 0.16990277 -0.33971938 0.4826534 -0.34213653 0.022908423 -1.6184928 -0.20426619
-0.20624015 -0.007073197 -0.003098454 -0.119995505 0.0968075 0.13331763 -0.22575739 0.32130504
-0.0027095333 -0.07173306 -0.14337054 0.14040884 0.068327114 -0.011409349 -0.047631122 -0.16373107
-0.00580149 0.03525793 -0.029677154 -0.013924024 -0.40673125 -0.3241494 -0.7476031 -0.31828853
0.14378352 0.031859014 -0.11100756 -0.06002206 0.042035718 -0.020009264 -0.03154277 -0.042246148
-0.19223203 0.07243324 0.122710034 -0.1353892 -0.10107547 -0.23482805 -0.020716326 -0.022071825
0.006432207 -0.28367704 0.06408402 0.13379824 0.07173023 0.13155557 -0.2259112 0.60390496
0.033659723 0.3855809 -1.4634067 -0.02816013 -0.17819147 0.018518414 -0.023947265 -0.082219206
0.21272175 0.068339474 -0.16395538 0.34338817 -0.046401188 -0.022301331 0.05830539 0.0005660204
-0.03559516 0.09368165 -0.03632399 0.11315183 0.051283643 0.016378649 0.1107175 0.0031144603
-0.6696413 -0.48018616 -0.94174963 -0.37383378 -0.103258245 0.15939176 -0.020502444 0.15325128
-0.08430677 0.02801975 -0.0986103 -0.083943166 -0.026127597 0.06405278 0.052853674 -0.010664944
-0.20313053 -0.023809094 -0.38352057 -0.14687717 -0.0118048685 -0.33953375 0.097525805 0.2351551
0.13465746 0.11295428 -0.50377285 0.63083476 0.3745346 0.7368401 -1.1679703 0.3613489
-0.22960182 0.016253216 -0.0141685605 -0.15157817 0.19246897 0.0747368 -0.083435714 0.4090551
0.022188697 0.03375193 -0.14728862 0.034741018 -0.09340166 0.09468513 0.08032818 -0.05424851
0.05448006 0.017721506 0.026690152 -0.0063539622 -0.7846033 -0.45249224 -1.0251862 -0.306997
-0.046948146 0.14433861 0.036028806 0.16636144 -0.06689426 0.06489081 -0.026277427 -0.008837728
0.13264719 -0.014713713 -0.03635433 0.1371395 -0.36529586 0.96612805 -0.45022234 0.63210636
-0.04561093 -0.92491287 0.14202374 0.26763237 0.14033757 0.11597977 -0.63143957 0.52456737
0.6694016 1.1935692 -0.8646996 0.63679814 -0.18497248 0.11326067 0.004542256 -0.20109978
0.20725465 0.03736462 -0.02366522 0.33013457 -0.0754486 -0.10177779 -0.27116963 0.17632566
0.08476612 0.11220959 0.029308751 -0.0710886 0.00457755 0.02621911 -0.019235171 0.081608005
-0.7189862 -0.2759113 -0.91406286 0.102757394 0.17881022 0.112090826 -0.19379854 0.07566773
-0.24851784 0.10343304 -0.1440828 -0.23080657 0.118663594 -0.13500479 -0.049402174 0.09819153
-0.5835008 2.8965163 0.026562022 0.7470247 -0.25956115 -0.28243575 0.061220944 0.20242345
0.10614556 0.22678117 -0.91657674 0.626642 1.2129409 1.5422195 -0.6282466 1.163969
-0.21074687 0.19104013 0.011413371 -0.29230195 0.29197234 -0.018658647 0.14796492 0.52860713
0.14475445 0.44443548 -0.24910885 0.8101547 -0.023385962 -0.13420911 -0.06941639 -0.06940434
0.11501168 0.028194277 -0.056979954 0.1157414 -0.2062422 -0.6244746 -0.65434533 0.09438175
0.108863 0.14345965 -0.18416795 0.20786996 -0.33278462 0.0061020306 0.094755076 -0.23533468

actor.0.bias f4 [128]
00000000: ecd9 eebd 40ea db3d 185c 06bd 7fe7 85be
00000010: b3b3 2ebe ace9 81be 120b 7bbd ef0b 103d
00000020: e760 dd3c d18f f3bd d35c 953d 5e2e 3bbc
00000030: a8be 76be ecd0 cb3d 95d6 8cbf 2fdd 89be
00000040: f3e1 0abe d04c 72be ae7f c53c 76e9 73be
00000050: 068b 68be 565d a83d 7a52 583d 9db7 3bbd
00000060: 39fd acbb c0b8 4a3e b219 eabc fdef a839
00000070: f2c6 653d b7ba 50bd 4189 0dbe 74de 2cbd
00000080: 1408 bbbb 1f69 11bd e605 17bf e5a0 aabd
00000090: f1c5 05bf 3903 f3bd b7d0 7b3b 1d27 a5be
000000a0: 1725 213d ca3f 403e 6645 bcbd bbc2 3fbc
000000b0: 663f 09be abf6 0f3e 0525 e73d 3b1d 0d3e
000000c0: fb06 b8be c800 bc39 d0ea b53e a395 c9bd
000000d0: 76ba fabb 4d0e 633d c77c a73d d704 693e
000000e0: 182e 3d3e a548 8e3d 8bd3 8abc 0a63 a73d
000000f0: 902c b5bd b8e1 f6bd ce7b 3bbe 3426 6dbe
00000100: 545a 92bc a6ec 46be 7132 073e 4269 31be
00000110: 4d60 fc3b 5d6c 1bbe 42af 32be ea34 073e
00000120: 92f2 2ebe 285f c2bd d360 4abe 000d c2bd
00000130: 2d00 803d cecf c23c cca9 17bf 81fe 3e3e
00000140: 941e 393d 38cd 2bbe 1f7b 0e3a 7e4c 79be
00000150: 1c14 a0be 892d b23e 247d fa3c cf71 b73d
00000160: f08d 15be 5cd6 27be 674c 31be 07c3 0b3e
00000170: 2e83 f2bd 4295 d6bd d719 383c 0151 92bd
00000180: 7ced c03d 87cd ebbe 6138 5ebe 8878 76be
00000190: 682b b8bc 4c68 9e3d e2d3 36bd 11f4 1c3b
000001a0: 7d39 a83d 4ff0 0dbe dfb6 b53e 333e 063d
000001b0: 50ff 053c d26d 083b 4534 bebd 096e 383c
000001c0: fa0c 77be 1668 433e a0ad 1bbd 09fd e3be
000001d0: 4fe4 a33d d6f5 8f3d 10df 4abe 5d1e 463d
000001e0: 93a2 be3e c55c b23c 8fcb 1b3b 02f9 aa3d
000001f0: 3843 00be d793 a13d 682e 023d 273a 00bf
-0.11662659 0.10738039 -0.03280267 -0.2615318 -0.17060737 -0.2537359 -0.061289854 0.03516763
0.027023746 -0.11892665 0.072930954 -0.011424629 -0.24096167 0.09951958 -1.1002985 -0.26926562
-0.13562755 -0.23662114 0.024108734 -0.23819527 -0.22709283 0.082209274 0.05281303 -0.045829404
-0.00527921 0.19797039 -0.028576706 0.00032222262 0.056097932 -0.050959315 -0.1382189 -0.042204335
-0.00570775 -0.035500642 -0.58993375 -0.083314694 -0.5225516 -0.11865849 0.0038423964 -0.32256404
0.039342012 0.18774334 -0.09192924 -0.011704142 -0.13403091 0.1405894 0.11286358 0.13780682
-0.35942826 0.00035858736 0.3553071 -0.09842994 -0.0076516224 0.05543356 0.08178096 0.22755753
0.18474615 0.069474496 -0.016946575 0.08173187 -0.0884639 -0.12054771 -0.18308946 -0.23159105
-0.017865337 -0.19426212 0.13202836 -0.17325309 0.0077019096 -0.15178056 -0.17449668 0.13203779
-0.1708472 -0.09490806 -0.19763498 -0.09475136 0.062500335 0.02378073 -0.59243464 0.18651773
0.045195177 -0.16777503 0.00054352166 -0.24345586 -0.31265342 0.34800366 0.03057725 0.08957254
-0.14604926 -0.16390365 -0.17314301 0.13648616 -0.11841427 -0.104776874 0.011236629 -0.071443565
0.094202965 -0.46055242 -0.21701194 -0.24069417 -0.022481635 0.07734737 -0.04463566 0.0023949186
0.0821409 -0.13861202 0.35491082 0.03277416 0.008178547 0.002081741 -0.09287313 0.011256703
-0.24126044 0.19082674 -0.03800738 -0.44528988 0.08002531 0.07029311 -0.19811654 0.0483688
0.3723341 0.021772752 0.0023772453 0.08348276 -0.12525642 0.07889526 0.031782538 -0.50088733

actor.2.weight f4 [128, 128]
00000000: 8a69 cbbd 6842 933d 5be1 193e 68d5 5ebf
00000010: 5809 4c3c b405 2fbe 542b 1d3e bec7 4bbe
00000020: b121 debd 86a3 c0bd 87ec 63bd 34c8 ccbd
00000030: bd8c 443e de1f 8ebe 4243 88ba dee4 16be
00000040: bbb1 7c3d d58b 63be 252a 3c3e cc04 873c
00000050: 3324 f7bc cb29 b63c 756f 70be bfe1 be3b
00000060: a7d1 61be 4f4c 97bd 8218 f2bd df1c c6bd
00000070: 1608 f83d def7 c93e b083 2bbd ae0f a83d
00000080: 278a 76bc bef9 1b3e 20ca 8b3e c4e7 2cbe
00000090: 752a 31bf f52e 03bf d8c7 96be 8cc8 25be
000000a0: 221e eabd 3d52 70be 4684 febd f65f 73be
000000b0: 326f c4bc 820a 93bd faa7 413e cae3 ddbd
000000c0: a881 c33d 71c3 59bd 7445 37be 009e e8bd
000000d0: 4df7 903d 638a 40be 4095 6bbe 8c19 47be
000000e0: 8ec8 91bd 5242 3ebe 00dc 2dbe a6fe 253e
000000f0: 3281 1e3c 0fc4 2abf 4161 3dbb cf4b e73c
00000100: c752 02bf 9140 ab3d 9fb8 aabd 1521 733c
00000110: 725c 653e 9569 383d 5be7 a5bc 6d6a 88be
00000120: 9570 e1bd a1ed 4b3e 4f78 aabd b2c7 db3d
00000130: d18e edb9 894d d83d f14e 79bc 0096 86be
00000140: ec1f c03d c944 25be 2905 82be 87f8 c1bc
00000150: 5cfc e8bd c3f8 433e c281 59be 0611 fe3d
00000160: fd86 0d3d c03c 48be 7e08 5abe cf05 7abe
00000170: 23d7 223e 3653 9abd 2872 a93d 239e 4dbe
00000180: 4b8d 72be 909b d53d de7a bcbd 965d 353d
00000190: a51a 47be a257 463e 2f9a 91bd 80a9 c83d
000001a0: 2459 1bbe 817a cb3d ff3a 82b8 b1da 87bd
000001b0: 0d25 59be 67b0 d03e fbea 013e 0a2a bcbe
000001c0: 9534 28be 8094 5f3e 4d08 bcbe 3ab6 5dbe
000001d0: 1918 093e 98c4 83bd 8db3 643d f47d 5b3e
000001e0: 0bfb 99bd fb94 3a3e 5b82 9cbe 3952 00be
000001f0: d034 afbd 3736 2e3d c17f 14be 9001 763d
00000200: 6b62 8ebe 12cb 46be 8af3 dabd a8d9 393d
00000210: 584c da3c 210c 643e 6a0c 0a3e 366d ad3e
00000220: c591 143c b211 9abe cee7 07bd d542 263e
00000230: 40a8 bfbd dfc4 763c 3327 23be f72f 05be
00000240: c1a2 243e 17f0 953d 4d9e 38bd a339 1cbe
00000250: 7464 2ebe 0a85 10bc c970 033e 5d71 173e
00000260: 7a69 4d3e f3fd cbbd b83d 683d f7be aebe
00000270: c58a d3be 4bc6 2bbe 8219 27be cbe1 bf3d
00000280: dfef fcbd aaee 08bd 1d4c ccbd 8032 0ebf
00000290: c1dd 8abd fbff c7be 42fd a9bd 499f 63bd
000002a0: 8dc0 16bd 7fcd 53be 945b e9bd 6a56 013e
000002b0: 4597 423d c76c 8c3c b0fc 283e 2934 d0bd
000002c0: 5a26 fabd bf13 a63d ef8e 563e e195 ccbc
000002d0: f3cf 6abd 9882 57bd 869c 4a3d 4965 453e
000002e0: 07ce 9e3d daf1 adbe ccef 91bd 8487 2c3d
000002f0: 2089 0f3e 1727 30be c439 803e bf32 b4bd
00000300: af01 17bd 473d 283e 414e c6be f6c1 82bd
00000310: e2cf 8e3d 5fb3 0d3c 59e8 1ebc 986b 2c3e
00000320: 1122 9f3b c007 063e aaa4 41be f488 c13d
00000330: ffb5 76bc fc11 293d 21b1 2abc 6547 2d3e
00000340: b396 563e 3c16 093e 5c48 25bd a961 33be
00000350: 0759 073e 040a dd3d 3acc 1cbf 1b34 59be
00000360: ee25 0b3e 650e 94bc 2dfd 64bd 5288 a73d
00000370: dd33 8c3e 46cc ddbc c246 863d 5ee7 6cbe
00000380: 50c7 41bd 36bf 0f3e 4a95 313e 5dac 183e
00000390: aa9d 123e f6c0 27bd 2f5d 4ebe f4ff 8c3e
000003a0: 4d45 343c eb2e b2bd 9f6d d8be 8f51 503d
000003b0: b370 143e 7f78 5bbe eca1 bb3e e9d9 b13d
000003c0: 0f50 b6be 426f 9fbd 3bbb 16be 3281 d2bd
000003d0: caa8 07bd 2255 d53d 0fd5 943e 4bb9 ec3d
000003e0: 5ea6 2bbd f14e 93bd 30d6 30be 602f 2d3e
000003f0: f9eb d5bd 46b5 3a3e b604 e7bd ec3c 903d
-0.09932239 0.071904 0.15027373 -0.8704438 0.0124534 -0.1709202 0.1534856 -0.19900414
-0.1084627 -0.094061896 -0.055645492 -0.09999123 0.19194312 -0.27758688 -0.0010396021 -0.14735743
0.061692934 -0.2222131 0.18375452 0.01648178 -0.030168628 0.022236725 -0.23480017 0.005825251
-0.22052632 -0.073876016 -0.11821081 -0.096734755 0.12110917 0.3944692 -0.041873634 0.08206116
-0.0150475865 0.15231988 0.27302647 -0.16885287 -0.6920541 -0.51243526 -0.29449344 -0.16189784
-0.11431529 -0.23468871 -0.12427573 -0.23767075 -0.023978803 -0.071797386 0.18911734 -0.10834463
0.09546214 -0.053164903 -0.17897588 -0.11358261 0.07078419 -0.1880279 -0.23006153 -0.19443339
-0.07118331 -0.18579987 -0.16978455 0.16210422 0.009674357 -0.6670541 -0.002889708 0.02823439
-0.5090756 0.083619244 -0.08335995 0.01483943 0.22398546 0.045022566 -0.02025192 -0.26643696
-0.110078014 0.19914867 -0.08323728 0.10731448 -0.0004531057 0.10561664 -0.015216575 -0.26286316
0.093810886 -0.1613952 -0.25394562 -0.023678077 -0.11376259 0.19137864 -0.21240905 0.12405591
0.034552563 -0.19554424 -0.21292302 -0.24416278 0.1590238 -0.075354025 0.08273727 -0.20079856
-0.23686711 0.10430062 -0.092031226 0.044278704 -0.19443758 0.19369367 -0.07109486 0.097979546
-0.15170723 0.09935475 -6.209872e-05 -0.06633509 -0.2120554 0.40759584 0.12687294 -0.36750823
-0.16426308 0.21833992 -0.36725083 -0.21651545 0.13388099 -0.06433982 0.055835295 0.21434766
-0.07518586 0.18220894 -0.30568203 -0.12531365 -0.08554995 0.042532172 -0.14501859 0.060060084
-0.27809462 -0.19413403 -0.10690983 0.04537359 0.026647732 0.22270252 0.13481298 0.33872384
0.009067957 -0.30091625 -0.03318005 0.16236432 -0.09358263 0.015061586 -0.15932922 -0.13006578
0.1607771 0.07321184 -0.045072842 -0.15256362 -0.17030507 -0.0088207815 0.12835993 0.14789338
0.20059767 -0.09960546 0.056699485 -0.3413007 -0.4131681 -0.16774862 -0.16318324 0.093692385
-0.12350439 -0.033430733 -0.09975455 -0.55545807 -0.067805775 -0.39062485 -0.08300258 -0.055571828
-0.036804724 -0.2068386 -0.1139442 0.1263062 0.047507543 0.017141713 0.16502643 -0.10166199
-0.12214346 0.08109235 0.20952962 -0.024973812 -0.057327222 -0.05261478 0.04946568 0.19276918
0.0775414 -0.3397358 -0.07125816 0.042121425 0.14017153 -0.17202412 0.25044072 -0.087987415
-0.03686684 0.16429625 -0.38731578 -0.06384651 0.06973244 0.008648722 -0.009698951 0.16837919
0.004856356 0.13088894 -0.1891047 0.0944995 -0.01505804 0.041276917 -0.010418207 0.16921766
0.20955925 0.13387388 -0.04035221 -0.17517723 0.13217555 0.10792926 -0.61249125 -0.21211283
0.13588688 -0.01807327 -0.05590551 0.08180298 0.2738332 -0.027074944 0.06556465 -0.23135135
-0.04730922 0.14037785 0.17342106 0.14909501 0.14317957 -0.040955506 -0.20152734 0.27539027
0.011002851 -0.08700355 -0.42271134 0.05085903 0.14496116 -0.21432684 0.36646974 0.08684141
-0.35607955 -0.077848926 -0.1471986 -0.10278548 -0.033119954 0.104166284 0.290688 0.11558779
-0.041906707 -0.07192791 -0.17269206 0.16912603 -0.10445399 0.18233213 -0.112801954 0.0704287

actor.2.bias f4 [128]
00000000: 5963 a2be ef89 dc3d f3e5 f0bd 2a19 d4be
00000010: 9aa3 0fbd 4da3 9cbd e4c6 4a3c 3205 2ebe
00000020: be07 003e d60b f5be c84c 96bd 64ca aabe
00000030: fb34 9abe fe71 0f3d 5e38 cfbe a2fb debe
00000040: 0747 2ebe d281 87bd 397f 27be 8e54 55bd
00000050: a94e ad39 5092 69bd 959c bd3d 9c37 0abf
00000060: 0d61 0b3d 7606 e93d 6612 21be 604a 22bf
00000070: d598 5bbd 9367 b3be c4a9 a6bc 3102 5c3e
00000080: 707e 85be 2548 a43c c3a1 d8bc fbfc 06bf
00000090: 694a 0d3c 2e08 90bd e09f 16be 0c96 003e
000000a0: 5bf2 f1be adf7 aebd 1b86 97bd 123b 34be
000000b0: ee22 a7be 2f4b 15be dab5 5dbe 5f0f 2fbd
000000c0: e2ed 32be bc6c c8bd e08f 0bbe 7962 f5bd
000000d0: 45db aebe da55 e3bd 708a 82bd 8eb3 073e
000000e0: 36c1 913d 0f81 843d e4ad 67be 9aad 66be
000000f0: bbe0 913d d0e7 4bbe ab54 59be e1ef eebd
00000100: 19d3 abbd 8398 f53c 1675 333d d1dd 2bbe
00000110: 77c2 1fbe a0bd 34bd 2cb6 13be 82b6 e3bd
00000120: 516e 7fbe 32fb 883d 5a07 86be 7605 aebd
00000130: 48aa d0be 649a 14bd f4a9 edbc 9144 81be
00000140: 7f14 bd3c a851 83be e9f4 a8bd c76a 493e
00000150: 53fc 9abd 5c9d 4cbe 1fcf fa3a b0ae 07bf
00000160: 35d9 ddbd 6154 6fbe fc31 fbbc 68bc 5fbe
00000170: 891e c9bd 90cd 08be 69c2 81be 43df 83be
00000180: 8a15 07bf 383b 3cbe b17d 5bbd 04f0 1fbe
00000190: c6ef 39be 1b42 e33d ce23 09be 030a d5bd
000001a0: a463 10be 882c f93b ae7a 26be c51c 07be
000001b0: f7e9 cbbc 5384 77be d650 debd 4554 16be
000001c0: 1cc1 d0be c8d9 29bf ac97 51be c7f9 5fbf
000001d0: b7bd 77be e0a0 2ebe 6ff6 36bd a0ba 223d
000001e0: dae0 98be d678 b0be 4ac9 c1bd 0075 dabe
000001f0: 80af 49be bc03 27be dd10 6a3d cbe4 33be
-0.3171642 0.10768496 -0.11762609 -0.4142545 -0.035068132 -0.07648335 0.012376521 -0.1699417
0.12502953 -0.47860593 -0.073388636 -0.33357537 -0.30118546 0.03502082 -0.40472692 -0.43551356
-0.17019282 -0.06616558 -0.16357125 -0.05208259 0.00033055738 -0.0570243 0.09258381 -0.53991103
0.0340281 0.113781855 -0.15729675 -0.6339474 -0.05361255 -0.35039958 -0.020344622 0.21485211
-0.26073027 0.020053932 -0.026444321 -0.5272977 0.008623698 -0.0703281 -0.14709425 0.12557238
-0.47255215 -0.08543334 -0.073986255 -0.17600659 -0.32643837 -0.14579462 -0.21651402 -0.04273927
-0.17473558 -0.097863644 -0.13629103 -0.11981673 -0.34151664 -0.11100359 -0.06374061 0.13252088
0.0711693 0.064699285 -0.22624928 -0.22527161 0.07122942 -0.19912648 -0.21223705 -0.11666847
-0.08389873 0.02997995 0.043812834 -0.16783835 -0.15601526 -0.044126153 -0.14424962 -0.11118795
-0.24944426 0.06688537 -0.26177484 -0.08497135 -0.40754914 -0.03628005 -0.029011704 -0.25247625
0.023081062 -0.25648236 -0.08249838 0.19669639 -0.07567658 -0.19981903 0.0019135213 -0.53000927
-0.108324446 -0.23372032 -0.030663483 -0.21849215 -0.09820277 -0.13359666 -0.25343636 -0.25756273
-0.5276724 -0.18381965 -0.053586666 -0.15618902 -0.18157873 0.11096593 -0.13392565 -0.104023
-0.1410051 0.0076041855 -0.16257736 -0.13194568 -0.024891837 -0.24171571 -0.10855262 -0.14680584
-0.4077233 -0.6634793 -0.20468014 -0.87490505 -0.24193464 -0.17053556 -0.04466861 0.03972876
-0.29859048 -0.3446719 -0.09462221 -0.4266739 -0.19695854 -0.16310018 0.05714499 -0.17567746

actor.4.weight f4 [128, 128]
00000000: 1805 8a3e 8216 553c bff6 3a3e c7e2 073f
00000010: 5ffa 3dbe a7ca 66be 260b a8be 3142 40bd
00000020: 1767 c6be 8da5 7abd 7b5d 9fbd 9f03 9abe
00000030: 7239 01bc d988 c43d 133e 9c3e 19ed bd3d
00000040: a6aa 9b3d 0027 8dbe 4488 3bbd 2b7e 01bd
00000050: a182 173d 942f a1bd a980 64be ed9e ab3e
00000060: dd88 39bc d366 dc3d f636 adbd b778 373e
00000070: ac8b e13b f69c 2abd 4dcb a83e e5c8 4dbd
00000080: 286a 4d3e 18f1 3a3e 98c9 e53c eb2c d9bd
00000090: ea0d b53d 5d12 cfbd 2069 8cbc a77a b3bd
000000a0: d01c 5f3d 18f5 c7be df7e 1dbe b525 7d3c
000000b0: f9ab 3dbc f862 9abe 811f 063e 18d0 d03d
000000c0: fc10 843d 6681 d1be b9c0 93bd 934c e3bd
000000d0: ce09 8d3e 9eee 01be 6ae9 88be cf21 8cbe
000000e0: ff6b b6bd 3262 31be a4ac 9d3d 8733 e8be
000000f0: c31b bc3d 5fc9 84be 0487 4d3e 67c8 42bd
00000100: cc57 3dbd 40cf d0bc 9691 97bd 60d3 8cbd
00000110: 9262 293e 1110 04be 9eaa 3e3e 2715 3abc
00000120: 3741 07be f7e1 90be 7ab6 2a3e a152 8ebe
00000130: 0d7f 9f3e 0d8c c5bd c892 623e 9205 b63d
00000140: 4a98 b23d 8fb0 69bd b67f ba3c f041 4c3a
00000150: ab96 5a3d 88dd b83d 50a9 b7bd 4b9d 333d
00000160: 8800 853d 7f29 2cbe a0b0 2abe 85d5 7f3d
00000170: 84fa 1bbd c272 1c3c ee3e 61be 42f0 683e
00000180: f056 12be 4e44 453e 5e93 d6bd ce60 7abc
00000190: 344d bebc 21a9 50be 3af8 343e 7267 c13e
000001a0: d88e 6dbd 2897 00be 7b57 7b3c 394d f43d
000001b0: fb02 72bd ab7f 483e 2f5c b1bd 513e bebe
000001c0: 16a9 c93d 5170 2d3f 8d56 0dbe 5dfe 7d3e
000001d0: 2312 7dbe dbf7 cabd ddf5 58bd 726c 0c3e
000001e0: 9bf5 bdbd 661e 4cbd b0b5 0e3e 0ea2 753d
000001f0: 68fc 353e 1c93 bdbe 91de 803d f62b 193d
00000200: 3ff0 15be a204 3dbd 0eda e33d 6a63 80be
00000210: cfdc 093d a95a 9f3d fbe2 243e 9a6f 933c
00000220: 9c0f b93d 84f8 87bd b08f 5fbe 322d 8c3e
00000230: 96ad 153d 4bbc 5bbd 46b7 01be 8310 13bd
00000240: 77da 0fbe 88ef 143e 6e87 633e 68a6 19bc
00000250: 9cc0 8abd c31f 133e 4a4b 6d3e 838d e03c
00000260: b8da c8bd 228c 5bbc a390 40be 0b70 673e
00000270: 66c8 083e e5e1 353e 4f4c a1be c54a 41bd
00000280: 9c53 1e3e 6b60 6e3d 2e75 f5bd 09c0 ac3d
00000290: aa57 393d 4be8 083d e126 22be 4d85 243e
000002a0: 2369 82bd bd2c 3abd cd42 8b3e 40d7 2d3e
000002b0: d24a 873d feab ff3c 2d19 f33d 5f5e c2bb
000002c0: 393d c73d ee9b 4dbe 75ef 923d d14e e7bd
000002d0: 59c8 13be 21c3 333e 8012 3abe 9d8c e6bd
000002e0: 0624 8e3e 46bd b63c c5df 2dbe efca 403d
000002f0: 70b1 a9bd 77f4 d63d e58d 26bc a569 5a3d
00000300: fd43 4cbe f6d2 56be 6901 9bbe 9fa9 68bd
00000310: 94c2 11be e500 1a3e e32b 29be fda7 983d
00000320: 4f2a 1c3c 301e c8bc 012e 14bd 9b0b 4f3e
00000330: 6bcb 813e a644 153e 4a2f fc3d 37fe 6abe
00000340: d493 213d 85bb e23d f3d2 67be c449 4e3d
00000350: ea08 363d e27c a3bd 93d0 dabd df59 e33d
00000360: e0e9 2dbe ee3c 7abe 9065 f03c d0c3 56bb
00000370: 2688 663d 5f0a b3be 61cb bf3d 14eb 423d
00000380: 7e93 0abc bb34 8d3e 7a2b 633d 7dc9 a8bc
00000390: fa7a 76be 06b4 343e 4a05 d4bc 8ff4 e53c
000003a0: 948c cdba 6a3c ab3d 491b 253e 3a49 5bbd
000003b0: e428 08bd 4893 0d3d 0f6b a3bd 6b34 b63d
000003c0: 389f 18be 12a2 34be 8772 51bd c0d2 f8bb
000003d0: b2d0 083d 72ef a93c 03ad 253c 0b3a 51be
000003e0: 77e5 a6bc 0c08 e8bd 0aeb f03d 6683 173e
000003f0: 501e 3a3b bfae c93d 6281 813c 85e5 fa3d
0.2695701 0.013005855 0.18258189 0.5308041 -0.1855254 -0.22538243 -0.32821006 -0.046938125
-0.38750526 -0.061193038 -0.07781502 -0.30080888 -0.007887231 0.09596414 0.3051611 0.092737384
0.07600908 -0.27568817 -0.04578425 -0.031614464 0.03698981 -0.07870403 -0.22314705 0.33519688
-0.011324135 0.107618 -0.084577486 0.17917143 0.0068831053 -0.041653596 0.32967606 -0.050240416
0.20060027 0.18256032 0.028050229 -0.106042705 0.088405445 -0.101109244 -0.017139971 -0.087636285
0.054470837 -0.3905418 -0.15380429 0.015450885 -0.011576646 -0.30153632 0.13097955 0.10195941
0.06448552 -0.40919036 -0.07214493 -0.1109859 0.27546543 -0.12688681 -0.2674058 -0.27369544
-0.08907317 -0.17322615 0.07698944 -0.45351812 0.09184983 -0.25934884 0.20071036 -0.0475544
-0.046226308 -0.02548945 -0.07400815 -0.06876254 0.16541508 -0.12896754 0.18619773 -0.011357582
-0.13208471 -0.28297397 0.16671172 -0.27797416 0.3115162 -0.09645853 0.22126305 0.08887781
0.08720453 -0.057053145 0.022765975 0.0007791808 0.053366344 0.09026629 -0.08967841 0.04385118
0.06494242 -0.16812705 -0.1666894 0.062459487 -0.038080707 0.009548845 -0.21996662 0.22747901
-0.14290977 0.19264337 -0.10477327 -0.015281869 -0.023230173 -0.20377018 0.17672816 0.37774235
-0.057997555 -0.12557662 0.015340681 0.119287916 -0.059084874 0.19579951 -0.08660161 -0.3715692
0.09846704 0.67749506 -0.13802548 0.24804063 -0.2471395 -0.09910556 -0.05296885 0.13713244
-0.09275361 -0.049833678 0.13936496 0.059969 0.17772067 -0.37026298 0.06292451 0.03739544
-0.14642428 -0.046146996 0.11125575 -0.25075847 0.033657845 0.07780964 0.16102211 0.017997552
0.090361804 -0.066391975 -0.21832156 0.2737823 0.036542498 -0.053646367 -0.1266757 -0.03590442
-0.14048181 0.14544499 0.22219631 -0.009378053 -0.067750186 0.14367585 0.23173252 0.027411228
-0.09807342 -0.0134001095 -0.18805175 0.22601335 0.13357696 0.17761953 -0.3150353 -0.047190446
0.15461582 0.05819742 -0.11985241 0.08435065 0.04524962 0.033424657 -0.15835144 0.16066475
-0.063677095 -0.045452822 0.27199402 0.16976643 0.06606068 0.031209942 0.11870036 -0.00593166
0.09728474 -0.20079014 0.07174579 -0.1129433 -0.14431895 0.17554905 -0.1817112 -0.112572886
0.2776186 0.02230705 -0.16979893 0.047068533 -0.08285797 0.10495847 -0.010165666 0.053323407
-0.1994781 -0.20978913 -0.30274513 -0.05680239 -0.14234382 0.15039404 -0.16520648 0.07453916
0.0095315715 -0.024428457 -0.036176685 0.20219271 0.25350508 0.14576969 0.12313707 -0.22948538
0.03944762 0.11070923 -0.22639064 0.050363317 0.044442095 -0.07982804 -0.106843136 0.11101126
-0.16983747 -0.24437305 0.029345304 -0.0032770522 0.056282185 -0.3496885 0.09364963 0.04758747
-0.008458016 0.27579293 0.055461384 -0.02060389 -0.2407035 0.17646798 -0.025881428 0.028070716
-0.0015682154 0.083611324 0.1612369 -0.05353663 -0.03324212 0.034564286 -0.07979404 0.08896717
-0.14904487 -0.1763995 -0.051134612 -0.0075934827 0.033402152 0.02074406 0.01011205 -0.20432298
-0.02037309 -0.1132966 0.1176358 0.14796218 0.0028399415 0.09847783 0.015808765 0.122508086

actor.4.bias f4 [128]
00000000: 646f aebe 6404 62be e74c 38be 7f93 083c
00000010: d221 46be 6d5d fcbe 8e4c bbbe 8c01 9ebb
00000020: 4233 89be 9587 22be 167a 48be 1d72 21be
00000030: cb0a 4cbe 1e7d 5bbe b0fe 92be 3922 0bbe
00000040: 6e2f 31be 3c84 24be eb4f aebe 175b 0dbe
00000050: 80ee b2bd c5c7 3abe 1a80 b8bd 0cb9 2cbe
00000060: b345 2ebe e07e 1bbe c259 a7be 84a3 8b3d
00000070: 8bdd 90be dac4 56be 11a5 c3be c7c4 b1bc
00000080: fd26 48be 0bde 6fbe 891f 8cbe 2d56 503d
00000090: cc4b 3abe 10d7 26be 97c4 a1be 8e59 b6bc
000000a0: 3bd3 57be da32 4ebe 15ee 55be 9d25 93be
000000b0: a696 b4be 2126 a4be e19b c7bd 4fbe 8d3c
000000c0: 700b f73c 0cf2 8abe 3436 8ebe eaca bbbe
000000d0: b53e b8bd a4c6 1dbe ab04 b6be 212c c4bc
000000e0: bd00 99be c1c3 a1bd 1ed7 51be dda3 173d
000000f0: 84a2 aebe 380e 76be cf0a 61be 46bd 52bf
00000100: 3cff 83be 96bc 45be 4bbb 4dbf 8144 96bd
00000110: 7b84 a4be ff4e 8dbc fbdd 53be 291d 87be
00000120: 5051 28be 7fd5 0ebe f2b1 2cbe 9558 c1bd
00000130: 1878 4cbe 4207 a8be ad70 38be e28e 78be
00000140: 1f5b 3ebd 6695 5cbe 5581 51be 6f79 85be
00000150: 9ec7 7cbc 845f 48be d00f 25be 14e9 10be
00000160: 6122 b5be 45fa 6abe a6fc a2be fd20 14be
00000170: d69f 1bbe dac3 08be f4f3 a6be 7ae8 2abe
00000180: 43bb 62be 820f 1ebe 79a0 a7be 82d5 a0bd
00000190: 1a2b 99be 932f f1bd 82c6 69be 61b0 44be
000001a0: 64eb 36be 157e 61be 5f11 00bd 1dd5 19be
000001b0: 7708 01be 7a94 8fbe 626f 91be 3536 61be
000001c0: 574f 01bf 13bc 4cbe 1c6a 99be b9be b1bd
000001d0: 6008 41be 2906 5bbe 676b b5bd 6501 3ebe
000001e0: 8d3e 3cbe c671 ecba b26a 73be 3061 123d
000001f0: 69e6 17be 5ac1 c4be fc98 00bd a992 2ebe
-0.3406936 -0.22071987 -0.17998086 0.008335947 -0.19348839 -0.49290028 -0.36581844 -0.0048219617
-0.2679692 -0.15872033 -0.19577822 -0.15766187 -0.19925992 -0.21434447 -0.28709936 -0.13587274
-0.17303249 -0.16066068 -0.34045348 -0.1380428 -0.087368965 -0.18240269 -0.090088084 -0.16867465
-0.17018776 -0.15185118 -0.32685667 0.068182975 -0.28294024 -0.2097353 -0.38211873 -0.021700276
-0.19546123 -0.23424546 -0.2736781 0.050863434 -0.18192977 -0.16292977 -0.315953 -0.0222595
-0.21076672 -0.20136586 -0.20891602 -0.28739634 -0.35271186 -0.3206034 -0.097465284 0.01730266
0.030156821 -0.27137792 -0.2777573 -0.3667825 -0.089963354 -0.15407807 -0.35550436 -0.023946824
-0.29883376 -0.07898665 -0.20492217 0.037021507 -0.34108365 -0.24028862 -0.2197678 -0.8232006
-0.25780666 -0.19310221 -0.8036391 -0.07337285 -0.32132325 -0.017249582 -0.20690148 -0.26389435
-0.16437268 -0.1394863 -0.16864756 -0.09440724 -0.19967687 -0.32818037 -0.18011732 -0.24273255
-0.04647362 -0.21541366 -0.20459493 -0.2606921 -0.015428452 -0.19567686 -0.16119313 -0.14151412
-0.35377792 -0.22947033 -0.3183338 -0.14465709 -0.15197691 -0.13355961 -0.32607996 -0.16690245
-0.22141747 -0.15435603 -0.32739618 -0.078532234 -0.29915696 -0.11776652 -0.22829631 -0.19207908
-0.17863232 -0.22020753 -0.031266566 -0.15022703 -0.12600885 -0.28042966 -0.2840529 -0.21993335
-0.5051169 -0.1999362 -0.29963768 -0.086789556 -0.18850851 -0.21389069 -0.08858376 -0.1855522
-0.18383236 -0.0018039278 -0.2377117 0.035737216 -0.14833988 -0.38428766 -0.031395897 -0.17048134

actor.6.weight f4 [12, 128]
00000000: 817c 6b3c cee4 903c 899c 9dbc 2661 46bb
00000010: a30b 8b3d 2df7 9a3c 7237 0b3d 9b41 803c
00000020: 04b5 f3ba 600b a23c 415c a13d 67ca 5ebc
00000030: 50ef 923c 23ee 71bc 943a 16ba 1abb ef3b
00000040: 5056 323c 6e4b 4ebc 1d18 02b5 0c65 b73a
00000050: 833d 08bd 79cf 3bbc 74ce 57bd ce81 c73b
00000060: dbb3 133b e42d b13c 389f 983c cbe5 023c
00000070: c8a5 87bb 61b4 01be 429a 28bd c106 6cb9
00000080: e48d 093d d662 243c 0f97 2ebc 215b 51bd
00000090: e647 d53b 2c2c aabb ee14 c6bc 355a b5bc
000000a0: 75f0 9dbb 3b8d c13c 9b8d a83b a81e 79bd
000000b0: 4ab2 8fbc 84ca 4dbc fc1f 0b3d 4294 233c
000000c0: 610b 44ba 27fa 4bbb 2b8c 473a ce5b 8bbb
000000d0: 3082 3d3d f83d 663b cabb cabc c4b6 e83b
000000e0: 5257 b3bd d1db 0ab9 24ea 703c 13c7 193d
000000f0: 090c 08bb 318f 93bb 2dd8 31bd a9e3 1ebb
00000100: a838 523c 02c5 cabb 5c6e 76bb 1cd0 523b
00000110: 778a 363c 7d64 63bb 50f6 bb3a c25b 5a3c
00000120: a163 fb3b 0373 aa3c f64d 993b 7ff1 d53a
00000130: 073a f53c 23d1 073a 2d64 69bc 8118 5e3b
00000140: 7128 00bb 439d 393b bb40 753b ad59 29bc
00000150: 4121 e1bb e1e3 d53b 9bed a43d de21 7f3c
00000160: 56cb 503c 1f6f 91ba 69fa 523c 673c 9a3b
00000170: 4127 443b 70e6 3dbe 08ce 823c 2af7 093e
00000180: 346f 01bc 27c4 6fbb 7e4a 4bbb 026e 42bd
00000190: 4b0f 5a3c 43a0 023c 19bc 67bd 2007 e93c
000001a0: 268d a7bc 82d3 13bc 1c28 02bc 58d9 a53c
000001b0: 3398 fcbb 9f92 59bd 5227 3abc d48a 4e3c
000001c0: 1230 233d dc8e afbc 5817 a7bc 6696 053c
000001d0: 9e74 1f3b 042a 6abc 7b91 53b9 bfc6 92bb
000001e0: bd0b b03c f77f 0fbc 1daf b23c 5ebb 133b
000001f0: ee9a ecbb 8e9b 06bd f6b8 eb3b 6695 0dba
00000200: 9b2b ca3c 1ef8 ac3b 6cba 39bc 4c32 05bc
00000210: 4c6d 0bbd cf49 1fbd f3f7 793b 34c7 90bc
00000220: 8f30 3b3b e113 513c b2c0 023e 7eb1 a0bc
00000230: 4371 6dbb 0fbd 50bb 1e80 353c 5e3b e5bb
00000240: fc4f a03c 0113 a1bc bc12 dc3a d95a 3d3e
00000250: 3e14 3dbd 9435 e5bb 5e61 0abd 9722 3c39
00000260: fe94 8ebb 9c32 71bb aa37 1c3b 17a1 0bbc
00000270: 8cb3 8c3b 3fda 9fbd d29a 063d 1392 033c
00000280: 4a2e 8abd 5a80 663d 1000 6dba 48ad 19bd
00000290: e191 3e3c e647 02bc 78c6 b13d 3251 bb3c
000002a0: f16a 95bc 3dab 72bc 4291 323d 57e6 593d
000002b0: b922 59bc b09c 443c f37f 563d 698e b4bb
000002c0: 865c e139 a14b d93a 26de 3b3c 8054 0dbd
000002d0: 5d19 093d e570 b0bc 5620 66bc 7ec5 963b
000002e0: a69e c33c 5e1f baba 349e bbbc 51b5 503d
000002f0: ba3a c1b8 f205 44bb 6a74 c5bb c70f 903b
00000300: 4c51 223c 50a1 dbbb deba 4a3b 3de9 f439
00000310: 7869 64b9 70d2 3939 7072 af3c f31c 63bc
00000320: 5e70 933b 2734 81bc 1aa3 1dbb 0bf9 a9bb
00000330: f321 6f3c 65d6 37bc 76f9 04bb 7dd8 9f3b
00000340: 79c1 ab3b 7ebf 813c ca14 92bc 1bf5 4abc
00000350: 25da 91ba 6851 ca3b 716a 0bbe bdcd a5bc
00000360: 9c37 893c e51d b3bc 9037 84bc f747 f23b
00000370: 8f42 adbb 5d49 d3ba df0a 5abc 9f2b a3bd
00000380: 77e5 44bc 3848 3c3b d097 97bc 6c75 443d
00000390: 7635 a63c 992a fc3b 86a1 2bbc 44d4 973b
000003a0: 4127 a73c 0d7b 113c 7c35 14ba f615 5a3c
000003b0: 7021 05bc 3e66 7a3d 1951 adb8 1723 0a3c
000003c0: 91a8 9abc 9c6b 9eba a7d4 54bc 5fb1 7aba
000003d0: bd13 673c 7dd0 f3bc 0e3f 34bb 5247 e8bc
000003e0: 8036 adbc 5404 94bc 4313 e23a 72d7 84bb
000003f0: dccb 91bb 5144 283d 45f0 9fbb 58ac adbb
0.014372946 0.017687228 -0.01923968 -0.0030270307 0.06789329 0.01891669 0.033988424 0.015656283
-0.0018593376 0.019780815 0.07878924 -0.013598061 0.017936379 -0.014766249 -0.0005730775 0.0073160054
0.010884836 -0.012591226 -4.8463863e-07 0.0013991906 -0.033261787 -0.01146304 -0.052687123 0.006088472
0.0022537622 0.021628328 0.018630609 0.007989357 -0.0041396357 -0.12666465 -0.041162737 -0.0002250923
0.033582583 0.01003333 -0.010656132 -0.051112298 0.006508815 -0.005193254 -0.024179902 -0.02213774
-0.0048199245 0.023626914 0.005143834 -0.06082025 -0.01754107 -0.0125604905 0.03396605 0.009984078
-0.0007478502 -0.0031124444 0.0007612134 -0.0042528873 0.046266735 0.003513215 -0.024747748 0.0071018655
-0.087568894 -0.00013242594 0.014704261 0.037543368 -0.0020759127 -0.0045031537 -0.043419052 -0.0024244583
0.012830891 -0.006188036 -0.00376024 0.00321675 0.011141411 -0.0034697347 0.0014340375 0.013327541
0.007671789 0.020806795 0.004678483 0.0016322582 0.029934896 0.0005181005 -0.014245075 0.0033889117
-0.0019555355 0.0028322495 0.0037422616 -0.010336322 -0.0068704193 0.0065274094 0.08053132 0.015572039
0.012743792 -0.0011095739 0.012877085 0.0047069076 0.0029930624 -0.18544936 0.015967384 0.13473192
-0.007900048 -0.0036585422 -0.0031019743 -0.047468193 0.01330931 0.00797278 -0.05657587 0.02844578
-0.020453047 -0.009022595 -0.007944133 0.02024524 -0.0077085732 -0.053118344 -0.011361914 0.012606341
0.039840765 -0.021430425 -0.020396873 0.008153534 0.0024330984 -0.014292244 -0.00020176724 -0.004479259
0.021489972 -0.008758537 0.021812016 0.00225421 -0.0072206175 -0.032863192 0.00719368 -0.0005400985
0.024678996 0.0052786013 -0.01133595 -0.0081296675 -0.03403978 -0.03888875 0.0038142174 -0.017673112
0.0028562879 0.012761087 0.1276882 -0.019615885 -0.003623084 -0.003185097 0.011077909 -0.0069956025
0.01956939 -0.019662382 0.0016790251 0.18491687 -0.046161883 -0.0069949124 -0.033784263 0.00017941963
-0.0043512573 -0.0036803847 0.002383689 -0.0085222935 0.0042938646 -0.07805299 0.032862492 0.008030432
-0.0674711 0.05627475 -0.0009040842 -0.03751877 0.01163146 -0.007951712 0.08680433 0.022865865
-0.01823947 -0.014811334 0.04359556 0.053198185 -0.013252907 0.012000248 0.052368116 -0.0055101407
0.0004298428 0.0016578325 0.0114665385 -0.034504414 0.033471454 -0.021538207 -0.014045795 0.0046011796
0.02387936 -0.0014200022 -0.022902586 0.050954167 -9.213896e-05 -0.002991077 -0.0060258405 0.004396412
0.009907078 -0.0067025796 0.0030934135 0.00046713083 -0.00021783065 0.00017721369 0.021416873 -0.0138618825
0.004499479 -0.015771938 -0.0024053515 -0.005187159 0.0145954965 -0.011220549 -0.0020290292 0.0048781023
0.0052415696 0.01583838 -0.017832179 -0.012387539 -0.0011127634 0.006174255 -0.13614823 -0.020239705
0.01675015 -0.02186484 -0.016139776 0.007393833 -0.0052874754 -0.0016119886 -0.013308256 -0.079673044
-0.012017599 0.002872957 -0.018505007 0.047963545 0.020289164 0.0076955077 -0.010475522 0.0046334583
0.02040446 0.008879435 -0.0005653722 0.0133109 -0.008125648 0.061132662 -8.2643885e-05 0.008431218
-0.018879207 -0.0012086513 -0.012990153 -0.00095631735 0.014103827 -0.0297625 -0.0027503404 -0.02835432
-0.021144152 -0.01806847 0.0017248172 -0.0040540034 -0.0044493508 0.041080777 -0.0048809373 -0.005300086

actor.6.bias f4 [12]
00000000: 8797 ac3c a3dc b0bc 3dc1 6f3c 9abc 6bbc
00000010: b33b 023d 874d f53c 4639 153d 1d9c 123d
00000020: d191 783e 25fb 783e 53fb 853e b54a 863e
0.021068348 -0.021589583 0.014633474 -0.014388228 0.031795215 0.029944194 0.036431573 0.035793412
0.24274375 0.24314554 0.26168308 0.26228872
