tested_policies/go2/8k_128_128_128_go2/exported/policy.onnx (onnx, 273175 bytes, 8 tensors)

actor.0.weight f4 [128, 260]
0	0x3dd7f21e	0.10544227
1	0x3df362a0	0.118840456
2	0xbed5d419	-0.4176338
3	0x3e16d722	0.14730504
4	0xbebfb30b	-0.37441286
5	0x3ec740d7	0.38916656
6	0x3f92b887	1.1462563
7	0xbe0eeeb0	-0.1395824
8	0x3e505ca2	0.20347837
9	0x3ee1b4a2	0.44083124
10	0x3e911ae4	0.28340828
11	0x3e5a20db	0.21301596
12	0x3e84613c	0.25855434
13	0xbdd4153a	-0.10355611
14	0x3f1037eb	0.56335324
15	0xbd50910d	-0.05091958
16	0x3d5b24f2	0.05350203
17	0x3f7ebe15	0.9950879
18	0xbeffd846	-0.4996969
19	0xbee08ee0	-0.43859005
20	0x3e687695	0.22701485
21	0x3e5d1f48	0.21593964
22	0xbeaa4775	-0.33257642
23	0x3e3b4283	0.18287091
24	0xbdddd4a6	-0.10831575
25	0xbe1a5915	-0.15073045
26	0xbc7fce6b	-0.015613179
27	0xbd82e2d6	-0.06390922
28	0xbd05ee15	-0.032697756
29	0xbb27234c	-0.0025503216
30	0xbc81f07f	-0.015861748
31	0x3d29c1dc	0.041444644
32	0x3d5b916c	0.053605482
33	0xbdefe374	-0.11713305
34	0xbcb62e8b	-0.02223899
35	0xbb496c55	-0.0030734737
36	0x39f86bbe	0.0004738252
37	0xbe5523cd	-0.20814438
38	0x3d96f5aa	0.073710755
39	0xbd4271cf	-0.047471818
40	0xbdcbbf6d	-0.09948621
41	0xbd5c8133	-0.05383415
42	0x3e43854e	0.1909382
43	0xbe5a8fa3	-0.21343856
44	0x3cae7e7e	0.02130055
45	0xbdad5bc3	-0.08464768
46	0xbddbd4b6	-0.10733931
47	0x3dd86bec	0.105674595
48	0xbe901137	-0.28138134
49	0x3dc4d643	0.0961118
50	0xba9dd43c	-0.00120414
51	0xbe7fe93e	-0.24991319
52	0x3e105e0a	0.14098373
53	0xbde2875c	-0.11060974
54	0xbd98dde5	-0.07464198
55	0x3ea35c92	0.31906563
56	0x3d54d6d9	0.051962707
57	0xbe5a1025	-0.21295221
58	0x3f803e7b	1.0019068
59	0xbd784723	-0.060614716
60	0x3e120f01	0.14263536
61	0x3f3034c7	0.6883053
62	0x3eaf7705	0.34270492
63	0x3e9edf00	0.3102951
64	0x3e98dbff	0.29855344
65	0xbdeaa2b6	-0.11456816
66	0x3f05b37f	0.52227014
67	0xbd211946	-0.039330743
68	0x3df7f197	0.121066265
69	0x3f78bd24	0.97163606
70	0xbf04c85c	-0.51868224
71	0xbee8e99d	-0.45490733
72	0x3e2ad72d	0.16683646
73	0x3ea23334	0.3167969
74	0xbe90107f	-0.28137586
75	0x3dd64d03	0.104639076
76	0xbcee4a0b	-0.02908804
77	0xbd8b903f	-0.06814622
78	0x3df9c070	0.12194908
79	0x3dd829fd	0.10554884
80	0x3df7aad9	0.120931335
81	0xbdb318e4	-0.08744982
82	0x3d416dd1	0.04722387
83	0x3da9daa8	0.082936585
84	0xbd0aa057	-0.03384432
85	0xbce0e1fa	-0.027451504
86	0xbcf96fec	-0.030448876
87	0x3ca9c2cb	0.020722767
88	0xbdf85228	-0.12125045
89	0xbe4c70da	-0.19964924
90	0x3e866487	0.2624857
91	0xbe99e6f6	-0.30059022
92	0xbe05cc5d	-0.1306624
93	0x3d18d422	0.03731168
94	0xbe0a3669	-0.13497318
95	0xbd528696	-0.051397882
96	0x3e016ddd	0.12639566
97	0x3e3d26ac	0.18471783
98	0xbe3715c2	-0.17879394
99	0xbe03c822	-0.12869313
100	0xbee4d459	-0.44693258
101	0x3e37daf5	0.17954619
102	0x3e28a319	0.16468467
103	0xbf03bcd2	-0.5145999
104	0x3e41b7a6	0.18917713
105	0xbda639a4	-0.08116463
106	0xbd6acc7f	-0.05732393
107	0x3e46961c	0.193932
108	0xbdffe33b	-0.12494513
109	0xbe8524a1	-0.26004508
110	0x3f84704e	1.0346773
111	0xbdf92aa2	-0.12166335
112	0x3e4ee78f	0.2020552
113	0x3f5473aa	0.8298899
114	0x3ef7ea0a	0.48420745
115	0x3ebc0e0d	0.3672947
116	0x3ea90db7	0.33018276
117	0xbe0d6c74	-0.13810903
118	0x3f17ba42	0.5926858
119	0xbd58edba	-0.05296109
120	0x3d8f08bb	0.06984087
121	0x3f690465	0.9102233
122	0xbf007f7f	-0.50194544
123	0xbed59a12	-0.4171911
124	0x3e3b8d2d	0.18315573
125	0x3ed115d4	0.40836966
126	0xbe6c3ecb	-0.23070829
127	0x3e046c65	0.12931974
128	0x3e05ea1b	0.13077585
129	0x3deb3cac	0.114861816
130	0x3da82d94	0.08211818
131	0xbe1dea09	-0.15421309
132	0x3d2f794c	0.042840287
133	0x3d233a19	0.039850328
134	0x3b18a5b1	0.002329212
135	0xbd8088f9	-0.062761255
136	0xbd0de9ed	-0.034646917
137	0xbddc2800	-0.10749817
138	0xbd98b0f3	-0.074556254
139	0x3d81779d	0.063216425
140	0xbe556594	-0.2083953
141	0xbd343fff	-0.044006344
142	0x3e745d00	0.23863602
143	0xbee891af	-0.45423648
144	0xbd41377b	-0.04717205
145	0x3d81382c	0.06309542
146	0x3c8bb6a7	0.017054869
147	0xbe02f9eb	-0.12790649
148	0xbdcd6d2c	-0.100305885
149	0x3e640eda	0.2227129
150	0xbe77a71f	-0.24184845
151	0xbbb4a6eb	-0.0055130622
152	0xbe8057c9	-0.25066975
153	0x3e02e674	0.12783223
154	0x3e14b065	0.14520414
155	0xbe50efbd	-0.20403953
156	0x3d3d11d7	0.04615959
157	0xbcc1475b	-0.023593595
158	0x3f2e8d19	0.6818405
159	0xbee58bf5	-0.4483334
160	0xbd9024ee	-0.07038294
161	0xbe4c3565	-0.19942243
162	0x3f8bf32b	1.0933584
163	0xbd8c9b7b	-0.06865593
164	0x3e7dc300	0.24781418
165	0x3f7732ca	0.9656187
166	0x3f06ab27	0.5260491
167	0x3eecff5d	0.46288577
168	0x3e66342e	0.22480842
169	0xbd9a8fe4	-0.07546976
170	0x3f1a090f	0.6017007
171	0xbdd0c65c	-0.10194084
172	0x3d7c941f	0.061664697
173	0x3f58b43a	0.84650004
174	0xbf0eb462	-0.5574399
175	0xbec7437a	-0.38918668
176	0x3e35ed86	0.17766389
177	0x3edcb1ee	0.431045
178	0xbe96b541	-0.2943516
179	0x3e09a2b2	0.1344097
180	0x3d66a853	0.05631287
181	0xbe79fff3	-0.24414043
182	0xbc8a3308	-0.016870037
183	0x3cd41cb8	0.0258926
184	0xbde1c6d8	-0.110242546
185	0x3e31ca89	0.17362417
186	0x3c64b307	0.013958699
187	0x3e68a6ea	0.22719923
188	0x3d4a0ba2	0.0493275
189	0xbde6f5f0	-0.112773776
190	0x3c89d1ed	0.016823733
191	0x3acbafb1	0.0015540031
192	0xbecea03e	-0.4035663
193	0xbe200da6	-0.15630206
194	0x3efc7434	0.49307406
195	0xbf0be017	-0.5463881
196	0x3d6ed47d	0.058308113
197	0xbdc2bf22	-0.09509112
198	0x3c26266b	0.0101409955
199	0x3a40fbdf	0.00073617505
200	0x3a30ce7c	0.0006744636
201	0x3e8d452e	0.27591842
202	0xbe3f3bd6	-0.1867517
203	0xbb896159	-0.004192513
204	0x3cb56839	0.022144424
205	0x3e04ef58	0.12981927
206	0x3e263748	0.16232026
207	0x3cae3511	0.021265538
208	0x3eccf965	0.40034023
209	0xbe2f67d0	-0.17129445
210	0x40122094	2.2832384
211	0xbf4642af	-0.774455
212	0xbfa71a25	-1.3054854
213	0x3fc12ce4	1.5091825
214	0x3f7dc697	0.9913115
215	0xbd673880	-0.056450367
216	0x3e0c9880	0.13730049
217	0x3f944e9e	1.1586492
218	0x3f395839	0.7240024
219	0x3f17b437	0.5925936
220	0x3e8c5bef	0.2741389
221	0xbd3d3065	-0.04618873
222	0x3ef8feb0	0.4863181
223	0xbda1b9fc	-0.07896802
224	0x3de2d101	0.110750206
225	0x3f74d511	0.95637614
226	0xbf006b33	-0.50163573
227	0xbecc8ecb	-0.39952692
228	0x3e2c73cd	0.1684105
229	0x3f0fd0a2	0.56177723
230	0xbe869289	-0.26283672
231	0x3e7b2254	0.24524814
232	0x3ebdcbec	0.37069643
233	0xbde9be59	-0.11413259
234	0xbe45ed94	-0.1932891
235	0x3c036a98	0.008021019
236	0x3c03ae64	0.008037183
237	0x3d85750e	0.06516467
238	0x3ca2813d	0.019837016
239	0xbde0f2a0	-0.10983777
240	0xbdd4c3db	-0.10388919
241	0x3e601f8f	0.21887039
242	0x3e27869a	0.1635994
243	0xbeab8c0a	-0.3350528
244	0xbec437b3	-0.38323745
245	0xbf04e0fe	-0.5190581
246	0x3e89cc4e	0.26913685
247	0xbe976768	-0.2957108
248	0x3ddf7ce6	0.10912494
249	0xbe12d540	-0.14339161
250	0xbe097c8b	-0.13426416
251	0x3ecb598f	0.39716765
252	0x3e60cab9	0.21952333
253	0xbf3046df	-0.6885814
254	0xbed1abab	-0.40951285
255	0x3e87330e	0.2640614

actor.0.bias f4 [128]
0	0xbe7d7202	-0.24750522
1	0x3e706e70	0.23479629
2	0xbe7b0c12	-0.24516323
3	0xbe63bb22	-0.22239354
4	0xbe13a5cb	-0.14418714
5	0xbf1ae18f	-0.60500425
6	0xbe51cf4e	-0.20489237
7	0xbda19463	-0.07889631
8	0x3e35e712	0.17763928
9	0xbe9e7a76	-0.30952805
10	0x3dae2105	0.08502392
11	0x3dd7b8f4	0.10533324
12	0xbe8ccd4f	-0.27500388
13	0xbe7df3bc	-0.24800009
14	0xbd70f5dd	-0.058828223
15	0x3e59375d	0.21212526
16	0x3e889551	0.2667642
17	0xbe915dd9	-0.28391913
18	0xbe651d20	-0.22374392
19	0x3d87f457	0.06638401
20	0x3da60641	0.081066616
21	0xbda053c2	-0.078284755
22	0x3c9f0756	0.019412678
23	0xbd19ba7a	-0.037531354
24	0xbdb652cf	-0.08902513
25	0xbe91e04e	-0.28491443
26	0x3dd16789	0.10224826
27	0xbe28e2a6	-0.1649271
28	0x3e0f8035	0.14013751
29	0x3d87c292	0.06628908
30	0xbd5dbd5a	-0.054135658
31	0x3c2f0c33	0.010684061
32	0x3cc657be	0.02421176
33	0x3e0f8880	0.14016914
34	0xbeb6cbe1	-0.35702422
35	0x3c204339	0.009781652
36	0xbe0386c0	-0.12844372
37	0xbdcd770c	-0.10032472
38	0x3cf09be5	0.029371211
39	0x3dd69079	0.10476775
40	0xbdecf72d	-0.115705825
41	0x3e96f3b9	0.2948282
42	0xbf01ca27	-0.50699085
43	0x3bbe7998	0.005812835
44	0x3e96dd0e	0.29465526
45	0xbdbcabea	-0.092124775
46	0xbe0c4ade	-0.13700435
47	0xbe48aa49	-0.19596209
48	0x3e4de24b	0.20105855
49	0xbe921955	-0.28534952
50	0x3d8551f6	0.065097734
51	0xbbac21f3	-0.0052530705
52	0xbe23b0a2	-0.15985349
53	0x3dbf8618	0.09351748
54	0x3b45779e	0.0030131112
55	0x3b5a17a5	0.0033278253
56	0xbd40207a	-0.046905972
57	0xbe8057b0	-0.250669
58	0xbd33472c	-0.043769047
59	0x3dbb2de0	0.09139609
60	0xbe961fba	-0.2932108
61	0xbe83631e	-0.25661558
62	0xbe1edd17	-0.15514027
63	0xbd39df5f	-0.04537904
64	0x3cc23013	0.023704564
65	0xbdf134a2	-0.11777617
66	0xbe99a3c5	-0.3000776
67	0xbdd9ccc6	-0.106347606
68	0x3b17874b	0.0023121412
69	0xbe8f92e6	-0.28041762
70	0xbc1b08c7	-0.009462542
71	0xbe48e626	-0.19619045
72	0x3ccf6dec	0.02532097
73	0x3d7588ea	0.059945025
74	0x3dc94758	0.09828061
75	0xbcef8a76	-0.029240828
76	0x3b52b0e1	0.0032148885
77	0xbde1b589	-0.11020953
78	0xbde6ce3e	-0.11269806
79	0xbe2f3484	-0.17109877
80	0xbe83cce8	-0.2574227
81	0xbea2263d	-0.31669798
82	0x3d4b4e66	0.049635313
83	0xbebab9cc	-0.36469877
84	0xbd2de372	-0.042453237
85	0x3c9a0045	0.018798957
86	0x3d982946	0.07429747
87	0xbe7ff0cc	-0.249942
88	0xbe9468dd	-0.28986254
89	0xbbee3ae9	-0.007270206
90	0x3d9452a5	0.07242326
91	0xbe57d2fb	-0.21076576
92	0x3c9ec414	0.019380607
93	0xbcbbd5a3	-0.022929018
94	0x3a30f2ea	0.0006750064
95	0xbdaf021c	-0.08545324
96	0xbdc4dc56	-0.09612338
97	0xbe822813	-0.254212
98	0xbe128b18	-0.14310873
99	0xbd272d06	-0.040814422
100	0xbdbd70c9	-0.09250028
101	0x3d993f4a	0.074827746
102	0xbe6fb25a	-0.2340788
103	0xbe28d8b5	-0.16488917
104	0x3ddc5f9f	0.10760426
105	0x3db6104a	0.08889826
106	0xbdc0fae3	-0.09422853
107	0xbdb735a0	-0.08945775
108	0xbe05ca8f	-0.13065551
109	0x3b2f27e2	0.0026726653
110	0x3d6322eb	0.055453222
111	0xbdcfd746	-0.10148482
112	0x3db85fc7	0.09002643
113	0x3d8a4280	0.06750965
114	0x3dc753b6	0.097327635
115	0x3dacce7d	0.08437822
116	0x3cd634cc	0.026148222
117	0x3d626b91	0.055278365
118	0x3d24e484	0.040256992
119	0x3daa1987	0.0830565
120	0xbd84df7e	-0.0648794
121	0xbd21b7ea	-0.039482035
122	0xbdd71319	-0.105016895
123	0x3d108614	0.035284117
124	0xbcdf3421	-0.027246537
125	0xbe49cdbf	-0.19707392
126	0x3d2701da	0.04077325
127	0xbe250b2c	-0.16117543

actor.2.weight f4 [128, 128]
0	0x3dea4860	0.11439586
1	0x3e5319f3	0.20615368
2	0xbdc9756e	-0.09836851
3	0xbe27cd93	-0.16387014
4	0xbe6068f9	-0.21915044
5	0x3c943c5d	0.01809519
6	0x3e131770	0.1436441
7	0x3d1e5fe7	0.03866568
8	0xbe0dfca2	-0.13865903
9	0x3d0d3ec6	0.034483694
10	0xbf09cda3	-0.538294
11	0x3bbbaa05	0.005727055
12	0x3e17d63b	0.14827816
13	0xbd0c42e5	-0.034243483
14	0x3e7d20f2	0.24719599
15	0xbe22fc9d	-0.15916677
16	0x3dda68ee	0.10664545
17	0xbd3cec31	-0.046123687
18	0xbe0dab01	-0.13834764
19	0xbab3ffcf	-0.0013732853
20	0xbd25b978	-0.04046008
21	0x3d7e3187	0.06205895
22	0xbe3318f6	-0.1748999
23	0xbda24070	-0.07922447
24	0xbe8ef4e2	-0.27921206
25	0xbca7ce45	-0.0204841
26	0x3d3c12df	0.045916434
27	0x3df1119c	0.11770937
28	0x3e975fd7	0.29565307
29	0x3c6e51f5	0.014545907
30	0xbecf5f9c	-0.40502632
31	0x3e8c01a4	0.27345002
32	0xbd9a334a	-0.07529314
33	0x3cc828c0	0.024433494
34	0xbd55b09c	-0.05217038
35	0x3da08145	0.07837156
36	0xbe318bf9	-0.17338552
37	0xbde88b7c	-0.113547295
38	0x3e31bc4a	0.17356983
39	0x3e132324	0.14368874
40	0xbeb661d4	-0.35621512
41	0xbe0fe0df	-0.14050625
42	0xba57033d	-0.00082020817
43	0x3d93a91d	0.0720999
44	0xbdef5ec1	-0.11687995
45	0xbe9b2d71	-0.30308107
46	0xbddcec42	-0.1078725
47	0xbd8afe88	-0.06786829
48	0xbd9330c0	-0.07187033
49	0x3dab2a56	0.08357684
50	0x3d928b79	0.071555085
51	0x3e04abde	0.12956187
52	0x3ccfe564	0.025377937
53	0x3df43187	0.11923509
54	0xbc21e6be	-0.009881673
55	0x3e06a4a7	0.13148747
56	0xbdfa35df	-0.12217306
57	0xbd0c1248	-0.03419712
58	0xbd3143f2	-0.04327769
59	0xbe140f81	-0.1445904
60	0xbddbbcf7	-0.107294016
61	0xbe3b40e4	-0.18286473
62	0xbd3c3e2f	-0.04595774
63	0xbe1160be	-0.1419706
64	0x3e431fad	0.19055052
65	0xbb07b08d	-0.0020704598
66	0x3da66cf6	0.081262514
67	0xbe2b85c8	-0.16750252
68	0x3c8db407	0.017297758
69	0xbd90825a	-0.070561126
70	0xbd2000fe	-0.039063446
71	0x3b9f514c	0.0048619863
72	0xbe25a41e	-0.16175887
73	0xbc0f313d	-0.008739767
74	0x3db3967b	0.08768936
75	0xbdde04b4	-0.10840741
76	0xbd3acb87	-0.045604255
77	0xbe4e81ce	-0.20166704
78	0x3e0bac85	0.1364003
79	0xbe85f952	-0.2616678
80	0xbd05f9a4	-0.03270878
81	0xbe40975f	-0.18807743
82	0x3d88218b	0.06647023
83	0x3e1d9cde	0.15391871
84	0xbe89c29d	-0.2690629
85	0x3ce66b77	0.028127415
86	0x3ba5e457	0.0050626206
87	0xbe97fb9a	-0.29684144
88	0x3c142be3	0.0090436665
89	0xbe74ef39	-0.23919381
90	0x3d5c7a5d	0.053827632
91	0x3d6d9b54	0.05800946
92	0x3daafd07	0.083490424
93	0x3d86ac1c	0.06575796
94	0xbccf7ae8	-0.025327161
95	0xbea259ea	-0.31709224
96	0xbe6d0f58	-0.23150384
97	0x3e376430	0.17909312
98	0x3d8bf3c1	0.06833602
99	0xbdd21407	-0.10257726
100	0xbd64310f	-0.05571085
101	0x39bf6396	0.00036504556
102	0x3da86afa	0.08223529
103	0xbcdc8e6e	-0.026923385
104	0x3cef888a	0.029239912
105	0xbe9bc5fc	-0.30424488
106	0xbe124e2d	-0.14287634
107	0xbe9b1dd5	-0.30296198
108	0xbe1732d3	-0.14765482
109	0xbd248bfe	-0.04017257
110	0x3e9f0729	0.3106015
111	0x3dd92d60	0.10604358
112	0xbe2cd770	-0.16879058
113	0x3e32ce7f	0.17461585
114	0xbda33e23	-0.07970836
115	0x3d0174fc	0.031605706
116	0xbcb48b7a	-0.022039164
117	0xbea792e3	-0.32729253
118	0x3d9b096c	0.075701565
119	0xbdc0fee5	-0.09423617
120	0xbe81ee91	-0.25377324
121	0x3bbe3171	0.0058042337
122	0x3dba4feb	0.090972744
123	0x3e4e1660	0.20125723
124	0x3d320e87	0.043470886
125	0x3d1f94f5	0.038960416
126	0x3d7175cd	0.058950234
127	0xbdbc942d	-0.0920795
128	0xbb8aeb5f	-0.004239484
129	0xbd8b1218	-0.067905605
130	0x3ddabc35	0.10680429
131	0x3ea95e56	0.33079785
132	0x3e702866	0.23452911
133	0x3ea850da	0.32874185
134	0xbea05978	-0.3131826
135	0x3ecf2020	0.40454197
136	0x3dda926e	0.106724605
137	0x3ddf747f	0.10910892
138	0x3e8a6571	0.2703052
139	0x3cc0a2bb	0.023515096
140	0x3d92b1b4	0.071628004
141	0x3e28d0a5	0.16485842
142	0xbd6da0e2	-0.058014758
143	0xbd2ec634	-0.04266949
144	0x3d2cf285	0.042223472
145	0x3e315727	0.17318402
146	0x3ddd2cae	0.107995376
147	0x3d897d6a	0.06713374
148	0xbdbec6de	-0.09315275
149	0x3bbac810	0.005700119
150	0xbe7dc341	-0.24781515
151	0x3ea0c962	0.31403643
152	0xbe9bd58f	-0.3043637
153	0x3e2324b7	0.15931974
154	0xbe35b3d1	-0.17744376
155	0xbd4214aa	-0.047382988
156	0xbe98e54a	-0.29862434
157	0xbf0de435	-0.5542634
158	0x3e8165f4	0.25273097
159	0x3d80b9cb	0.06285437
160	0x3dd20f6d	0.102568485
161	0x3d77ca8b	0.060495894
162	0x3e9db3a9	0.30801132
163	0xbeb26f43	-0.3485051
164	0x3eb015b4	0.34391558
165	0x3d1d9927	0.038476136
166	0xbea96a0b	-0.33088717
167	0xbea0dc55	-0.314181
168	0x3d8b4a76	0.06801312
169	0x3d389477	0.045063462
170	0x3c5bf8f7	0.013426057
171	0x3e87083a	0.26373464
172	0xbe9c10ca	-0.3048156
173	0xbde6ace9	-0.11263449
174	0x3e5db3b0	0.21650577
175	0xbd7a7933	-0.06115074
176	0xbe0537f8	-0.13009632
177	0x3e5c6324	0.21522194
178	0xbe875ca2	-0.2643786
179	0xbe0952e3	-0.13410525
180	0xbe9485c7	-0.29008314
181	0xbed11655	-0.4083735
182	0x3d06d972	0.032922216
183	0xbd20a431	-0.039219085
184	0x3ddfcd55	0.10927836
185	0xbe935748	-0.28777528
186	0x3dc59b22	0.0964873
187	0xbf10fc07	-0.56634563
188	0x3d4b9750	0.04970485
189	0x3af426bd	0.0018627268
190	0xbc6855c2	-0.0141806025
191	0xbcea962d	-0.028636063
192	0xbe8c72c6	-0.27431315
193	0xbec6d30e	-0.38832897
194	0x3e95c380	0.29250717
195	0xbd3d729e	-0.046251886
196	0x3dd7bb51	0.10533775
197	0xbd2e862f	-0.042608436
198	0x3d8b0e7f	0.06789874
199	0xbcbaba7c	-0.022794
200	0x3d7ac6ae	0.061224632
201	0x3d6863c4	0.05673577
202	0xbeb5bd29	-0.3549588
203	0x3eb2db54	0.3493296
204	0x3dfef51d	0.124490954
205	0x3da42e25	0.08016614
206	0xbea172b4	-0.31532824
207	0x3e395a7c	0.18100923
208	0x3e69c308	0.22828305
209	0x3eabcd18	0.33554912
210	0xbdf2be13	-0.1185266
211	0x3eaeea03	0.34162912
212	0x3e89abbf	0.26888844
213	0xbdd94ffd	-0.1061096
214	0x3d85cce0	0.065332174
215	0xbe354555	-0.1770223
216	0xbd3f0bea	-0.04664222
217	0xbd630020	-0.05542004
218	0xbecb85bd	-0.39750472
219	0x3ea6e8e4	0.32599556
220	0x3d7aed30	0.061261356
221	0xbeb4833a	-0.35256368
222	0x3e16dafe	0.14731976
223	0x3d7478e6	0.05968561
224	0xbd69a8c2	-0.057045706
225	0x3e44f9d2	0.19235924
226	0xbd090492	-0.033451624
227	0x3d93e3fe	0.072212204
228	0x3e554790	0.2082808
229	0xbe4c72b6	-0.19965634
230	0x3e0437d9	0.12911929
231	0x3e1465b1	0.14491917
232	0x3e8256b4	0.25456774
233	0x3dc66f12	0.09689154
234	0xbe46a5c2	-0.19399169
235	0x3dc617d0	0.096725106
236	0x3de20ade	0.11037229
237	0x3e6b089c	0.22952503
238	0x3d7e0605	0.06201746
239	0x3da4eb1b	0.08052655
240	0xbe9c1c2c	-0.30490243
241	0x3d0c55e6	0.034261607
242	0x3d09341f	0.033496972
243	0xbe03767e	-0.1283817
244	0xba7194e0	-0.00092156045
245	0x3e2fa8fa	0.17154303
246	0xbe1ae347	-0.15125762
247	0xbb2ab7b4	-0.0026049437
248	0xbea4624a	-0.3210624
249	0xbe0527b0	-0.13003421
250	0xbebc8af2	-0.36824757
251	0xbea41eb0	-0.32054663
252	0x3e0a1ce1	0.13487579
253	0xbe817100	-0.25281525
254	0xbe8f2654	-0.2795893
255	0xbe841c24	-0.2580272

actor.2.bias f4 [128]
0	0x3e2f44e1	0.17116119
1	0xbf0840fb	-0.5322415
2	0xbec50925	-0.3848354
3	0xbdd42e17	-0.103603534
4	0x3cbf2ce3	0.023336833
5	0x3d27c623	0.040960442
6	0xbec1b8d1	-0.37836316
7	0xbe094143	-0.13403802
8	0xbe322cbe	-0.1739988
9	0xbea56cf6	-0.32309693
10	0xbf289b6a	-0.65862143
11	0xbda11ab7	-0.078664236
12	0xbe886387	-0.26638433
13	0x3cf72837	0.030170543
14	0xbeb4e711	-0.3533254
15	0xbde86ca4	-0.113488466
16	0xbc398223	-0.011322531
17	0xbf037ddf	-0.5136394
18	0xbe7d038b	-0.24708383
19	0xbe750aff	-0.23929976
20	0xbe46ff1e	-0.19433257
21	0x3da606d0	0.08106768
22	0xbe968a60	-0.29402447
23	0xbd225d9b	-0.03964005
24	0x3d91f7d2	0.07127346
25	0x3dbdf5b5	0.092753805
26	0xbc897bbd	-0.016782636
27	0xbf171462	-0.59015477
28	0xbe70c93d	-0.23514266
29	0xbfd0c973	-1.6311477
30	0xbd765a28	-0.060144573
31	0xbec800ac	-0.39063013
32	0xbed923c5	-0.42410102
33	0xbe37c92b	-0.17947833
34	0xbec81061	-0.39074996
35	0xbed94109	-0.4243243
36	0xbdbefba0	-0.093253374
37	0xbe5ba197	-0.2144836
38	0xbe64a02e	-0.22326729
39	0xbd7be58a	-0.061498202
40	0xbea97594	-0.33097517
41	0xbdb2ee50	-0.08736861
42	0xbe9dd918	-0.30829692
43	0xbe156c70	-0.14592147
44	0xbe026e86	-0.12737474
45	0xbe2c2d2c	-0.16814107
46	0xbeddc14a	-0.4331153
47	0xbdbe2622	-0.09284617
48	0xbfbc8797	-1.4728879
49	0x3d12d6c1	0.035849337
50	0xbe3a9206	-0.18219766
51	0x3e060dab	0.13091151
52	0xbe4657d0	-0.19369435
53	0xbd3ed6d6	-0.046591602
54	0xbfbed08d	-1.4907395
55	0xbecf317e	-0.40467447
56	0xbf028fe9	-0.5100084
57	0xbe95ffc8	-0.29296708
58	0x3e265cca	0.16246334
59	0xbea17963	-0.31537923
60	0xbdc91fa9	-0.09820492
61	0xbee2412b	-0.44190344
62	0xbe4f6e0e	-0.20256826
63	0xbec4271e	-0.38311094
64	0x3a14fdb6	0.0005683558
65	0xbe83660b	-0.2566379
66	0xbddc707b	-0.107636414
67	0x3d22f899	0.039787862
68	0x3d7e88b4	0.06214209
69	0x3e215f58	0.15759027
70	0xbebf0d12	-0.3731466
71	0xbdad3831	-0.08457983
72	0x3db265c7	0.08710819
73	0xbd7347c3	-0.05939461
74	0x3df87488	0.121316016
75	0xbdbb4b85	-0.091452636
76	0xbe513ad9	-0.20432605
77	0xbe8720d8	-0.26392245
78	0xbe59a2c0	-0.2125349
79	0xbd93985b	-0.07206794
80	0xbe669d5e	-0.22520968
81	0xbf02d476	-0.5110544
82	0x3da2ebef	0.07955157
83	0xbe80b088	-0.25134683
84	0xbebd4b69	-0.36971596
85	0xbecf80ce	-0.40527958
86	0xbee03ce3	-0.43796453
87	0xbe7e793e	-0.24850938
88	0xbdac3c74	-0.08409968
89	0x3e3e0185	0.18555267
90	0xbf15291b	-0.58265847
91	0x3df1e039	0.11810345
92	0xbe3232e5	-0.17402227
93	0xbe2b42b5	-0.16724665
94	0xbeee9132	-0.4659515
95	0xbf128984	-0.5724108
96	0xbf1008a5	-0.5626319
97	0xbf088d97	-0.5334105
98	0xbe9f7169	-0.31141213
99	0xbe91d168	-0.28480077
100	0x3e2b58b2	0.16733053
101	0xbebeb09f	-0.37244126
102	0xbf003809	-0.500855
103	0xbe988ef1	-0.29796556
104	0xbe0c37f7	-0.13693224
105	0xbd843979	-0.064562745
106	0xbe3a3cf6	-0.18187317
107	0xbe07cc12	-0.1326144
108	0x3d7d1fa7	0.061797764
109	0xbdc7ee3a	-0.09762235
110	0xbe1c8b10	-0.15287423
111	0xbe54cb0f	-0.20780586
112	0xbe4dee96	-0.20110545
113	0xbde0b5bc	-0.10972163
114	0xbefb10b5	-0.49036184
115	0x3dc2426e	0.09485327
116	0xbef79029	-0.48352173
117	0xbd98cff4	-0.07461539
118	0xbe1207d5	-0.142608
119	0xbf004898	-0.5011077
120	0x3dffd396	0.12491529
121	0x3e226efb	0.15862648
122	0xbd98667c	-0.07441422
123	0xbb508bec	-0.0031821681
124	0xbe0e4de7	-0.13896905
125	0xbe68eab3	-0.2274578
126	0xbd8df311	-0.06931127
127	0xbe307382	-0.17231563

actor.4.weight f4 [128, 128]
0	0x3ca84bf3	0.020544028
1	0x3d17dc51	0.037075344
2	0x3c970122	0.018433157
3	0x3c281c30	0.010260627
4	0xbd10680e	-0.035255484
5	0x3d1c9a19	0.038232896
6	0xbc310de0	-0.010806531
7	0xbc865aa4	-0.016400643
8	0x3cc1a41f	0.02363783
9	0xbd1efe17	-0.038816538
10	0xbc9316f5	-0.017955283
11	0xbcc663a1	-0.024217429
12	0x3b2bb8c0	0.002620265
13	0xbc34461e	-0.011003045
14	0xbd73ac14	-0.05949028
15	0x3d25615d	0.040376056
16	0x3b88b546	0.004172
17	0xbd4a425e	-0.0493797
18	0x3b945af7	0.0045274454
19	0xba602d07	-0.00085516315
20	0x3c95d6f6	0.018290978
21	0xbc308b38	-0.01077538
22	0xbd38b757	-0.04509672
23	0xbca953f7	-0.02066992
24	0x3cfcfec8	0.030883208
25	0x3c7abc7e	0.015303729
26	0xbc5bfc0d	-0.013426793
27	0x3c4efbc3	0.012633267
28	0xbbb63ff5	-0.0055618235
29	0xbdc6588d	-0.096848585
30	0xbcf2e9d3	-0.029652512
31	0xbb84fcf7	-0.004058476
32	0x3c624d34	0.013812352
33	0xbc8d0b97	-0.01721744
34	0x3ce30831	0.027713867
35	0xbcd906ef	-0.026492564
36	0xbb0cd80b	-0.0021491076
37	0xba13757f	-0.0005625113
38	0xbd37a30e	-0.044833235
39	0xba783f24	-0.0009469858
40	0xbd4e9142	-0.050431497
41	0x3b0575ec	0.0020364476
42	0x3cee7432	0.02910814
43	0xbce3aa19	-0.02779107
44	0x3d01731e	0.031603925
45	0x3a83154c	0.0010000854
46	0x3dd34d82	0.10317518
47	0xbc51cd4d	-0.012805295
48	0x3d6456b7	0.05574676
49	0xbd04904c	-0.032364175
50	0x3d3b656a	0.045751013
51	0xbac0eab9	-0.001471839
52	0xbbed2c94	-0.00723798
53	0x3d85fa64	0.06541899
54	0x3b884640	0.004158765
55	0x3ccb09b9	0.02478491
56	0xbcb0c2b4	-0.021577217
57	0x3d1201ab	0.035646122
58	0x3c59fda3	0.013305101
59	0xbd2facb1	-0.0428893
60	0x3d1c1114	0.038102224
61	0xbd03c60c	-0.032171294
62	0x3cfe0634	0.031008817
63	0xbda3f8bd	-0.080064274
64	0xbd218496	-0.039433084
65	0xbd045985	-0.032311935
66	0xbd697fb9	-0.05700657
67	0xbc1f3bf0	-0.00971888
68	0xbbed4490	-0.0072408393
69	0xbbaa526b	-0.0051978133
70	0x3bcdbea4	0.0062788296
71	0xbd03a59d	-0.032140363
72	0x3b83eb01	0.0040258174
73	0x3c577a0b	0.013151656
74	0xbc5c8a41	-0.013460697
75	0x3d49da00	0.049280167
76	0xbcd1cfec	-0.02561184
77	0x3cd1e44c	0.025621556
78	0x3cfc4c87	0.03079821
79	0xba87eec3	-0.0010370839
80	0xbb77b29a	-0.0037795664
81	0x3ca27895	0.019832889
82	0xbc5f1139	-0.013614946
83	0x3cb5e4b3	0.022203779
84	0xbc0f574e	-0.008748842
85	0xbc54e203	-0.0129933385
86	0xbc7b7179	-0.015346878
87	0x3d4eb3e9	0.050464544
88	0xbbb337e7	-0.0054693106
89	0xbcfd6395	-0.030931273
90	0x3cf30e58	0.029669926
91	0x3ca17b78	0.019712195
92	0x3b1edec1	0.0024241658
93	0x3cdbd3ca	0.026834387
94	0x3d33951c	0.043843374
95	0xbc779187	-0.01511038
96	0x3d947e0b	0.07250603
97	0xbc654690	-0.013993874
98	0xbcdf375b	-0.027248075
99	0xbccd61d7	-0.025071068
100	0xbca6ab0a	-0.02034523
101	0x3c697df5	0.014251222
102	0xbd3888c9	-0.045052323
103	0xbac3beb3	-0.0014934152
104	0x3cc3ba29	0.023892479
105	0xbc99227d	-0.018693203
106	0xbb29b13a	-0.0025892989
107	0xbc0ae19a	-0.008476639
108	0x3d1a0b23	0.037608277
109	0x3d560c2f	0.052257713
110	0xbda0982a	-0.07841523
111	0xbcca1568	-0.02466841
112	0xbc064ee3	-0.008197519
113	0x3c946348	0.018113747
114	0xb8c79ebd	-9.518627e-05
115	0x3b449d0b	0.0030000831
116	0x3cb1c6a3	0.021701163
117	0xbc4903aa	-0.01226894
118	0x3d33a002	0.043853767
119	0xbd6ecd49	-0.058301244
120	0xbb9c6246	-0.0047724573
121	0x3c72bbb2	0.014815258
122	0xbd05f771	-0.03270668
123	0x3cc6ed09	0.024282949
124	0x3bce0233	0.0062868833
125	0xbca01c9d	-0.019544894
126	0xbc153548	-0.0091069415
127	0xbd472746	-0.04862144
128	0x3d90df5f	0.07073855
129	0xbcce5d54	-0.025190987
130	0x3cd4f0aa	0.025993664
131	0xbdb08b0c	-0.08620271
132	0xbd848e45	-0.06472448
133	0xbe76cc22	-0.24101308
134	0xbda5d898	-0.080979526
135	0x3e29e22b	0.16590182
136	0xbe535721	-0.20638706
137	0xbd3e2e67	-0.04643097
138	0x3da80291	0.082036145
139	0xbc01b8f8	-0.007917635
140	0x3e626424	0.22108513
141	0x3e252d22	0.16130498
142	0x3c90affa	0.017662037
143	0x3c821695	0.015879909
144	0xbe156ff7	-0.14593492
145	0x3d92c8fb	0.0716724
146	0xbdd0d274	-0.10196391
147	0xbc96e809	-0.01842119
148	0xbd121361	-0.035663012
149	0xbc556bdc	-0.013026204
150	0xbd39cd56	-0.04536184
151	0xbdba7049	-0.09103448
152	0xbe690aa7	-0.2275797
153	0x3d5c2dd3	0.05375464
154	0x3e5bd2f5	0.21467192
155	0x3d8895bc	0.066691846
156	0xbe3ff044	-0.18743998
157	0x3e3ea724	0.18618447
158	0x3df7b87c	0.120957345
159	0xbe29d336	-0.16584477
160	0x3d10ca3d	0.03534912
161	0x3d606c37	0.0547907
162	0xbe47fe53	-0.1953061
163	0xbe222ad4	-0.1583665
164	0xbdba4d22	-0.09096743
165	0xbdfc694b	-0.123247705
166	0x3e2e1b19	0.17002524
167	0xbcd902fc	-0.02649068
168	0x3c9d3e53	0.019194758
169	0x3de6f483	0.11277106
170	0xbbea6389	-0.007152979
171	0x3cb2d964	0.021832176
172	0x3d80df8a	0.06292637
173	0xbd4ee964	-0.050515547
174	0x3e1bec28	0.15226805
175	0xbc83bf86	-0.016082536
176	0x3e56a69a	0.20961991
177	0xbde484b9	-0.11158127
178	0xbe8162c5	-0.25270668
179	0x3cac78f8	0.021053776
180	0xbce26f1c	-0.027640872
181	0xbd93a1d3	-0.072086
182	0x3e0897b3	0.13339119
183	0xbd29a932	-0.041421123
184	0x3e84cb90	0.25936556
185	0xbd2cf8d3	-0.042229485
186	0x3da2129c	0.07913706
187	0xbb7b67e1	-0.0038361477
188	0x3e1247cb	0.142852
189	0x3e6c5861	0.23080589
190	0xbe2c7468	-0.1684128
191	0x3db76ddc	0.08956501
192	0x3e2bf596	0.16792902
193	0x3e1fc999	0.15604247
194	0x3dcb9bdc	0.09941837
195	0x3c982114	0.01857046
196	0x3d651830	0.05593127
197	0x3e27ccd1	0.16386725
198	0xbe51aa14	-0.20475036
199	0xbd0eb546	-0.034840845
200	0x3ca03ab2	0.019559238
201	0x3d0dddda	0.034635402
202	0x3e435106	0.19073877
203	0xbe031cf6	-0.12804016
204	0x3df212fd	0.11820028
205	0xbbf98e52	-0.007615843
206	0xbd99da3f	-0.0751233
207	0x3da0a2f7	0.07843583
208	0xbd848f6a	-0.064726666
209	0x3d1f55c2	0.038900144
210	0xbcf16d94	-0.029471196
211	0xbd7110c6	-0.058853887
212	0x3df089d9	0.11745042
213	0xbeacde73	-0.33763465
214	0x3c8602f0	0.016358823
215	0xbd580943	-0.052743208
216	0x3da1ad33	0.07894363
217	0x3e2129a7	0.15738545
218	0x3e156408	0.1458894
219	0xbdc86e22	-0.09786631
220	0x3d622eda	0.055220462
221	0xbd8635dc	-0.065532416
222	0x3dc9563f	0.09830903
223	0xbe378a41	-0.17923833
224	0xbdf2b140	-0.11850214
225	0x3e2b0100	0.166996
226	0x3dcd55ab	0.100261055
227	0x3ea63b0f	0.32466933
228	0xbe8da5f0	-0.27665663
229	0x3e47cc4e	0.1951153
230	0x3d6cead9	0.057841156
231	0x3d42f332	0.04759521
232	0xbe36a2f5	-0.178356
233	0xbd9ce135	-0.07660142
234	0x3d93f1a4	0.07223824
235	0xbe48a7f8	-0.19595325
236	0xbded5ccb	-0.115899645
237	0xbc36cfe2	-0.011157962
238	0xbd927395	-0.07150952
239	0xbdb5b3e0	-0.08872199
240	0xbd921148	-0.071322024
241	0xbd6d43e7	-0.057926085
242	0x3da123f1	0.078681834
243	0x3daccd5b	0.08437606
244	0x3c5c9b54	0.0134647675
245	0x3da7de25	0.081966676
246	0x3dc5be04	0.09655383
247	0xbca51495	-0.020151416
248	0xbdef00a8	-0.11670047
249	0xbd4b027b	-0.049562912
250	0xbac8d001	-0.0015320779
251	0x3e2f9ee9	0.17150463
252	0x3cf282f3	0.029603457
253	0xbdd76f89	-0.105193205
254	0xbe0e8fbe	-0.13922021
255	0x3ddb06c7	0.10694652

actor.4.bias f4 [128]
0	0xbe16516d	-0.14679499
1	0x3ca15ee7	0.019698573
2	0xbea2f098	-0.31824183
3	0xbdfef9dd	-0.124500014
4	0xbe18efef	-0.14935277
5	0xbe19afd6	-0.15008482
6	0xbdfa405d	-0.122193076
7	0xbe12072b	-0.14260547
8	0xbea1e15a	-0.31617242
9	0xbe349456	-0.1763471
10	0xbe8dbc50	-0.27682734
11	0xbdf81771	-0.12113846
12	0xbeaade53	-0.33372745
13	0xbe62651b	-0.22108881
14	0xbe20e38d	-0.15711804
15	0xbea3de95	-0.32005754
16	0xbe72a469	-0.2369553
17	0xbed73528	-0.42032743
18	0xbe03686a	-0.128328
19	0xbe0790b0	-0.13238788
20	0xbdda922b	-0.106724106
21	0xbef10f4d	-0.47081986
22	0x3c94b66e	0.018153396
23	0xbe1ee245	-0.15516002
24	0xbe904135	-0.2817475
25	0xbe15d4b2	-0.14631918
26	0xbe781ac7	-0.24228965
27	0xbdf52f7c	-0.119719476
28	0xbeba4420	-0.363801
29	0xbe21b145	-0.15790279
30	0xbe86b9b2	-0.2631355
31	0xbe14a104	-0.14514548
32	0xbeb8f40c	-0.36123693
33	0xbe06c0fa	-0.13159552
34	0xbe88c2e9	-0.26711205
35	0xbd102815	-0.035194475
36	0xbebf71b9	-0.3739145
37	0xbe0a4f51	-0.1350682
38	0xbc8eb0cf	-0.017418293
39	0xbf1455a6	-0.5794319
40	0xbea963ed	-0.3308405
41	0xbf0332e1	-0.5124951
42	0xbe7c6718	-0.24648702
43	0xbeb79c47	-0.35861418
44	0xbde899cf	-0.11357462
45	0xbeab5b7d	-0.33468238
46	0xbd046488	-0.032322437
47	0xbdaa056d	-0.08301816
48	0xbdfb9ef0	-0.12286174
49	0xbe9b188d	-0.30292168
50	0xbdaba392	-0.08380808
51	0xbe9d750c	-0.30753362
52	0xbe5e00d2	-0.2168
53	0xbe95694d	-0.291819
54	0xbe9be957	-0.30451462
55	0xbe80911d	-0.25110713
56	0xbe0431ba	-0.12909594
57	0xbe878857	-0.26471207
58	0xbec38010	-0.3818364
59	0xbe34b563	-0.17647319
60	0xbe8d6f01	-0.27623752
61	0xbea0e475	-0.314243
62	0xbe5c1782	-0.21493343
63	0xbe818daf	-0.25303409
64	0xbe9209b1	-0.2852302
65	0xbea59214	-0.3233801
66	0xbd40e36e	-0.047091894
67	0xbdee6ffd	-0.11642454
68	0x3d1cab71	0.038249437
69	0xbe0d92a6	-0.13825473
70	0xbe97a684	-0.2961923
71	0xbd291a85	-0.041285057
72	0xbe306046	-0.17224225
73	0xbe95da77	-0.29268238
74	0xbece8f51	-0.40343717
75	0xbdbd3ae9	-0.09239752
76	0xbe29c32c	-0.16578358
77	0xbe50c465	-0.20387419
78	0xbe1a4d53	-0.1506856
79	0xbe833f0b	-0.25634035
80	0xbeb35f86	-0.35033816
81	0xbe8c2118	-0.27369
82	0xbe22fae5	-0.15916021
83	0xbcd681c9	-0.026184933
84	0xbe3c3aae	-0.1838176
85	0xbdf09adb	-0.11748286
86	0xbe2f9904	-0.17148215
87	0xbce7b65d	-0.0282852
88	0xbea3d5da	-0.31999093
89	0xbe4c4813	-0.19949369
90	0xbe663f2b	-0.22485034
91	0xbe5e0868	-0.21682894
92	0xbe22bfaf	-0.15893434
93	0xbe403630	-0.18770671
94	0xbeae2055	-0.34009042
95	0xbed518a5	-0.41620365
96	0xbdedcf83	-0.11611845
97	0xbda77ba8	-0.081778824
98	0xbea3c727	-0.3198788
99	0xbeb389fd	-0.35066214
100	0xbdd2136b	-0.1025761
101	0xbd689737	-0.056784835
102	0xbe0ce1c7	-0.13758002
103	0xbe551759	-0.20809688
104	0xbea7176c	-0.32635057
105	0xbe5daefc	-0.21648782
106	0xbe071a5c	-0.13193649
107	0xbe2bfd98	-0.16795957
108	0xbebd1024	-0.36926377
109	0xbdcef1d8	-0.10104722
110	0xbe9316c7	-0.28728315
111	0xbe8cfdd3	-0.27537403
112	0xbe2c804f	-0.16845821
113	0xbe749661	-0.2388549
114	0xbea57868	-0.32318425
115	0xbe086cad	-0.13322707
116	0xbd976dc0	-0.0739398
117	0xbea49f05	-0.32152572
118	0xbe62f09d	-0.22162099
119	0xbf024fb9	-0.509029
120	0xbe08cfa9	-0.13360466
121	0xbdd25f38	-0.10272068
122	0xbe975df9	-0.29563883
123	0xbde42b04	-0.11141017
124	0xbe5f7ffc	-0.21826166
125	0xbe152220	-0.14563799
126	0xbe297153	-0.16547136
127	0xbe02f6dd	-0.12789483

actor.6.weight f4 [12, 128]
0	0x3bafe6e2	0.0053680995
1	0x3b934ad9	0.0044950065
2	0xbc113fa1	-0.008865268
3	0x3c087450	0.008328512
4	0xbbe50e2c	-0.006990215
5	0x3b35b2ca	0.0027724975
6	0x3cd1d325	0.025613377
7	0xbcc5ebba	-0.024160255
8	0xbc4c6a92	-0.01247658
9	0xbbaa8337	-0.0052036303
10	0xbba90f76	-0.005159314
11	0xbc5f13f7	-0.0136156
12	0x3a0a8630	0.0005284278
13	0xbbf28c9b	-0.0074020154
14	0x3accfdc4	0.0015639593
15	0x3cc72b35	0.024312595
16	0x3cdc4f1e	0.026893195
17	0xbb8e5db0	-0.0043446645
18	0x3d293024	0.041305676
19	0xbc97e02a	-0.018539507
20	0xbbd24172	-0.006416493
21	0xbc201f27	-0.009773052
22	0x3c2e73f6	0.010647764
23	0xbadee636	-0.0017005864
24	0xbc75eb3f	-0.0150097
25	0x3c63a079	0.01389324
26	0x3ab417cd	0.0013740003
27	0xbc8b5115	-0.017006436
28	0xbbb52373	-0.0055279075
29	0xbad24fa0	-0.0016045459
30	0xbc842475	-0.016130665
31	0xbbccf74f	-0.0062550674
32	0x394099c4	0.00018367829
33	0x3bdfb0a5	0.0068264776
34	0xbb6687dd	-0.0035176196
35	0xbc373617	-0.01118233
36	0x3d2fb5de	0.04289805
37	0xbd2efd1b	-0.04272185
38	0xbc3402e2	-0.010987015
39	0xbc74f6c9	-0.014951416
40	0xb9a2cc86	-0.0003105143
41	0x3c105722	0.008809837
42	0x3c07a056	0.008277973
43	0x3c484001	0.012222291
44	0x3b9e7459	0.004835647
45	0xbbb0d462	-0.0053964118
46	0xbb1e27ff	-0.0024132726
47	0xbb827043	-0.003980668
48	0x3cb29190	0.021797925
49	0xbbbbbf8c	-0.0057296213
50	0x3a990b3a	0.0011676319
51	0x3d0f7cb6	0.035031043
52	0x3bec3908	0.007208947
53	0x3cbf1edf	0.02333015
54	0xbd9f5d7c	-0.077815026
55	0x3c627294	0.013821263
56	0xbceabae9	-0.028653579
57	0x3c810a67	0.01575203
58	0xbbd32d7e	-0.006444632
59	0x3ccf3fab	0.025298914
60	0x3d9e0208	0.07715231
61	0xbd1e07c8	-0.03858164
62	0x3b98d379	0.0046638814
63	0x3ccc805a	0.024963547
64	0x3ba5e9aa	0.0050632553
65	0xbc89371f	-0.016749917
66	0x3d20a115	0.03921612
67	0x3b9cf67c	0.0047901254
68	0x3c7f93f7	0.015599242
69	0xbca1d8c0	-0.019756675
70	0xbbf29ac6	-0.0074037043
71	0xbc9bb209	-0.019005792
72	0xbb47d4c2	-0.0030491804
73	0x3c4b40d1	0.01240559
74	0xbc1a9691	-0.009435312
75	0x3bc24ae0	0.005929336
76	0x3c43f8f7	0.011961213
77	0xbb378ec6	-0.0028008684
78	0x3c04aceb	0.0080978675
79	0x3c869871	0.016430112
80	0x3c8efc2d	0.017454231
81	0xbc0feee3	-0.008784982
82	0x3d323226	0.043504857
83	0x3c899017	0.01679234
84	0xbc8eefe7	-0.017448379
85	0x3bb2ad3c	0.00545278
86	0x3ceade54	0.028670467
87	0xba01c89e	-0.0004950854
88	0xbc33615f	-0.010948508
89	0xbcdd00b8	-0.026977882
90	0xbd0fd61b	-0.035116296
91	0xbcc9fcfc	-0.024656765
92	0xbaad283b	-0.0013210842
93	0x3cea42e6	0.028596353
94	0xba4215c7	-0.0007403758
95	0xbcf036b3	-0.029322958
96	0xbb5aa99a	-0.003336525
97	0xbc402217	-0.011726878
98	0x3bd69a20	0.006549135
99	0x3cbaa0ab	0.02278169
100	0x3c151575	0.009099354
101	0xbc90f703	-0.01769591
102	0xbd231e50	-0.03982383
103	0x3c921087	0.017830146
104	0xbc540a0a	-0.012941847
105	0xbc22ca75	-0.009935965
106	0xbcd6ffac	-0.02624496
107	0xbb523eaf	-0.003208082
108	0x3ca6c8a3	0.020359343
109	0x3c404eea	0.011737565
110	0xbc0b2cdf	-0.008494585
111	0x3cb6e90a	0.022327919
112	0xbcf72680	-0.030169725
113	0xba051c1e	-0.0005077737
114	0x3bdc429d	0.006721808
115	0x3c902c16	0.017599147
116	0xbbe1a28d	-0.0068858326
117	0xbbf4e93e	-0.0074740937
118	0x3c60104a	0.013675759
119	0xbc276d53	-0.010218936
120	0xbb19af07	-0.0023450272
121	0xbc823d5b	-0.015898397
122	0xbc235643	-0.009969297
123	0xbdcbf8ef	-0.0995959
124	0xbb080598	-0.0020755287
125	0x3a2284d3	0.0006199602
126	0x3cddd1d1	0.027077587
127	0x3bc451a7	0.005991179
128	0x3b70ff84	0.0036773393
129	0x3c9eeec6	0.019400965
130	0x3c012e10	0.007884517
131	0x3c8c5a20	0.017132819
132	0x3bc90551	0.006134667
133	0xbb9f3022	-0.004858033
134	0x3be6c94c	0.0070430394
135	0xbbb2c7e7	-0.005455959
136	0x3c2d6db2	0.010585235
137	0x3ae4d9be	0.0017459912
138	0xbc8b47d9	-0.017002033
139	0xbbde7af5	-0.00678956
140	0x3c06e396	0.008232972
141	0xb981ae6d	-0.00024734755
142	0xbcb30c94	-0.021856584
143	0x3c47730f	0.012173428
144	0xbcb9267b	-0.022601357
145	0x3beaa422	0.0071606794
146	0x3d24b201	0.04020882
147	0xbc40be25	-0.011764084
148	0x3c81dd2b	0.015852531
149	0x3c2aa752	0.010415869
150	0xbc2fbc58	-0.010726057
151	0x3d0ec71d	0.034857858
152	0xbcc6283a	-0.024189103
153	0xba995852	-0.0011699295
154	0x3c1d0116	0.009582778
155	0x3b141690	0.0022596456
156	0xbc48c506	-0.012254005
157	0x3b8fe0f2	0.0043908292
158	0x3d1f9f88	0.0389705
159	0x3be60273	0.007019335
160	0xbca37bdd	-0.019956524
161	0x3c58d1c2	0.013233604
162	0x3b17ae41	0.0023144635
163	0xbc8407e3	-0.016117042
164	0xbc505ffe	-0.012718199
165	0x3dcd0981	0.10011578
166	0x3c434698	0.011918686
167	0xbbf84c1a	-0.0075774314
168	0xbbd45f04	-0.0064810533
169	0x3c738d2b	0.0148652
170	0xbcc1466b	-0.023593148
171	0xbd313cf1	-0.04327101
172	0xbbd145cd	-0.0063864947
173	0xbcb7a7c8	-0.022418872
174	0xbc09a523	-0.008401188
175	0x3ad41e15	0.0016183282
176	0xbad27748	-0.0016057277
177	0xbbb89fa2	-0.005634264
178	0xbc6e4878	-0.014543645
179	0xbbe4b791	-0.0069798906
180	0xbc0ad1fe	-0.008472918
181	0xbc089fa9	-0.008338847
182	0x3c90539f	0.017617999
183	0xbc5d8f2e	-0.013522906
184	0x3cec8f93	0.028877055
185	0xbd9db328	-0.07700187
186	0x3ba6158a	0.0050684856
187	0xbb993114	-0.00467504
188	0xbc80d65b	-0.015727213
189	0x3c85084c	0.016239308
190	0xbcceb6df	-0.025233684
191	0x3c6e329c	0.014538433
192	0x3bc9f5f8	0.006163355
193	0x3d9dbc5b	0.077019416
194	0x3b8f7a0c	0.004378563
195	0xbb265154	-0.0025378065
196	0xbc687b48	-0.014189549
197	0xbc40fc8a	-0.01177896
198	0x3c1104f9	0.008851283
199	0xbb9b52b8	-0.0047400855
200	0x3b80ba2d	0.003928444
201	0x3bb14bf6	0.0054106666
202	0x3cf13221	0.029442849
203	0x3ccbbf33	0.024871444
204	0x3ca21631	0.019785972
205	0xbcea0cf6	-0.028570633
206	0xbbf6b27a	-0.0075286003
207	0x3c0fd816	0.008779546
208	0x3bbdeb70	0.0057958886
209	0xba432d5c	-0.0007445419
210	0x3cfc343d	0.030786628
211	0x3c3bae12	0.011455076
212	0xbc00b4ef	-0.007855638
213	0xbb85aa88	-0.004079167
214	0x3cdf4640	0.027255177
215	0x3bf3fb00	0.007445693
216	0x3c5427fd	0.012948987
217	0xbcea7d0d	-0.028624082
218	0x3a987faa	0.0011634727
219	0xbc932763	-0.017963117
220	0x3abaa5a7	0.0014240042
221	0x3b32f54b	0.002730685
222	0x3bf85224	0.0075781513
223	0x3c217eda	0.009856904
224	0xbd1d6bc5	-0.038432855
225	0x3c28d1eb	0.010303955
226	0x3a618104	0.00086022937
227	0x3bb1e073	0.0054283678
228	0x3aff049a	0.0019456327
229	0x3c8a2fba	0.01686846
230	0xbd2c8c81	-0.042126182
231	0x3cc8572b	0.024455627
232	0xbcca78db	-0.024715832
233	0xbc67c432	-0.014145898
234	0xba91c6e6	-0.0011121898
235	0xbcd9c12a	-0.026581366
236	0xb8c921b8	-9.5907075e-05
237	0x3c9a381c	0.018825583
238	0xbc83f635	-0.016108612
239	0xbcdc2a8b	-0.026875755
240	0xbd303b94	-0.043025568
241	0xb86139e1	-5.3698084e-05
242	0xbd0e9687	-0.034811523
243	0xbbc1dc48	-0.005916152
244	0xbcd975fa	-0.026545513
245	0x3a98ac19	0.0011647969
246	0x3c1af275	0.00945722
247	0x3c224bc4	0.009905759
248	0x3c85ed73	0.016348576
249	0x3bea858f	0.0071570347
250	0xba3c6002	-0.0007185937
251	0x3d2f0379	0.04272792
252	0x3b848e74	0.004045302
253	0x3cdc26e4	0.026874013
254	0x3b04e2f2	0.0020276872
255	0xbc949b5d	-0.01814049

actor.6.bias f4 [12]
0	0xbe15e5fb	-0.14638512
1	0x3e14e517	0.14540516
2	0xbdf1ac05	-0.11800388
3	0x3df165f2	0.11787023
4	0xbdc54513	-0.096323155
5	0xbdc85e15	-0.0978357
6	0xbcb7abf7	-0.022420866
7	0xbcb1095c	-0.021610908
8	0x3e76a90f	0.24087928
9	0x3e76196a	0.24033132
10	0x3e6b4db4	0.2297886
11	0x3e6c82c8	0.23096764
