tested_policies/aliengo/8k_128_128_128_aliengo_nosymm_tuned/exported/policy.onnx (onnx, 273175 bytes, 8 tensors)

actor.0.weight f4 [128, 260]
00000000: 5d26 d33d bcf3 ed3d 3747 f23e 8b6b 683e
00000010: 866b 0cbe ff44 06be 9269 c2bd 726a b83f
00000020: 2c0c 803e 7e11 523e bd76 613f e439 f5bd
00000030: f4b6 8bbf 002a 71be 6099 293f a500 cd3e
00000040: 82cb 653e bb25 bf3d f202 443e f458 203e
00000050: 713e 93bf 876f 97be f711 4dbd c21a 363f
00000060: da9c 093e fb0d 78bd e3a0 c03d 4fe4 81bc
00000070: 23ed c0bd 874b a53d 1be2 0fbd 0905 1dbd
00000080: dea8 c9bd 7313 603d 0f6b 5e3d bb64 e4bd
00000090: 4cda 063a 7b96 acbd 8d7c 2e3d 0545 aebd
000000a0: a807 1b3b 245a a0bd 8654 f0bd bf27 533e
000000b0: d6db f4bb d999 6dbd 28d6 bcbd cd94 9fbd
000000c0: b5b9 debc 3b40 70bd 46d1 b8ba b6f4 043d
000000d0: 4ac4 0d3d 0e35 7fbc 8491 173f 6e90 b93d
000000e0: d573 103d a55e 98be a50c 28be f389 af3f
000000f0: b4f4 343e d6d1 693e 581d 863f 65f3 983a
00000100: 5368 88bf cb89 43be 5c29 143f 46a2 ae3e
00000110: 1236 993e 6b84 0a3e 2af6 2d3e 411e 073e
00000120: 4c7a 98bf 4c4a acbe 4374 1fbd 409b 483f
00000130: 3c1c ca3d f17d e039 89b7 eabd c6af cbbc
00000140: e042 523d afa1 b1bc 3523 ebbb d1b9 29be
00000150: 45c8 57bc e465 213d 0ce6 d83d 6cd4 633b
00000160: dc35 77bd 34b6 a4bd 992d ac3d 6d08 97be
00000170: 6ca5 52bd c514 07be 7dfa 2dbe 9dea 0d3e
00000180: bc15 6f3d ba92 103c c518 3ebd 19da d8bd
00000190: 9b12 a03d be99 efbb 86c1 a6bc 9079 be3d
000001a0: dd61 cf3b 8d68 053d 0c53 373f fb6f fc3d
000001b0: a651 413d 7c95 b2bd 1893 2bbe bec2 b23f
000001c0: 50be 7a3e 9357 9a3e 6348 8a3f 567f 413d
000001d0: a8b6 98bf 20a1 3dbe cdf7 1b3f 7d38 d03e
000001e0: 6030 603e 1e12 ca3d d84c 273e dbc3 043e
000001f0: f8ed 90bf 6a37 c2be a501 b4bd 5372 4c3f
00000200: ee31 2bbb 9ce5 bd3d 30c8 c8bd d2ad 403d
00000210: cb58 a23d b249 fb3b 3a5d 9e3c f197 71bd
00000220: a530 0bbe 39b2 ca3c 63a9 a5bc abf1 4f3c
00000230: 49b9 b4bd 71f4 a0bd 6ce1 a03d 2f32 55be
00000240: adaf acbd e978 b63c e905 96bd 4bbe 2f3e
00000250: a413 853d 8c01 26bd b7d3 343d deee 6cbd
00000260: 91ee a83d 46d0 393d 16e2 bd3c 2e99 b43d
00000270: 1cb7 973d 7981 0fbe c7a7 543f 310f 9e3d
00000280: 641a ee3d 73b0 c6be 9f3a 07be f28a b33f
00000290: 79f4 813e acdf b43e bbcf 9d3f affc 713e
000002a0: 1e20 98bf f005 46be ae38 103f 4781 c03e
000002b0: fd61 923e cf51 773d 1b57 723e 548e e13d
000002c0: ae21 98bf c9a6 c7be cc6b 01be 58d5 443f
000002d0: cc84 6cbd 09f3 4cbd 8be1 06be 6adf bf3d
000002e0: 130a 6dbc da12 633d 0dd0 a33d 2c7c d23d
000002f0: 481e 35bd 2dcd d0bd 65fb 0f3d 32a2 27bd
00000300: eef2 bfbd 8ac8 54be 9df1 a7bd de7e 30be
00000310: f08d 973c 4354 e7bc 0659 bcbd 0c65 e03c
00000320: 9c52 303e 8526 443d fc74 ce3c 5b1c a8bb
00000330: 8989 0c3e 55ab 213d a347 fb3d 642e eb3d
00000340: 445d cd3d 6ebe 3f3e cf2a 5d3d 6e9d 71bf
00000350: 9879 c53f 2cee 483f d61d dbbd 1b34 bf3f
00000360: 439f 603e 890b 013f 247a c73f f02b 083f
00000370: 43bc 95bf ad39 89be 53d4 ea3e 6958 073f
00000380: de7a 853e aa92 303e becb 463e 3919 563e
00000390: 51b6 95bf 8443 f0be ec6a 35bd 7fc0 523f
000003a0: aee4 acbe 249b c83d 1e00 b03d 9fc3 c53b
000003b0: e347 43bb 6cfa 533c 620a 603e 6404 593c
000003c0: 66a1 adbd ed7a fdbc 2432 ce3c 5a73 0f3e
000003d0: d186 5d3d bc63 bbbe 7807 50be 976d 4bbe
000003e0: cfc9 d03d 83b7 9dbd 6fa8 75bd e9f5 a13d
000003f0: 4751 123e 0716 cfbc 79b6 813d c238 a3be
0.103100516 0.11618754 0.47319958 0.22697274 -0.13712892 -0.13112257 -0.09492792 1.4407485
0.25009286 0.20514485 0.88071805 -0.119739324 -1.0915208 -0.23551178 0.66249657 0.40039554
0.22440913 0.093333684 0.19141749 0.15658933 -1.1503431 -0.29577276 -0.05006596 0.7113458
0.1343874 -0.060560208 0.09405687 -0.015855936 -0.0942023 0.08071046 -0.03512774 -0.03833488
-0.09846662 0.05470605 0.054301318 -0.11152025 0.0005144223 -0.08427139 0.04259925 -0.08509258
0.0023655687 -0.07829693 -0.117348716 0.2062063 -0.0074724955 -0.05800805 -0.092205346 -0.07792053
-0.027188161 -0.058655005 -0.0014100454 0.032459937 0.034611024 -0.015576614 0.59206414 0.09060751
0.035266716 -0.29759708 -0.16411074 1.3713974 0.17671472 0.22833952 1.0477705 0.0011669217
-1.0656837 -0.19095533 0.5787561 0.3410818 0.29924065 0.13527076 0.16988435 0.13195135
-1.1912322 -0.33650434 -0.038929235 0.7836189 0.098686665 0.00042818443 -0.11460788 -0.024864089
0.05133331 -0.021683542 -0.007175828 -0.1657479 -0.013170307 0.03940381 0.10590753 0.0034764064
-0.0603541 -0.08042565 0.084071346 -0.29498616 -0.05142729 -0.13191517 -0.16990085 0.13859029
0.058370337 0.008824045 -0.04641034 -0.10588474 0.07816049 -0.0073120287 -0.020355951 0.0930053
0.006328805 0.03257041 0.71611094 0.12326046 0.047197007 -0.08719918 -0.1675533 1.3965681
0.24486661 0.3014494 1.0803341 0.047240578 -1.1930742 -0.18518496 0.6092499 0.40668097
0.21893454 0.09866737 0.16337907 0.12965338 -1.1322622 -0.37932903 -0.08789376 0.79861945
-0.002612229 0.0927231 -0.09803808 0.047040768 0.07927092 0.0076686973 0.019331563 -0.058982793
-0.13592775 0.024743186 -0.020222371 0.0126918955 -0.08824403 -0.078591235 0.07855496 -0.20819925
-0.08431945 0.022274451 -0.07325346 0.17162435 0.06497887 -0.04052882 0.04414722 -0.05784499
0.08248628 0.04536464 0.023179095 0.08818279 0.07407972 -0.14014234 0.8306851 0.07717741
0.11626127 -0.38806495 -0.13205956 1.4026778 0.2538183 0.35326898 1.2329019 0.23631547
-1.1884801 -0.19338202 0.56336486 0.3759863 0.28590384 0.060380753 0.2366604 0.11013475
-1.1885278 -0.38994434 -0.12638777 0.76888037 -0.057743832 -0.050036464 -0.13171975 0.09368785
-0.014467734 0.0554379 0.07998667 0.1027759 -0.04421833 -0.10195384 0.035151858 -0.040926166
-0.09372507 -0.20779625 -0.08200381 -0.17235896 0.018500298 -0.028238421 -0.091966674 0.027391933
0.17219013 0.047888298 0.025202267 -0.0051303334 0.1372434 0.039470036 0.12269523 0.11483458
0.10027555 0.18724987 0.053995904 -0.94380844 1.5427732 0.7848842 -0.1069905 1.4937776
0.21935754 0.50408226 1.5584149 0.53192043 -1.1698078 -0.26801816 0.45865116 0.5286928
0.26070303 0.17243448 0.19413659 0.20908059 -1.1696264 -0.4692651 -0.04429142 0.82324976
-0.3376822 0.09795216 0.08593772 0.0060352827 -0.0029797486 0.012938123 0.2187896 0.013245676
-0.0847805 -0.030942405 0.025170393 0.14008847 0.05408365 -0.3659953 -0.20315349 -0.19866024
0.10194742 -0.07701018 -0.059975084 0.07908232 0.14288817 -0.025279058 0.06333632 -0.3187924

actor.0.bias f4 [128]
00000000: f282 68be 24fe fbbd 275c 6ebe 5b4e fdbd
00000010: ba33 463e 5803 e3bf 80b0 febd 5411 07bd
00000020: 49ba cabe ccbb 1abd 0c35 82be 53c7 5b3d
00000030: ed9e 28bd c45d f13e f03b 35be 2d5d f1bd
00000040: 43b0 d1bc fc47 c93c a2d2 1f3d 8ff1 983d
00000050: 4f67 0bbe 9b95 583d 97d1 6a3e ce76 b8bd
00000060: 2d49 95be 9dc5 0f3e 2c8a 043d 7b1a 1c3c
00000070: efb0 16be 4039 04be ec2c c03c 823b 33bd
00000080: 97c6 a4bc bd4f bd3c c552 bdbd cde3 a73d
00000090: cc15 adbc 924d 87bd 0ce8 1cbe 40d5 2ebe
000000a0: 4acd 90bd e8b7 3d3e 2fc5 0fbe 9228 a0bd
000000b0: 4dfb eebd 47af fabd ad18 64be b6e1 83bc
000000c0: 8b90 523e b9ad 7abe 72a3 e1bd d5c3 b2bc
000000d0: 33c8 71be 64c5 c83d 1ce0 c3bd 4bc4 953e
000000e0: 44e5 43bd e25f b9bd 9d81 48bd 6c36 2b3e
000000f0: eb6a cfbd 7837 f5be 5ae3 103d 22c3 663e
00000100: b8a3 453d d355 a43d d572 4e3e 0aa2 18be
00000110: d705 f23d fa12 42bd 02ee 39be 4e79 b53d
00000120: efe7 08bb f675 bebc 201a c9bd 7a64 70be
00000130: 9599 163d 4023 3dbd b0a3 16bd c42c 66bd
00000140: 37f0 ddbe f9cb b3bb 4c56 64bd afae 84bc
00000150: 0d14 253d 396c 12be dafe 89be 0b40 bebd
00000160: 884e 893d 7d62 ea3c 4861 55be 40ae 53bc
00000170: aee9 22be 1501 fcbd 32f0 e83d e3d0 56bd
00000180: 1974 543e ef23 103e c863 b53d a8ca 82be
00000190: b4cd ce3d 8a75 11bd 56dd e5bd dc43 883c
000001a0: 23eb 16be dd68 f23d 6c58 923e 6683 ab3d
000001b0: ba2e 3cbd 2eac 71bd 672d a13d 1894 d4bd
000001c0: 6c1c 423c 859e 1e3e 42c8 57be 4b85 f43d
000001d0: 700a 8fbe 8aa5 8bbe e30c 0cbd 93dc 88be
000001e0: a927 d5bd aeda 0cbe 898a c6bf e0f8 16be
000001f0: 9d3d 11be dc8a d63d aa75 e8bd c24b 9dbd
-0.22706202 -0.12304333 -0.23277341 -0.12368461 0.1935567 -1.7735395 -0.124360085 -0.03297551
-0.3959525 -0.037776753 -0.25431097 0.053656887 -0.04116719 0.4714185 -0.17698646 -0.1178535
-0.025596743 0.024570458 0.039019234 0.07467949 -0.13613628 0.05287705 0.22931515 -0.09007035
-0.2915739 0.14040227 0.032358333 0.009527798 -0.14715932 -0.12912464 0.02345892 -0.043757923
-0.020114226 0.023109311 -0.09244303 0.081977464 -0.021128558 -0.06606592 -0.15322894 -0.17073536
-0.07070406 0.18527186 -0.14040063 -0.07820238 -0.116690256 -0.12240463 -0.22275038 -0.016098838
0.20562951 -0.24480332 -0.11017503 -0.021821896 -0.23611526 0.09803274 -0.0956423 0.29251322
-0.047826067 -0.09051491 -0.048951734 0.16719979 -0.10127815 -0.47893882 0.03537307 0.22535375
0.048251837 0.08024182 0.20160992 -0.14905563 0.1181752 -0.04738138 -0.18157199 0.08861028
-0.0020890196 -0.023249608 -0.09819436 -0.23475829 0.03676756 -0.046176195 -0.0367772 -0.056195036
-0.43347332 -0.005486962 -0.05574636 -0.016196577 0.040302325 -0.14299096 -0.2695225 -0.09289559
0.06704432 0.028611416 -0.20837891 -0.012919962 -0.15909454 -0.12304894 0.113739386 -0.052445304
0.20747413 0.14076208 0.088569224 -0.2554524 0.100978285 -0.035512485 -0.11223857 0.01663392
-0.14738135 0.11836407 0.28583086 0.08374672 -0.045943 -0.059002094 0.07869988 -0.10379809
0.011847597 0.15490158 -0.21072486 0.11939486 -0.2793765 -0.27274734 -0.034191977 -0.26730785
-0.10407955 -0.13755295 -1.5511028 -0.14743376 -0.1418366 0.10475704 -0.11350568 -0.07680465

actor.2.weight f4 [128, 128]
00000000: dc7d a4bc 5504 52be aead a5bb 0dd7 8fbd
00000010: 5e8b 973d 89a1 343e a2d6 e33d 9887 78be
00000020: f3be 663e 2ffa 88bd 6d4f db3c 2da5 b4be
00000030: 12e9 54be a846 003e 04eb 883d 3447 ea3d
00000040: d847 4b3e d207 173e 1cd2 9e3d 3400 903d
00000050: 4e0a cabd 9292 a1be 1f1e e9bd f93c 4d3e
00000060: d7e4 90be d2cb 893e 8f18 14bd 1ab7 123e
00000070: 85c1 2b3e 98ed 4f3e 1923 8e3d 25fd c43c
00000080: 1a42 7c3d aa7b 1c3d cc71 253e 9b0d 71bd
00000090: e309 d23c 087d 57be 9517 17bd ab71 07be
000000a0: 089a 193e e5b5 6bbd 87fa 55be ca88 063e
000000b0: a059 963d e909 1b3d d66d 2b3d 5fc7 17be
000000c0: 132e 12bd 2ab1 153d 1dbd e03c 1777 c23d
000000d0: 204b 4d3e 84b9 63bd 1a39 a6bd 68e6 c3bd
000000e0: 1a66 69be ad88 973d 71f1 2a3d 908d db3c
000000f0: 37e1 fb3d 0ec4 033d c19a 0f3e 7288 9e3c
00000100: 2d84 53be 582f 42bd 60bc 7ebe 37aa 103d
00000110: 9745 ca3d 4554 f43d d76d 573e 0cbe abbe
00000120: 6e23 be3d 7207 4b3d 58ff 3e3e e714 013e
00000130: 558b 32be 2707 12bc 6ebd f13c d093 a8bd
00000140: ddae 2d3e 2441 7d3d 067f 853e bd41 573b
00000150: 40c3 85bd 1880 5d3d 4879 86bd 04a7 02be
00000160: e5bf d1bd 6909 5a3c 4c59 813d 6318 7bbc
00000170: 4cdb 2e3d c1ba aebc 4009 d7bb 6ee0 a73d
00000180: ae17 05be e2f2 ad3d 6a2f 783d 2abe 0bbe
00000190: 6e3f 8cbe e3f3 253e 34f5 28bd 4dd1 953c
000001a0: 9794 593e 21ca b1bc 1ff8 f53d f185 283e
000001b0: bafb 623e 051e d03e 74bc 393e e33a 933d
000001c0: 17ce 5bbd 0607 1a3e 8b86 1bbe 89dc 2cbf
000001d0: 8edb 88bc 171f da3d 411d 1b3e eebe 8d3e
000001e0: 424c 73be 9b6f e93c cfcb d83d f784 41bd
000001f0: b2dd 7bbd 232f 823d 9a5e 673d 7453 0ebe
00000200: 61c6 e33b dc0b 7cbc 1b2d cebe 3686 d33d
00000210: 2857 bfbe 7e57 853d 5859 493e 23b8 87be
00000220: 4f40 78bc d7dc 193e 0e02 3c3e 5e96 54bd
00000230: 2007 b3bc 6710 2bbe a81b 193d 661b 9ebe
00000240: b30a 4ebe b6f2 91bd 02f9 89bd 4a57 d63d
00000250: bbbb 04bd 8231 0dbe 515a ea3c cb14 c23e
00000260: 23f5 473e 4922 c0bd 014f 3fbf 2343 b23d
00000270: 5289 9e3d 2388 e0bc 27a1 b6bc c435 243e
00000280: 96a5 0a3e 2416 5e3d ada2 1bbe 865f c4bd
00000290: 7fc9 27bd 1f4e 39be 41a9 c4be 3f4d d4bd
000002a0: 44ea df3e 0cfb 443e 28dc 643e 66e7 0a3e
000002b0: 972f 633e 0a75 32be 96e1 4bbe b4af a8be
000002c0: ada5 333d daba a83c 01ca 73be 9ce7 54be
000002d0: 3e3a 1ebe a7b2 54bd 2ad0 d43b e2f1 0dbe
000002e0: 1fe6 ea3d af2d 89be a309 473d 282c 503e
000002f0: 4155 f3be 674c c43e d5bf e8bb 2e10 99bd
00000300: f64b 0e3a da30 903d 55bd 793d 5653 4dbe
00000310: d019 6d3d 505b 5bbe 36f8 03bd bbfd 27be
00000320: fff7 743e 8e82 24bc f4c3 76be 7701 b0bc
00000330: 79fe 32be 48eb 4bba e247 2d3e 0cf8 443e
00000340: f06e 4ebe 6f1d 50bd 67f4 273e a703 933e
00000350: 1a43 e13d 4577 9e3e a91c a13c d660 1dbe
00000360: 1494 4abe 3e78 f6bd dbcd d7bc 0a42 6abe
00000370: 01c4 afbd c2a6 113e f537 5f3c c28b 003e
00000380: e8a3 123d fcc0 c8bd 9c7c 7dbc 4550 e63d
00000390: a2f0 ccbd d7ba 383d 7ad5 ebbc 3409 263e
000003a0: eb9c 56be 1c4e fbbd 7619 3d3d 592f 55bd
000003b0: 2259 2e3f adb4 2fbe 8af7 cf3e 207c 44bd
000003c0: c51f c93d ac0d 82bd 6e9f d63e 3fdb 6dbe
000003d0: 7d24 983e d3de 7e3d e638 cebd 752e 3e3e
000003e0: 1a28 53be b806 f8be f318 353e 786a c83e
000003f0: 0b2c 15bd 05c4 343b e44a 793e c51d 583d
-0.020079546 -0.20509465 -0.0050561046 -0.070234396 0.07399629 0.17639746 0.11124922 -0.24270475
0.22533779 -0.06688344 0.026771272 -0.3528227 -0.20792034 0.12526953 0.06685451 0.11439362
0.19851625 0.14749077 0.07754919 0.07031289 -0.09865247 -0.31557137 -0.11382698 0.2004279
-0.2829959 0.26913315 -0.036156233 0.1432766 0.1677304 0.20305479 0.06940288 0.02404649
0.061586477 0.038203873 0.16156691 -0.058850866 0.02563948 -0.2104379 -0.036887724 -0.13226955
0.15000165 -0.057546515 -0.2089635 0.13138118 0.07341313 0.037851248 0.041852795 -0.14822148
-0.03568847 0.03654591 0.027433926 0.09495371 0.20048189 -0.055596843 -0.0811636 -0.09565431
-0.22792855 0.07399116 0.041734163 0.0268009 0.12298816 0.032169394 0.14023878 0.019352172
-0.2065589 -0.04740843 -0.24876547 0.03531858 0.098765545 0.11930136 0.21037994 -0.33543432
0.092841014 0.049567647 0.18652093 0.1260563 -0.17435963 -0.008912838 0.029509272 -0.08231318
0.16961236 0.0618297 0.26073474 0.003284558 -0.065313816 0.054077238 -0.06566101 -0.12759024
-0.10241679 0.013307908 0.0631586 -0.015325638 0.042689607 -0.021329286 -0.006562382 0.081971034
-0.12997314 0.08493592 0.060592093 -0.1364676 -0.27392143 0.16206317 -0.04124947 0.018288279
0.21248089 -0.021702828 0.12010216 0.16457345 0.22166339 0.40647903 0.18138295 0.07188966
-0.05366334 0.15041742 -0.15188043 -0.6752401 -0.016706254 0.10650461 0.15147878 0.2768473
-0.23759559 0.0284956 0.105857484 -0.047245946 -0.061490722 0.06356647 0.056486703 -0.13899022
0.006951139 -0.015383687 -0.40268788 0.10328333 -0.37371182 0.065108284 0.19662988 -0.26507673
-0.015152051 0.1502565 0.18360159 -0.051901214 -0.021853983 -0.16705476 0.03737989 -0.30880278
-0.20121269 -0.071263716 -0.067369476 0.10465868 -0.032405596 -0.13788417 0.02860752 0.3790649
0.19527106 -0.093815394 -0.74729925 0.087042116 0.077410355 -0.027408665 -0.02229364 0.16036135
0.13539729 0.054220334 -0.15198775 -0.09588532 -0.040963646 -0.18096207 -0.3841038 -0.10366296
0.43733418 0.19236392 0.22349608 0.13564834 0.22186123 -0.1742746 -0.19910273 -0.3294655
0.043859173 0.02059691 -0.23807527 -0.20791477 -0.15451905 -0.05192819 0.0064945417 -0.13861802
0.11469673 -0.26792666 0.048593175 0.20329344 -0.4752598 0.3833954 -0.0071029463 -0.07473789
0.0005428189 0.07040568 0.060971577 -0.20051321 0.057885945 -0.21421552 -0.032219134 -0.16405384
0.23922728 -0.010040892 -0.24098188 -0.021485073 -0.17479886 -0.0007778895 0.16921952 0.19235247
-0.20159507 -0.05080932 0.16401826 0.28713724 0.10999127 0.3095037 0.019666987 -0.15368971
-0.1978305 -0.12034653 -0.026343277 -0.22876754 -0.08582307 0.1422377 0.013624181 0.12553313
0.035800844 -0.09802434 -0.015471604 0.11245779 -0.100068346 0.04510006 -0.028788317 0.16214448
-0.20958297 -0.122707576 0.04616686 -0.052047107 0.68104756 -0.17158766 0.40618545 -0.047969937
0.09820513 -0.06350264 0.4191851 -0.23228167 0.29715338 0.06222422 -0.10069446 0.1857241
-0.20620766 -0.48442626 0.17685299 0.3914373 -0.036418956 0.0027582657 0.24344975 0.052762765

actor.2.bias f4 [128]
00000000: bed3 30be 1077 7fbe c6af 97bc ba7f 5cbd
00000010: c93e 0ebe 2df3 82be f4ca d83d 5898 a4be
00000020: 3979 6cbd c191 5fbe f6a2 a83d 87a6 04bd
00000030: daf3 64bc bfa4 3bbe 8bfb 2ebe 6728 70bf
00000040: 7a13 8ebe d354 2cbe 82d2 41bd 7c66 1d3d
00000050: c382 b93d d3f9 a23d 8f6d c8be 74f0 f1be
00000060: 7911 8bbd 9433 443d 9c47 173d 8a48 62be
00000070: cf22 fabd 8c80 e93d c597 173e 595a 1abe
00000080: 0e3a 88be 0ada cdbe 639f 9dbe ff5b 49be
00000090: 1f54 fbbd 60d6 07bc c641 29be 7018 8dbe
000000a0: dbfd e93d 95c9 49be 8d92 163d bd81 3fbe
000000b0: ba92 2abe 0a24 92be fb8f 77be 5961 08be
000000c0: 15be 24be 8420 75bd 1ab4 06be 51c4 b23b
000000d0: 23c3 85bf e686 c4be 880b 643e 1910 de3d
000000e0: ebb1 ebbc 41a5 ab3d 88a9 88bd 7385 e6bd
000000f0: 9146 43be ecc6 75be 498a 90be 4971 bebd
00000100: a611 223e 49be 26be f409 59bc 1ce8 5bbe
00000110: 921b aabe b3cb 72be 3c32 7ebe 054c 76be
00000120: 50a5 0ebe 21c3 3a3d 19a1 84be 7c91 83be
00000130: 2c87 7fbe 069c ccbd 807f 00be 2c17 393c
00000140: 9181 903e 6050 8bbd ebfa a2be 9ef0 57bd
00000150: 28fc fa3d 2df7 12be 5ca8 073e 036e 48be
00000160: a98e d4bd d414 c2be e4f7 6abe 9711 2fbe
00000170: 33f3 903e defd e1be 3316 f4bd adb5 bbbe
00000180: 184a bb3c 31fb c5bd c231 893e 1a8b 343c
00000190: dd04 68be abec 0a3d 26e8 2bbe a537 52be
000001a0: c512 c93c 2bfd 1abe 967b 7dbe 3817 55be
000001b0: 7a3c cc3d 1744 c9be 2496 77bb 8eff 3bbe
000001c0: ecbf 24be fc94 7bbe de4f 26be 974e 0bbd
000001d0: b91b 0dbe 273c 94be 84ff f2bd f514 a23d
000001e0: c007 a2be d05b a0bd fd13 5dbe 2490 c1bc
000001f0: cd40 213d 1a98 2bbe 169f cdbd d081 46bf
-0.17268273 -0.24947762 -0.018516432 -0.053832747 -0.13891138 -0.25576153 0.10585585 -0.3214748
-0.057732794 -0.21832944 0.08234207 -0.032385375 -0.013974154 -0.18324564 -0.17088144 -0.9381165
-0.27749234 -0.16829233 -0.047319897 0.038427815 0.09058144 0.079578064 -0.39146087 -0.47253764
-0.06790442 0.04790075 0.036933526 -0.22097984 -0.122136705 0.114014715 0.14803989 -0.15073527
-0.26606792 -0.40205413 -0.30785665 -0.19664 -0.12271904 -0.008290857 -0.16528997 -0.27557707
0.11425372 -0.19705804 0.036760855 -0.18701835 -0.16657534 -0.2854312 -0.24176018 -0.13318385
-0.16088136 -0.059845462 -0.13154641 0.0054555316 -1.0450176 -0.3838417 0.22270024 0.10842914
-0.028771361 0.08381129 -0.066729605 -0.11255922 -0.19069888 -0.24001664 -0.28230503 -0.09298951
0.15827045 -0.16283526 -0.013247002 -0.21475261 -0.3322416 -0.23710518 -0.2482385 -0.24052437
-0.13930249 0.045596246 -0.25904158 -0.25696933 -0.24953908 -0.099906966 -0.12548637 0.0112970285
0.2822385 -0.0680244 -0.3183206 -0.052719705 0.12255126 -0.14352103 0.13247818 -0.19573216
-0.10378773 -0.37906516 -0.22946125 -0.17096554 0.28310546 -0.44138998 -0.11918297 -0.36662045
0.02286248 -0.096670516 0.26795775 0.0110194925 -0.22658105 0.03391711 -0.16787776 -0.20529039
0.024545083 -0.15135638 -0.24754176 -0.20809639 0.099724725 -0.3930976 -0.00377787 -0.18359205
-0.16088837 -0.24568552 -0.16241404 -0.034010496 -0.13780107 -0.28952143 -0.11865142 0.079141535
-0.31646538 -0.07830012 -0.21589656 -0.023628302 0.03936844 -0.16757241 -0.10040109 -0.7754183

actor.4.weight f4 [128, 128]
00000000: 25a5 2abe fd80 453e 1e10 06bd 2d38 5d3e
00000010: c7d2 743e 7f7f e5bc 6c14 ce3d 6a50 e4bd
00000020: fa4e 0ebe 81f4 f6be 319f aebd ee35 553e
00000030: 7653 903d 7277 aa3d fb31 dcbd 9327 5d3e
00000040: 4325 4e3d b4d2 733e 12cf afbd 1f76 ea3d
00000050: 3463 41be 557c a13d 2325 c63a a033 9cbe
00000060: 3261 46bc 1be0 4fbd 4cc3 30be e194 f1bd
00000070: 497a 363e 60fc 1abe 1dad 90bd 79fa ed3d
00000080: 45ab 0b3d ff77 3f3c a21c 463e 57cf 4bbe
00000090: 3b36 1f3e 0c61 3a3c 678f 133e 8908 25be
000000a0: 5db7 2d3e 497d 243e 9f29 1ebb 6110 e7bd
000000b0: b781 703d 9f57 b53e d9e8 4e3d 83a8 66be
000000c0: efb7 843c 2157 133e 7408 313d 63cb 30bc
000000d0: dd33 1f3f 33b1 d3bc c0de 6fbd be3d 063e
000000e0: 0be4 ff3d c5d9 ce3d 78eb f43d a71e 063e
000000f0: 7bbb 0e3e fd77 2abc 32ec 8d3e eb9d 783e
00000100: 5b13 243e 9331 833e 3831 f73c a4be 99be
00000110: 62ce 2bbd 69a6 c8bd 5641 873e cfc1 913d
00000120: fabb 903c 0628 b7bd c236 86be cc32 ea3a
00000130: 7486 f3bc 7295 9bbc 7005 9c3e 4a7b 48be
00000140: 2e67 84be d269 a0be 4a3d 3b3e e513 edbd
00000150: e719 37be 64df 95bd 9e5c 443e 6743 6cbd
00000160: 3096 16bd d85a 75be 524a 493e f8a8 86be
00000170: 5c56 b7bd 1714 523e bf5a 303e ad1b 93bd
00000180: 2fea d23e 1edb 00bf 09bf cfbd cd64 f0b9
00000190: a706 bd3d 2927 67bd eeb6 853d ef51 823e
000001a0: c696 6e3e 4fd9 3ebb 39fb b3bd ebe7 5a3e
000001b0: ad46 793d 8e6f 25be abe5 133e d146 9ebd
000001c0: 31ed debc bd2d 7f3e 6567 71be 7196 95bd
000001d0: f0d4 173e c3ee 793e c482 21be d025 2cbe
000001e0: e9bb 97bd 451e 0abe ae83 283e 7703 1a3e
000001f0: 2ffd 913e 6fe7 f53d 5f65 0bbe e441 063e
00000200: a7f9 52bc 41c7 643d 0b75 2d3d 2a91 7ebd
00000210: 083f 93be 6809 2f3e dfc8 4b3e 0f55 4d3d
00000220: 69db 483e 96e9 b2bd 519d db3d 8746 4e3b
00000230: 4eb7 e03d e4ab 15be 6125 e7bb 00c3 a83c
00000240: a8a4 4e3d cd22 4bbe 3176 cdbd 5943 dc3d
00000250: e433 82bd e4f2 343e fc0c 1fbe 7fc6 813e
00000260: 4909 9a3d 20c7 313e a596 963e cb65 9bbd
00000270: a9e8 82bc dbd8 383e 4032 9ebe 39a0 f0bd
00000280: 9d91 9e3d 977c a33b f6ed 343e 2175 76bd
00000290: 9855 a7bd dd44 9a3e 91c5 253d b81d 08bc
000002a0: ada8 c2bd d282 62bc 9b9a 313e 468f 39be
000002b0: c19d 9bbb a71c 38be 7790 61bc 8963 103d
000002c0: 6a16 7dbd 95de 27bd 8d1b 4f3e 2656 e33d
000002d0: 7e9b 8f3e 5fad 033c 42b0 d13c 5ac7 e23d
000002e0: f032 ac3d 6ff3 c3bd 08de 2ebe b8e1 c93d
000002f0: 9429 b6bd cb3e 623d 0ac9 483e fa61 21be
00000300: c8ef 493e 11e7 8ebd 0c20 efbd 5f51 b93c
00000310: dcb8 9b3c d7a7 bebd ac7e b9bd f280 473e
00000320: 7791 03bd a1b3 db3d 7a9d 513e 5d6d 9b3d
00000330: c63e b13c e33b 0abd a14b f4bd e9a7 a23d
00000340: 302a db3c 75fe 81bd 6958 e23d dc62 d03d
00000350: 685f e63d dad4 f3bd e029 7bbd a363 d43c
00000360: db3f 94bd 46e8 1abe eaa1 dc3c 4869 6dbb
00000370: 1e09 cb3b 8e77 aabd 3301 bcbb 6e0c 0a3c
00000380: d7cc 893d bc1c 8e3d 5b89 d83b ad07 fc3d
00000390: df3c 47be dd6b e93d b9d8 19be e018 af3d
000003a0: c891 2c3d 3839 cbbb 7c2f 70bc 7589 8bbd
000003b0: 779a d6be 0dbe ed3a d4cf 9f3d 4b11 3c3d
000003c0: cf66 ab3d 2474 9dbd b8d2 193d c7fe 2dbd
000003d0: 3e4c 9fbd acf4 39be 1dc4 3bbe 5eea 9abe
000003e0: ca4c 543e 4e92 8c3b 642b b93c 440f ac3d
000003f0: 0aa9 013e ecde 3c3d 9d2a 8c3e 7663 e03d
-0.1666456 0.19287486 -0.032730214 0.2160346 0.2390853 -0.028014896 0.10062489 -0.1114815
-0.13897315 -0.48233417 -0.08526457 0.20821354 0.07047169 0.08323564 -0.107517205 0.21597128
0.050328504 0.23810846 -0.085844174 0.11448311 -0.18885499 0.078850426 0.0015117269 -0.30508137
-0.012108134 -0.050750833 -0.17262 -0.117959745 0.17820086 -0.15135336 -0.07064269 0.116200395
0.034098882 0.011686324 0.1934686 -0.19903313 0.15548031 0.011375677 0.14410172 -0.16116537
0.16964479 0.16063417 -0.0024133695 -0.11282421 0.058717456 0.35418412 0.05051503 -0.2252522
0.016200988 0.14388706 0.043220952 -0.010790679 0.6218851 -0.025841331 -0.05856204 0.1310949
0.124946676 0.1010013 0.119589746 0.1309763 0.13938706 -0.010404584 0.27719265 0.24278991
0.16023009 0.2562376 0.030174837 -0.3002826 -0.04194487 -0.09797365 0.26417035 0.07117044
0.01766776 -0.08943181 -0.26213652 0.0017867922 -0.029727198 -0.01899216 0.30472898 -0.19578281
-0.2585997 -0.31330734 0.18285099 -0.1157606 -0.17880975 -0.07317999 0.19175956 -0.057681467
-0.036764324 -0.23960435 0.19657257 -0.26300788 -0.089520186 0.20515476 0.17222117 -0.07183013
0.41194293 -0.50334346 -0.10143859 -0.0004585147 0.092297845 -0.05643383 0.06529032 0.25453135
0.23299703 -0.0029121225 -0.08788151 0.21377532 0.060858417 -0.16155836 0.1444308 -0.07728351
-0.027212711 0.24919792 -0.23574598 -0.07304085 0.14827323 0.24407487 -0.1577254 -0.168113
-0.07408888 -0.1348811 0.16456482 0.15040384 0.28513476 0.12007033 -0.13612889 0.13111073
-0.012876905 0.055854086 0.04234795 -0.062150158 -0.28759027 0.17093432 0.19900845 0.050129946
0.19614948 -0.08735959 0.10723365 0.0031475143 0.109724626 -0.14616352 -0.0070540165 0.020600796
0.050449997 -0.19837494 -0.10032309 0.10755033 -0.063575536 0.1767078 -0.15532297 0.25346753
0.07521302 0.17361116 0.29411808 -0.07587775 -0.015980082 0.18051474 -0.30897713 -0.1174931
0.07742617 0.0049892175 0.176689 -0.060170297 -0.081706226 0.30130664 0.040471617 -0.008307867
-0.095048286 -0.013825135 0.17344134 -0.1812106 -0.0047490303 -0.1797968 -0.013767353 0.035251174
-0.061788954 -0.040983755 0.20225354 0.11100416 0.2804832 0.00803694 0.025596742 0.110731795
0.08408153 -0.09567916 -0.17076886 0.098575056 -0.08894649 0.055235665 0.1960794 -0.15760031
0.19720376 -0.06977666 -0.11676034 0.022621809 0.019009046 -0.09309357 -0.09057364 0.19482782
-0.032121148 0.10727621 0.20470229 0.07589219 0.021636378 -0.03374852 -0.119284876 0.079421826
0.026753515 -0.06347362 0.11052019 0.10175106 0.11248666 -0.119058326 -0.061319232 0.025926417
-0.07238742 -0.15127668 0.026932675 -0.0036226083 0.006196155 -0.083235845 -0.0057374476 0.008425815
0.06728523 0.069390744 0.006608171 0.123061515 -0.19456814 0.113975264 -0.1502408 0.085496664
0.042131215 -0.0062018894 -0.014659759 -0.06813327 -0.41914722 0.0018138305 0.07803312 0.04591493
0.083692186 -0.07688168 0.037554473 -0.042479303 -0.07778214 -0.18159741 -0.1833653 -0.30256933
0.20732418 0.004289902 0.022603698 0.08401349 0.1266214 0.046111032 0.2737626 0.10956471

actor.4.bias f4 [128]
00000000: e991 b4bd 2cc8 0cbe fca2 00be b184 88be
00000010: c0c0 2abf 3507 86bf 1f5f 32bf 199e b1bd
00000020: 037d 84bf 7a26 f0bd f111 21bf bd3f 1cbe
00000030: b049 45bd e528 3abe d316 6cbe 020b b43c
00000040: 209a 98bd 00d8 a7bc 759a 3ebe 163f ddbd
00000050: 2c9a 32bd a027 c2bd fb68 703d dd92 04bc
00000060: 8f23 b5bd 6b07 58bd eafe 28be d053 1b3d
00000070: 93fd 83be 635f acbe 80dd cebe 1c69 46bc
00000080: 2972 85be 30e8 cbbd 8085 0abe 0f6e be3c
00000090: 29a2 6d3c 4446 8bbe 18ca 343d ee90 03bf
000000a0: fe3e 0cbf b193 73be 8df3 59bd 17f5 3cbe
000000b0: 5a00 33be b247 99bc de97 26bf 09ed d13d
000000c0: 4885 1c3c 0412 23bf d172 dcbe 20bc 87be
000000d0: ae94 5bbe f5ea e1bd 2c34 e0bd 814b 18bf
000000e0: 531a 70be 93c9 abbd 64b8 acbe f866 8dbe
000000f0: a476 95be 23a1 3abe 2285 57be 0e1a ddbd
00000100: 572f cb3c 382b af3d 6320 d4bd fe00 8abd
00000110: a747 74bd 848c a4be 1f56 35be fd04 60be
00000120: 7de8 58bd ebca 68be 74ed 34bc cd02 8bbe
00000130: 8c9b 46be fcd7 7abd 4319 233d 561a b6bd
00000140: 9b27 d9bd feb7 d3bd a07c 83bd 3ffd e6bd
00000150: 5255 72be 2bd7 5c3c f625 8dbe 3be7 10be
00000160: f307 30be aa48 7dbe 37f6 a1bd 3e00 16be
00000170: 6f7a 21be 4ba3 99be 3325 31be 596e 8dbd
00000180: 08d5 60be 38a4 49be 6e73 debe 75aa 1bbe
00000190: 2204 7cbe 6e72 b5bc 0015 74bd 471c f3bd
000001a0: 9445 a3bd d2a0 33be 4973 1ebc 63a5 38bd
000001b0: 5f0a 2abe d701 b8bd 253d 3cbe a361 5fbe
000001c0: f7e1 edbe 018e 85be 6c64 c8be c224 b6be
000001d0: b36d 183e 0938 81be 2947 0abe 9a1f 0cbe
000001e0: a5a8 cbbd 16ab 393d ad3a b1be 2e90 40bd
000001f0: 30c7 01bd 9098 e1be 0669 cc3c f560 7b3d
-0.08816893 -0.13748235 -0.12562174 -0.26663736 -0.66700363 -1.047095 -0.69676393 -0.08672733
-1.035065 -0.11726089 -0.62918 -0.15258689 -0.048165977 -0.18179663 -0.23055582 0.021977905
-0.07451272 -0.020488739 -0.18613608 -0.10803048 -0.04360406 -0.09480214 0.058693867 -0.008091656
-0.08844673 -0.05274145 -0.16503492 0.037921727 -0.257794 -0.33666524 -0.40403366 -0.012110021
-0.2606366 -0.099563956 -0.13527489 0.02324584 0.014503994 -0.27202046 0.044138044 -0.5139302
-0.5478362 -0.23786809 -0.053210784 -0.1845287 -0.17480603 -0.018710945 -0.6507548 0.10250289
0.009553261 -0.63699365 -0.43056348 -0.26510715 -0.21443436 -0.110311426 -0.10947451 -0.5949021
-0.23447542 -0.083880566 -0.3373443 -0.2761762 -0.29192078 -0.18225531 -0.2104688 -0.10795985
0.024802847 0.08553165 -0.1035774 -0.067384705 -0.059638645 -0.32138455 -0.17708634 -0.21876903
-0.052956093 -0.22733657 -0.011042941 -0.27150574 -0.19395274 -0.061241135 0.039819013 -0.08891742
-0.10603257 -0.10337828 -0.06420255 -0.112787716 -0.2366536 0.013479034 -0.27568024 -0.14150707
-0.17190532 -0.2473475 -0.0790829 -0.1464853 -0.15769361 -0.30007395 -0.17299347 -0.06905813
-0.21956265 -0.1969155 -0.4344744 -0.15201743 -0.24610952 -0.02214929 -0.05959034 -0.11870628
-0.07972255 -0.17541817 -0.009671041 -0.0450796 -0.16605519 -0.08984726 -0.183827 -0.21814589
-0.4646146 -0.26084903 -0.39139116 -0.3557492 0.14885597 -0.25238064 -0.13503708 -0.1368393
-0.09944276 0.045329176 -0.3461508 -0.0470125 -0.0316841 -0.44061708 0.024952423 0.061371762

actor.6.weight f4 [12, 128]
00000000: 2d4c 5a3c 3961 893c 8150 f93c 9ef2 233c
00000010: ef83 853c 7e53 023d 6478 053d 0693 363b
00000020: feed 4039 80fd 49bb de7f dd3c ee9e f63c
00000030: fede a8bb 07a6 503b 3bce feb6 6867 ff3b
00000040: 515d 0a3d 0d5c 91bc 54b1 29bb b371 853a
00000050: 9124 61bb 5f9a 3e3c b6b8 d83a 684a 7fbc
00000060: 0fab 323b 88af 4abd 395c ad3d 0c8b 30bc
00000070: 893d 50bc d049 d8bd bdef 323c b064 c63c
00000080: c5a4 b83c 859c 0bbe ac04 4fbc efba 8539
00000090: 3454 02bd 0d4b 2bbd c9ef 7dbc 76fa df3c
000000a0: 4a55 4f3d 0f1d 953b 83dc 093d a1cb a63c
000000b0: 5c28 113d 3a9d 143c 4c18 00bd 4d6d d23c
000000c0: 44a7 f9bc 85f7 b53d 5b4b cf39 9bfe 15bc
000000d0: 99af 99bd 11d7 5bbc a004 c83b f3bc 3aba
000000e0: e09f d0bd 7d1d e2bc 1401 8d3d 80e2 0b3d
000000f0: fe89 2c3a 8ab9 a8bc caaa e139 55d9 bb3a
00000100: fc1d 603b 5b18 34bc d5b2 2dbc 8e62 6c3d
00000110: f063 163c dec1 e93c 3169 2d3b 8746 70bc
00000120: 5ba5 cbbc 9e48 003c 09c2 283d 1570 5b3b
00000130: f304 c5bb 77cc 0cbd 3e8f 14bb 445c 15bc
00000140: 4a84 55bc 786d 103c 9170 553c 1834 4a3c
00000150: 8fac ae3a 234c 2a3a 25f4 033d 3a8e 82bc
00000160: 10ff d03c d12f edbb 7eb2 bc3c f749 e2ba
00000170: d2b2 6d3c cc2c ca3c f1c0 1b3c 41f4 6a3c
00000180: 76f0 fb3c b477 52bc c8fc dbbc daa2 e63b
00000190: b288 633c 95fb 513d a18f b4bb 635f a3bc
000001a0: 7aee 02bd 3866 a3bb 99ae fbbb 380e 0f3c
000001b0: 1d9b 4fbc 8706 8e3c 6662 2cbc 52a1 f3bb
000001c0: b4d0 cc3c 28bc 393d 9468 cbbc 574d 983b
000001d0: 2f9e f8bc 1ac5 833c 8905 4ebc 026a a23b
000001e0: 2674 863c fdda 10b9 212e a93b 28d2 deb9
000001f0: e12d 693a 30fe e03c 0944 dabc 9adb a03b
00000200: c528 b9bb f07e 84bc 9e3c 8cbb f5b8 02bd
00000210: af8d 03bd 6114 1eba 7e77 87bc 84c3 043d
00000220: 2b8f 04bd 33fe 35bb 1bfa 003d c75d a83c
00000230: 69fc b83b 6899 1dbc 067c a5bb 7f75 12bb
00000240: e77d 11bc 9169 003d 2753 a5bc 6f6d 0fba
00000250: 1d8b 473b 887e 52bc cbf4 f9bb 60e9 7e3c
00000260: 9529 32ba 3bd1 0b3e bb00 10bc a25d 1b3c
00000270: 6909 d2bc 1dbf 86bb 592c dbbc 8ec1 ee3b
00000280: 4944 df3b 1e59 4d3d 6b71 12bd 2385 403a
00000290: 9625 913c a9c3 ccbc ac98 93bb 3c7e 50bd
000002a0: 0200 e1bc 9995 843a 3490 ca3c 2222 5b3b
000002b0: 36e4 543c 10f0 c3b9 3db4 e5bc e2e1 d8bc
000002c0: 479e 67bb c3a6 52ba 6a80 df3c 5cf5 5abc
000002d0: df55 d23d 0372 b9bc cb52 61bc 21e1 b6bd
000002e0: 7237 9a3d 2b4c 6bbd db70 01bd b614 63ba
000002f0: 0e32 a6b8 1001 f5bc cd7e 863c f570 43bb
00000300: 566f fd3c 6713 fc3c de0d 883a 9e06 e23c
00000310: 80a1 08bd 98e5 1bbc 3886 273b 31f4 83bc
00000320: 8e35 0bbd 353d 0ebc 0c40 d63c 02d2 37bd
00000330: c964 443c 3fbb 50bd e73f f8bb c693 f93b
00000340: 32f8 d53a 5ac3 aebd f962 35bc b605 62bc
00000350: 712d 0cbd 268c 343a bed5 8ebd e33c acb9
00000360: 84da 473c 2ca3 b5bc 0879 5d3c 3344 5d3c
00000370: b7f8 513c 380c 2a3d 5194 27bb 10a3 43bc
00000380: c084 ea3b eccc 59bc 6024 8eb9 7552 593c
00000390: f606 0e3c 5fd1 133d 964a 5e3b 25e4 8ebc
000003a0: 9164 04bb 1b0a 2a3c d663 cdbc 0388 703b
000003b0: e1d8 aa3b 03bb a83c b21f bc3b d023 fabc
000003c0: 6248 d2bc 43bf 5dbb 2684 bbbb e9a4 da3d
000003d0: b6c6 463c 79e3 7e3c 23ac dfbb a7a9 fcbc
000003e0: 1857 88bc 56cb e73a c1d0 cf3c bc4c 3b3c
000003f0: 2fa4 13bc a0ae 35bc 97bf 25bd 6937 853c
0.013323826 0.016769992 0.030433895 0.010006575 0.016298262 0.031817906 0.032585517 0.002785863
0.00018399206 -0.0030821264 0.02703851 0.03010508 -0.005153536 0.0031837241 -7.5937983e-06 0.0077943094
0.0337804 -0.017744089 -0.002589305 0.001018098 -0.003435407 0.011633485 0.001653454 -0.015581705
0.0027262603 -0.049483806 0.08464856 -0.010775339 -0.012709984 -0.105609536 0.010921416 0.024217933
0.022539506 -0.13633926 -0.012635391 0.00025507013 -0.031818584 -0.04181962 -0.015499064 0.027341109
0.050618447 0.004550583 0.033657562 0.02036077 0.03543888 0.009070689 -0.03127317 0.025686884
-0.030475266 0.08885101 0.0003953826 -0.009154941 -0.07504196 -0.013417975 0.006104067 -0.00071234925
-0.10186744 -0.027601952 0.06884971 0.034151554 0.0006581842 -0.020596284 0.00043042592 0.0014331738
0.003419756 -0.010992135 -0.010601719 0.057711177 0.0091791 0.028534826 0.0026460404 -0.0146652525
-0.024859121 0.007829813 0.04120067 0.0033483554 -0.006012553 -0.03437468 -0.0022668387 -0.009116236
-0.013032028 0.008815162 0.013027326 0.012341522 0.0013326573 0.00064963306 0.032215256 -0.01593696
0.025512248 -0.007238366 0.02303433 -0.0017264475 0.014507966 0.024679564 0.00950645 0.014340461
0.03075431 -0.012845922 -0.026853934 0.0070384564 0.013887571 0.051265318 -0.005510286 -0.019942945
-0.03196571 -0.0049865507 -0.007680726 0.008731417 -0.012671259 0.017337097 -0.010521507 -0.0074350024
0.025001861 0.045345455 -0.02483014 0.0046478915 -0.030348865 0.016085196 -0.012574562 0.004956485
0.016412806 -0.0001381449 0.0051629697 -0.00042499718 0.0008895081 0.027464956 -0.02664377 0.004908991
-0.005650612 -0.01617381 -0.004279687 -0.03191467 -0.032117542 -0.00060302584 -0.01653647 0.03241302
-0.032363098 -0.0027769923 0.03148852 0.020552529 0.005645324 -0.009619094 -0.005050185 -0.0022347865
-0.008880115 0.031350676 -0.020181252 -0.0005471324 0.0030447908 -0.01284755 -0.0076280585 0.015558571
-0.00067963573 0.13654034 -0.008789237 0.009482773 -0.025639253 -0.004112138 -0.026754545 0.007286257
0.00681356 0.050133817 -0.035752695 0.00073440577 0.017718118 -0.024995642 -0.004504284 -0.050901636
-0.027465824 0.0010115384 0.024726965 0.0033437093 0.012993863 -0.0003737216 -0.028040046 -0.026474897
-0.0035342143 -0.00080357137 0.027282912 -0.013364162 0.10270285 -0.022637373 -0.01375265 -0.08929659
0.075301066 -0.057445686 -0.031601768 -0.0008662449 -7.92482e-05 -0.029907733 0.016417885 -0.0029821966
0.030936878 0.03077097 0.0010380109 0.027591046 -0.033357143 -0.009515189 0.0025562178 -0.01610765
-0.03398662 -0.008681585 0.026153587 -0.044878013 0.01198692 -0.05095982 -0.007575977 0.007616493
0.0016324578 -0.08533354 -0.01107096 -0.013795307 -0.034223024 0.0006887339 -0.06974362 -0.0003285176
0.012198094 -0.022172533 0.013517626 0.0135050295 0.012815646 0.04151556 -0.0025570581 -0.011940733
0.0071569383 -0.013293486 -0.00027111452 0.013264288 0.008668652 0.036088344 0.0033918968 -0.017442772
-0.0020201544 0.010378386 -0.02507202 0.0036702163 0.0052138423 0.020596987 0.005741083 -0.030534655
-0.02566928 -0.0033835925 -0.0057225404 0.10675985 0.012132337 0.015557163 -0.00682594 -0.030842615
-0.016643092 0.00176845 0.025368096 0.011431869 -0.009011312 -0.011088997 -0.040465917 0.016261773

actor.6.bias f4 [12]
00000000: 4bac c43c efd9 c4bc 3974 02be a2c5 023e
00000010: a4b3 edbb 7b73 88bb dae1 513d 2dd9 4c3d
00000020: 0cb8 833e 92c3 7e3e 8f96 893e 6bbc 893e
0.024007937 -0.0240297 -0.12739648 0.12770703 -0.007254081 -0.004164157 0.05124078 0.050011802
0.25726354 0.24879292 0.2687268 0.26901564
