tested_policies/aliengo/data_aug_policy_fix_reset_hip/exported/policy.onnx (onnx, 273175 bytes, 8 tensors)

actor.0.weight f4 [128, 260]
0	0x3dca5761	0.098799475
1	0xbf226f45	-0.63451034
2	0x3f623ae8	0.88371134
3	0xbd8bfadf	-0.06834959
4	0xbe5290c9	-0.20563044
5	0x3ce33f5b	0.027740171
6	0x3fb73a01	1.4314576
7	0x3f938aea	1.1526768
8	0xbd4c6649	-0.049902234
9	0x3ee88cad	0.45419827
10	0x3f1976ea	0.59947073
11	0xbc9bdd7c	-0.01902651
12	0xbf34a110	-0.7055826
13	0xbee2ee6b	-0.44322523
14	0x3ea226ad	0.31670132
15	0xbe96b880	-0.29437637
16	0xbd72c485	-0.059269447
17	0x3ddd601d	0.10809348
18	0x3d13366d	0.035940576
19	0x3ec4222f	0.3830733
20	0x3f807ba2	1.003773
21	0xbdc94fc6	-0.09829669
22	0xbe90a534	-0.2825104
23	0xbe995d7e	-0.2995414
24	0xbc00b173	-0.007854807
25	0x3cca1d7b	0.02467226
26	0x3d2b704f	0.041855153
27	0xbdbf6ed1	-0.093473084
28	0xbb97059e	-0.004608824
29	0x3b993956	0.0046760244
30	0xba4a5be2	-0.000771938
31	0xbcffb250	-0.031212956
32	0x3c5da65b	0.013528432
33	0xbb60b2e6	-0.003428632
34	0x3cca8db0	0.024725765
35	0xbd95feab	-0.07323965
36	0x3c1350a5	0.008991395
37	0xbc945f17	-0.018111749
38	0x3da057aa	0.078292206
39	0x3e010c7a	0.12602416
40	0xbd5fc210	-0.05462843
41	0xbda903b6	-0.08252661
42	0x3c9f9095	0.019478122
43	0xbe01a25a	-0.12659588
44	0xbc15f537	-0.009152702
45	0xbcde82dc	-0.027162008
46	0x3d19d89d	0.037560094
47	0xbc283cc4	-0.010268394
48	0xbddf51d4	-0.10904279
49	0xbef8f534	-0.48624575
50	0xbedcfb3c	-0.43160427
51	0xbd588ba4	-0.052867547
52	0x3ac6885b	0.0015146838
53	0xbf03c5b1	-0.5147353
54	0x3eb5782d	0.3544325
55	0xbc886bc6	-0.016652953
56	0xbe2fa9d4	-0.17154628
57	0xbc82b75f	-0.015956579
58	0x3fb2b421	1.3961221
59	0x3f943b16	1.1580532
60	0xbdfda41d	-0.12384818
61	0x3eef6e24	0.46763718
62	0x3f21892c	0.6309993
63	0x3d2d3014	0.04228218
64	0xbf2a3363	-0.6648466
65	0xbee7e165	-0.4528915
66	0x3e8c8b20	0.27449894
67	0xbeade7fb	-0.3396605
68	0xbb1850b2	-0.0023241458
69	0x3e069c55	0.13145573
70	0x3d635b68	0.055507094
71	0x3ec9120e	0.39271587
72	0x3f887fac	1.0663962
73	0xbe0e8235	-0.13916858
74	0xbe986e08	-0.29771447
75	0xbe917371	-0.28408387
76	0xbd9d165c	-0.0767028
77	0x3c6f97c2	0.014623584
78	0xbda4bcf7	-0.08043855
79	0x3d129b98	0.035792917
80	0x3c80febe	0.01574647
81	0x3ca4d1ef	0.020119635
82	0x3d08bca9	0.033383045
83	0x3b850561	0.004059479
84	0x3bbc51eb	0.00574707
85	0xbdb0a917	-0.08626001
86	0xbd3a764c	-0.045522973
87	0x3da5c410	0.080940366
88	0x3d4348ac	0.047676727
89	0x3d319a12	0.043359824
90	0x3cd35641	0.025797965
91	0xbd0b261e	-0.0339719
92	0x3dd8232f	0.10553586
93	0x3d12fe0a	0.0358868
94	0xbda06dc5	-0.07833437
95	0xbd52ed52	-0.051495858
96	0xbd29a6f1	-0.041418973
97	0x3ca2af20	0.019858897
98	0x3d4b380b	0.049613994
99	0xbc9da63c	-0.019244306
100	0x3aa74ef4	0.0012764619
101	0xbe52b280	-0.20575905
102	0xbe5bdd00	-0.21471024
103	0x3c8cf5d8	0.017207071
104	0xbdf7c810	-0.12098706
105	0xbed2dafe	-0.41182703
106	0x3e8c2b72	0.27376896
107	0x3cf66a22	0.030079905
108	0xbeb90faa	-0.36144763
109	0x3e9c316b	0.30506453
110	0x3fb44940	1.4084854
111	0x3f9d4378	1.2286215
112	0xbd66bae1	-0.056330565
113	0x3f039e27	0.51413196
114	0x3f0d2081	0.5512772
115	0x3cbda2e9	0.02314897
116	0xbf3cfdd2	-0.738248
117	0xbee2ca48	-0.44294953
118	0x3e9b85f9	0.3037565
119	0xbe793e5e	-0.24340197
120	0xbd809df9	-0.06280131
121	0x3ded5fc7	0.11590534
122	0x3c5c4990	0.013445273
123	0x3eb9d1fa	0.36293012
124	0x3fa29789	1.2702495
125	0xbe3d91f5	-0.1851271
126	0xbe94d3f5	-0.2906796
127	0xbeb73ecf	-0.35790107
128	0x3cab6995	0.020924369
129	0x3df506b0	0.11964166
130	0x3d01de48	0.031706125
131	0x3d2be81c	0.041969404
132	0x3c2507d8	0.010072671
133	0x3d5e65a0	0.054296136
134	0xbd5923d3	-0.05301268
135	0xbd7fc560	-0.06244409
136	0x3da7a622	0.08185984
137	0x3bd935e4	0.0066287387
138	0x3d8e3fe2	0.069457784
139	0xbda28cdc	-0.07937023
140	0x3d7cd40e	0.06172567
141	0xbd88300b	-0.066497885
142	0xbcb9000c	-0.02258303
143	0xbca37236	-0.019951921
144	0xbd43b52d	-0.047780205
145	0x3c31f28a	0.0108610485
146	0xbd408815	-0.047004778
147	0xbd570da6	-0.05250325
148	0xbb96ce76	-0.004602249
149	0x3d15d39c	0.03657876
150	0x3da76c12	0.0817491
151	0xbd61a10e	-0.055085234
152	0x3d732f0f	0.05937105
153	0xbecbf544	-0.3983556
154	0xbed71cb6	-0.42014092
155	0x3d7ae110	0.061249793
156	0xbea60588	-0.32426095
157	0xbef477f9	-0.47747782
158	0x3e2e3f2a	0.17016283
159	0x3ef8d406	0.4859926
160	0xbe5f2822	-0.21792653
161	0xbe0b205b	-0.13586561
162	0x3fb397b4	1.4030671
163	0x3f90587d	1.1277004
164	0xbd4f6e58	-0.05064234
165	0x3efb629e	0.49098676
166	0x3f19b859	0.6004692
167	0xbd2db0fd	-0.042405117
168	0xbf3a5240	-0.72781754
169	0xbed0052c	-0.40628946
170	0x3eae0f75	0.33996168
171	0xbe77b25b	-0.24189131
172	0xbbd1c9dd	-0.006402238
173	0x3dc89944	0.09794858
174	0x3d4b5ef3	0.049651098
175	0x3e96c1a0	0.294446
176	0x3fa6f435	1.3043276
177	0xbe2db39c	-0.16963047
178	0xbec0269e	-0.37529463
179	0xbec2c0f3	-0.38037834
180	0x3ca3f589	0.020014541
181	0x3de39470	0.111122966
182	0xbe0c8954	-0.13724262
183	0xbb3fc0c6	-0.002925919
184	0xbdbea45a	-0.09308691
185	0x3d52078b	0.051276725
186	0x3cec042e	0.028810587
187	0x3d3a6583	0.045506965
188	0xbc3a691a	-0.011377597
189	0xbc132438	-0.008980803
190	0xbdebd7a2	-0.11515738
191	0xbd60c298	-0.05487308
192	0x3e36a510	0.17836404
193	0xbd6fec60	-0.058575034
194	0xbdce62ba	-0.10077424
195	0x3cd04648	0.025424138
196	0xbdb8b3ee	-0.09018694
197	0xbdd13b0a	-0.10216339
198	0xbd3fb46f	-0.046802934
199	0xbda15087	-0.078766875
200	0xbe96fe4c	-0.29490888
201	0x3d22e7c9	0.03977183
202	0x3d74ac03	0.059734356
203	0xbd971e9e	-0.07378887
204	0x3d920da6	0.071315095
205	0xbf38aebe	-0.72141635
206	0xbf22b566	-0.6355804
207	0x3d40c60f	0.047063883
208	0xbf0c0dde	-0.5470866
209	0xbe9e33a7	-0.30898783
210	0xbfacceb8	-1.3500586
211	0xbf059377	-0.5217814
212	0x3f1dc8b1	0.61634356
213	0x3e2dd158	0.1697439
214	0x3fb83007	1.4389657
215	0x3f924d4c	1.1429839
216	0xbda4ca63	-0.08046415
217	0x3f186112	0.5952312
218	0x3f1d7021	0.6149922
219	0xbccbb21a	-0.024865199
220	0xbf44dfa8	-0.7690377
221	0xbee2ebe5	-0.44320598
222	0x3eba52e2	0.3639136
223	0xbe56f194	-0.20990592
224	0x3da2beaa	0.079465225
225	0x3e2d4309	0.16920103
226	0x3d13bdbb	0.036069613
227	0x3eb37f32	0.3505798
228	0x3fba8489	1.4571697
229	0xbe4a5359	-0.19758357
230	0xbea89f18	-0.3293388
231	0xbeaf934d	-0.3429207
232	0xbede85af	-0.43461367
233	0x3d9b51b6	0.075839445
234	0x3e3e17a9	0.18563713
235	0xbe5322ce	-0.20618746
236	0x3dbf1501	0.09330178
237	0xbd1090e8	-0.035294443
238	0xbeb4ff3c	-0.35350978
239	0x3db016a4	0.08598068
240	0x3ebad4ae	0.36490387
241	0xbd83bba8	-0.06432277
242	0xbe986be6	-0.2976982
243	0x3da16e4d	0.07882366
244	0x3f00dac7	0.5033383
245	0xbe366bfc	-0.1781463
246	0xbe4b8873	-0.1987627
247	0xbd27462c	-0.040838405
248	0x3d046a3e	0.032327883
249	0xbc9b4213	-0.018952405
250	0x3e407f37	0.18798529
251	0xbe90ec7f	-0.28305432
252	0xbfb25986	-1.393357
253	0x3d93d63c	0.07218596
254	0x3de745db	0.11292621
255	0xbe637e44	-0.22216135

actor.0.bias f4 [128]
0	0x3da40891	0.080094464
1	0x3bd0dc99	0.0063739535
2	0x3e1fcea1	0.15606166
3	0xbd2848f9	-0.041085217
4	0x3ddee5fe	0.10883711
5	0xbdd8d04d	-0.10586605
6	0xbe4833bd	-0.19550987
7	0x3d9bf342	0.07614757
8	0xbddf3c9e	-0.10900234
9	0xbdd6699c	-0.10469362
10	0xbda37780	-0.07981777
11	0xbd972bb3	-0.07381382
12	0xbe1aafe9	-0.15106167
13	0xbdb14ddd	-0.08657429
14	0xbd1f9338	-0.038958758
15	0xbd043d17	-0.032284822
16	0xbdd2e343	-0.10297253
17	0xbe8188b6	-0.25299615
18	0x3d8e1efa	0.06939502
19	0x3e4bad83	0.19890408
20	0xbd467111	-0.048447672
21	0xbdb85687	-0.09000879
22	0xbd66126a	-0.056169905
23	0x3989492e	0.000261852
24	0xbe9123c7	-0.28347608
25	0x3e0b76b4	0.136195
26	0x3e894ef0	0.26818037
27	0x3b0c58a2	0.0021415134
28	0xbd096088	-0.033539325
29	0x3da8de98	0.082455814
30	0x3e72440a	0.23658767
31	0xbc0f49a1	-0.008745582
32	0x3e9396bc	0.2882594
33	0xbe5ed631	-0.21761395
34	0x3dc9370a	0.09824951
35	0xbdc8b917	-0.09800928
36	0x3d91b136	0.071138784
37	0x3dbf0bc1	0.09328414
38	0xbe6c3b3f	-0.23069476
39	0xbe4f9cd4	-0.20274669
40	0xbe851730	-0.25994253
41	0xbe51f89a	-0.2050499
42	0xbe0a0f8b	-0.13482492
43	0xbe007ba1	-0.1254716
44	0xbda5f7cd	-0.08103905
45	0x3c18861c	0.009309318
46	0xbe15caaf	-0.14628099
47	0xbe61e3ad	-0.22059508
48	0xbc36b08e	-0.011150492
49	0xbe2c3c73	-0.16819935
50	0xbb638ae3	-0.0034720234
51	0x3c96c689	0.018405216
52	0xbcf0826c	-0.029359065
53	0xbd2c95a6	-0.042134903
54	0xbcddf053	-0.027092135
55	0x3d7c215a	0.061555244
56	0x3d4fd0ea	0.050736345
57	0x3d172d5e	0.0369085
58	0xbe750ef2	-0.23931482
59	0x3cdd61e1	0.027024211
60	0x3d38fc94	0.045162752
61	0xbde90c4c	-0.113792986
62	0xbd6d7bdc	-0.05797945
63	0xbca32a52	-0.01991764
64	0x3df81d69	0.121149845
65	0x3c50c883	0.012743118
66	0xbc380db2	-0.011233734
67	0xbdf775c5	-0.1208301
68	0x3ddaa7b7	0.1067652
69	0xbd604e18	-0.054761976
70	0x3e81944f	0.25308463
71	0x3ba1b222	0.004934565
72	0x3ca3925b	0.019967249
73	0xbc41c6e2	-0.0118272025
74	0xbe03645d	-0.12831254
75	0xbe478b3f	-0.19486712
76	0xbd1ff76b	-0.039054316
77	0xbd55d8fb	-0.05220888
78	0xbe0c2c77	-0.13688837
79	0xbde2df36	-0.1107773
80	0x3e11c63b	0.14235775
81	0xbe2a02a1	-0.16602565
82	0x3da931bf	0.082614414
83	0xbd8007eb	-0.0625151
84	0x3d5d9907	0.054101016
85	0x3df728b7	0.120683126
86	0x3cb54d27	0.022131516
87	0xbdaf74cc	-0.08567199
88	0xbcd14f6c	-0.025550567
89	0x3dba95f8	0.091106355
90	0x3de9c5eb	0.11414703
91	0x3da1d36c	0.07901654
92	0xbe5d5dbd	-0.2161779
93	0xbe3c67e0	-0.18399
94	0x3df5045b	0.11963721
95	0xbbbbc66a	-0.00573044
96	0x3eb0371c	0.34417045
97	0xbe83f663	-0.25773916
98	0xbe8099df	-0.25117394
99	0xbcac8b9e	-0.021062668
100	0x3cd83413	0.026392018
101	0x3dc8642e	0.09784733
102	0xbd24293d	-0.04007839
103	0xbb75ab14	-0.0037486004
104	0x3e59509a	0.21222153
105	0xbdf2bef7	-0.1185283
106	0x3d85d019	0.06533832
107	0xbe3c4751	-0.1838658
108	0xbd24fc13	-0.04027946
109	0xbd7c0379	-0.06152675
110	0x3daab1d8	0.08334702
111	0xbe7a6ffc	-0.24456781
112	0x3d707b25	0.05871119
113	0xbe708200	-0.23487091
114	0xbd149ffa	-0.036285378
115	0xbd8f8543	-0.070078395
116	0xbe37bc37	-0.17942892
117	0xbd0015d3	-0.031270813
118	0xbd831bcd	-0.06401787
119	0xbc853fb3	-0.016265726
120	0x3d8a1702	0.0674267
121	0xbdd50242	-0.10400821
122	0x3ce98898	0.028507516
123	0xbd976d54	-0.073938996
124	0xbe18f489	-0.14937033
125	0x3dcaded3	0.099057816
126	0x3e8d5869	0.27606514
127	0xbca99375	-0.020700196

actor.2.weight f4 [128, 128]
0	0x3df1f165	0.118136205
1	0x3ddb7b8d	0.10716925
2	0xbe12b070	-0.14325118
3	0x3e6315d8	0.22176301
4	0xbda8b413	-0.082374714
5	0xbe64f08e	-0.2235739
6	0x3dbf2962	0.09334065
7	0x3d2c4aff	0.04206371
8	0xbcfbdce5	-0.03074498
9	0xbe104476	-0.14088616
10	0xbe45e828	-0.19326842
11	0xbd29698b	-0.04136042
12	0xbe33f10e	-0.17572424
13	0xbd51a5d4	-0.051183537
14	0xbed24479	-0.41067865
15	0xbcc4bfb1	-0.024017187
16	0x3e7d4162	0.24731973
17	0xbd46fe5b	-0.048582416
18	0xbe4428fc	-0.1915626
19	0xbe0c407b	-0.13696472
20	0xb983f6dc	-0.00025170192
21	0xbdf10f1f	-0.11770462
22	0xbeab3f4b	-0.33446726
23	0xbe0374d0	-0.12837529
24	0x3deffd86	0.11718278
25	0xbdb6cad9	-0.08925409
26	0x3daa50b9	0.08316178
27	0x3cff75a7	0.03118403
28	0xbf00b92f	-0.5028257
29	0xbcdfe9fa	-0.027333248
30	0xbd4b4af9	-0.049632046
31	0xbdd31f9a	-0.10308762
32	0x3bfb763e	0.0076740077
33	0x3deca06a	0.11554034
34	0xbde75eed	-0.112974025
35	0x3d1563e7	0.036472227
36	0x3d895876	0.06706326
37	0x3db2d2d4	0.087316185
38	0x3d3c0560	0.045903563
39	0x3e1a4f9b	0.1506943
40	0xbd3ffac3	-0.046870004
41	0x3dc9ac4d	0.09847317
42	0xbcfbe4ec	-0.030748807
43	0xbce5c28d	-0.02804687
44	0x3e8af2f6	0.2713849
45	0x3d75722b	0.059923332
46	0xbe7b3eca	-0.24535671
47	0xbca6a61f	-0.020342885
48	0x3ab611fb	0.0013890857
49	0xbcc3b05b	-0.023887804
50	0xbd6c4eb6	-0.057692252
51	0xbe0598cd	-0.1304657
52	0xbce0be3f	-0.027434466
53	0x3e059609	0.13045515
54	0xbcd348fb	-0.025791636
55	0xbe41ec8e	-0.18937895
56	0xbdb41db5	-0.08794729
57	0xbee359e7	-0.44404528
58	0x3e1ff9aa	0.15622583
59	0x3da82bc4	0.08211473
60	0xbe2c9b3c	-0.16856092
61	0xbe33b424	-0.17549187
62	0xba8e235b	-0.0010844277
63	0xbd92ed51	-0.07174171
64	0xbe9a551e	-0.30143064
65	0xbdb9fe18	-0.09081668
66	0x3e0074f7	0.12544619
67	0xbec09878	-0.37616324
68	0x3dc2e3b2	0.09516086
69	0xbdd7d3c3	-0.10538437
70	0xbee57cab	-0.44821677
71	0xbd1b49f3	-0.03791232
72	0xbde401f4	-0.11133185
73	0x3e94d7fa	0.29071027
74	0xbe806033	-0.25073394
75	0x3df1543d	0.11783645
76	0xbda60549	-0.08106477
77	0xbd144118	-0.03619489
78	0x3dab743c	0.08371779
79	0xbc139bbe	-0.0090093
80	0xbef5d56c	-0.4801439
81	0x3d7ed227	0.062212136
82	0xbdd0cbd4	-0.10195127
83	0xbd85a6a0	-0.06525922
84	0xbe62e2e6	-0.22156867
85	0xbe9ef926	-0.3104946
86	0x3dbe3344	0.09287122
87	0xbce0ce8a	-0.027442235
88	0xbd256a15	-0.04038437
89	0xbeda406d	-0.42627278
90	0xbe149327	-0.14509259
91	0x3e47e276	0.19519982
92	0x3e7a36b4	0.2443493
93	0xbd18bf95	-0.037292082
94	0x3e0c976b	0.13729636
95	0xbd614cd5	-0.055004913
96	0xbda69bc5	-0.081351794
97	0x3e96b72a	0.29436618
98	0x3e9aaf7e	0.30212015
99	0xbdfb9c11	-0.12285627
100	0x3ccbf5fc	0.024897568
101	0xbd39e52f	-0.045384582
102	0xbe8635f3	-0.26213035
103	0x3cdfe51e	0.027330931
104	0xbe928446	-0.28616542
105	0x3d4c97cd	0.049949456
106	0xbddcdd2b	-0.10784372
107	0xbd1f5b4f	-0.038905438
108	0x3e824cf7	0.25449345
109	0x3d1b6c5f	0.037945148
110	0xbf0aa545	-0.5415843
111	0xbeace14c	-0.33765638
112	0xbe228896	-0.15872416
113	0xbeae232e	-0.34011215
114	0xbcec85ba	-0.02887236
115	0xbd58da24	-0.05294241
116	0x3e172c27	0.14762937
117	0xbe86ffd1	-0.26367047
118	0x3e15bcd6	0.14622816
119	0xbd9dfd6b	-0.07714351
120	0xbe1a50e8	-0.15069926
121	0x3d6eb9f8	0.058282822
122	0x3ea8c9e1	0.3296652
123	0xbde2dc47	-0.11077171
124	0xbf01fc2c	-0.5077541
125	0xbddf13b6	-0.108924314
126	0xbea0b43f	-0.31387517
127	0x3d3eef30	0.046614826
128	0x3e02848b	0.12745874
129	0xbdad5990	-0.08464348
130	0xbd988211	-0.07446683
131	0x3e0a52cc	0.13508147
132	0xbd8fd551	-0.07023109
133	0xbe74d636	-0.2390984
134	0x3dd593e0	0.104285955
135	0x3d142d28	0.036175877
136	0xbe234792	-0.1594527
137	0xbe0e4483	-0.13893323
138	0xbad342f2	-0.0016117974
139	0x3d81ac1b	0.06331655
140	0xbdc874e1	-0.09787918
141	0x3dd7e9a8	0.10542613
142	0xbe561e21	-0.20909931
143	0x3d63aac7	0.055582788
144	0xbd56f1a5	-0.052476544
145	0xbe2ecc07	-0.17070018
146	0xbda38087	-0.07983499
147	0xbe3fe867	-0.18740998
148	0xbd50590f	-0.050866183
149	0xbd2247eb	-0.039619368
150	0xbdd11ac8	-0.10210186
151	0xbd93b178	-0.07211584
152	0xbc83042d	-0.015993202
153	0xbe0ce3fa	-0.13758841
154	0x3dcbbe7f	0.099484436
155	0xbb8030b5	-0.0039120563
156	0x3cb12277	0.02162288
157	0xbdad6c15	-0.08467881
158	0xbecf0c81	-0.40439227
159	0x3ca7c003	0.0204773
160	0x3e892411	0.2678533
161	0xbe8e342c	-0.2777418
162	0xbd51b907	-0.051201846
163	0xbd05de04	-0.032682434
164	0xbd90dbc2	-0.070731655
165	0xbe04cf4d	-0.12969704
166	0xbdc52d8f	-0.0962783
167	0x3e13d8cb	0.14438169
168	0x3e08a4df	0.13344143
169	0xbc0824ca	-0.008309552
170	0xbd8a5d26	-0.06756048
171	0x3d60a716	0.054846846
172	0xbd991d66	-0.074763104
173	0xbc2296b5	-0.009923627
174	0xbe390eca	-0.18072048
175	0x3e278cf2	0.1636236
176	0xbbfd19a2	-0.007724003
177	0xbea87ecd	-0.3290924
178	0x3d319aee	0.043360643
179	0xbe03507e	-0.12823674
180	0xbe6e496d	-0.23270197
181	0xbccf354f	-0.025293974
182	0xbd8cfb7f	-0.068839066
183	0xbd2f54a5	-0.042805333
184	0xbd943b07	-0.07237821
185	0xbced83a8	-0.028993443
186	0x3d3c41bb	0.045961123
187	0xbd5dde23	-0.054166924
188	0xbe4e373e	-0.2013826
189	0x3d7c69cb	0.06162433
190	0xbe39a40e	-0.18128988
191	0xbe537d9a	-0.20653382
192	0xbdd1f390	-0.10251534
193	0xbd71b2c0	-0.05900836
194	0xbe4802e3	-0.19532351
195	0xbc9ec566	-0.019381236
196	0xbcbb1a29	-0.022839623
197	0x3d8a8217	0.06763094
198	0x3e0f98c4	0.14023119
199	0xbd5d2554	-0.053990677
200	0x3e8e3a48	0.2777884
201	0x3d33e853	0.043922734
202	0xbc117a0a	-0.008879194
203	0xbe078e9a	-0.13237992
204	0xbe38c406	-0.18043527
205	0xbe10a2cd	-0.14124604
206	0xbd4496c4	-0.047995344
207	0x3db3c2da	0.08777399
208	0x3c2b9afe	0.010473965
209	0x3e40948b	0.18806665
210	0xbe529ecc	-0.20568389
211	0xbe4edc16	-0.20201144
212	0xbe1a7eab	-0.15087382
213	0xbd0dea46	-0.03464725
214	0xba15150c	-0.0005687035
215	0xbdfb94a2	-0.12284209
216	0x3d83b89d	0.064316966
217	0x3b888166	0.004165816
218	0xbe2aa822	-0.166657
219	0xbd214a69	-0.039377604
220	0x3dda42ac	0.10657248
221	0xbed4d3ec	-0.41567934
222	0x3d9fac33	0.07796516
223	0x3d2baf61	0.0419153
224	0x3c8366ac	0.016040169
225	0xbd265d71	-0.040616456
226	0xbd310528	-0.043217808
227	0xbcafbdc5	-0.021452794
228	0x3e13d026	0.14434871
229	0xbe31cbf4	-0.17362958
230	0x3e473be1	0.19456436
231	0x3cc3a413	0.023881948
232	0xbc1dbd1a	-0.009627605
233	0x3d347910	0.044060767
234	0xbe3e915f	-0.18610142
235	0x3df3e2a6	0.11908464
236	0xbdaba804	-0.08381656
237	0x3d65eec1	0.056135897
238	0xbd629f26	-0.055327557
239	0xbe119740	-0.14217854
240	0xbd1b0266	-0.037844084
241	0xbc4122ae	-0.011788053
242	0xbc2c6588	-0.010522254
243	0x3d88d4b5	0.06681196
244	0x3c7cfffe	0.015441893
245	0xbe2f5a87	-0.17124377
246	0x3c0999ba	0.008398468
247	0xbda5fb87	-0.08104616
248	0x3e5a32ff	0.21308516
249	0x3e205f9c	0.15661472
250	0xbddf7703	-0.109113716
251	0x3e70c54a	0.2351276
252	0x3e1f9dcb	0.15587537
253	0x3e2824dc	0.1642031
254	0x3e9cfc7c	0.3066138
255	0xbdb6f2e7	-0.08933049

actor.2.bias f4 [128]
0	0xbeac97a7	-0.33709452
1	0xbd0a6a5b	-0.033792835
2	0xbe2154ca	-0.15755
3	0xbd96eb7a	-0.07369132
4	0xbe69ef06	-0.22845086
5	0xbebaf003	-0.3651124
6	0xbd455797	-0.048179235
7	0xbe8ff5cc	-0.28117216
8	0x3e417992	0.18894032
9	0xbea9fb4e	-0.33199543
10	0xbd2f5159	-0.04280219
11	0xbd59594b	-0.053063672
12	0xbf204c75	-0.62616664
13	0xbea0fea8	-0.31444287
14	0xbf026c22	-0.5094625
15	0xbe1fff9a	-0.15624848
16	0xbd9f034a	-0.07764299
17	0xbeb2beda	-0.34911233
18	0xbe643f58	-0.22289789
19	0xbd0eb33d	-0.034838904
20	0xbdf2889d	-0.11842463
21	0xbec59ae2	-0.3859473
22	0xbec815f2	-0.39079243
23	0xbdc97412	-0.09836592
24	0x3d15f494	0.0366102
25	0xbe0301f8	-0.1279372
26	0xbda4479a	-0.080214694
27	0xbed80658	-0.4219234
28	0x3d41b6fc	0.047293648
29	0x3e27ee0e	0.16399404
30	0x3e4f3cf8	0.20238101
31	0x3d0c14a7	0.034199383
32	0x3d40322e	0.046922855
33	0xbc36c28a	-0.01115478
34	0xbf4287f8	-0.7598872
35	0xbde00780	-0.109389305
36	0xbe1ae633	-0.15126877
37	0x3d17c8b0	0.037056625
38	0xbe7d14cc	-0.24714965
39	0xbea0369d	-0.31291667
40	0xbd58c300	-0.05292034
41	0x3db22864	0.0869911
42	0x3df098ad	0.117478706
43	0xbe3190a0	-0.17340326
44	0xbd8e4a61	-0.069477804
45	0xbe644a8c	-0.22294062
46	0x3e15de67	0.14635621
47	0xbea3f963	-0.32026204
48	0xbe9af602	-0.30265814
49	0xbdb3a068	-0.087708294
50	0xbea5da0d	-0.32392922
51	0xbe4f8228	-0.20264494
52	0xbee6cd66	-0.45078582
53	0xbe8bdab3	-0.27315292
54	0x3e2d0f4c	0.16900367
55	0x3d5d66a7	0.054052975
56	0x3dafcd86	0.08584122
57	0xbddb7705	-0.107160605
58	0xbeb5de3d	-0.35521117
59	0xbe78420b	-0.24243943
60	0xbd54d2ca	-0.051958837
61	0xbf44ffb4	-0.7695267
62	0xbe25fa32	-0.16208723
63	0xbe778fba	-0.24175921
64	0x3d73b116	0.059495054
65	0xbdae4aea	-0.085103825
66	0xbdbf6a0c	-0.09346399
67	0xbeb8cc91	-0.36093572
68	0xbe760151	-0.2402394
69	0xbe40d34d	-0.18830605
70	0xbeaadfa9	-0.33373764
71	0xbeb65dc0	-0.356184
72	0xbe29ef51	-0.16595198
73	0x3cc07291	0.02349213
74	0xbe83a37d	-0.2571067
75	0xbeb1399d	-0.34614268
76	0x3c825837	0.015911205
77	0xbe7e154a	-0.24812809
78	0xbd84092f	-0.06447064
79	0xbdfd712f	-0.12375104
80	0xbd6a6a25	-0.057230134
81	0xbdfa11dd	-0.122104384
82	0xbea06b52	-0.3133188
83	0x3c8e6a9e	0.017384823
84	0xbe3fc990	-0.18729234
85	0xbf04950c	-0.5178993
86	0xbcf4ec16	-0.02989773
87	0xbea1dd66	-0.31614226
88	0xbe8ca7b3	-0.27471694
89	0xbda53836	-0.08067362
90	0xbd9e9ca9	-0.07744724
91	0xbe993eb2	-0.29930645
92	0x3b0ef4f0	0.0021813475
93	0xbea5e1da	-0.32398874
94	0x3d39c65e	0.045355193
95	0xbea1afbf	-0.31579396
96	0xbdbe98b0	-0.093064666
97	0xbeac6555	-0.3367106
98	0x3da8fb1c	0.0825102
99	0xbea181e7	-0.3154442
100	0xbe427dad	-0.18993254
101	0xbe1c188a	-0.15243736
102	0xbeaece52	-0.34141785
103	0xbf074c64	-0.5285094
104	0xbd8ebf0e	-0.069700345
105	0xbd1ea9e4	-0.03873624
106	0xbdd083f9	-0.10181422
107	0xbeb507ee	-0.35357612
108	0x3cf2a2ea	0.0296187
109	0xbebf85b5	-0.37406698
110	0xbdc8d0a6	-0.098054215
111	0xbd72aaea	-0.059245028
112	0xbd787b94	-0.06066473
113	0x3d49ed31	0.04929847
114	0xbe3d52d1	-0.18488623
115	0xbd97fe1a	-0.07421513
116	0xbe5668da	-0.20938435
117	0xbe9f680d	-0.31134072
118	0xbce68b2b	-0.028142532
119	0xbd1d75bc	-0.03844236
120	0xbea6e3a7	-0.3259556
121	0xbef7fc0c	-0.48434484
122	0xbe780df0	-0.24224067
123	0xbd2fcd1c	-0.042920217
124	0x3e2ac81a	0.16677895
125	0xbec3e7fe	-0.38262933
126	0xbda617d8	-0.081100166
127	0xbe912e62	-0.283557

actor.4.weight f4 [128, 128]
0	0x3e6ce920	0.23135805
1	0x3e2eb220	0.17060137
2	0x3cc37a35	0.023861984
3	0xbeb84d93	-0.35996684
4	0x3e11df02	0.14245227
5	0x3dfdf285	0.123997726
6	0xbe8b6e18	-0.27232432
7	0xbd76f7c9	-0.0602949
8	0x3badc0c2	0.0053025195
9	0xbd88545f	-0.066567175
10	0xbdfb7b1d	-0.12279341
11	0xbd41a0c0	-0.047272444
12	0xbe08a3d3	-0.13343744
13	0xbdbe5de5	-0.09295253
14	0x3d2744d5	0.040837128
15	0x3e29d2ac	0.16584271
16	0xbe33810f	-0.175297
17	0x3d99ef71	0.07516373
18	0xbe21ed91	-0.1581328
19	0x3d28fc89	0.04125646
20	0x3e525d3c	0.20543379
21	0xbd04e299	-0.032442663
22	0xbdb02bbe	-0.08602093
23	0x3c77d3e1	0.015126199
24	0x3dd34e48	0.10317665
25	0x3986922d	0.0002566738
26	0xbccac2e9	-0.024751144
27	0x3d9b69b0	0.07588518
28	0xbc66f467	-0.014096356
29	0xbc4570f7	-0.012050859
30	0x3d6ab631	0.057302658
31	0x3d43ae04	0.047773376
32	0x3dac3979	0.084093995
33	0xbdbcb458	-0.09214085
34	0x3e496308	0.19666684
35	0xbca57172	-0.020195697
36	0x3ca1c9fc	0.019749634
37	0x3e03381b	0.12814371
38	0x3c227e95	0.009917875
39	0xbd5d4cdc	-0.054028377
40	0xbe390628	-0.18068755
41	0xbe5e4b5e	-0.21708438
42	0xbe9c3b15	-0.30513826
43	0xbd14aae0	-0.03629577
44	0x3ce89cd8	0.028395101
45	0xbde28872	-0.11061181
46	0xbd9d815e	-0.076906905
47	0xbdeb78ac	-0.11497626
48	0xbd8a1abd	-0.06743381
49	0xbe15353b	-0.14571087
50	0x3d9697f5	0.07353202
51	0xbe368f2a	-0.1782805
52	0x3c2ec32b	0.010666649
53	0x3e13c73d	0.14431472
54	0xbe3bd37f	-0.18342398
55	0xbe5cdc6a	-0.21568456
56	0x3e45157e	0.1924648
57	0x3e0c9f8c	0.13732737
58	0x3ca34067	0.01992817
59	0x3cddf7bd	0.02709567
60	0x3df9b98a	0.12193592
61	0x3df689ce	0.12038003
62	0xbdf0f39c	-0.11765215
63	0x3e1bbab5	0.15207942
64	0xbc98a5c7	-0.018633736
65	0x3d82fd2d	0.06395946
66	0x3db3fcca	0.0878845
67	0x3da4984c	0.08036861
68	0x3e16ce87	0.14727221
69	0xbc4971f3	-0.012295234
70	0x3c9aa2ba	0.018876422
71	0x3cf56261	0.029954137
72	0x3cb494d7	0.022043629
73	0x3cb50433	0.022096729
74	0xbd088ba9	-0.033336315
75	0x3da3e7cb	0.080031954
76	0xbe545900	-0.20737076
77	0x3cfef94e	0.031124737
78	0xbd4d9595	-0.05019148
79	0x3de2c7b2	0.11073245
80	0xbe1f3c89	-0.15550436
81	0xbdb3f53b	-0.087870084
82	0x3cfb467e	0.030673262
83	0xbe2ea0b4	-0.17053491
84	0x3e5298e0	0.2056613
85	0x3d5e186a	0.0542225
86	0xbe847021	-0.25866798
87	0xba937276	-0.0011249322
88	0xbd9c4023	-0.076294206
89	0xbdeedf28	-0.116636574
90	0xbe049072	-0.12945727
91	0xbe29327c	-0.16523165
92	0xbd557202	-0.05211068
93	0x3e61b431	0.22041394
94	0xbe02ff29	-0.12792648
95	0x3b83619d	0.004009439
96	0xbd1a019d	-0.037599195
97	0x3dda8e87	0.10671716
98	0x3d65da3f	0.05611634
99	0xbd454459	-0.048160885
100	0x3ea8648c	0.3288921
101	0x3cc212ac	0.023690544
102	0x3d67462b	0.0564634
103	0x3d741ea4	0.059599534
104	0x3ee162d1	0.44020703
105	0x3d3d3e35	0.046201903
106	0x3d12b0cd	0.03581314
107	0xbe229fce	-0.15881273
108	0xbc85f808	-0.016353622
109	0xbe483253	-0.19550447
110	0xbded43fc	-0.115852326
111	0x3eaa559f	0.3326845
112	0x3cdef6c3	0.027217275
113	0xbdb5106c	-0.08841023
114	0x3e3a8739	0.18215646
115	0xbe8299aa	-0.2550786
116	0xbe5523af	-0.20814393
117	0xbd7cb284	-0.061693683
118	0x3c395c41	0.011313499
119	0x3da7268b	0.08161648
120	0xbc97edb4	-0.018545963
121	0x3e4659c3	0.19370179
122	0xbd5d3b4f	-0.05401164
123	0xbe687ce6	-0.22703895
124	0xbe60542f	-0.21907113
125	0x3d18e9a7	0.037332203
126	0x3cf36899	0.029712962
127	0x3d0671d6	0.032823406
128	0x3e1a66c2	0.15078261
129	0xbd825e08	-0.06365591
130	0xbe37e252	-0.17957428
131	0x3e261931	0.16220547
132	0xbe82e99e	-0.2556886
133	0xbe2cb763	-0.16866831
134	0x3df265c3	0.11835816
135	0xbd378def	-0.044813093
136	0xbd29d717	-0.04146489
137	0xbe8d40dd	-0.2758855
138	0xbdc3ad34	-0.0955452
139	0xbdcd4ed4	-0.10024801
140	0x3d83b5f2	0.06431188
141	0xbc881b50	-0.016614586
142	0x3ddf7bee	0.109123096
143	0x3d4e3619	0.05034456
144	0x3cd039c0	0.025418162
145	0xbb2cc721	-0.0026363807
146	0xbdd87032	-0.105682746
147	0x3d86c6d3	0.065808915
148	0x3d51d9b4	0.05123301
149	0xbe01619e	-0.12634894
150	0x3d46fe88	0.048582584
151	0xbd2c3e26	-0.042051457
152	0xbe1cfc97	-0.1533073
153	0xbe570ebd	-0.21001716
154	0x3daa3fa1	0.083129175
155	0xbb827f81	-0.003982485
156	0x3e054ffc	0.13018793
157	0x3c5e39e1	0.013563604
158	0xbd17843c	-0.036991343
159	0xbe24ca00	-0.16092682
160	0xbdc9b3fe	-0.09848784
161	0xbdf61249	-0.12015206
162	0x3d07d897	0.03316554
163	0xbac93ed4	-0.0015353807
164	0xbce07a9c	-0.027402215
165	0x3d2588cb	0.04041366
166	0xbddee2d6	-0.10883109
167	0xbccfe839	-0.025379287
168	0x3b066277	0.0020505467
169	0xbe6fd2d4	-0.23420268
170	0xbda8fe6b	-0.082516514
171	0x3ea0a06a	0.31372386
172	0xbe9469d2	-0.28986984
173	0x3da4baf8	0.08043474
174	0xbd038767	-0.03211155
175	0xbe30a798	-0.17251432
176	0xbea0b189	-0.3138545
177	0xbe2796b9	-0.1636609
178	0x3d735883	0.059410583
179	0x3e551b18	0.20811117
180	0x3ca2e4ef	0.019884555
181	0xbe2f756f	-0.17134641
182	0xbe7d9c42	-0.24766639
183	0xbe2bf339	-0.16792001
184	0xbdc7f96d	-0.09764371
185	0xbeb66a51	-0.35627988
186	0xbde36aae	-0.11104332
187	0x3e339ca0	0.17540216
188	0x3e5bbc5e	0.21458575
189	0xbc2747bb	-0.010209973
190	0xbe4ba210	-0.1988604
191	0x3c4fa237	0.012672952
192	0x3da4f80c	0.08055124
193	0xbe847b3b	-0.25875267
194	0xbe7864ec	-0.24257249
195	0x3d14e5e7	0.036352064
196	0xbcb417fe	-0.021984097
197	0x3e0c84f5	0.13722594
198	0x3dc058b9	0.093919225
199	0xbdc5a142	-0.09649898
200	0xbe03aecf	-0.12859653
201	0x3a6d9c5d	0.00090641325
202	0x3e8f34a9	0.27969864
203	0x3cbc85c3	0.023013001
204	0x3db8ff3d	0.09033058
205	0xbd0b72fb	-0.0340452
206	0xbd805b18	-0.06267375
207	0x3ec892c7	0.39174482
208	0x3c8221ef	0.015885321
209	0xbecd244e	-0.4006676
210	0xbdf9ee91	-0.12203706
211	0xbb16be0b	-0.0023001458
212	0xbdf02ec1	-0.117276676
213	0x3e016756	0.12637076
214	0x3d8b1c14	0.06792465
215	0xbdd7efb1	-0.105437644
216	0xbb5898bf	-0.0033050028
217	0x3d0d1648	0.034445077
218	0xbe0d525d	-0.1380095
219	0xbe6fed8e	-0.23430464
220	0xbd935f4d	-0.071959116
221	0x3e238ef1	0.15972497
222	0x3b630ff5	0.0034646962
223	0x3de058d3	0.10954442
224	0xbd99be49	-0.07506997
225	0xbe6e7a30	-0.23288798
226	0xbda3d348	-0.07999283
227	0xbd46bc99	-0.048519704
228	0xbd9d5fa7	-0.0768426
229	0x3cfeb8ad	0.03109392
230	0x3d0130bb	0.031540614
231	0x3de32be6	0.11092357
232	0xbd7f56e3	-0.06233872
233	0x3e82e423	0.2556468
234	0xbc30be22	-0.010787519
235	0x3c894ddd	0.01676076
236	0x3dcadc59	0.09905309
237	0xbe749865	-0.23886259
238	0x3ccd3391	0.025049003
239	0xbc28ee2d	-0.010310692
240	0x3e8e5539	0.27799395
241	0x3d42ccf6	0.047558747
242	0xbd914b30	-0.07094419
243	0xbe290fbd	-0.1650991
244	0xbe43b292	-0.19111088
245	0x3e099c48	0.13438523
246	0x3dd18987	0.102313094
247	0x3e209e0f	0.15685295
248	0xbf260462	-0.6485044
249	0xbdfe11fc	-0.12405774
250	0x3dd9ab54	0.10628381
251	0xbd133d0d	-0.035946894
252	0xbbfd6cb9	-0.007733908
253	0xbdd63890	-0.10460007
254	0x3c6295ef	0.013829692
255	0xbe7d0298	-0.2470802

actor.4.bias f4 [128]
0	0xbe7384d4	-0.23781139
1	0xbe4177e7	-0.18893395
2	0xbe8b42b8	-0.2719934
3	0x3e03db20	0.12876558
4	0xbe955a50	-0.29170465
5	0xbec4de0d	-0.3845066
6	0xbe86011f	-0.2617273
7	0xbdca5383	-0.0987921
8	0xbebed3cc	-0.37270963
9	0xbd3ba111	-0.0458079
10	0xbf400b72	-0.75017464
11	0xbe06dd72	-0.13170412
12	0xbc313e6a	-0.010818103
13	0xbd997104	-0.07492259
14	0xbe2a3650	-0.16622281
15	0x3d5718b3	0.05251379
16	0xbdfcdb47	-0.12346511
17	0xbcdb1110	-0.026741534
18	0xbe840274	-0.25783122
19	0xbac279e4	-0.0014837352
20	0xbe6a4ea0	-0.22881556
21	0xbe344587	-0.17604648
22	0x3e5ece76	0.21758446
23	0xbd9d4667	-0.07679444
24	0xbe202b61	-0.15641548
25	0xb9b2c035	-0.0003409401
26	0xbdfcb85e	-0.12339853
27	0x3daad9a7	0.08342295
28	0xbeb5b9f6	-0.3549344
29	0xbec0ffea	-0.37695247
30	0xbe9cfb89	-0.30660656
31	0xbcdc6f9a	-0.026908685
32	0xbeb98fb4	-0.3624245
33	0xbe427ba7	-0.18992482
34	0xbe8fc071	-0.2807651
35	0x3d27465f	0.040838595
36	0x3dabd708	0.08390623
37	0xbd9747c3	-0.07386734
38	0xbac5aeec	-0.0015082038
39	0xbeb147c4	-0.34625065
40	0xbd4b3541	-0.049611334
41	0xbe48eb32	-0.1962097
42	0xbe8001ce	-0.25001377
43	0xbe1d8d2a	-0.15385881
44	0xbe8a0ede	-0.26964468
45	0xbceeec64	-0.029165454
46	0xbe1c5ada	-0.15269032
47	0x3db04b42	0.08608104
48	0xbe838041	-0.25683787
49	0xbe178fce	-0.14800951
50	0xbe9a1a4a	-0.30098182
51	0xbed8c612	-0.42338616
52	0xbe8b2f89	-0.27184704
53	0xbe707c19	-0.2348484
54	0xbe07ad20	-0.13249636
55	0xbdf2e0e5	-0.118593015
56	0xbebfc5e2	-0.3745566
57	0xbd840f35	-0.06448213
58	0xbcf204f3	-0.029543376
59	0xbdea74db	-0.1144807
60	0xbeebdc44	-0.46066487
61	0xbcba72c2	-0.022759799
62	0xbecb40ce	-0.3969788
63	0x3c95bf3a	0.01827966
64	0xbe51363e	-0.20430848
65	0xbe9648e5	-0.2935249
66	0xbe39ddf3	-0.18151073
67	0xbdc1e81b	-0.09468099
68	0xbdbdecd5	-0.09273688
69	0xbec31306	-0.3810045
70	0xbe8c67ee	-0.27423042
71	0xbe81d114	-0.25354826
72	0xbdc18bb0	-0.094504714
73	0xbe49848b	-0.19679467
74	0xbbd70438	-0.006561782
75	0xbe470026	-0.1943365
76	0xbf2d33b2	-0.67657006
77	0xbe1d25bd	-0.15346427
78	0x3d9b953b	0.07596823
79	0x3c65ad71	0.014018402
80	0xbcba4944	-0.022740014
81	0xbe85d29a	-0.2613724
82	0xbe98606a	-0.29761058
83	0xbde4410d	-0.1114522
84	0xbdcc7e86	-0.0998507
85	0xbd317d9e	-0.04333269
86	0xbe7056a9	-0.23470558
87	0xbdccb876	-0.09996121
88	0xbeb91c0d	-0.36154214
89	0xbdab3d8e	-0.0836135
90	0xbec2b4aa	-0.3802846
91	0xbec785ca	-0.3896926
92	0xbe6d56e8	-0.23177683
93	0xbdc1acb4	-0.09456769
94	0xbf2e290f	-0.680314
95	0xbdc22da3	-0.09481361
96	0xbe4146e4	-0.18874699
97	0xbe080e35	-0.1328667
98	0xbe788d98	-0.24272764
99	0xbd2c4948	-0.042062074
100	0xbe61908d	-0.22027798
101	0x3b9fefac	0.004880866
102	0xbc36a6be	-0.011148153
103	0xbe5f417b	-0.21802323
104	0xbe39dc4e	-0.18150446
105	0x3bf4dbc9	0.0074724895
106	0xbdb93f14	-0.09045234
107	0xbe1368a2	-0.14395383
108	0xbe8a3eec	-0.2700113
109	0x3d88ae1b	0.06673833
110	0xbdb7a219	-0.089664645
111	0xbe69d645	-0.22835644
112	0xbf3feee0	-0.7497387
113	0xbe01a376	-0.12660012
114	0xbe36e2fe	-0.17860028
115	0xbee480ce	-0.4462952
116	0x3d80bc89	0.0628596
117	0xbe40252e	-0.18764183
118	0xbe893cab	-0.26804098
119	0xbdc201dc	-0.09473011
120	0x3dbb617b	0.09149452
121	0xbd8359b5	-0.06413595
122	0xbf2a95d3	-0.66634864
123	0xbe92f9f2	-0.28706318
124	0xbdc712af	-0.097203605
125	0xbe1dea63	-0.15421443
126	0xbe571a04	-0.21006018
127	0xbda315b2	-0.079631224

actor.6.weight f4 [12, 128]
0	0xbc0cff64	-0.008605812
1	0x3c8677e9	0.0164146
2	0x3c3add82	0.011405351
3	0x3c87b53e	0.016565915
4	0x3c0ed3ef	0.008717521
5	0x3d16f6bd	0.0368564
6	0xbd964306	-0.073370025
7	0xbc2f5839	-0.010702186
8	0x3c4e15e6	0.012578463
9	0x3bd14331	0.0063861837
10	0x3c2ceb06	0.010554081
11	0xbce4eab8	-0.027943954
12	0xbc8a80ae	-0.016907062
13	0xbd2ed75b	-0.042685848
14	0x3d08f8bf	0.033440348
15	0x3ca45d64	0.020064063
16	0x3d0868b5	0.03330298
17	0xbc9fb961	-0.019497575
18	0xbcb1b538	-0.021692857
19	0xbab7f37d	-0.0014034357
20	0xbc545576	-0.012959829
21	0x3d1d8e38	0.03846571
22	0x3cce37bc	0.02517306
23	0x3cae45bf	0.021273492
24	0x3b9bfb83	0.004760207
25	0xba600826	-0.0008546136
26	0x3d52c461	0.051456813
27	0x3b8f7088	0.0043774284
28	0xbd0b6367	-0.034030344
29	0x3ca4232f	0.020036308
30	0xbbc1a012	-0.0059089744
31	0xbc1f0da2	-0.00970784
32	0xbd2771be	-0.040879957
33	0xbcf0a2f9	-0.029374586
34	0xba6da8d1	-0.0009065988
35	0x3cdcf712	0.026973281
36	0xbcf15cdc	-0.029463224
37	0xbc5596c6	-0.0130364355
38	0x3b1f8ad4	0.0024344223
39	0x3c4996dd	0.012304035
40	0x3c248652	0.01004179
41	0x3c4d5e94	0.012534756
42	0xbc8d43f2	-0.017244313
43	0x3a8d1861	0.0010764712
44	0x3cc21537	0.023691757
45	0xbc3899cc	-0.011267137
46	0x3ce4232d	0.027848804
47	0xbc2284f5	-0.009919395
48	0x3da51cab	0.080621086
49	0x3ba46b1b	0.005017651
50	0xbb42320a	-0.0029631876
51	0x3c4c14f7	0.01245617
52	0xbdacd400	-0.08438873
53	0x3abf27b3	0.0014583975
54	0xbc17a241	-0.009254993
55	0x3c89cfb7	0.016822679
56	0x3cec5bc2	0.028852347
57	0xbb4e36dd	-0.0031465807
58	0x3c9562d9	0.01823561
59	0x3d8c1107	0.06839185
60	0xbb0b663f	-0.002127066
61	0x3c3cb45f	0.011517613
62	0x3bff6d2b	0.0077949963
63	0xbc7a4007	-0.015274054
64	0x3c475427	0.01216606
65	0xbc58484a	-0.013200829
66	0x3c5231ce	0.012829257
67	0x3c319470	0.010838613
68	0xbc577a69	-0.013151743
69	0xbcb28020	-0.02178961
70	0x3d2629b1	0.040567104
71	0x3b1e0b51	0.0024115632
72	0x3d0bda81	0.03414393
73	0xbaeedbde	-0.0018223485
74	0xbb549cac	-0.0032442017
75	0x3b845a42	0.00403908
76	0xbbdde44b	-0.0067715994
77	0xbca8d2b0	-0.020608276
78	0x3b37e6fb	0.002806126
79	0xbba3dbf7	-0.005000587
80	0xbbf32af2	-0.007420891
81	0xbc577fa1	-0.013152988
82	0x3ce4c6ef	0.02792689
83	0x3c61b02f	0.013774916
84	0xbd682aa2	-0.056681283
85	0xbb8fabbf	-0.0043844874
86	0x3c49a4bb	0.012307341
87	0x3c49fbd6	0.012328109
88	0x3c2bffc2	0.010497989
89	0xbc691e20	-0.014228374
90	0x3cd55446	0.026041161
91	0xbbe7589d	-0.007060124
92	0x3c9833bd	0.018579358
93	0x3ca00353	0.019532835
94	0xbb4ddc1f	-0.003141172
95	0x3c859829	0.016307907
96	0x3a8048de	0.0009787341
97	0x3ce8dc7b	0.028425446
98	0xbc5aabb0	-0.013346598
99	0x3ccb13d7	0.024789734
100	0xbc373f90	-0.011184588
101	0xbc838b72	-0.016057704
102	0xbcb0cd9e	-0.02158242
103	0xbca02347	-0.019548072
104	0xbd68ab2f	-0.05680388
105	0xbc4fee39	-0.012691074
106	0x39e7c5d6	0.00044207153
107	0x3bbaa22b	0.0056956015
108	0xbd781ddb	-0.060575347
109	0x3b1f2719	0.0024284779
110	0xbc4a77cd	-0.012357664
111	0xbc928b97	-0.017888827
112	0xba48327b	-0.00076369167
113	0x3ca566d6	0.020190638
114	0x3919bc61	0.00014661394
115	0x3bb1a0b7	0.00542077
116	0xbd0cdae9	-0.034388456
117	0xbc641ae9	-0.0139224315
118	0x3aa0187d	0.0012214329
119	0x3c86f6c6	0.016475093
120	0xbc17b0e4	-0.009258483
121	0x3bcedb60	0.0063127726
122	0xbbeecb59	-0.0072874245
123	0x3da1e3a9	0.07904751
124	0x3c7318e0	0.014837474
125	0xbb467949	-0.0030284694
126	0x3d0d05f9	0.034429524
127	0xbc59751d	-0.013272551
128	0x3c5bd8b6	0.013418367
129	0xbc3e8d37	-0.011630348
130	0x3cb56413	0.022142446
131	0x3c11a3f5	0.008889188
132	0xbda26602	-0.07929613
133	0xbc491a25	-0.0122743
134	0x3dac4686	0.08411889
135	0x3b6084b2	0.003425878
136	0xbd1b004e	-0.037842087
137	0x3c565754	0.013082344
138	0x3a89ac2d	0.0010503583
139	0xbbc400d5	-0.0059815445
140	0xbc19b7bb	-0.009382184
141	0xbcaee417	-0.021348996
142	0xb9174533	-0.00014426261
143	0xbcd72020	-0.026260436
144	0x3c57a0fa	0.013160938
145	0x3a5830f5	0.0008247041
146	0xbc3ee202	-0.011650564
147	0xbc376da7	-0.011195577
148	0x3c8f7201	0.017510416
149	0x3ca909d4	0.02063457
150	0xbcc996a7	-0.02460797
151	0x3d2e53ae	0.042560272
152	0xbbd851d0	-0.0066015497
153	0x3c9d6989	0.019215362
154	0xbca67738	-0.02032052
155	0xbb848d91	-0.0040451963
156	0xbc2b5b65	-0.010458802
157	0xbcd238f6	-0.025661927
158	0x3b5fe386	0.0034162714
159	0x3c7da216	0.015480539
160	0xbce8d8f1	-0.028423758
161	0x3d67a5a5	0.056554455
162	0xbcc03130	-0.023460954
163	0xbca293bb	-0.019845834
164	0x3c19c623	0.009385618
165	0xbd0c0551	-0.034184758
166	0xbb34fdd4	-0.0027617114
167	0xbc10a08b	-0.008827339
168	0x3c86e778	0.016467795
169	0x3c9ef64c	0.019404553
170	0x3c4b8cf3	0.012423742
171	0xbce4ac56	-0.027914207
172	0x3a2a35a4	0.00064929784
173	0x3cb1aa61	0.021687688
174	0xbc4cc18c	-0.012497317
175	0x3cf56792	0.029956613
176	0xbd055b83	-0.032557976
177	0xbb22bf4a	-0.0024833255
178	0x3bcd2400	0.006260395
179	0xbbfb572f	-0.007670305
180	0x3d96f3be	0.07370709
181	0xbd0bd23a	-0.034136035
182	0xbc6fe21f	-0.014641314
183	0xbc532827	-0.012887991
184	0x3d28010c	0.041016623
185	0xbccd3f75	-0.025054673
186	0x3c06031d	0.008179453
187	0x3d689bed	0.056789327
188	0xbbc0172a	-0.0058621364
189	0x3b1db42f	0.0024063697
190	0xbc45e219	-0.012077832
191	0x3bb44d38	0.0055023693
192	0xbc8887f1	-0.016666384
193	0xbce6fb9c	-0.028196149
194	0x3c60d5e0	0.013722867
195	0xb980697d	-0.00024492657
196	0xbd075bd2	-0.03304655
197	0x3bef0e4e	0.0072954064
198	0xbdbed49e	-0.09317897
199	0xbb093ea9	-0.002094189
200	0x3c583c4f	0.013197972
201	0xbb86b784	-0.0041112322
202	0x3b74630f	0.0037290489
203	0x3aec85cd	0.0018045247
204	0x3b13f8b8	0.0022578668
205	0xbd1ded6d	-0.038556505
206	0xbac74ce4	-0.001520541
207	0x3c71f115	0.014766951
208	0xbca292a2	-0.01984531
209	0x3c0c87c9	0.008577296
210	0x3c5bae94	0.013408322
211	0xbc89ab9b	-0.01680546
212	0xbd8bd7f5	-0.068283
213	0x3b8eaf42	0.0043543885
214	0xbc96aa16	-0.01839165
215	0xbce9112f	-0.028450577
216	0x3d0dd430	0.034626186
217	0xbc84dd5b	-0.016218832
218	0xbca09716	-0.019603293
219	0x3caffb70	0.0214822
220	0xbc4a536a	-0.012348989
221	0xbc89f9f6	-0.016842823
222	0x3bd0a8b0	0.0063677654
223	0x3c64283f	0.013925611
224	0x3c8f908e	0.017524984
225	0xbaf5a841	-0.001874216
226	0x3c37025a	0.011169994
227	0x3b5ec2b0	0.0033990555
228	0x3c54812d	0.012970251
229	0x3c1d3d51	0.0095971385
230	0x3c3fb217	0.011700175
231	0xbc4c4ec6	-0.012469953
232	0x3cf3eb00	0.029775143
233	0x3d0d0ad0	0.03443414
234	0xbc28ec42	-0.0103102345
235	0x3ce1781c	0.027523093
236	0xbadc6b46	-0.0016816638
237	0xba063574	-0.00051196595
238	0xbbda763d	-0.006666927
239	0xba6cfaf7	-0.0009040082
240	0xbc2e8d17	-0.010653756
241	0xbd524187	-0.051332023
242	0xbd08e3f6	-0.033420525
243	0x3b3ab9eb	0.0028492163
244	0x3c60c347	0.013718433
245	0xbc49b311	-0.012310759
246	0x3d79ffa5	0.061034817
247	0xbc9fbfe4	-0.01950068
248	0xbc870e8e	-0.016486432
249	0x3c44372a	0.011976043
250	0x3bf472de	0.0074599823
251	0xbc0dbfdf	-0.008651703
252	0x3c0ba924	0.008524213
253	0x3c2e0233	0.0106206415
254	0xbacaa620	-0.0015460886
255	0xbbbd5ea5	-0.005779105

actor.6.bias f4 [12]
0	0x3ce45169	0.02787085
1	0xbceffebc	-0.029296272
2	0xbd7d9b37	-0.061915603
3	0x3d81a7ae	0.063308105
4	0xbda65c26	-0.08123045
5	0xbda1de7b	-0.07903763
6	0x3e335bce	0.1751549
7	0x3e35326f	0.1769502
8	0x3eafebc0	0.3435955
9	0x3eaf6566	0.34257048
10	0x3ecdfaec	0.402305
11	0x3ecdb7d6	0.40179318
