tested_policies/go2/2025-09-07_19-13-16_go2_cuncurrent_se/exported/policy.onnx (onnx, 273175 bytes, 8 tensors)

actor.0.weight f4 [128, 260]
000000 0d da bf 3e 67 88 9b 3e 42 41 a1 be 89 68 1c 3d
       0.37471047 0.30377504 -0.314951 0.03818563
000010 61 58 18 3e 86 62 39 bd 59 77 41 bd a0 63 4a be
       0.14877464 -0.045259975 -0.04723296 -0.19764566
000020 98 75 7e 3f 76 99 3a 3e f5 bc 9c 3e 57 cb 68 bd
       0.99398184 0.18222603 0.30612913 -0.056834545
000030 96 ba 0e 3e 87 31 02 3c 9c be c8 3d 0f 72 ff bd
       0.13938364 0.007946379 0.09801981 -0.12472927
000040 4b 02 b1 3c 37 3e 21 3c f6 68 14 3e c0 30 a6 bd
       0.021607539 0.009841493 0.14493164 -0.08114767
000050 72 ad 95 3e a8 34 06 3e db ad 14 bc 9b 2e 7a bd
       0.2923389 0.13106024 -0.0090746535 -0.061079603
000060 f9 35 9f 3c dc 52 37 3d 35 0d 43 be 72 62 ea 3d
       0.019434916 0.044756755 -0.19048007 0.11444558
000070 31 d4 b7 3c 18 24 92 3c 68 bd db 3a e7 54 8c bd
       0.022440048 0.017839476 0.0016764821 -0.06852131
000080 62 3d e2 3c 51 63 1f 3e 5a ec 43 3d 9d 60 9d 3d
       0.02761716 0.1556523 0.047832824 0.07684443
000090 70 f5 61 3e 98 9a 67 bd fe 6d 21 3d c7 bb 85 3d
       0.22066283 -0.056543916 0.039411537 0.06529956
0000a0 4a c4 54 bc 66 26 55 3d 81 64 0c ba 45 b2 b0 bd
       -0.012986252 0.052038573 -0.00053555524 -0.08627752
0000b0 49 2a 13 be 3e c9 8e bd 4d 8a 3a be 94 d3 28 be
       -0.143716 -0.06971978 -0.1821682 -0.1648696
0000c0 22 e5 6d be ab fa 0b be 00 f8 12 be 9a 8d 39 be
       -0.23231938 -0.13669841 -0.14352417 -0.18120423
0000d0 b2 03 c8 3d 42 96 68 3d b6 81 37 be 3e ca 45 3e
       0.0976633 0.056783922 -0.17920575 0.1931543
0000e0 f2 f7 8c 3d a5 be 51 be 6c 93 f3 bc 57 81 1f be
       0.06883229 -0.20482881 -0.029733382 -0.15576683
0000f0 62 63 82 3f 7b 28 f0 3d a5 71 98 3e c0 fc b1 bb
       1.0186579 0.11726471 0.29774204 -0.0054317415
000100 c8 8a a2 3d 52 2b 96 bb 01 28 6e 3c 73 af 58 bd
       0.07936627 -0.004582801 0.014535905 -0.052901696
000110 fc a9 01 bd 0f eb 9b bd fc ae 01 3e f2 7f 85 bd
       -0.03165625 -0.07613193 0.12664407 -0.06518544
000120 e6 61 66 3e cc 45 b9 3d 3e 8e 8b bd 1b d8 95 bd
       0.22498283 0.09046516 -0.0681424 -0.073166095
000130 11 8b 01 bd 01 67 c7 3d d5 42 f6 bd 10 ce aa 3d
       -0.031626765 0.09736443 -0.12024466 0.083400846
000140 b9 8f ae bd 41 52 21 bc 94 81 c0 bd ab 08 c7 3d
       -0.08523507 -0.009846271 -0.09399715 0.0971845
000150 b7 b9 36 bd d1 58 93 3d d9 3b 85 bd 8f e2 91 bc
       -0.044610705 0.07194675 -0.06505556 -0.017808227
000160 dd 50 76 3d 59 5a 01 3e ba dd 6c 3e 16 71 00 3e
       0.06013571 0.12632121 0.23131457 0.12543139
000170 4d a0 e3 3d 5e cd b9 bb 01 93 43 bc 9b f9 0a 3e
       0.11114559 -0.0056702336 -0.011936904 0.1357178
000180 cc 3d 3c be a5 72 2d be 95 6c 81 be c6 12 db bd
       -0.18382949 -0.16938265 -0.25278154 -0.1069694
000190 41 c7 d0 bd 4d 01 ce be 3e a8 c4 be 17 15 b7 bd
       -0.10194255 -0.40235367 -0.3840961 -0.089395694
0001a0 45 95 23 3e c8 65 45 3d db 6e a7 be 5e 51 f6 3c
       0.1597491 0.04819277 -0.32701764 0.030068096
0001b0 58 3f 0e 3e d5 59 20 3d 95 1f fe bd ff ca 30 be
       0.13891351 0.03914817 -0.124083675 -0.17264937
0001c0 bc 4a 73 3f 99 88 81 3d 31 8b 21 3e 63 16 fa bd
       0.9503591 0.06324882 0.15775754 -0.12211301
0001d0 5b ce 0b 3a a2 9e 05 3d 8d b1 19 bd 70 15 87 bd
       0.00053331786 0.032621987 -0.03752284 -0.06595886
0001e0 29 24 9f bb 85 b4 d7 3c 30 24 c5 3d f4 2e aa bc
       -0.0048566055 0.026331196 0.09626043 -0.020774342
0001f0 0f e9 4f 3e 08 64 80 3d 88 43 0c 3d bd 60 43 bd
       0.20303749 0.062690794 0.03424409 -0.04769968
000200 54 85 53 bc 31 77 b0 3c 75 8e 5a be c9 42 20 3d
       -0.012910206 0.02154121 -0.21343406 0.03912619
000210 21 a7 3c be 0e 90 33 bd 7e ae b0 bd 4c 4e 99 3d
       -0.1842313 -0.043838553 -0.08627032 0.07485637
000220 1c b8 05 be b2 ca 97 3d 6e 41 2d 3d 7f fc d7 3c
       -0.13058513 0.07411708 0.042298727 0.026365517
000230 90 f8 25 3e 62 10 fc bd 95 1c 79 3e 2a fe 6d 3d
       0.162081 -0.12307812 0.2432731 0.058103718
000240 d7 00 c0 3d ad c6 25 3e ef b7 01 bd c2 22 e2 bd
       0.0937516 0.1618907 -0.031669553 -0.11041786
000250 fc a9 69 be 86 e8 67 be 2b 9d 83 be 09 d7 33 3d
       -0.2281875 -0.22647294 -0.25705847 0.043906245
000260 e7 20 75 bd 69 ab ba be 0a 92 a7 be 57 53 67 bd
       -0.05984583 -0.364589 -0.32728606 -0.056475963
000270 53 1a 76 bc 0f 8c 29 3d 24 14 9b 3d ec 26 0f be
       -0.015020925 0.041393336 0.07572201 -0.13979691
000280 05 b7 76 3e 22 43 7a be c0 63 92 be 34 a0 5f be
       0.24093254 -0.24439672 -0.28591728 -0.21838456
000290 d5 72 76 3f 21 04 aa bd 03 d0 a5 3d bc a8 bb 3b
       0.9626897 -0.08301569 0.08096316 0.005726902
0002a0 7f 2f d1 bd 73 08 b3 3d b7 e3 22 be 38 f7 16 be
       -0.10214137 0.08741846 -0.15907179 -0.14742744
0002b0 19 ed 2f bd 6b d3 25 bd d9 18 12 3d b8 3d 9b bd
       -0.042950723 -0.040484827 0.035668228 -0.07580131
0002c0 be b3 7e 3e 0b a3 08 3e 3a a2 29 bd 53 05 83 bd
       0.24873254 0.13343446 -0.041414477 -0.063975
0002d0 d9 e5 2e be 80 2a 2b be 41 e5 0c be 9d a8 33 be
       -0.17079867 -0.16715431 -0.13759328 -0.1754479
0002e0 3b b7 57 bd a4 e7 ae bd 31 9f 27 be fa bc dd 3c
       -0.052664977 -0.08540276 -0.1636932 0.02706765
0002f0 59 13 2b bd a1 3e dc 3c cd 86 cf bb 7b 5e 98 3b
       -0.0417665 0.026885333 -0.006333208 0.004649935
000300 fc 9d 52 3e 7d ce 81 be 51 cb 08 3d 2a 37 75 bc
       0.20568079 -0.2535285 0.033397023 -0.014966765
000310 f3 f1 ea 3d ab 86 17 3e 5e 52 03 be 45 ee c0 bd
       0.114719294 0.14797466 -0.1282439 -0.09420446
000320 6a 40 97 be 41 24 2b be d9 1f d5 bd 97 8c b1 b9
       -0.29541332 -0.16713049 -0.10406465 -0.00033864818
000330 24 b4 4f be 49 33 5f be 5c de 7a be fc b2 71 be
       -0.20283562 -0.21796907 -0.24498886 -0.23603433
000340 80 6d 38 bf 6f c0 e6 be f6 b5 2c 3e 99 cb 19 3e
       -0.72042084 -0.4506869 0.16866288 0.15019073
000350 6f 93 2b be 95 77 22 3e 67 89 a7 bd e4 18 67 be
       -0.1675546 0.1586593 -0.08180504 -0.22568089
000360 f7 a0 73 3f a0 12 57 be 55 f5 88 bd f5 10 c7 3d
       0.9516749 -0.21003199 -0.06687418 0.09720031
000370 16 c8 c7 bd c5 7e f0 3d 1e ad 27 be 3a a2 62 be
       -0.0975496 0.11742929 -0.16374633 -0.22132197
000380 89 68 11 3c 0d 71 ac bd 31 69 05 bd 08 2d 07 bd
       0.008875021 -0.0842 -0.03257102 -0.03300193
000390 32 b8 69 3e b5 7c 18 3e 27 be 6a 3d 06 99 f5 bc
       0.22824171 0.14891322 0.05731025 -0.029980194
0003a0 9f 27 3a ba 57 b5 58 3d f6 35 d9 bd 93 de 00 3e
       -0.0007101241 0.052907314 -0.10605995 0.12584905
0003b0 ae d0 8e 3d 2d 35 c9 3c d4 c7 55 bd 6a c9 3d 3d
       0.06973396 0.024561489 -0.052192524 0.04633466
0003c0 d7 0b 12 3d bc 81 9f 3d f2 7a 71 bd ef db 02 3e
       0.035655823 0.07788417 -0.05895514 0.1277921
0003d0 c6 6e e7 3e 08 dd cf 3d cc 6b a7 3c 15 88 9e bd
       0.452017 0.1014958 0.020437144 -0.07740799
0003e0 a0 4d aa 3d 78 a1 2c 3e 53 f5 2f be 41 62 87 be
       0.08315587 0.1685847 -0.17183428 -0.2644215
0003f0 8f 04 d8 be 71 bd 76 3b cc e2 0c be dc e2 88 be
       -0.42190978 0.0037649537 -0.13758391 -0.2673558

actor.0.bias f4 [128]
000000 e2 00 83 bf 9c bc 3c be 0d 9b 03 3e 06 23 3f 3e
       -1.0234644 -0.18431324 0.12852116 0.18665704
000010 11 4f 67 bc 75 8e 31 be 66 e9 a4 be fc 1b 42 be
       -0.014117972 -0.173395 -0.3220932 -0.18955988
000020 2d b0 0f 3e 8b 9a 7f 3d 1b da 82 3d 64 08 a7 3e
       0.1403205 0.062403243 0.063892566 0.3262359
000030 80 3f ef bd df 8e ad bd 9e da 46 be 1e f0 26 3e
       -0.116820335 -0.08474516 -0.19419333 0.16302535
000040 8e 7f 96 be 58 9f 7d 3d fd d1 6c bd ae 97 2a bd
       -0.29394192 0.06191954 -0.057817448 -0.04164856
000050 37 51 b9 bc c8 4f 1a bd dd 46 8a bd b6 be 83 bd
       -0.022621734 -0.03767374 -0.06751797 -0.064328596
000060 f3 58 1f bd 48 98 89 3d 9d d7 6c bc 06 ad 4b bd
       -0.038903188 0.067184985 -0.014455703 -0.049725555
000070 6d 2a d0 bd f7 70 29 3e a5 e3 a5 3d 34 8d a6 3d
       -0.10164342 0.16546999 0.081000604 0.08132401
000080 96 f6 ae be 99 8f 3c 3d 35 84 3f be 13 e8 bc 3d
       -0.34172505 0.046035383 -0.18702777 0.09223952
000090 af 2e 1d 3e e9 07 0b 3e 5c 3d 8b bd 4d 06 36 bd
       0.1534984 0.13577236 -0.06798813 -0.044439603
0000a0 ce 21 74 bc 3e 19 9a be 62 6a 71 bd 35 86 1d 3e
       -0.014900638 -0.30097383 -0.058939345 0.15383227
0000b0 2f 00 29 be a2 63 1c 3d 27 01 29 be 14 3b 46 be
       -0.16503976 0.038180955 -0.16504346 -0.19358474
0000c0 ab af c8 3d ad fd 09 bf e1 d3 23 be 88 98 f7 bd
       0.09799131 -0.53902704 -0.15998794 -0.1208964
0000d0 11 dd a3 be 98 f0 74 be d0 3d 5f 3d 2a a7 97 bd
       -0.32004598 -0.23919904 0.05450231 -0.07404931
0000e0 06 e4 ae bd 29 d0 ee bb fd 84 42 ba ed a1 55 be
       -0.08539586 -0.007287998 -0.00074203295 -0.20862551
0000f0 27 57 fc bd 1a 0d 0b 3e 6a 70 54 3e 5c 4c 79 bd
       -0.123213105 0.13579217 0.20746008 -0.060863838
000100 16 18 72 3d 1c 2a 35 be 72 8c e5 3c da 20 0d be
       0.059105 -0.17691845 0.028021071 -0.13782063
000110 fb cc 6c 3d 0c 22 82 bd e6 f6 8b 3d 78 bd 16 3e
       0.057812672 -0.0635415 0.068342015 0.14720714
000120 22 96 02 be 93 49 78 bd 60 bc a8 bd 7a 6e 0a be
       -0.12752584 -0.06061704 -0.08239055 -0.13518706
000130 d7 d5 6c bc a3 0f 1d be 3c 78 1c be b0 c0 60 be
       -0.01445528 -0.15337996 -0.15280241 -0.21948504
000140 33 fa 17 bd 9f 92 e9 bd eb 85 a7 bd 8c a5 cf bd
       -0.037103843 -0.11404919 -0.0817984 -0.101389974
000150 3e e0 1f 3e f6 4d 10 bf db 9d c0 3d 13 0c 47 be
       0.15612885 -0.5636896 0.094051085 -0.194382
000160 07 f8 5d 3e 09 7f 53 be 01 7c 10 bf 0f 6b 44 be
       0.21676646 -0.20653929 -0.56439215 -0.19181465
000170 66 cc 73 bd db 30 13 be a3 57 9c bd d2 81 7c bd
       -0.0595211 -0.14374106 -0.07633903 -0.061647244
000180 66 2f 0d be 45 d2 64 3e 00 c2 2a be 3b 69 da be
       -0.13787612 0.22345836 -0.16675568 -0.4265841
000190 d1 f9 34 3d ff 6b 58 3d d7 04 b8 be e1 6c e9 be
       0.044183556 0.052837368 -0.35941193 -0.4559088
0001a0 3b 37 42 be e9 78 86 bd 79 db e3 3d c8 bc 29 be
       -0.18966381 -0.065660305 0.111258455 -0.1657592
0001b0 17 3d 65 be 52 61 5e 3e e4 ef b8 be 96 d3 0a 3e
       -0.22386585 0.21716812 -0.36120522 0.13557276
0001c0 09 2f d7 3e 1f be 81 bc e9 3e 35 3e b3 97 96 bd
       0.42028072 -0.015837727 0.1769978 -0.07353153
0001d0 7e 86 87 be 6e e5 ac bd d7 98 0f be 89 0f aa 3d
       -0.26469797 -0.08442198 -0.14023148 0.08303744
0001e0 61 80 0c be 19 72 48 3d da e2 74 3d ed 6d 79 3d
       -0.13720848 0.048936937 0.059786655 0.06089585
0001f0 e4 19 7f bd f0 7a 09 3d 92 89 1a be 34 65 d1 bc
       -0.06228055 0.033564508 -0.15091541 -0.025560953

actor.2.weight f4 [128, 128]
000000 8a 7c c0 3c 0a 07 94 3e 08 04 08 3d e7 9d 9a bd
       0.023496885 0.2891162 0.03320697 -0.07549649
000010 c5 4c 07 bd 85 5b 33 3d 00 0c 1a bd c5 98 ad 3c
       -0.033032198 0.04378845 -0.0376091 0.02119101
000020 1f e1 19 bd cc d4 87 3e 2a 54 34 3e ed 83 61 bc
       -0.037568208 0.2652954 0.17610231 -0.013764364
000030 73 32 b5 3c 82 14 97 bd 53 41 e5 3d 91 16 db 3d
       0.022118783 -0.073769584 0.111941 0.106976636
000040 36 39 bc bd 89 22 9d bd 2b 8c 40 bd e7 21 ab bc
       -0.091905996 -0.07672603 -0.047008675 -0.02089019
000050 50 db ba 3d c6 9c 04 be bc 6d 08 3e 98 a7 86 bd
       0.09123862 -0.1295043 0.1332311 -0.06574935
000060 4b fd e2 3c 99 12 ba 3c 07 cb ae bd ab 91 48 3c
       0.02770867 0.022713946 -0.08534818 0.012241761
000070 ff e7 6e bd 1c ac 86 bd 08 e1 89 3c 9b f3 1a 3e
       -0.058326717 -0.06575796 0.016830936 0.1513199
000080 dc c4 02 3c 1f ea b1 bc 0f fd 19 3e bb 2a 3f 3e
       0.007981505 -0.021718083 0.1503794 0.18668644
000090 57 f0 b7 bd c0 6f 93 3d 8e 67 94 bd 2b 68 d9 bc
       -0.08981388 0.07199049 -0.07246314 -0.026538929
0000a0 f7 bd 15 3e e4 8b 39 3d 19 c7 c8 bc 64 c3 93 bc
       0.14623247 0.045299426 -0.024509 -0.018037505
0000b0 31 ab 85 3d 4f aa 49 be 13 be d7 3c 44 e1 78 3b
       0.06526793 -0.19693874 0.026335752 0.0037976066
0000c0 ee 66 2a 3d 34 39 77 3d d3 1f 8c bd a0 1e 18 be
       0.041602068 0.060357288 -0.068420075 -0.14855433
0000d0 0b 9b e8 3b fa 3d bd 3d 29 b8 42 bd 39 cf 63 bd
       0.0070985607 0.09240337 -0.04753891 -0.055617545
0000e0 05 0b 8d bd 83 af 8d be d1 45 4c bd 88 b5 c2 bd
       -0.068868674 -0.27672967 -0.04987127 -0.095072806
0000f0 76 35 d2 bd 20 f3 11 3e 1b c8 9f be 98 35 82 3e
       -0.10264103 0.14252901 -0.31207356 0.25431514
000100 4b a7 95 3d 16 aa 86 3d b6 39 60 bc c5 f4 6a be
       0.07307299 0.0657541 -0.013685634 -0.22944935
000110 89 76 ec bd a8 71 6b 3d 9c 28 84 bd fe e2 28 3e
       -0.11546046 0.057481438 -0.06453058 0.1649284
000120 3a bc 04 be e4 58 25 3d 07 f3 0c bd 76 85 9b bb
       -0.12962428 0.040367976 -0.034411456 -0.0047461344
000130 4c 59 d3 3d 62 ee 77 bd 2e 38 d2 3c 0c 84 51 be
       0.103197664 -0.060530074 0.025661554 -0.20460528
000140 1b e6 7f 3e 0e ba af 3d b0 8a c6 bd 24 18 3b be
       0.24990122 0.08580409 -0.09694421 -0.18270928
000150 75 63 8a 3e be 8d 91 bd 78 fc 06 3e 64 8e 0d 3d
       0.27029005 -0.07107113 0.13182247 0.034559622
000160 a8 81 61 be 75 8c 1b bd b9 40 05 3c 0e cd eb bb
       -0.22022116 -0.037975747 0.008133107 -0.0071960753
000170 40 be bd bd 5c e1 17 3e 4c 83 97 bd 8b a1 40 be
       -0.09264803 0.14832062 -0.0739809 -0.18811624
000180 8f c6 98 be 61 19 16 bc 14 9e 38 bc 3f 9f 92 3d
       -0.29838988 -0.009161324 -0.0112681575 0.0715928
000190 22 10 2c be fc 59 ec 3d f2 fd 5c bb aa c3 87 3e
       -0.16803029 0.11540601 -0.00337207 0.26516467
0001a0 e5 ab 40 be 58 20 ae 3d 48 20 7f bc 2e b3 f4 3c
       -0.18815573 0.08502263 -0.015571661 0.029870596
0001b0 1d b0 a4 be 56 46 ae bd 2a 88 24 3e df 7a af bd
       -0.32165614 -0.08509509 0.16067567 -0.08568358
0001c0 fa c0 a2 3d 1b 09 6f 3e 38 51 18 be 94 01 7b be
       0.079469636 0.23343317 -0.14874732 -0.24512321
0001d0 8c a7 86 3d 65 7e 38 be f9 ca 61 bd 7b d4 c2 bd
       0.06574926 -0.18016966 -0.05512521 -0.09513184
0001e0 22 f0 91 3d 9a 6a c0 3c 9b ef e5 3d e3 0e f9 3d
       0.0712588 0.023488332 0.11227342 0.121610425
0001f0 a2 d0 18 3d 12 1f a4 bd 21 f0 7c 38 ca c8 7d bd
       0.037308343 -0.08013739 6.030512e-05 -0.061959065
000200 18 a1 ef 3c bd e8 8f 3d ae 73 36 be 67 44 db bd
       0.02925162 0.07026813 -0.17817566 -0.10706406
000210 b7 c3 3f 3d cf 36 82 be 4e 80 83 3e df 0a 94 bd
       0.046817508 -0.2543244 0.25683826 -0.07228636
000220 0c 01 6b 3d 24 39 3e 3e 7d 64 ac bd f0 3f 0c bf
       0.057374045 0.18576485 -0.08417604 -0.5478506
000230 7f b5 70 bb 04 47 1e be a0 c9 f0 3b 7f e8 42 bf
       -0.0036729274 -0.15456778 0.0073482543 -0.7613601
000240 14 0c 14 3e 8d 7a 03 bd d4 2f 8f be e9 b0 a8 be
       0.14457732 -0.032099295 -0.27966177 -0.32947472
000250 80 27 67 3e 6f 2a 36 be 15 ec 28 3e f5 b1 69 be
       0.22573662 -0.17789625 0.16496308 -0.22821791
000260 9e a3 ba bc e9 ab d4 bd f0 46 81 be 0b 5c 31 3d
       -0.022783097 -0.10384352 -0.25249434 0.04330067
000270 09 93 87 3d 49 a3 42 3e 44 7d e7 be fe eb a0 be
       0.066198416 0.19007601 -0.45212758 -0.31430048
000280 c6 a9 94 bd 86 e9 81 bc e2 07 bd 3c 38 e7 c4 be
       -0.07258944 -0.015858423 0.023075048 -0.38457656
000290 78 e2 24 3e 8e 15 8e 3e d3 28 c3 bb fc 31 34 be
       0.16102016 0.2775082 -0.0059557944 -0.17597193
0002a0 df d1 ce 3d e4 48 d5 bc 41 d6 db 3d 91 97 87 be
       0.100986235 -0.026035734 0.10734225 -0.26482823
0002b0 ff 22 b3 3e e9 87 2e 3e 30 88 36 3d c3 38 ab bd
       0.34987637 0.17044033 0.044563472 -0.08360436
0002c0 f4 56 44 bd 5a 4b be bd 0f 51 c5 3e 18 c4 14 be
       -0.047934487 -0.09291716 0.38538405 -0.14527929
0002d0 14 18 11 3e fd 06 af 3c 11 8e ad be 18 6f 51 3e
       0.14169341 0.021365637 -0.3389745 0.20452535
0002e0 43 0a 1f bf 81 bd 13 be de ba 30 3d 91 f1 0c 3e
       -0.62125033 -0.14427759 0.04314696 0.13764025
0002f0 dd d9 7b bd ec 1e dc 3d 95 78 1b 3d 8e fc eb 3c
       -0.061487067 0.107480854 0.037956793 0.02880695
000300 4a 63 8d 3e 03 1e 0b be 0d c1 b6 3d 34 58 48 3e
       0.27614814 -0.13585667 0.0892354 0.19564897
000310 3f 2f 2f 3d c6 06 56 be 37 e3 f0 bd 92 a4 c4 bb
       0.042769667 -0.20901021 -0.11762088 -0.0060010636
000320 c9 e4 eb 3d 36 8c 4d be 75 93 f9 3d fe 42 01 3f
       0.11518247 -0.20073017 0.12186328 0.50492847
000330 8e 89 8b be 9f 0f 99 bd 67 ed a8 3e e3 cb 2f be
       -0.27253383 -0.074736826 0.32993624 -0.1716762
000340 22 31 25 be d6 40 9c be eb f1 03 3c 01 fe 0a be
       -0.16132024 -0.30518216 0.008053283 -0.13573457
000350 cd 48 97 bc 6d de 57 3e 4d 84 cb be 4f 1a be be
       -0.018467331 0.21080942 -0.39749375 -0.37129447
000360 1a a2 bf 3d cd bc 5f 3e bb 1d 87 bc c8 a7 1f be
       0.0935709 0.21849366 -0.016493669 -0.15591347
000370 aa cc 57 be 51 c6 00 bd 61 a7 fe 3d ea 77 e4 3c
       -0.21074167 -0.03143913 0.12434269 0.02788921
000380 55 65 bd 3e cf 77 88 be a7 9d 1f 3e 8e d5 99 bc
       0.36991373 -0.26653907 0.15587483 -0.018778589
000390 9e 4d 17 3d 7a 03 fb bb 83 16 a4 3e 87 03 f2 be
       0.036939256 -0.0076603265 0.32048425 -0.47268316
0003a0 da 2e 38 bd 57 df 99 be 54 82 20 3e a8 84 e7 3a
       -0.044966556 -0.30053207 0.15674716 0.0017663436
0003b0 53 e8 56 3d 64 0a 5c bc ab 9d 9c 3d 8c 77 72 3d
       0.052467655 -0.013430212 0.0764726 0.05919604
0003c0 d1 23 64 3e e8 15 8b 3c d6 d9 e0 3c f7 5c 1e bd
       0.22279288 0.01697822 0.027447622 -0.038662877
0003d0 8a 2c d6 bc d7 7d 51 3e 7e 41 e0 bc 1d f6 4e be
       -0.026144285 0.2045816 -0.02737498 -0.20211072
0003e0 4a 63 8b be 68 ac 9c 3d fd 8a a3 be 6e 8f 0a be
       -0.2722419 0.076500714 -0.31941977 -0.13531277
0003f0 23 d1 33 3e f9 60 97 3e 4e b3 0d 3d 36 94 cd bc
       0.17560248 0.29566172 0.034594826 -0.025095087

actor.2.bias f4 [128]
000000 75 09 41 be d2 8a 94 be cc 2f 5d be da c5 b8 bd
       -0.18851264 -0.29012161 -0.21600264 -0.09022112
000010 e2 4b 48 be 21 70 b3 3d d7 94 7b be e6 c7 da bc
       -0.19560197 0.08761621 -0.24568497 -0.026706647
000020 d1 ae 4d be 1b d9 74 be de f5 59 be b4 9b 89 be
       -0.20086218 -0.23910944 -0.21285197 -0.26876605
000030 c8 76 8c 3d dd c9 69 be 00 90 59 be 4e 35 0b be
       0.06858593 -0.22830911 -0.21246338 -0.13594553
000040 3f 05 fc bd b9 36 59 be c8 98 8a bd 49 80 90 bd
       -0.12305688 -0.21212281 -0.06767422 -0.070557185
000050 12 33 cd be f4 74 26 be 40 4c c0 be bd 4b 4c be
       -0.40078026 -0.16255552 -0.37558174 -0.19950767
000060 ba 2d 02 bd 33 7e 20 3c e4 46 9c be 50 76 57 be
       -0.03178189 0.009795713 -0.30522835 -0.21041226
000070 45 42 fb bd 8c 82 32 be 5e af d7 be 5b c2 1f be
       -0.12268499 -0.17432612 -0.42125982 -0.15601484
000080 50 c6 5f bd cb e2 5c bc a3 32 0a be b8 34 5e be
       -0.054632485 -0.013481806 -0.13495879 -0.21699798
000090 c7 4c 70 be 79 71 43 be 8c e0 73 be 2f 4b 5c be
       -0.23466788 -0.19086255 -0.23816127 -0.21513055
0000a0 3f f4 1b be fc ef 54 be 87 ad 92 bd 0c 5a a7 be
       -0.15229891 -0.20794672 -0.07162004 -0.32685888
0000b0 92 1d 7c be e5 4e c4 be 9f 9a 8e be a2 e5 21 bf
       -0.24620655 -0.38341442 -0.27852342 -0.63241017
0000c0 fd 78 72 bc 00 af d3 bb 7e eb 31 be 1d b1 c7 bd
       -0.014799354 -0.0064600706 -0.1737499 -0.097505786
0000d0 2e 2f a0 be 1a b5 3a bd aa 10 b7 bd d0 7c 37 be
       -0.31285995 -0.04558287 -0.08938725 -0.17918706
0000e0 a2 0f 88 be 57 67 0a be 38 a2 12 bd c3 79 c6 be
       -0.26574427 -0.13515984 -0.035799235 -0.38764772
0000f0 01 74 03 be c6 44 b2 bd 9e ea 3a bf a3 f3 03 bf
       -0.1283722 -0.08704524 -0.7301425 -0.51543635
000100 8e 61 22 be 1b 68 d0 bd 58 26 62 be 0a 94 98 be
       -0.15857527 -0.101761065 -0.2208494 -0.29800445
000110 99 11 c5 be f0 bc 80 bd 45 45 55 3c 26 01 9c bd
       -0.38489988 -0.06286037 0.013017003 -0.076174065
000120 ed 2e 1e be e0 1e d3 be 9f 6d f1 be a9 17 97 be
       -0.15447588 -0.41234493 -0.47153947 -0.2951024
000130 61 a2 5b be dc 30 ec bd ef 78 fb be d7 91 9a bc
       -0.21448661 -0.11532757 -0.49115703 -0.01886837
000140 9b b5 84 be 54 5e 2f bd 9d 54 22 be 71 72 84 be
       -0.25919804 -0.042814568 -0.1585259 -0.25868562
000150 30 6a 32 be 2f 93 92 be 4d 23 4a bf f3 16 e5 bd
       -0.1742332 -0.28627917 -0.78960115 -0.11186018
000160 6d 3f e4 bd 5c 09 83 3d 8e 2a 2f be 9c d3 e2 3d
       -0.1114491 0.063982695 -0.17106077 0.110755175
000170 6b 52 38 bf e6 45 95 bd ca 02 89 be 00 1f 26 be
       -0.7200076 -0.07288723 -0.2675994 -0.16222763
000180 55 7f 97 bf 21 33 e6 3d b2 61 9d be 2d 56 da bd
       -1.1835734 0.11240221 -0.30738598 -0.10660968
000190 76 ac 89 bd a8 92 82 bf ce 7b 0d be df b7 9f be
       -0.067223474 -1.0201006 -0.13816759 -0.3119497
0001a0 81 f7 d9 bc ae 83 cd 3d ea 16 bc be 49 60 a4 be
       -0.026607277 0.100348815 -0.36736232 -0.3210471
0001b0 89 0a 39 be 77 74 40 bf a6 02 f4 be e6 b4 3e 3e
       -0.18070425 -0.7517771 -0.4765827 0.18623695
0001c0 34 8b 8d be 7a cc 59 bf dc 21 80 3d 05 ac 24 bf
       -0.27645266 -0.8507763 0.06256458 -0.6432498
0001d0 55 e6 27 be 18 91 26 bf 7c 26 5b be f7 e4 8d be
       -0.16396458 -0.65065145 -0.214014 -0.2771375
0001e0 81 0e f7 3d aa 92 ad 3d 7b 09 6f 3d 32 cd 52 be
       0.12063313 0.084752396 0.05835865 -0.20586088
0001f0 9e ad 68 be 5b 7b 1b be 5f f0 b7 bd a6 e0 de be
       -0.2272248 -0.15183775 -0.08981394 -0.43530768

actor.4.weight f4 [128, 128]
000000 9a bc 7b bc 19 c0 8d be a5 e2 a4 bd 9c dc b7 3d
       -0.01536479 -0.2768562 -0.080510415 0.08977625
000010 51 ab 7c 3d f2 22 8c 3d 67 0f 24 bd 73 72 38 be
       0.061686818 0.06842603 -0.04005375 -0.18012409
000020 1f db 02 bd e9 dc a3 be 80 d2 21 3e 8f 47 61 3e
       -0.03194725 -0.3200448 0.15802956 0.21999954
000030 ef 8d f1 bc 55 7d cc bd 31 04 a0 3d 0d 7b d3 3d
       -0.029486625 -0.09984843 0.078132994 0.103262044
000040 04 89 48 3d dd 86 6c 3e 89 42 41 be 8c 8d 7e be
       0.048958793 0.23098321 -0.18873037 -0.24858683
000050 14 be 74 3e 1a 4a 91 bd f2 f9 af bd ec cb c9 bd
       0.23900634 -0.07094212 -0.08592595 -0.09853348
000060 45 4d e1 bc 3d 0d 9a bc 68 d8 9b 3a 16 b2 20 bc
       -0.027502665 -0.01880514 0.0011890056 -0.009808084
000070 70 4f 1a bd 43 d2 4b 3d be 6e 86 3d 19 aa d0 bd
       -0.037673414 0.049761068 0.06564091 -0.101886936
000080 a9 ed 40 bd 65 83 2c bd 5e cf bb 3c d5 83 d2 bd
       -0.04710165 -0.042117495 0.022926029 -0.10279051
000090 17 87 e3 3d 8c d7 a3 3d 7c cb 51 be d9 bd 00 be
       0.11109751 0.08000097 -0.2048778 -0.12572421
0000a0 fb c1 0b bc 51 60 25 bd 47 3b 77 3e e2 cd a2 3e
       -0.008530135 -0.040375058 0.24143706 0.317977
0000b0 c6 52 05 3d cd f8 eb 3d fc f1 d7 3d 74 8c 4d 3d
       0.032549642 0.11522064 0.10544202 0.050182775
0000c0 af 7d ab bc ab ca 45 3c ed 97 97 3e 22 30 cb be
       -0.020933954 0.012072246 0.29608098 -0.3968516
0000d0 98 c8 dd 3d 4d 3f 02 3e f9 3b 8f bc 58 58 58 3c
       0.10829276 0.1271946 -0.017484652 0.013204657
0000e0 a9 cd e1 be 37 34 1c bf 25 6f a7 be e5 80 0e 3d
       -0.4410222 -0.61017174 -0.32701984 0.034790892
0000f0 10 d2 88 bd 3e 3b 9d bb b9 22 4f 3d 96 51 1d 3d
       -0.06680691 -0.004798322 0.050570223 0.038407885
000100 eb 9b 30 3e a1 06 0a be 32 0e 08 3d 93 9b 5e 3e
       0.17246978 -0.13479091 0.033216663 0.21739034
000110 04 d3 ac 3c 6f 32 5d 3c fa ab 8d be 91 6d 2e be
       0.021096714 0.013500794 -0.2767027 -0.17033984
000120 f3 ab 7f be 8f 23 6d 3e ae f9 94 be c8 59 16 3e
       -0.24967937 0.23158096 -0.2909674 0.14682686
000130 6a 9b 81 be 57 a5 a1 3b 01 bb cd 3d f8 19 75 be
       -0.25313884 0.00493304 0.10045434 -0.23935688
000140 43 c9 d7 be be f5 1d bc c0 b1 a9 bd 9a 02 ab 3e
       -0.42145738 -0.009641109 -0.08285856 0.33400422
000150 77 0f 3d bd f9 60 1a 3e eb 61 2e 3d 03 dc 94 be
       -0.046157327 0.15076055 0.04257385 -0.29074106
000160 a1 07 0d 3e cc 42 69 3d 47 8e 7e be bf 1a e0 bc
       0.13772441 0.056948468 -0.24858962 -0.027356504
000170 0b 50 dc bd a5 c0 f2 bd ff 82 77 3e cf 5d 40 3c
       -0.107574545 -0.1185315 0.24171065 0.011741116
000180 27 3b e6 3d fa ef 49 be 0e 83 14 be 87 c7 39 be
       0.11241751 -0.1972045 -0.14503118 -0.1814252
000190 02 3d 1a 3d 08 ad 37 3e a4 46 2d 3e d0 06 25 3d
       0.037655838 0.179371 0.16921479 0.0402897
0001a0 57 f8 04 3e bc b8 d6 bd 0e 85 e7 3d 7b 5d 88 3d
       0.12985359 -0.10484454 0.11304675 0.06658455
0001b0 07 5e 3b 3d 8f c6 23 3d a4 47 74 3e ed 09 b4 bd
       0.04574397 0.039984282 0.23855454 -0.08790956
0001c0 03 36 3e 3c b6 08 39 3e 19 76 4d bd 47 2a b9 3d
       0.011609557 0.18069729 -0.050161455 0.09041267
0001d0 cb dc 57 3e 3f 0d a0 bc d7 30 3d 3e 4b dd e4 bd
       0.2108032 -0.019537566 0.18475662 -0.11175021
0001e0 5c ac 58 bb 92 cb f8 3d 78 6e 63 3e 7f 02 52 bd
       -0.0033061719 0.12148203 0.22210109 -0.05127191
0001f0 b3 eb 77 3d 42 6a ee bd 2e 13 2d be 15 2a af 3c
       0.060527515 -0.11641361 -0.16901848 0.021382371
000200 e2 25 a0 be 85 08 24 3e fc b6 2d be 4a 36 7c bc
       -0.31278902 0.16018875 -0.16964334 -0.015393803
000210 4e 16 97 bd 49 e9 12 be 09 7a a4 bd 3e ec 2b 3d
       -0.07377301 -0.14346804 -0.08031089 0.041973345
000220 32 d0 26 bd 03 8e f5 3d 60 a7 62 3d 43 0e 91 bd
       -0.040725894 0.11989977 0.055335402 -0.07082798
000230 f3 97 6a be 2e 0c 34 be a9 0d 4f 3d 91 c4 74 be
       -0.22909527 -0.17582771 0.050550137 -0.23903109
000240 c3 cd f0 bd a7 6f 0b 3e 69 91 af bd 3f ba cb 3d
       -0.11757996 0.1361681 -0.08572657 0.09947633
000250 44 f6 04 be 77 bb 40 bd 6e 70 df bd c6 ca 49 3d
       -0.12984568 -0.04705378 -0.10910116 0.049265645
000260 88 ea 86 3d 50 23 d0 bd 26 0c b3 bd 6c 7c 8a bd
       0.06587702 -0.10162985 -0.087425515 -0.06762013
000270 9f 77 85 bb e5 04 a4 3b ef ce 86 bd 90 08 a1 bc
       -0.004073098 0.0050054663 -0.06582438 -0.019657403
000280 67 fb 5b bd 4b 55 ad bd 0e 71 59 bd a9 0c 7c 3d
       -0.053706553 -0.08463534 -0.053086333 0.06153551
000290 99 ba 99 3d 59 fd 65 3d 22 74 db bc 27 6d c8 3d
       0.07506294 0.056149814 -0.026788775 0.09786444
0002a0 64 44 3a 3c 85 88 55 be 8f fb d2 3d 14 59 37 3d
       0.011368845 -0.2085286 0.10301887 0.044762686
0002b0 79 0f f3 3c 5c 56 12 be bc 4d 0c be 8d 02 02 3d
       0.029670464 -0.14290756 -0.13701528 0.031740714
0002c0 3d a0 a3 bd 08 15 2d bd b5 3d f9 3c 76 f5 c5 3d
       -0.079895474 -0.042256385 0.030424932 0.096659586
0002d0 84 2b 82 be 7c cc 2d be 7e 70 bd bd 7b 64 54 bd
       -0.25423825 -0.16972536 -0.09249972 -0.05185364
0002e0 0c 5b 02 be 8c 79 6a bc 86 12 1f bd d0 1b 2e 3d
       -0.12730044 -0.014311206 -0.038836025 0.042506993
0002f0 51 2d 4f 3c 0d 85 a6 bd d0 db a0 be 96 83 be bd
       0.012645082 -0.08130846 -0.31417704 -0.09302442
000300 cb eb 0e 3e 56 2e 8e bd 5d b4 39 3b 25 f8 40 be
       0.13957135 -0.06942432 0.0028336265 -0.1884466
000310 d8 02 46 3e 94 bb 90 3d 24 bc 30 3b 13 d7 5a bd
       0.19337022 0.07067028 0.002696761 -0.053427767
000320 2d 1a fe bd a1 2c b3 bd a2 25 08 3e 41 27 3d 3e
       -0.124073364 -0.08748747 0.13295606 0.18472005
000330 53 42 0e be 7c 50 c8 be 7f a7 0e bd de ed 3b 3d
       -0.13892488 -0.39123905 -0.034827705 0.045881145
000340 71 1e 7f 3c af 99 0c bc c3 79 09 be eb 03 79 3b
       0.015571223 -0.008581563 -0.13425355 0.003799672
000350 46 d1 87 bd c8 d3 17 3e c6 3b 85 3d 66 d1 29 3d
       -0.066317126 0.14826882 0.065055415 0.041459464
000360 d7 4b 6b 3d 2b d5 b2 bc 77 7c bd 3c 24 b4 22 be
       0.057445373 -0.021830162 0.023130639 -0.1588903
000370 b3 0f 74 be ed 87 62 3e 40 9b a0 3c 32 09 d7 bc
       -0.23834114 0.22122164 0.019605279 -0.026249502
000380 24 7d 0a 3e 8e 8e 1a 3d e4 15 bd 3d ec 83 03 3e
       0.135243 0.037733607 0.09232691 0.12843293
000390 04 8e a2 bd 9c 6f 71 bd 1e f8 a8 bd 09 cd 4c bd
       -0.079372436 -0.05894433 -0.082504496 -0.050000224
0003a0 e2 ad ae 3b 95 31 6f bd 1b b9 c5 3d e6 af 08 3c
       0.005330787 -0.058396894 0.09654447 0.008342719
0003b0 2c 94 99 3d 75 b7 53 bc 20 0f 0f be 58 9a a0 bd
       0.07498965 -0.0129221575 -0.13970613 -0.07841939
0003c0 a4 cd 41 be 1c a0 96 bd a0 65 c3 bd ce cc 24 bc
       -0.18926102 -0.07354757 -0.09540868 -0.010058595
0003d0 9d 19 f6 bc 83 f7 a1 3d 03 72 03 bd 84 6a 0a 3e
       -0.03004151 0.07908537 -0.032091152 0.13517195
0003e0 c3 58 b6 bd b4 03 40 3d 16 5b fb 3c 3a 9f 80 bd
       -0.08903649 0.04687853 0.030683082 -0.0628037
0003f0 87 8a be bd 54 af 34 bb 3e 86 57 bc f5 5f b5 be
       -0.09303766 -0.0027570324 -0.013154564 -0.35424772

actor.4.bias f4 [128]
000000 66 f6 8c bd b2 ea 52 be ab 12 4e be 2d 38 28 be
       -0.06882934 -0.20597342 -0.20124309 -0.1642768
000010 fa 99 06 bd 9c 16 e9 bd bf 48 20 bd 6f 32 39 be
       -0.032861687 -0.113812655 -0.039131876 -0.18085645
000020 e5 4c 05 bd 67 f8 a0 be 28 34 91 be 3c af 6d be
       -0.032544035 -0.31439516 -0.28360105 -0.23211378
000030 fa f0 6b be 7e 08 96 be a4 3e 31 be ab 3e 3e be
       -0.23041144 -0.29303354 -0.17309052 -0.18578593
000040 52 11 8c be 6f af 85 be 87 14 23 be ea 50 c7 be
       -0.27356964 -0.26110408 -0.159258 -0.3892892
000050 25 74 40 be 11 21 31 be 89 79 11 be 76 46 7b be
       -0.18794306 -0.1729777 -0.14206518 -0.24538597
000060 c4 89 b5 bd 5c 86 54 be 23 85 ec bd 88 1b 4f bd
       -0.08864167 -0.20754379 -0.11548831 -0.050563365
000070 48 55 4f be c9 87 7c 3c 86 c7 93 be 21 95 e7 bd
       -0.20247376 0.015413233 -0.28863162 -0.11307741
000080 6a 79 17 be b3 20 8d be 46 fe 17 be a3 d8 78 be
       -0.1479241 -0.2756401 -0.14843091 -0.2430139
000090 9a 25 b2 be 5d 82 62 be 80 8b 71 be a5 5c 37 bd
       -0.34794313 -0.22120042 -0.23588371 -0.044766087
0000a0 c9 dd a0 bd 2c d5 29 be d9 ee 56 bd d9 9f df be
       -0.07854802 -0.16585225 -0.052473877 -0.43676642
0000b0 97 46 7e be 88 2a 28 be dc 00 8b be a4 f5 44 be
       -0.24831615 -0.16422474 -0.27149093 -0.1923433
0000c0 b2 61 34 be 0d 8c 5f be a3 a0 85 be 36 b6 2f be
       -0.17615393 -0.21830769 -0.2609912 -0.17159352
0000d0 1e cd 14 be 12 83 43 be 00 18 db be b4 60 36 bd
       -0.14531371 -0.19092968 -0.42791748 -0.044525817
0000e0 7c 96 4c be d3 1b c8 be 05 79 fd bd b5 48 9e bd
       -0.1997928 -0.39083728 -0.12376598 -0.077287115
0000f0 60 8e 29 be e5 c6 46 be fa 47 a6 bd 00 bc 9d be
       -0.16558218 -0.1941181 -0.08119197 -0.30807495
000100 a8 1f 81 be ee 48 96 be c1 38 d1 bd e0 f7 47 be
       -0.25219464 -0.29352516 -0.10215903 -0.1952815
000110 e8 cd 8e be d2 7f a6 be 62 8e 24 bd 62 32 f0 bd
       -0.2789147 -0.32519394 -0.04017485 -0.1172836
000120 f0 ec 71 be 16 2b 13 bf 40 6b 94 be 5e bc ce bd
       -0.2362554 -0.5748762 -0.28988075 -0.10094522
000130 7b ec 0d be c1 92 d0 bc dc 78 a9 be 5e 6e 96 be
       -0.13859741 -0.025460603 -0.3310002 -0.29381078
000140 7c dd a1 be f7 fa bc bd 89 25 b9 be f0 f1 8e be
       -0.31614292 -0.09227555 -0.3616145 -0.2791896
000150 77 9a 93 3d fb dd 0e be c9 db 04 bd 47 f7 94 be
       0.07207196 -0.13951866 -0.032436166 -0.29094908
000160 cd 29 1c be fd 9d 29 be 54 5c 4b bd 3d ce 8a be
       -0.1525032 -0.16564174 -0.049648598 -0.27110472
000170 f6 52 7d be 39 3c 08 be e6 ec aa bd 37 5c 56 bb
       -0.24738678 -0.13304223 -0.08345966 -0.0032708773
000180 f6 03 92 be 1e 3f 93 be f1 fc 61 be 14 c2 b1 bd
       -0.28518647 -0.28759092 -0.22069146 -0.086795956
000190 80 df 3c be ca c3 d4 be 4a e4 a9 be 76 91 2e bd
       -0.18444633 -0.41555625 -0.33181983 -0.04261919
0001a0 0f 78 1f be ae 51 d0 be 8e 12 78 be 6f 61 c2 be
       -0.15573142 -0.40687317 -0.24225828 -0.3796496
0001b0 d9 54 1e be 63 35 52 bc 8e f8 b8 bd 47 ac a8 be
       -0.15462054 -0.012830111 -0.09031783 -0.32943937
0001c0 ff 2a 86 be 0b 0d 6a be 49 d0 27 be ff 21 19 bf
       -0.26204678 -0.22856538 -0.16388048 -0.598175
0001d0 8f 22 4f 3a d1 73 fc bd 6d cb b2 be a4 c1 28 be
       0.0007901573 -0.12326778 -0.34920827 -0.16480118
0001e0 c7 4b 2a bd 5f 62 8d be de cc f0 3c 94 98 e6 bd
       -0.041576173 -0.27614114 0.029394563 -0.11259571
0001f0 b8 90 b4 be 52 5d ec bd 75 ee 74 be 0b fe 2d be
       -0.35266662 -0.11541237 -0.23919089 -0.16991441

actor.6.weight f4 [12, 128]
000000 0f be 26 bd aa 78 70 3c 78 22 93 3c c9 33 f0 3c
       -0.040708598 0.014677206 0.017960772 0.029321568
000010 8b 24 21 3c de 01 84 3b 64 40 5f 3a 91 6b b1 bc
       0.009835373 0.004028543 0.000851637 -0.021657737
000020 09 e1 df bb 8d bc 01 3d 0b 07 70 bc 6a 4f 57 3c
       -0.006832246 0.031673957 -0.014650117 0.013141492
000030 6e 7d 96 3c 62 e4 d8 bb 60 50 af bb 0c fb 56 bd
       0.018370356 -0.006619022 -0.0053501576 -0.05248551
000040 5b 4b 69 bc b5 40 92 bb 92 15 1d 3c e2 77 28 3b
       -0.014239158 -0.00446328 0.009587662 0.0025706221
000050 19 2b 0d 3c 67 9d 54 bd cd 76 87 3b a6 61 b4 3c
       0.008616232 -0.051907923 0.004134035 0.022019219
000060 70 80 ad bc 2c ff 8a bc d1 03 9a bb fb 50 cb bc
       -0.021179408 -0.016967379 -0.004700162 -0.024818888
000070 00 f5 9f bc be 7a a3 3b fb b0 bb bc d3 98 a3 3b
       -0.019526005 0.0049889972 -0.02291154 0.0049925833
000080 34 c4 36 3c 28 93 3f 39 0d 98 72 3c cc 23 7a bc
       0.011155177 0.0001827 0.01480676 -0.015267324
000090 51 d2 e7 3c 2a 92 04 bc 35 9c fe bc 06 e4 2b bb
       0.028298529 -0.008091489 -0.031080345 -0.0026228442
0000a0 01 b9 ab bb c0 95 cc 3a bc 16 1a bc 82 63 1f 3d
       -0.00524056 0.0015608594 -0.009404834 0.038913257
0000b0 a3 16 29 bc 1a fd 22 3d ae d0 ab 3c 0f 01 91 bb
       -0.010320338 0.039792158 0.02097353 -0.004425175
0000c0 ef e6 46 3d eb 99 12 bc 7e c9 70 bc ef 8a 8e 3c
       0.04856008 -0.00894783 -0.014696477 0.017400233
0000d0 cb 4d df bc c7 06 08 3c a7 23 b5 3b 1f 32 04 3c
       -0.027258774 0.008302397 0.0055279317 0.00806859
0000e0 26 34 3b 3c 8c 56 ba bc 65 16 3f bc bb 6c 36 3c
       0.011426007 -0.022746347 -0.011663054 0.011134322
0000f0 1d 9e 40 3c 91 3b ab 3c d2 8c 7d 3b 22 f6 49 3c
       0.011756447 0.020902427 0.0038688672 0.012326749
000100 c8 7e 86 3d f6 ca 13 bc 8a e4 af b9 89 f5 f2 ba
       0.0656715 -0.009020558 -0.00033548876 -0.001853631
000110 16 ff 21 3c 94 c1 4e 3d 40 2a 9e bb 17 a4 77 3c
       0.009887477 0.05047758 -0.004826814 0.015114806
000120 e3 64 5d bb ec b5 2e bc 02 39 8c bc 14 f8 39 3c
       -0.0033782057 -0.010663491 -0.017117027 0.01135065
000130 b3 a4 ef b9 56 af 90 3c d9 cc 1b bc 9a 36 11 3c
       -0.00045708343 0.017661732 -0.009509289 0.008863116
000140 f6 bc b9 3c d2 5e 82 3c 45 91 1c 3c 2e 90 aa bc
       0.022673111 0.015914354 0.009556119 -0.020820703
000150 23 4d 21 bc 54 99 01 bd e3 c9 00 bb 2b 19 81 bc
       -0.009845051 -0.031640366 -0.0019651584 -0.015759071
000160 89 9d 59 ba 59 0b 2d bc a3 15 2f 3c e1 f1 04 bd
       -0.00083013676 -0.0105617875 0.010686311 -0.032457236
000170 cc 65 cf 3c 24 73 57 3b d4 fd b7 39 4b 51 36 bd
       0.025317095 0.0032875026 0.00035093597 -0.04451112
000180 0e 97 58 3c 19 97 f1 bc 25 59 16 3d 8e f4 4c bc
       0.013219608 -0.029490994 0.03670611 -0.012509478
000190 31 bb 0f bb 97 e0 88 3c 23 4b 1a 3c 79 39 f6 3b
       -0.0021931643 0.016708655 0.009417328 0.0075141755
0001a0 fd 6c 3f 3c c8 4b 48 3c 8b 6e b5 3c 79 c4 f1 3c
       0.0116837 0.012225099 0.022147438 0.02951263
0001b0 7b 29 bc bb 0a 0d 6e 3b 60 b0 26 bd 32 2c 91 bc
       -0.0057422495 0.003632369 -0.040695548 -0.01772127
0001c0 1b 66 82 3b a9 ff 0a 39 da 3c 86 bc a3 38 01 3b
       0.003979457 0.00013255946 -0.016386438 0.0019717596
0001d0 5c 5d 2a bc 7e 3d df 3b f3 58 8c bb d7 0b 50 3b
       -0.010398235 0.0068127504 -0.0042830645 0.0031745338
0001e0 c2 2a 2d 3c 98 58 c1 bb fb 4b 14 bd 3a 64 93 bc
       0.010569276 -0.005900454 -0.036205273 -0.017992128
0001f0 45 f5 39 3c 6a 14 4a 3d 97 19 33 bb a6 e9 8f bb
       0.011349981 0.049335875 -0.0027328485 -0.0043918667
000200 7e ce b3 3b f5 d2 a6 3b 94 b4 00 3a 55 c1 b2 3c
       0.0054872623 0.005091066 0.0004909721 0.021820704
000210 38 f2 21 bc 99 1e a0 bc db 38 c0 3b 51 fc e9 bc
       -0.00988441 -0.01954584 0.0058661527 -0.028562697
000220 87 56 33 bc ad 25 1b 3c 62 24 7d 3c de 4e 4b bc
       -0.010945923 0.009469432 0.015450569 -0.01240894
000230 34 73 ef 3c b6 83 de 3b dc 84 72 bc 3f 1e 9d 3c
       0.029229738 0.0067906035 -0.014802184 0.019179462
000240 5b 95 2e 3b 48 f8 77 bc c6 0d 15 bd f7 08 87 bc
       0.0026639316 -0.015134878 -0.03639009 -0.016483767
000250 01 5b 54 3b 30 99 3f bc 04 8b 45 bc c8 90 bd 3c
       0.0032402875 -0.011694238 -0.01205707 0.023140326
000260 25 8f 00 3d 70 e5 13 3b 5c 29 73 bb a5 d1 8e bc
       0.031386513 0.0022567175 -0.003710351 -0.01743395
000270 1c c4 56 3d 3c 7e 1d 3c c5 db b0 bc 78 b7 04 ba
       0.05243312 0.009612616 -0.02158917 -0.00050627394
000280 fc 24 82 bc 21 b2 65 3c cb 83 38 bc d7 38 77 3c
       -0.015886776 0.01401952 -0.011261891 0.015089235
000290 3b b8 12 3c 75 00 1a 3c e9 50 b6 3b 48 fd 11 3c
       0.008955057 0.009399523 0.0055638445 0.008910485
0002a0 97 60 5a ba 0d cf 54 bb f1 e2 4f 3b f5 63 b0 bb
       -0.0008330433 -0.0032472045 0.003172096 -0.0053830096
0002b0 0e 18 91 3c e7 05 53 3c a7 7c 83 bb 21 5e 29 3d
       0.017711665 0.012879825 -0.0040126625 0.041349534
0002c0 4d e9 b7 3b c0 d3 00 3c 8f bc ce 39 55 97 14 3a
       0.0056125284 0.007862985 0.0003943187 0.0005668302
0002d0 9a f1 2c bc 79 e9 89 3a 72 8b 1d bd ab 01 e8 bb
       -0.010555649 0.0010521851 -0.038463064 -0.007080277
0002e0 a6 ee ad 3b 31 a9 b9 bc c3 f6 90 3c 5f 31 70 bc
       0.00530799 -0.022663685 0.01769579 -0.0146602085
0002f0 89 07 4c 3b 3d a4 76 bb 97 0a 6b 3b 9e c7 4d bd
       0.003113242 -0.0037634515 0.0035864466 -0.050239198
000300 7f bd d2 bc 19 50 ee bc d8 c5 47 bd b6 c2 89 3c
       -0.025725124 -0.029090928 -0.048772663 0.016816478
000310 78 86 0f 3c 41 0c 4a bc ae 98 24 3d dc 66 bd 3b
       0.008760087 -0.012332023 0.04018467 0.005780084
000320 df ef 41 bc 3b 54 08 bb 66 9f 2a 3c 2c 60 52 3d
       -0.011836975 -0.0020802158 0.01041398 0.051361248
000330 40 62 89 bc a7 89 c7 3c e4 0e 03 bd ee 88 25 bc
       -0.016770482 0.02435763 -0.031996623 -0.010103447
000340 3d 21 b6 3c 7b 5f 2d bc 3a c9 12 bc d5 e3 96 bc
       0.022232646 -0.010581846 -0.008959109 -0.018419186
000350 15 c0 99 bb 7b 3f ad 3c 6d d3 21 3b e5 67 8f 3c
       -0.0046920874 0.021148434 0.002469267 0.017505595
000360 68 93 90 bc d8 e3 24 3c f1 6d fb 3b e1 24 b6 bc
       -0.017648414 0.010064088 0.007673018 -0.022234382
000370 53 ea 84 bd 36 1b e2 bb a2 59 86 bb ab b6 13 3d
       -0.06490006 -0.0069002165 -0.0041000405 0.036062878
000380 3e 39 5d bc 78 42 96 bc 4e 04 1e bc e5 24 26 bd
       -0.013502417 -0.018342242 -0.009644581 -0.04056253
000390 28 c3 10 bc 31 59 30 bb c0 88 3d 3c e3 2f 0a bc
       -0.008835591 -0.002690863 0.011568248 -0.008434269
0003a0 dc 02 77 bb d4 76 96 3b 3e c2 03 3d 16 7b 3a bc
       -0.0037690913 0.004591802 0.032167666 -0.011381885
0003b0 a7 a3 43 bd e7 fb 20 3c 71 84 8a 3b ef a7 84 3c
       -0.047763493 0.009825683 0.004227214 0.016193358
0003c0 fa 4a a8 bc bb e3 07 bc 79 53 5b bb b2 f4 3a 3c
       -0.020543564 -0.008294041 -0.0033466502 0.011410879
0003d0 21 05 b1 bb fe 1e 52 bb b9 de 4e bc b7 5f 8a 3c
       -0.0054022227 -0.003206193 -0.012626343 0.016891344
0003e0 01 4c d9 3c 02 d5 fb 3c d5 c0 36 3d 70 de 3f 3c
       0.0265255 0.030741218 0.044617493 0.011710748
0003f0 3e 5f f2 bc 49 04 8d 37 b2 fa 65 3c 66 9a 48 bc
       -0.02958643 1.6810505e-05 0.014036821 -0.012243843

actor.6.bias f4 [12]
000000 a1 ff c3 bd f8 d1 c2 3d 2e 20 15 be 73 be 15 3e
       -0.09570242 0.095127046 -0.14563057 0.14623432
000010 8e 71 1c be ab 05 1d be 36 04 02 bd ba 47 02 bd
       -0.15277693 -0.15334193 -0.031742297 -0.031806685
000020 45 7e 46 3e 23 da 47 3e 6a d1 25 3e 09 ee 26 3e
       0.19384106 0.19516806 0.16193166 0.1630174
