tested_policies/aliengo/8k_128_128_128_stop_restart_randomization/exported/policy.onnx (onnx, 273175 bytes, 8 tensors)

actor.0.weight f4 [128, 260]
0	0x3d6dc29c	0.058046922
1	0x3e9ffd3f	0.312479
2	0x3f2da523	0.67830104
3	0xbe04755d	-0.12935396
4	0x3ded917f	0.11600017
5	0xbe21ec62	-0.15812829
6	0x3ef32bde	0.47494406
7	0x3de9309c	0.11386225
8	0x3da65060	0.08120799
9	0xbc745e10	-0.014915004
10	0xbdf440a9	-0.119263954
11	0x3d904b54	0.07045618
12	0x3cff54e0	0.031168401
13	0x3d13a2c0	0.036043882
14	0x3eb7bdd2	0.3588701
15	0xbe1a10eb	-0.15045516
16	0x3e7a19af	0.2442386
17	0x3e23a968	0.15982592
18	0x3d5c132f	0.053729232
19	0x3c1e6fa8	0.009670176
20	0xbeab6061	-0.3347197
21	0x3b5da8f2	0.0033822623
22	0xbccf20c1	-0.025284173
23	0x3f0d55a9	0.5520883
24	0x3d7825ef	0.06058305
25	0xbdc507f6	-0.09620659
26	0xbd9c0fd7	-0.07620209
27	0x3a921d2f	0.0011147613
28	0xbd3d0495	-0.046146948
29	0x3dda6aaa	0.10664876
30	0x3d905ef8	0.07049364
31	0xbdb024fe	-0.08600806
32	0xbb0b3a01	-0.002124429
33	0x3d924cc1	0.07143546
34	0x3d98cc94	0.07460895
35	0xbafd7e30	-0.0019339975
36	0x3dd3bff6	0.10339348
37	0xbd43ec9b	-0.047833066
38	0xbd374606	-0.044744514
39	0x3df49a77	0.11943524
40	0x3d29f392	0.041492052
41	0x3d235b1f	0.03988182
42	0x3d962248	0.073307574
43	0x3d9d3f75	0.07678119
44	0x3cc6da05	0.024273882
45	0xbd1e69e7	-0.038675215
46	0xbd9f5600	-0.07780075
47	0xbd754a51	-0.059885327
48	0x3dac6e03	0.084194206
49	0xbe325f4c	-0.17419165
50	0xbdeeb4dd	-0.11655591
51	0x3e107054	0.1410535
52	0x3e158da0	0.14604807
53	0x3e44277c	0.19155687
54	0x3eee95d7	0.46598694
55	0xbd81dc4d	-0.06340847
56	0x3d8b34fe	0.06797217
57	0x3dc7cb6a	0.09755595
58	0x3ed8a7c8	0.42315507
59	0x3dd9b863	0.10630872
60	0x3bb89c43	0.005633862
61	0xbd8fab26	-0.07015066
62	0xbe604da6	-0.2190462
63	0x3dbda5d1	0.092601426
64	0x3de45ae8	0.111501515
65	0xbbd9f862	-0.006651924
66	0x3e48fc2e	0.19627449
67	0xbd8e343d	-0.069435574
68	0x3e9f9799	0.31170347
69	0x3e3907c1	0.18069364
70	0x3d921b64	0.071341306
71	0x3cc83d2b	0.02444323
72	0xbe9acc08	-0.30233788
73	0xbd09bc78	-0.033627003
74	0xbcfe8c76	-0.031072836
75	0x3f352576	0.70760286
76	0x3ae9536b	0.001780135
77	0x3d93ecd8	0.07222909
78	0xbdbeb05f	-0.09310984
79	0xbcf0f1fd	-0.029412264
80	0xbbf59640	-0.007494718
81	0x3d037cd4	0.032101467
82	0xbca41ae4	-0.020032354
83	0xbd40f863	-0.04711188
84	0x3ba74e84	0.0051057953
85	0xbd4f3334	-0.05058594
86	0x3d12a09e	0.035797708
87	0x3cb58c0f	0.022161512
88	0xbde9da5f	-0.11418604
89	0xbe25677e	-0.1615276
90	0xbdcfc1bf	-0.10144376
91	0xbe90c751	-0.28277066
92	0xbcdfebdb	-0.027334144
93	0x3d4d1938	0.05007288
94	0x3e3e2898	0.18570173
95	0xbb85ee2d	-0.0040872307
96	0xbd45251d	-0.048131097
97	0x3d994c89	0.07485301
98	0xbd0d34ce	-0.034474187
99	0xbe19c056	-0.15014777
100	0x3e2c12c0	0.16804028
101	0xbe8257d1	-0.25457624
102	0xbe8657b1	-0.26238778
103	0x3e3c2b03	0.18375783
104	0x3e09f064	0.13470608
105	0x3e852c27	0.26010248
106	0x3f1ba460	0.6079769
107	0xbeb608d0	-0.35553598
108	0xbca60636	-0.020266633
109	0x3e775ab0	0.24155688
110	0x3ec75c75	0.38937727
111	0x3e4d5abe	0.20054147
112	0x3d8fd09a	0.070222095
113	0xbd37cfe5	-0.044875998
114	0xbea326b1	-0.31865457
115	0x3c5f9c06	0.013648039
116	0x3d94f4bb	0.07273241
117	0xbdc7065a	-0.09718008
118	0x3e4d255f	0.20033787
119	0x3db3080b	0.087417684
120	0x3e814bcf	0.2525315
121	0x3e3aab50	0.18229413
122	0x3c8278d1	0.01592675
123	0x3d21eb51	0.039531056
124	0xbe707e55	-0.23485692
125	0xbd8f97de	-0.07011388
126	0xbc997825	-0.018734047
127	0x3f52701d	0.8220232
128	0xbda8f2b4	-0.08249417
129	0xbd46b440	-0.048511744
130	0x3d6c6d2c	0.057721302
131	0xbd4503d9	-0.048099373
132	0xbb68239a	-0.003542161
133	0x3d6fcdaf	0.058545765
134	0x3cb273f2	0.021783803
135	0x3c86f7ee	0.016475644
136	0x3c87ae65	0.01656265
137	0xbcd76903	-0.02629519
138	0x3d7b75e6	0.061391734
139	0x3c0c7a3e	0.008574067
140	0x3cddc916	0.027073424
141	0xbe138830	-0.1440742
142	0xbdbdea8e	-0.092732534
143	0xbd9c59e0	-0.0763433
144	0x3beb0a36	0.007172848
145	0x3d89c564	0.067271024
146	0x3e05c38e	0.1306288
147	0x3d5ee48f	0.05441719
148	0xbdac9001	-0.08425904
149	0x3d411863	0.047142398
150	0xbcf2f268	-0.029656604
151	0xbcd618fe	-0.026134964
152	0x3e271d44	0.16319758
153	0xbe91f405	-0.28506485
154	0xbe9d4f4b	-0.30724558
155	0x3e2809f8	0.16410053
156	0x3d781a4b	0.06057195
157	0x3eefdd58	0.4684856
158	0x3f2aa0fa	0.6665188
159	0xbe644649	-0.22292437
160	0x3ed2e93d	0.41193572
161	0xbd61fdb7	-0.055173602
162	0x3efe51d0	0.49671793
163	0x3e99e343	0.300562
164	0x3d9e9c1f	0.077446215
165	0x3caa1106	0.02076007
166	0xbe5b7f1c	-0.21435207
167	0xbe299a74	-0.16562825
168	0x3c94f2d8	0.018182203
169	0xbe48d8fc	-0.19614023
170	0x3e2e0cc0	0.16997051
171	0x3db8f949	0.09031922
172	0x3ec08dba	0.3760813
173	0x3de1e98a	0.11030872
174	0x3e1f188a	0.15536705
175	0x3be156ce	0.006876803
176	0xbe8d528a	-0.27602035
177	0xbde90735	-0.11378328
178	0xbe190575	-0.14943488
179	0x3f6130bf	0.87965006
180	0xbd8d57c2	-0.06901504
181	0xbd8d0a0c	-0.06886682
182	0xbd2bf7e1	-0.041984443
183	0x3d7b9263	0.061418902
184	0x3cad3ef8	0.02114819
185	0x3d2cd95f	0.04219949
186	0xbd0d9ef2	-0.03457541
187	0xbd42d129	-0.047562752
188	0xbca02680	-0.019549608
189	0xbd8a8eaf	-0.06765496
190	0x3cdda5ca	0.027056593
191	0xbdb4eeff	-0.088346474
192	0x3c3de3d8	0.011589967
193	0xbe97a5e4	-0.29618752
194	0xbda3cf24	-0.07998493
195	0xbe8671ee	-0.26258796
196	0x3de1d0e7	0.11026173
197	0xbcb0f060	-0.021598995
198	0x3e407a79	0.1879672
199	0xbe268397	-0.16261135
200	0xbe44bb21	-0.19212009
201	0x3d547fc9	0.051879678
202	0xbd14ed0c	-0.036358878
203	0xbe224062	-0.15844873
204	0x3e55a52b	0.20863788
205	0xbea3bd0c	-0.3198017
206	0xbe722b74	-0.23649389
207	0x3e3f9301	0.18708421
208	0x3b137bed	0.0022504285
209	0x3f520c96	0.82050455
210	0xbf1cdbf9	-0.6127315
211	0xbe1fa8a7	-0.1559168
212	0x3f484c35	0.7824128
213	0xbda5c84c	-0.08094844
214	0x3ee7ef98	0.45299983
215	0x3ead5223	0.33851728
216	0x3d356243	0.044283163
217	0x3e55c768	0.20876849
218	0xbe6e79f4	-0.23288709
219	0xbea01616	-0.3126685
220	0x3dcb9d45	0.09942106
221	0xbe8ee039	-0.27905443
222	0x3de60d96	0.1123306
223	0x3e6807a9	0.22659172
224	0x3eed7396	0.46377248
225	0x3e38e0f9	0.1805457
226	0x3d5a06a8	0.053229004
227	0x3e60c2fc	0.2194938
228	0xbe2e172f	-0.17001031
229	0xbde62cf9	-0.112390466
230	0xbcedd83e	-0.029033776
231	0x3f68c18d	0.90920335
232	0xbbde6335	-0.0067867287
233	0xbdabb736	-0.08384554
234	0x3bcba619	0.0062148687
235	0xbae20ffe	-0.0017247198
236	0x3df8fd85	0.1215773
237	0xbddda325	-0.10822133
238	0xbdd336ba	-0.10313173
239	0x3e011395	0.12605126
240	0x3d9f212c	0.07769999
241	0x3e29df14	0.16589004
242	0xbdd12db6	-0.10213797
243	0x3e80e062	0.2517119
244	0x3dd4defd	0.10394094
245	0x3cbfd91d	0.023418957
246	0xbda9035b	-0.08252593
247	0xbeecc5b5	-0.46244588
248	0xbeaaa377	-0.3332784
249	0xbcec9cf1	-0.02888343
250	0x3c67987f	0.014135479
251	0xbeb326fc	-0.3499068
252	0x3c557c34	0.013030101
253	0x3a52012b	0.00080110383
254	0x3cf357e5	0.029704997
255	0xbf795596	-0.9739622

actor.0.bias f4 [128]
0	0xbd6e4dbc	-0.058179602
1	0xbd090497	-0.033451643
2	0xbdec68a0	-0.11543393
3	0xbcb3d25e	-0.021950897
4	0x3dd2f52f	0.10300671
5	0xbe7ccae3	-0.2468677
6	0xbe0f0a88	-0.13968861
7	0xbd5391f5	-0.051652867
8	0xbe760d2b	-0.2402846
9	0x3eb3a5f1	0.3508754
10	0xbd779cdb	-0.060452323
11	0xbd402624	-0.046911374
12	0xbe03c4e7	-0.12868081
13	0x3d7a9286	0.061174892
14	0xbe3a0cba	-0.18168917
15	0xbc531295	-0.012882848
16	0x3d90eb2b	0.07076105
17	0xbd7ca7e0	-0.061683536
18	0x3be65e15	0.0070302584
19	0x3d805a4b	0.06267222
20	0x3d1d5a72	0.038416333
21	0xbc955aba	-0.018231738
22	0x3d51a88a	0.051186122
23	0xbc41bdfa	-0.011825079
24	0xbc4c2b30	-0.012461469
25	0x3d8e6aca	0.06953962
26	0x3d469dbc	0.04849027
27	0xbe527cff	-0.20555495
28	0xbeb113f9	-0.3458555
29	0x3dbd5eb8	0.09246582
30	0xbdcff94f	-0.10154974
31	0x3e068034	0.13134843
32	0xbdf2aaa6	-0.11848955
33	0x3db615fb	0.08890911
34	0xbe7961eb	-0.24353759
35	0xbc60d5f8	-0.013722889
36	0x3d80d4e4	0.06290606
37	0x3c453438	0.012036376
38	0xbe4e2fcc	-0.2013542
39	0xbddc1cf4	-0.1074771
40	0xbe029c22	-0.12754872
41	0x3db46e79	0.088101335
42	0xbd79708d	-0.060898352
43	0x38d26f92	0.00010034362
44	0x3da2e285	0.079533614
45	0xbe016683	-0.12636761
46	0x3c78714d	0.015163732
47	0xbd1f177c	-0.038840756
48	0xbda3e0ae	-0.080018386
49	0xbe42ea53	-0.190347
50	0x3d41aa8d	0.04728179
51	0xbd469190	-0.048478663
52	0xbe01118a	-0.12604347
53	0x3e0c5dc2	0.13707641
54	0xbdb7b0a2	-0.08969237
55	0x3d43c9d5	0.047799904
56	0xbdc527d0	-0.09626734
57	0xbc3c1b87	-0.011481172
58	0xbe11e52b	-0.14247577
59	0xbdbf8bd5	-0.09352843
60	0x3d87969e	0.06620525
61	0xbe009a20	-0.12558794
62	0x3d969d3c	0.07354209
63	0x3ccba947	0.024860991
64	0xbc75e501	-0.015008212
65	0x3e18265b	0.14858381
66	0x3d6a3aaf	0.05718487
67	0xbe3354ec	-0.17512864
68	0x3daeebef	0.085410945
69	0x3d88cdf0	0.066799045
70	0x3c0732c0	0.008251846
71	0x3caf33a6	0.021386933
72	0x3c503805	0.012708669
73	0xbdff0260	-0.12451625
74	0xbd2a6d2c	-0.04160802
75	0x3af5b592	0.0018746129
76	0xbe331349	-0.17487825
77	0xbd84ba16	-0.064808056
78	0xbe2f3c6d	-0.17112894
79	0x3d180b6b	0.037120264
80	0xbe7227c5	-0.23647983
81	0x3cd0d8af	0.025493948
82	0x3dfa835b	0.12232085
83	0xbe281bf9	-0.1641692
84	0xbc649549	-0.013951608
85	0x3de07a89	0.10960872
86	0xbd8bb70e	-0.06822024
87	0xbe4c3f06	-0.19945917
88	0x3e0e1992	0.13876942
89	0xbd99858c	-0.07496175
90	0xbe308768	-0.17239153
91	0x3d857989	0.065173216
92	0xbdbcf361	-0.09226108
93	0xbe8c53c9	-0.27407673
94	0x3e01279d	0.12612768
95	0x3eb17d5a	0.34665948
96	0x3c843896	0.016140264
97	0xbe6463d2	-0.22303703
98	0xbdab8a54	-0.08375993
99	0xbdc31f40	-0.09527445
100	0xbbef67a4	-0.007306056
101	0x3e08b3d8	0.13349855
102	0x3caa1dff	0.020766256
103	0x3d5d26f1	0.053992216
104	0x3dbc983e	0.092087254
105	0x3aa2b05d	0.001241218
106	0x3db7bf20	0.08972001
107	0xbf109b9e	-0.56487453
108	0xbd0ca34f	-0.03433543
109	0x3d985932	0.07438888
110	0x3dac5334	0.08414307
111	0x3cd8d7cd	0.02647009
112	0x3e2ffdb7	0.17186628
113	0x3e1f8de6	0.15581474
114	0xbdb8a40d	-0.09015665
115	0xbd961766	-0.07328682
116	0x3be3d07a	0.0069523426
117	0x3c9213be	0.01783168
118	0xbdafd31d	-0.085851885
119	0xbe31f07b	-0.17376892
120	0xbe0828c4	-0.13296801
121	0xbe2a2f3e	-0.16619584
122	0xbe1e92de	-0.15485713
123	0xbeb8b1be	-0.36073107
124	0xbe02205a	-0.12707654
125	0xbb25e857	-0.0025315487
126	0xb9a9393f	-0.00032276844
127	0x38e0f2da	0.00010726387

actor.2.weight f4 [128, 128]
0	0xbc512ba1	-0.01276675
1	0x3c9bdf0b	0.019027254
2	0xbd43dde0	-0.04781902
3	0x3d97a7b7	0.07405036
4	0xbc227702	-0.009916069
5	0xbdc466f0	-0.09589946
6	0xbe56e30a	-0.20985046
7	0xbe53da2e	-0.20688698
8	0x3d669d9e	0.05630266
9	0xbec26010	-0.37963915
10	0x3e490a0e	0.19632742
11	0xbd4bf536	-0.0497944
12	0xbd837e81	-0.06420613
13	0x3dbf6d06	0.093469664
14	0x3e437ceb	0.19090621
15	0x3ed18c74	0.4092747
16	0x3e6177b0	0.22018313
17	0xbe3ab3d0	-0.18232656
18	0xbcd68f90	-0.026191503
19	0xbe1b6aa3	-0.15177397
20	0xbcdda675	-0.027056912
21	0xbd2b980e	-0.041893058
22	0xbe342ede	-0.17596003
23	0xbc835f09	-0.016036527
24	0x3d4bda0f	0.049768504
25	0xbc9f97b7	-0.019481523
26	0xbe55f5bc	-0.20894521
27	0xbd777983	-0.060418617
28	0x3c987798	0.018611714
29	0x3e013369	0.12617268
30	0x3c243fd0	0.01002498
31	0xbc9e9ca0	-0.019361794
32	0xbe9a745f	-0.3016691
33	0xbda83945	-0.08214048
34	0x3df24e1d	0.11831305
35	0x3e165fee	0.14685032
36	0x3d24b7db	0.0402144
37	0xbd713169	-0.05888501
38	0xbd5123eb	-0.051059645
39	0x3df20269	0.11816866
40	0x3e061e99	0.1309761
41	0xbe0fdad3	-0.14048319
42	0x3d060c58	0.032726616
43	0x3c080bc8	0.00830359
44	0x3dde71fb	0.10861584
45	0xbd25ecb7	-0.040508952
46	0xbd45b452	-0.04826767
47	0xbca73fa8	-0.020416096
48	0xbd384ca5	-0.04499497
49	0xbd514ef7	-0.051100697
50	0xbb370d2e	-0.002793144
51	0xbe401fca	-0.18762127
52	0xbdc1f711	-0.09470952
53	0xbb281153	-0.0025645092
54	0xbe474c48	-0.19462693
55	0xbd607d8e	-0.05480724
56	0xbdf16e7f	-0.117886536
57	0x3e0a20d9	0.13489093
58	0xbe9d1fbe	-0.3068828
59	0x3cc2bed9	0.023772644
60	0xbc3f8d6a	-0.011691431
61	0xbd55cffc	-0.052200302
62	0xbd4899f9	-0.048974965
63	0xbcf5399d	-0.029934699
64	0x3d908475	0.07056514
65	0xbdfc7627	-0.12327223
66	0x3dc859fa	0.09782787
67	0xbe126bf3	-0.14298992
68	0x3c5fc4d7	0.01365777
69	0x3db473a8	0.08811122
70	0xbca9247f	-0.020647286
71	0xbd8ec22f	-0.06970631
72	0xbd6bed6a	-0.057599463
73	0xbea6774c	-0.3251289
74	0x3cbd78ab	0.023128828
75	0xbbedcb3c	-0.0072568934
76	0x3cc9b4b7	0.024622304
77	0xbe127233	-0.14301376
78	0x3da44570	0.08021057
79	0xbe975ebf	-0.29564473
80	0x3e21028b	0.15723626
81	0xbdf32e3e	-0.11874054
82	0xbe0ab283	-0.1354466
83	0x3d2c470f	0.042059954
84	0x3dbe6213	0.0929605
85	0xbddebb76	-0.10875599
86	0xbd95e78e	-0.07319556
87	0xbdccf038	-0.100067556
88	0xbda19021	-0.078888185
89	0xbece4f5b	-0.40294918
90	0x3e299fa4	0.16564804
91	0x3db876a5	0.09007005
92	0xbda82d0b	-0.08211716
93	0x3d16aebd	0.036787737
94	0xbd01d4e7	-0.03169718
95	0x3e9612de	0.2931127
96	0x3c6dfcb1	0.014525578
97	0x3bcf19b0	0.006320201
98	0x3e1d0840	0.15335178
99	0xbd60549a	-0.054768182
100	0x3d8831a4	0.06650093
101	0xbdb4690e	-0.088091
102	0xbe2955d9	-0.16536655
103	0xbe1fe7d0	-0.15615773
104	0xbe78cc42	-0.24296668
105	0x3dea9583	0.11454298
106	0x3c8547b3	0.01626954
107	0xbc2fa9d8	-0.010721646
108	0x3e5bda6f	0.21470045
109	0x3e133c66	0.14378509
110	0xbdc14613	-0.09437194
111	0xbcbadb3d	-0.02280962
112	0xbd95cec3	-0.07314827
113	0x3e443e9c	0.19164509
114	0x3cea1830	0.028575987
115	0xbdbf1b09	-0.093313284
116	0xbba78f6b	-0.0051135323
117	0xbe4f48ef	-0.20242666
118	0x3e137f33	0.14403991
119	0x3d3640c1	0.044495348
120	0x3d27d9fd	0.040979374
121	0x3d852f60	0.06503177
122	0xbdb8fec0	-0.09032965
123	0x3e29d2c2	0.16584304
124	0xbe2e0ebb	-0.16997807
125	0xbc77ddeb	-0.015128593
126	0x3d12551b	0.035725694
127	0xbe462c66	-0.19352874
128	0x3dbab44c	0.0911642
129	0xbe88cf82	-0.26720816
130	0x3e25b0f4	0.16180784
131	0xbc175d48	-0.009238549
132	0x3c8b6361	0.017015161
133	0x3e8139bb	0.25239357
134	0xbd5cab3c	-0.05387424
135	0xbe247fb6	-0.16064343
136	0xbeab7a99	-0.33491972
137	0x3dac8478	0.08423704
138	0xbe27ee27	-0.16399442
139	0xbcbd8234	-0.023133375
140	0xbd6f13a7	-0.05836835
141	0xbe7dad6d	-0.24773188
142	0xbd280ccd	-0.041027833
143	0x3ec375db	0.38175854
144	0xbdbd6fca	-0.09249838
145	0xbdaae656	-0.08344714
146	0xbea63040	-0.32458687
147	0xbdbdcdd3	-0.092677735
148	0xbf092e7e	-0.53586566
149	0xbe984d53	-0.29746494
150	0x3e941ff5	0.2893063
151	0xbd52aaee	-0.051432543
152	0x3e05d1ce	0.13068315
153	0xbdc55ecb	-0.09637221
154	0xbd87d259	-0.066319175
155	0x3e0e99ea	0.13925901
156	0x3e2c4296	0.16822276
157	0x3dbc3419	0.09189624
158	0x3e114107	0.14184962
159	0x3e91fff8	0.285156
160	0xbd8f0961	-0.06984211
161	0x3b54f299	0.0032493232
162	0xbd8f22a3	-0.06989028
163	0x3efa49af	0.4888434
164	0xbde6ed19	-0.112756915
165	0x3e7d73db	0.24751227
166	0xbe606948	-0.21915162
167	0xbe82ba56	-0.25532788
168	0xbe485aea	-0.19565931
169	0x3d45f181	0.04832602
170	0xbcb972fc	-0.022637837
171	0xbd61dc05	-0.055141468
172	0x3bf0b90a	0.007346277
173	0xbdae28d7	-0.08503883
174	0x3ca1b096	0.019737523
175	0xbd8a86b1	-0.067639716
176	0x3da4baf4	0.08043471
177	0x3d43cade	0.04780089
178	0x3d92ecf7	0.07174104
179	0xbe6277b1	-0.22115971
180	0xbe65d270	-0.22443557
181	0xbdd0c1af	-0.10193192
182	0xbca12249	-0.019669669
183	0xbe252cbc	-0.16130346
184	0xbd30c06a	-0.04315225
185	0x3ef4e852	0.47833496
186	0x3e2b3158	0.16718042
187	0xbe9ba49c	-0.30399024
188	0xbe003c24	-0.12522942
189	0xbe604a13	-0.21903257
190	0xbd63d691	-0.05562455
191	0xbda2622a	-0.079288796
192	0x3d2a34d6	0.041554295
193	0xbc8c21e7	-0.01710601
194	0xbe292793	-0.16519003
195	0xbdfc4eef	-0.12319743
196	0x3b07b630	0.0020707957
197	0x3dcdb97e	0.100451455
198	0x3e8ef3b0	0.27920294
199	0x3e346023	0.17614798
200	0x3b95da27	0.004573125
201	0x3e4d33f5	0.20039351
202	0xbd655c54	-0.055996254
203	0x3c792f2e	0.015209002
204	0xbe85fc93	-0.2616926
205	0x3e1c45ed	0.1526105
206	0xbde0222f	-0.1094402
207	0x3dfdc3ce	0.123908624
208	0xbe4dd78a	-0.20101753
209	0xbe15115c	-0.14557403
210	0xbd9bd2e1	-0.07608581
211	0x3c939bf1	0.018018695
212	0xbe964ed7	-0.29357025
213	0xbdc9f033	-0.098602675
214	0xbd587a06	-0.052850746
215	0x3ca31035	0.019905189
216	0x3e4b7116	0.19867358
217	0x3cc85f2d	0.024459446
218	0xbe1e1b9c	-0.1544022
219	0x3ce2f3f6	0.02770422
220	0xbe0c0547	-0.13673888
221	0xbf2a407a	-0.66504633
222	0x3ddeb5d2	0.10874523
223	0xbe41966d	-0.18905039
224	0x3dbe2a79	0.09285445
225	0x3cf7ca57	0.03024785
226	0x3d342eaf	0.043989833
227	0x3e141e4b	0.14464681
228	0xbd23d02f	-0.03999346
229	0xbd69aa9d	-0.057047475
230	0x3bbfa0c6	0.005848023
231	0x3ea758c7	0.3268492
232	0xbd6efa88	-0.058344394
233	0xbdb10fa9	-0.08645565
234	0x3e74f9d8	0.23923433
235	0xbe890841	-0.2676411
236	0xbdd2d8d6	-0.102952644
237	0xbd22969c	-0.039694414
238	0xbcc4131c	-0.023934893
239	0x3cd86b43	0.026418334
240	0xbdca0510	-0.09864247
241	0x3e99ecf7	0.30063602
242	0x3c14bd36	0.0090783145
243	0xbd5729b7	-0.052530017
244	0xbe059568	-0.13045275
245	0xbe2add86	-0.16686067
246	0x3da8436f	0.08215987
247	0xbdff15da	-0.1245534
248	0xbda913c9	-0.08255727
249	0xbef312f1	-0.4747539
250	0x3e46968b	0.19393365
251	0xbe38751c	-0.18013424
252	0x3e91889e	0.28424543
253	0xbe71373b	-0.23556225
254	0xbd4375f7	-0.047719922
255	0x3e6ed36b	0.23322837

actor.2.bias f4 [128]
0	0xbe79079c	-0.24319309
1	0xbdb5701d	-0.088592745
2	0xbd915c85	-0.07097725
3	0xbda8c0ab	-0.082398735
4	0xbebab318	-0.36464763
5	0xbe9c4fbc	-0.30529583
6	0x3e8cac30	0.2747512
7	0xbec9fca6	-0.39450568
8	0x3e2eb19e	0.17059943
9	0xbe6f3deb	-0.23363464
10	0x3eac87f3	0.3369747
11	0x3d856b78	0.06514639
12	0xbe918e1a	-0.28428727
13	0xbece1d7a	-0.40256864
14	0xbf772c4a	-0.96551955
15	0xbf016907	-0.50550884
16	0xbe52a60b	-0.20571153
17	0xbed9fda1	-0.42576316
18	0xbf1659ef	-0.5873098
19	0x3df24867	0.11830216
20	0xbe7d1abe	-0.24717233
21	0xbe9e6f69	-0.30944374
22	0xbcb6694b	-0.022267004
23	0xbe8018d9	-0.25018957
24	0xbd8e41fb	-0.069461785
25	0x3dd0fb74	0.10204211
26	0x3e9b3b05	0.30318466
27	0xbe9f6b11	-0.31136373
28	0x3e667038	0.22503746
29	0xbd94fc66	-0.07274704
30	0xbe905534	-0.28190005
31	0xbe976c18	-0.29574656
32	0xbebca604	-0.3684541
33	0xbda159be	-0.07878445
34	0xbed60b12	-0.4180532
35	0xbd940574	-0.072276026
36	0xbde1e1d7	-0.11029404
37	0x3eae0d6d	0.33994618
38	0xbe65379f	-0.22384499
39	0xbec0a117	-0.37622902
40	0x3de6bc4e	0.11266385
41	0x3e6b222f	0.22962259
42	0x3eb668c8	0.35626817
43	0xbdc8794d	-0.09788761
44	0xbdf01a89	-0.11723811
45	0xbf2b7f2f	-0.6699094
46	0xbe1d4d11	-0.1536143
47	0xb9cbfe1d	-0.00038908506
48	0xbe3cac9a	-0.18425217
49	0xbe26c7e1	-0.16287185
50	0xbe6beb0d	-0.23038884
51	0xbdbe670f	-0.092970006
52	0xbd81e354	-0.063421875
53	0xbec7094e	-0.38874286
54	0x3e188c8b	0.14897363
55	0x3e7a6e11	0.2445605
56	0x3d7e3916	0.06206616
57	0xbc8fa56d	-0.017534936
58	0x3d0712cd	0.032976914
59	0xbf416698	-0.7554717
60	0xbe3dc9e3	-0.18534045
61	0xbe86258b	-0.26200518
62	0xbeb757ea	-0.3580926
63	0xbe99a7d4	-0.30010855
64	0x3e283fab	0.16430537
65	0xbe4e41c0	-0.20142269
66	0xbdcd8c58	-0.10036534
67	0xbe1f5236	-0.15558705
68	0xbcd2a589	-0.025713699
69	0xbe3b7f2f	-0.18310235
70	0xbe589262	-0.2114959
71	0xbe4d948f	-0.20076202
72	0x3e79dd64	0.2440086
73	0x3ddfff7e	0.10937403
74	0x3c1a3502	0.009412052
75	0xbe7a7c9b	-0.24461596
76	0xbda5d95a	-0.08098097
77	0xbdacbf5d	-0.08434937
78	0x3cdfcaef	0.027318446
79	0xbd9cb62a	-0.076519325
80	0xbe02a22f	-0.1275718
81	0xbf0d9877	-0.5531077
82	0xbea8e561	-0.32987502
83	0xbe5f3a67	-0.21799622
84	0x3e00ea9a	0.12589493
85	0xbeeb3eca	-0.45946342
86	0xbd63c2ca	-0.055605687
87	0xbe812bcf	-0.25228736
88	0xbd510a31	-0.05103511
89	0x3d6982c9	0.057009492
90	0xbe2204ff	-0.15822218
91	0xbed19705	-0.4093553
92	0x3d85bfdd	0.06530736
93	0xbe8c0554	-0.27347815
94	0x3dc30076	0.09521572
95	0xbeef4a92	-0.4673658
96	0x3de65b05	0.11247829
97	0xbdddffca	-0.108398035
98	0x3e5d7956	0.21628317
99	0xbe5ab6a7	-0.21358739
100	0xbe85c0dc	-0.26123703
101	0xbe3d2c0c	-0.18473834
102	0xbe198715	-0.14992936
103	0xbf76a6eb	-0.96348447
104	0xbe4d789f	-0.20065545
105	0x3e2afcff	0.16698073
106	0xbe614b61	-0.22001411
107	0x3e421a24	0.18955284
108	0x3e6db107	0.23212062
109	0xbe8e55c9	-0.27799824
110	0xbe2ac433	-0.16676407
111	0xbe21c247	-0.15796767
112	0xbe38e6ad	-0.18056746
113	0xbed9d9fd	-0.42549124
114	0xbe2bda91	-0.16782595
115	0xbe8704c5	-0.26370826
116	0xbe78aedf	-0.24285458
117	0xbe41cb0a	-0.1892511
118	0xbd404e76	-0.046949826
119	0x3d723992	0.059136935
120	0xbe5eb7b7	-0.21749769
121	0xbe814c78	-0.25253654
122	0xbdab0b1a	-0.08351727
123	0x3e672e4b	0.22576253
124	0x3c746c56	0.014918407
125	0xbfac78cc	-1.3474364
126	0xbe019889	-0.12655844
127	0xbe9bc774	-0.30425608

actor.4.weight f4 [128, 128]
0	0xbd7d1fce	-0.06179791
1	0xbd6990f5	-0.057023007
2	0xbc001412	-0.007817285
3	0xbdcc0611	-0.099620946
4	0xbebab0e7	-0.3646309
5	0xbdca2048	-0.098694384
6	0x3bbfb58e	0.0058505004
7	0xbeb23a4c	-0.34810102
8	0xbd1399df	-0.036035415
9	0xbd617028	-0.0550386
10	0xbd840416	-0.06446092
11	0xbd257c33	-0.04040165
12	0x3afd3f6e	0.0019321272
13	0x3da74eca	0.08169325
14	0xbc94d2fa	-0.018167008
15	0xbd865286	-0.06558709
16	0x3e68ad89	0.22722448
17	0xbd9cabcd	-0.07649956
18	0x3a492dcb	0.0007674365
19	0x3e317279	0.17328824
20	0x3d7d9f5c	0.061919555
21	0xbd8b96ed	-0.06815896
22	0x3e12a21d	0.14319654
23	0x3ec44acc	0.38338315
24	0xbe5d438c	-0.21607798
25	0xbb847d05	-0.004043224
26	0xbdd3990f	-0.10331928
27	0xbda15f38	-0.0787949
28	0xbe41667b	-0.1888675
29	0xbc35df5e	-0.011100618
30	0xbd27f060	-0.041000724
31	0x3e2ae3bf	0.1668844
32	0x3e873c5a	0.26413232
33	0x3d429e44	0.047514215
34	0x3dbb3409	0.09140784
35	0xbc0b5c1a	-0.008505845
36	0x3c2ab251	0.0104184905
37	0xbf0c70a7	-0.54859394
38	0x3e1a7b09	0.15085997
39	0x3cdef46c	0.027216159
40	0xbe33376f	-0.17501615
41	0xbe63bbc1	-0.22239591
42	0x3dc60dc7	0.096705966
43	0x3dbd318b	0.09237965
44	0x3da6977b	0.08134361
45	0x3d1a355a	0.037648536
46	0xbe60c685	-0.21950729
47	0x3dbb499a	0.09144898
48	0x3e847db6	0.2587716
49	0x3bcb1719	0.006197822
50	0x3ea823d7	0.32839844
51	0xbe86ebd8	-0.2635181
52	0xbdc8cad3	-0.09804311
53	0xbd87e3c2	-0.06635238
54	0xbda3c907	-0.07997327
55	0xbefdd2e0	-0.49574947
56	0xbde81fa2	-0.113341585
57	0xbe440b17	-0.19144855
58	0x3d398607	0.045293834
59	0xbbdb54b2	-0.006693446
60	0xbd7b6845	-0.061378736
61	0xbe70e2eb	-0.23524062
62	0xbd9d413e	-0.076784596
63	0x3c82c703	0.015964037
64	0xbe2705d1	-0.16310813
65	0x3e0e73fd	0.13911434
66	0xbdfa0609	-0.12208182
67	0xbcf86c1d	-0.03032499
68	0xbe751a53	-0.23935823
69	0x3dc27f0e	0.0949689
70	0x3dbb2cc6	0.09139399
71	0xbee04296	-0.438008
72	0xbd135bdd	-0.03597628
73	0x3e33337c	0.17500108
74	0xbea93148	-0.3304541
75	0xbe018c86	-0.12651262
76	0xbdb00af4	-0.08595839
77	0xbd1d0750	-0.038337052
78	0x398fbc1f	0.00027415247
79	0x3cc470e7	0.023979617
80	0x3cd697f1	0.026195498
81	0x3ef24b33	0.47322997
82	0xbe0ee084	-0.13952833
83	0xbea90366	-0.33010405
84	0x3c1874d0	0.009305194
85	0x3e94e2f4	0.29079401
86	0x3d0cf5c1	0.034414057
87	0xbe68add6	-0.22722563
88	0x3d5ccd57	0.053906765
89	0xbd64bc0a	-0.05584339
90	0x3eae7c54	0.3407923
91	0xbcc1b0d6	-0.023643892
92	0xbd676b98	-0.056499094
93	0xbe6d090d	-0.23147984
94	0x3cb6d2c5	0.0223173
95	0xbd695839	-0.0569689
96	0x3cfed3e9	0.031106906
97	0x3c9070f3	0.017631983
98	0xbddf5e3c	-0.10906646
99	0x3e73aebb	0.23797123
100	0xbe0d1fd2	-0.1378167
101	0x3e7c6b80	0.24650383
102	0xbdbfd25a	-0.09366293
103	0x3e9dab3c	0.30794704
104	0xbdfcb9d5	-0.12340132
105	0x3df8e4cc	0.121530145
106	0xbea03713	-0.31292018
107	0x3d2c8e80	0.042128086
108	0x3dae536c	0.08512005
109	0xbc81fefe	-0.01586866
110	0xbc62d70d	-0.013845217
111	0xbdb0befe	-0.08630179
112	0xbdfcb2df	-0.123388045
113	0xbc6c74b6	-0.014432123
114	0xbd92cc18	-0.07167834
115	0x3dbd5bd9	0.09246034
116	0xbe23593a	-0.15952006
117	0xbe1b56c4	-0.15169817
118	0xbf0e3509	-0.55549675
119	0xbd098fff	-0.03358459
120	0xbd92805b	-0.07153388
121	0xbd0b4075	-0.033997018
122	0xbd599c12	-0.053127356
123	0x3d67dd68	0.056607634
124	0x3cf91a37	0.030408008
125	0x3e162e93	0.14666204
126	0xbda6a9a6	-0.081378266
127	0xbde7975f	-0.113081686
128	0xbc43b6ce	-0.0119454395
129	0xbe1c4a8e	-0.15262815
130	0xbf116f76	-0.568107
131	0x3dbbf325	0.091772355
132	0x3dfb15d7	0.12260025
133	0xbdebc90f	-0.11512958
134	0xbcfcc165	-0.030853936
135	0xbc3538a0	-0.011060864
136	0xbe775dbd	-0.24156852
137	0x3d0e4604	0.03473474
138	0x3d6c9674	0.05776067
139	0xbe25f6c4	-0.16207415
140	0x3e062f3a	0.13103953
141	0x3d2e6d39	0.04258463
142	0xbd7887e7	-0.06067648
143	0x3c930a85	0.017949352
144	0x3cf2a499	0.029619502
145	0x3df4b109	0.11947829
146	0xbd388672	-0.045050092
147	0xbdc27806	-0.09495549
148	0x3afea272	0.0019427075
149	0xbda9764f	-0.08274519
150	0xbdca6418	-0.098823726
151	0xbd2c73c2	-0.042102583
152	0xbd3d78e1	-0.046257857
153	0xbcb871e5	-0.022515247
154	0x3cebf569	0.028803544
155	0xbdb71833	-0.089401625
156	0x3e029862	0.12753442
157	0xbece7bdd	-0.40328875
158	0x3cf9dc9e	0.030500706
159	0xbd74478c	-0.059638545
160	0x3e338d2a	0.17534319
161	0xbde561c9	-0.11200292
162	0x3c2edd01	0.010672809
163	0x3ba0e204	0.0049097557
164	0x3e946f73	0.2899128
165	0x3df7ee5c	0.1210601
166	0xbc05b202	-0.008160116
167	0xbe8ec9b3	-0.2788826
168	0x3cfeaecb	0.031089207
169	0xbd930d2e	-0.07180248
170	0xbdbda2e0	-0.092595816
171	0x3d5fc88f	0.054634627
172	0xbbd0ed74	-0.006375963
173	0x3da84b91	0.08217538
174	0x3d46c493	0.04852731
175	0x3ccefe77	0.025267823
176	0xbe3c2e79	-0.18377103
177	0x3dca6137	0.098818235
178	0x3b42b583	0.002971024
179	0xbd206b1e	-0.039164655
180	0x3bd9d8ba	0.0066481503
181	0xbd936a91	-0.0719806
182	0xbe39314b	-0.1808521
183	0xbd072809	-0.032997165
184	0x3de2dc71	0.11077202
185	0xbdebac8e	-0.115075216
186	0xbdd383f3	-0.10327902
187	0xbcc0f72c	-0.02355536
188	0xbd125f9f	-0.035735723
189	0x3e10d0cf	0.14142154
190	0x3db02b0f	0.08601963
191	0xbde32da2	-0.11092688
192	0xbe06d6b3	-0.13167839
193	0x3cbabf08	0.022796169
194	0xbd152072	-0.036407895
195	0x3dba92a3	0.0911
196	0x3da168cf	0.07881319
197	0x3d73cca1	0.05952132
198	0xbbbedeaa	-0.0058248835
199	0x3d8db9ab	0.06920179
200	0xbc262f28	-0.010143079
201	0xbc63cdae	-0.013904018
202	0xbb7b858d	-0.0038379163
203	0xbc8e333c	-0.017358415
204	0xbde6b9f3	-0.11265936
205	0x3e8a2697	0.26982567
206	0xbd528afa	-0.05140207
207	0xbe3e8aca	-0.18607631
208	0xbcdb7d60	-0.026793182
209	0xbd40c7bd	-0.047065485
210	0x3cfb8d01	0.030706884
211	0xbad8224f	-0.0016489717
212	0xbdd65e5d	-0.10467217
213	0x3d3e5698	0.0464693
214	0x3e083247	0.1330043
215	0x3ca11e1b	0.019667676
216	0xbd8d0b6e	-0.06886946
217	0x3e1f8f8a	0.155821
218	0xbcb505c0	-0.022097468
219	0xbde62c55	-0.112389244
220	0x3e152e95	0.14568551
221	0x3e2bb486	0.16768083
222	0xbd25b553	-0.040456127
223	0xbd126010	-0.035736144
224	0xbe3bdefa	-0.18346778
225	0xbdabd4c5	-0.08390192
226	0x3da0aef4	0.0784587
227	0x3d1281b0	0.03576821
228	0xbda1159a	-0.07865448
229	0xbe7ac80f	-0.24490379
230	0x3db43925	0.08799962
231	0xbd9554a6	-0.07291536
232	0xbda86be4	-0.082237035
233	0xbd7c2626	-0.06155982
234	0xbe3226fd	-0.17397685
235	0xbdd596ce	-0.10429154
236	0xbb569685	-0.0032743525
237	0xbe6225de	-0.22084758
238	0xbd90be7c	-0.07067582
239	0xbe1233eb	-0.14277618
240	0xbe142d17	-0.14470325
241	0xbc0b0b66	-0.008486604
242	0x3de80f70	0.113310695
243	0x3d4c7127	0.049912598
244	0xbd96b601	-0.07358933
245	0xbe850d5a	-0.2598675
246	0x3e85f0ac	0.2616018
247	0xbca967d4	-0.020679392
248	0xbde50f30	-0.111845374
249	0x3e18d62a	0.14925447
250	0xbdaf2f34	-0.08553925
251	0xbdaf0cc7	-0.08547359
252	0xbd00182f	-0.031273063
253	0xbcc39085	-0.023872623
254	0x3d37b017	0.044845667
255	0x3dc865fd	0.09785078

actor.4.bias f4 [128]
0	0xbe16b456	-0.1471723
1	0xbd633aaa	-0.05547587
2	0xbd94cb41	-0.0726533
3	0xbc76ab54	-0.015055496
4	0xbde37ffa	-0.11108394
5	0xbf7ad4fc	-0.9798124
6	0xbe63985f	-0.22226094
7	0x3c6fd28f	0.014637603
8	0xbf794254	-0.97366834
9	0xbe760db9	-0.24028672
10	0xbe6731ff	-0.22577666
11	0xbe9b818f	-0.30372283
12	0x3dc9b030	0.09848058
13	0xbe39a406	-0.18128976
14	0xbe42624e	-0.18982813
15	0xbd8e5cfc	-0.06951329
16	0xbe28b6c6	-0.16475973
17	0xbd9b970f	-0.075971715
18	0xbede05cd	-0.433638
19	0xbecb6e42	-0.39732558
20	0xbe47de97	-0.19518505
21	0xbe8c400a	-0.27392608
22	0x3df413af	0.11917817
23	0x3cf483bd	0.029847974
24	0xbe551d4a	-0.20811954
25	0xbd0f1659	-0.03493342
26	0xbeaa50ba	-0.33264714
27	0xbc04a3d0	-0.008095697
28	0xbeac9315	-0.33705965
29	0xbe6af001	-0.22943117
30	0xbea8964e	-0.32927173
31	0xbdd36216	-0.10321443
32	0xbd94df12	-0.0726911
33	0xbee25f13	-0.4421316
34	0xbe96f6ba	-0.29485112
35	0xbd804af8	-0.06264299
36	0xbc5cd26d	-0.013477904
37	0xbd8c5b23	-0.068533204
38	0xbd85be8e	-0.06530486
39	0xbe00603c	-0.1253671
40	0x3d78f364	0.06077899
41	0xbe0822d9	-0.13294543
42	0xbe0597ea	-0.13046232
43	0xbe7131dc	-0.23554176
44	0xbe27eb82	-0.16398433
45	0xbe15a087	-0.14612018
46	0xbdad4249	-0.084599085
47	0x3de619fe	0.11235426
48	0x3bb87c91	0.005630084
49	0xbebb837d	-0.36623755
50	0xbd641273	-0.055681657
51	0xbea80763	-0.32818136
52	0xbe460bd4	-0.1934045
53	0xbe9a0d81	-0.30088428
54	0xbeca9e2f	-0.3957381
55	0xbe8e3792	-0.27776772
56	0xbd9915f4	-0.0747489
57	0xbdb02e51	-0.08602584
58	0xbe933013	-0.28747615
59	0xbe3687c0	-0.17825222
60	0xbf6ebf6c	-0.93260837
61	0xbe726760	-0.23672247
62	0xbeea5e31	-0.45774987
63	0x3a321777	0.00067936577
64	0xbdc0e7cf	-0.09419214
65	0xbe39c06e	-0.18139812
66	0xbdadd9db	-0.08488818
67	0xbe10d9b1	-0.14145543
68	0xbe22d2a2	-0.15900663
69	0xbe683783	-0.22677426
70	0xbe753cae	-0.23948929
71	0xbd43bc63	-0.04778708
72	0xbd9e4dcd	-0.07729683
73	0xbdf03f67	-0.11730843
74	0xbf301f2e	-0.68797576
75	0xbe249f03	-0.16076283
76	0x3c902286	0.017594587
77	0xbe985ebc	-0.29759777
78	0x3dae6042	0.085144535
79	0xbeb2fa4f	-0.34956595
80	0xbe95f8fb	-0.2929152
81	0xbe5035b1	-0.20332982
82	0xbe5679ed	-0.20944948
83	0xbd36854d	-0.04456072
84	0xbe5608c4	-0.20901781
85	0x3b11c544	0.0022242824
86	0xbe19705e	-0.14984271
87	0x3c8a1384	0.016855009
88	0xbe263e9f	-0.16234826
89	0xbdb606a8	-0.08887988
90	0xbe89bc45	-0.2690145
91	0xbf3dcd0d	-0.7414101
92	0xbd217c1b	-0.039424997
93	0xbee2b7cf	-0.4428086
94	0xbeb52eea	-0.35387355
95	0xbe81a4f4	-0.25321162
96	0x3c25ce13	0.010119933
97	0xbe92ebed	-0.28695622
98	0xbeedde74	-0.4645878
99	0x3c39d2f2	0.011341797
100	0xbe94e221	-0.29078773
101	0xbecd0a6f	-0.40047023
102	0x3dbbb185	0.091647185
103	0xbec0d3c9	-0.3766158
104	0xbce47903	-0.027889734
105	0xbdb2d0bc	-0.08731219
106	0xbedf5638	-0.43620467
107	0xbd525286	-0.05134823
108	0xbeacc1d8	-0.3374164
109	0xbd1d96b6	-0.038473807
110	0x3d155d31	0.036465827
111	0xbe7c8958	-0.24661767
112	0xbeb64f6a	-0.35607463
113	0xbe5bc4a6	-0.21461734
114	0xbea9d2d9	-0.33168676
115	0xbdb6b39c	-0.089209765
116	0x3da2dfd7	0.0795285
117	0xbd901660	-0.07035518
118	0xbe9b7c10	-0.3036809
119	0xbddbbd0a	-0.10729416
120	0xbcdda014	-0.02705387
121	0x3d256beb	0.04038612
122	0xbf648adc	-0.8927438
123	0xbe49ca84	-0.1970616
124	0xbe3f4b8e	-0.18681166
125	0xbe5c7990	-0.21530747
126	0xbc5cb594	-0.013471026
127	0xbd80fdfe	-0.06298445

actor.6.weight f4 [12, 128]
0	0x3bdd9339	0.006761935
1	0x399c0d92	0.0002976475
2	0xbd2c0b17	-0.042002764
3	0xbd0773f2	-0.03306956
4	0x3cc8f2d5	0.024529854
5	0x3db6e89f	0.08931088
6	0xbc8bec47	-0.01708044
7	0xbcf54711	-0.029941114
8	0xbba2e4d5	-0.0049711266
9	0x3bfdfc2f	0.00775101
10	0x3c413d96	0.011794468
11	0xbca32dbb	-0.019919267
12	0xbc6f7e77	-0.014617554
13	0xbd33767a	-0.04381416
14	0x3b2aa1ff	0.0026036499
15	0x3aba129d	0.0014196221
16	0x3dedeaf2	0.11617078
17	0xbc3318aa	-0.010931173
18	0xbc83104e	-0.015998986
19	0x3aa92a17	0.001290622
20	0x3a568acd	0.0008184135
21	0x3c53f278	0.012936227
22	0x3a55cce6	0.00081558374
23	0x3c21b74b	0.009870361
24	0x3bedbf6e	0.007255486
25	0x3b3582fc	0.002769648
26	0x3c74752d	0.014920515
27	0xbb4e78d0	-0.0031505115
28	0xbc5fbfb4	-0.013656545
29	0xbca2f0b1	-0.019890161
30	0xbdbe17f8	-0.092819154
31	0x3c825066	0.015907478
32	0xbaeb35dd	-0.001794513
33	0xbcc870f1	-0.024467917
34	0xbc30c3d1	-0.010788874
35	0x3a720029	0.0009231591
36	0x3c687f3d	0.014190492
37	0xbbe3a4dc	-0.006947143
38	0x3b7f6b54	0.0038973885
39	0xbd451f5e	-0.048125617
40	0x39d034fe	0.00039712334
41	0xbc4553c6	-0.012043899
42	0xbc915d78	-0.017744765
43	0x3949e937	0.00019255733
44	0x3cb31791	0.021861823
45	0x3c372e68	0.011180498
46	0x3d55e290	0.05221802
47	0xbbe2c3c9	-0.006920312
48	0x3cdccd91	0.02695349
49	0x3d143029	0.03617874
50	0x3bff58d5	0.007792572
51	0xbce59fd5	-0.028030315
52	0xbd5f2a33	-0.054483604
53	0xbd18984e	-0.037254624
54	0x3d1906e8	0.037360102
55	0x3ba2c0cb	0.0049668304
56	0x3b3bb5ad	0.0028642223
57	0xbd0cb257	-0.034349766
58	0xbb4c9179	-0.0031214638
59	0x3d31df1e	0.04342567
60	0xbd8ed3a7	-0.06973963
61	0x3b06931c	0.0020534461
62	0xbb10c1fb	-0.0022088278
63	0xbcefd6d5	-0.029277245
64	0xbb40f0fa	-0.0029440508
65	0xbd263975	-0.04058214
66	0x3cb4d69f	0.022074996
67	0xbb0cc323	-0.0021478615
68	0x3d506f0d	0.050887156
69	0xbba3c5d2	-0.0049979473
70	0xba8625fe	-0.0010234711
71	0xbc5af61b	-0.01336434
72	0x3d16ca86	0.036814235
73	0xb929824e	-0.00016165638
74	0x3c80ba66	0.015713882
75	0x3c0bb950	0.008528069
76	0xbbccacdc	-0.0062461924
77	0xbc2c063f	-0.010499536
78	0x3b9983b2	0.0046848888
79	0xbc0a4679	-0.008439654
80	0x3d56d2d9	0.052447174
81	0x3d011362	0.031512626
82	0x3cb9b1ab	0.022667727
83	0xbc047b23	-0.008085999
84	0xbd53527f	-0.051592346
85	0xbc647365	-0.013943528
86	0x3b9c3726	0.0047673164
87	0x3d05d538	0.032674044
88	0xbc8518c1	-0.016247155
89	0xbcd37305	-0.025811682
90	0xbccc8680	-0.024966478
91	0x3cea53ad	0.028604353
92	0x3ca12363	0.019670194
93	0x3cc3f0bf	0.023918508
94	0xbc4f1c16	-0.012640974
95	0x3d149010	0.0362702
96	0x3b8b11f8	0.0042440854
97	0xbce0b4a2	-0.027429882
98	0xbd40faa2	-0.047114022
99	0x3c22f236	0.009945443
100	0x3c6ae155	0.01433595
101	0x3d0959bc	0.033532843
102	0xbb856363	-0.0040706857
103	0xbc913e07	-0.017729772
104	0xbc088a8e	-0.008333815
105	0x3c19c2ad	0.009384793
106	0x3d0b2863	0.033974063
107	0x3d359347	0.044329908
108	0xbcbbeae5	-0.022939155
109	0x3bc8c1d1	0.0061266203
110	0xbc94e44f	-0.018175272
111	0x3d16059f	0.036626454
112	0x3c85f60a	0.016352672
113	0x3c1c0588	0.009522803
114	0xbcc05325	-0.023477146
115	0x3c5e4238	0.0135655925
116	0x3abe1752	0.00145028
117	0xbd15acf7	-0.036541905
118	0xbd324c18	-0.0435296
119	0xbc650992	-0.0139793325
120	0x3bf87def	0.007583372
121	0xbba5bfca	-0.0050582634
122	0x3b3d64ac	0.0028899116
123	0x3c966113	0.018356835
124	0xbbb6c080	-0.005577147
125	0xbd047eac	-0.032347366
126	0xbb0d490e	-0.0021558437
127	0x3bfac5e3	0.0076529845
128	0xbb1eee0c	-0.0024250774
129	0xb9f1a099	-0.00046086757
130	0x3d02fb2c	0.031977817
131	0xbbc526d1	-0.00601659
132	0xbcc5c9d3	-0.024144089
133	0x3bcf019f	0.006317332
134	0x3d615902	0.055016525
135	0x3ba5f234	0.0050642733
136	0xbdb5770c	-0.08860597
137	0x39963421	0.0002864907
138	0xbc6fd951	-0.014639215
139	0x3ce2c5da	0.027682234
140	0x3b94a9c4	0.004536839
141	0xbc5fb00c	-0.013652813
142	0xbbd103e9	-0.00637864
143	0xbacf4213	-0.0015812538
144	0xbd505469	-0.05086175
145	0xbc6ef910	-0.014585748
146	0x3d440a22	0.047861226
147	0xbcc1254e	-0.023577359
148	0x3ca8ca82	0.020604376
149	0x3c108b20	0.0088222325
150	0xb94ff2e7	-0.00019831547
151	0x3c5a30be	0.013317285
152	0xbc347080	-0.01101315
153	0x3cecf464	0.028925128
154	0x3cbf93db	0.023385933
155	0x3b32d523	0.0027287684
156	0x3ce808d7	0.028324528
157	0xba28f1c7	-0.0006444719
158	0x3d32b6d7	0.0436314
159	0x3b246a4d	0.0025087774
160	0xbb79d17d	-0.003811925
161	0x3b1e78c3	0.0024180866
162	0xbcb2c1a3	-0.021820849
163	0x3b10df94	0.002210592
164	0x3c314b0a	0.010821113
165	0xbd19d8c9	-0.037560258
166	0xbbf3757d	-0.007429777
167	0xbb9af1c1	-0.0047285263
168	0xb9324380	-0.00017000549
169	0x3baebd39	0.0053326157
170	0x3cd7404b	0.026275774
171	0x3b405f31	0.0029353613
172	0x3c366b4e	0.011133982
173	0xbbe89492	-0.007097789
174	0xbd069a3c	-0.032861933
175	0x3c9627e6	0.018329572
176	0xbcdbc367	-0.026826574
177	0xbbb18d75	-0.0054184743
178	0xbbfc9b70	-0.0077089593
179	0x3c64d6a8	0.013967194
180	0x3c8a4acd	0.01688137
181	0x3cc7d8dd	0.0243954
182	0x3cc37e65	0.02386398
183	0xbd13215e	-0.035920493
184	0xbc26138f	-0.010136499
185	0xbd344d53	-0.044019055
186	0xb95c81ff	-0.00021029262
187	0x3d542af5	0.05179878
188	0xbaf31c05	-0.0018547779
189	0x3c8af8ea	0.016964395
190	0x3cc87951	0.02447191
191	0xbb44ea61	-0.0030046927
192	0xbc809212	-0.015694652
193	0xbcbb95c6	-0.022898566
194	0x3d153893	0.036430907
195	0xba90d6c4	-0.0011050333
196	0xbded7396	-0.11594312
197	0x3c49db90	0.012320414
198	0xbd01e420	-0.031711698
199	0xbc2c03d9	-0.010498964
200	0x3bf40540	0.007446915
201	0xbbfb4a66	-0.007668781
202	0xbce72127	-0.02821405
203	0x3c1b2311	0.00946881
204	0xbbdf915c	-0.006822748
205	0xbd171af2	-0.03689093
206	0xbafdaf39	-0.0019354589
207	0xbc55a7be	-0.013040481
208	0xbc1f4cc1	-0.009722889
209	0x3a0dd2ee	0.0005410154
210	0x3d25f511	0.040516917
211	0xbca0db18	-0.019635722
212	0xbd2fed37	-0.042950835
213	0x3b1def50	0.002409894
214	0x3d486e7b	0.048933487
215	0xbd568611	-0.05237395
216	0xbae46e00	-0.0017427802
217	0x3c936e2f	0.017996876
218	0x3d17b911	0.037041727
219	0xbc806cce	-0.015676882
220	0x3be35d75	0.006938631
221	0xbaa20b7f	-0.0012363045
222	0x3c9156d9	0.017741608
223	0xbc842c15	-0.016134301
224	0x3b37e2ef	0.0028058847
225	0x3ca6827f	0.020325897
226	0x3c876b11	0.016530545
227	0xbb3cbaa2	-0.0028797765
228	0xbc3e5424	-0.01161674
229	0xbd0c3a81	-0.03423548
230	0x3c751674	0.0149589665
231	0x3c4f2ee7	0.01264546
232	0xbc13bad2	-0.009016709
233	0x3c69e3d3	0.014275509
234	0xbd0752c5	-0.03303792
235	0x3d0c6fd9	0.034286354
236	0xbc68d780	-0.014211535
237	0x3d09d13c	0.033646807
238	0x3bde48a9	0.006783564
239	0x3c23bd31	0.009993837
240	0xbd157606	-0.03648951
241	0xbd572081	-0.052521233
242	0xbd17dd67	-0.03707638
243	0x3d32824e	0.0435813
244	0xbbb08f35	-0.0053881654
245	0xbcb8cb1f	-0.022557793
246	0x3dbfd1fc	0.09366223
247	0xbc179171	-0.0092509845
248	0x3bdb4cca	0.0066925036
249	0x3cf7dae7	0.030255748
250	0x3d8ef3a0	0.069800615
251	0x3bb0d039	0.005395916
252	0xbc9ada91	-0.018903049
253	0x3d2da430	0.04239291
254	0x3c6a00bb	0.014282401
255	0xbb808cee	-0.00392305

actor.6.bias f4 [12]
0	0xb9d35add	-0.00040312755
1	0xba101381	-0.00054960704
2	0xbda91f04	-0.08257869
3	0x3da888d0	0.0822922
4	0xbd697a21	-0.057001237
5	0xbd655216	-0.055986486
6	0x3db07fa4	0.086180955
7	0x3db0b866	0.08628921
8	0x3e8dae71	0.2767215
9	0x3e8d1e1a	0.27562028
10	0x3eab728e	0.33485836
11	0x3eab5428	0.33462644
