tested_policies/hyqreal2/hyqreal_no_filter_new_friction/exported/policy.onnx (onnx, 273175 bytes, 8 tensors)

actor.0.weight f4 [128, 260]
000000 2b c8 fa bb 07 cb da be 41 d8 8c be 67 b9 4f 3e
       -0.0076532564 -0.42733023 -0.2750874 0.20285569
000010 56 36 93 be 73 19 09 3e fc 0e a0 3f e3 02 2c 3f
       -0.28752393 0.13388614 1.2504573 0.67191905
000020 87 e5 d8 3d 3e d8 a5 3e 24 19 b7 3e 0b 70 32 3e
       0.10590654 0.32391542 0.35761368 0.17425554
000030 98 cb 77 3f f2 2a ff 3e c3 a1 a6 be d8 63 fb 3d
       0.96795034 0.49837452 -0.3254529 0.12274903
000040 9c 56 a8 3e 4c 07 25 be d6 ab c8 be 7f 13 60 be
       0.32878578 -0.16116065 -0.391936 -0.21882437
000050 ad 95 3f 3f e1 57 19 bd 5b e8 1f 3d e3 a1 ca 3e
       0.7483776 -0.037437323 0.03903995 0.39576635
000060 f3 d7 7b be 5e a3 ff 3d 7f 91 3c 3e 7c 83 07 be
       -0.24594097 0.12482332 0.18414877 -0.13233751
000070 e5 04 df bc 12 e5 69 3e 73 ad 6d be dd 37 52 bd
       -0.027224014 0.2284129 -0.23210697 -0.051322807
000080 72 f8 47 3d 78 f2 9b be 26 6f da 3d 3a 53 93 3d
       0.04882092 -0.30458426 0.10665731 0.071936086
000090 f4 af b8 bd 59 eb 70 3d e8 b9 22 be 4d 7d ac 3d
       -0.090179354 0.058818195 -0.1589123 0.08422337
0000a0 e3 8d df be d3 d1 b2 be 72 85 d7 bb fc 3c 50 3e
       -0.43662938 -0.34925708 -0.006577187 0.20335764
0000b0 1f ef 54 3e 26 16 4d 3e 5c a9 59 be 78 ab 98 bd
       0.20794342 0.2002798 -0.21256012 -0.0745458
0000c0 e0 fe 40 bd bb e2 fa be 65 19 dd be b9 d2 3a 3c
       -0.047118068 -0.49001107 -0.43183437 0.011402779
0000d0 eb 33 b9 bd 83 3d 32 bf 0b a1 a6 3d a3 12 5b be
       -0.09043106 -0.6962511 0.08136185 -0.21393828
0000e0 a6 08 0d bf 41 48 a3 be a4 ac 96 3f 76 a3 29 3f
       -0.5509132 -0.31891063 1.1771436 0.66265047
0000f0 b2 ba 0a 3d ae 35 b5 3e 40 40 ea 3e 50 90 8c 3e
       0.033869453 0.35392517 0.45752144 0.27453852
000100 ee 3c 7e 3f 3e f3 13 3f 39 27 cd be 26 04 7f 3c
       0.9931172 0.57793033 -0.40068987 0.015564954
000110 36 c2 ee 3e b6 c6 46 bd f9 85 d1 be c3 53 4d be
       0.46632546 -0.04852935 -0.40922526 -0.20051484
000120 a3 9e 26 3f b7 a9 0a be 6e 15 99 3d 60 11 c0 3e
       0.6508581 -0.13541304 0.074747905 0.37513256
000130 21 e9 f9 3c 55 9e 25 3d ec 08 c6 bd 99 99 b3 bc
       0.030506672 0.0404342 -0.096696705 -0.021923827
000140 bf 7d 09 3d 50 6e d1 3c da 42 88 bd f7 9f 46 be
       0.033567186 0.025565296 -0.06653376 -0.19396959
000150 a2 42 01 3e 7b 24 8a bd 1f ad 85 3c 1b 9f 0b 3e
       0.12623075 -0.06745239 0.016317902 0.13634913
000160 aa 8d fd bc d9 91 84 3d 7c 1a 04 3e 83 80 a4 3d
       -0.03095134 0.06473131 0.12900728 0.08032324
000170 5c 21 8b be 1d a0 0d be c6 14 06 be 92 49 83 bd
       -0.2717389 -0.1383061 -0.13093862 -0.06410517
000180 37 19 84 3d a5 70 12 3d e3 ba f2 3d 91 06 5f bd
       0.06450122 0.035751957 0.11852052 -0.05444962
000190 03 c8 26 bd 13 51 2a bf 8a 1e 2d bf 78 c8 ca bc
       -0.04071809 -0.6652996 -0.67624724 -0.024753794
0001a0 b9 ef 86 be 2a cc 02 bf bb 7e 8f 3e 08 f5 e0 3a
       -0.2635477 -0.5109278 0.28026375 0.0017162869
0001b0 23 21 a9 be 01 19 85 be c8 ba 94 3f f5 7b 2b 3f
       -0.33033094 -0.2599564 1.1619501 0.6698602
0001c0 c2 b8 d1 3d 0b 88 d5 3e 75 54 08 3f 17 c1 9b 3e
       0.10240318 0.41705355 0.5325387 0.30420753
0001d0 80 87 6f 3f f6 b7 02 3f d6 b6 aa be a2 4a fe 3d
       0.9356613 0.5106195 -0.33342618 0.12416579
0001e0 cc 88 f5 3e 6e 9c ea bd 34 74 ef be 21 9c ea bd
       0.4795593 -0.11455618 -0.46768343 -0.114555605
0001f0 b3 af 2e 3f 73 13 21 be 0a 17 51 3d ff 44 bc 3e
       0.68236846 -0.15730076 0.051047362 0.3677139
000200 7f a7 35 3d 66 6b a0 bd 6b e0 f2 3d 5e 97 82 bd
       0.04434919 -0.078329846 0.118592106 -0.06376527
000210 c1 06 76 3e 28 82 5e bd 81 12 5f be 75 e3 81 3d
       0.24026014 -0.054323345 -0.21784402 0.06342212
000220 68 a3 13 be 3d 9d 51 bc 13 98 5b bd be a8 e6 3d
       -0.14417803 -0.012793836 -0.053611826 0.11262654
000230 b8 d1 60 3e 2c 16 f2 3d 96 33 b3 3d 12 e0 84 be
       0.21955001 0.11820635 0.087500736 -0.25952202
000240 23 66 ce be c7 a6 6c be ff c6 68 bd 75 4b 0a be
       -0.403123 -0.23110496 -0.056830402 -0.13505347
000250 55 ea 81 bd 41 b8 4c bd ea 3b 36 3e 78 0b 0c be
       -0.063435234 -0.049980406 0.17796293 -0.1367625
000260 af af ba 3c 77 06 88 bf 20 1f 8b bf 4c 24 e1 3c
       0.02278885 -1.0626973 -1.0868874 0.027483128
000270 76 42 19 bf 1e ee 14 bf db 2c 25 3f 4a 24 b2 3d
       -0.59867036 -0.5817584 0.6452157 0.08698328
000280 73 09 0e bf b4 21 ad be ae 89 96 3f ab 89 2d 3f
       -0.5548317 -0.33814776 1.1760767 0.6778819
000290 30 b1 db 3d 27 11 12 3f 8e 92 50 3f 99 9c cd 3e
       0.10727155 0.5705742 0.81473625 0.40158537
0002a0 74 da 7f 3f 6e ba 05 3f e1 86 96 be b1 c5 84 3d
       0.9994271 0.52237594 -0.2939978 0.06483019
0002b0 b9 5e 3a 3f 40 16 32 be 9e d0 bc be e4 d0 8a bd
       0.72800785 -0.173913 -0.36877912 -0.06778124
0002c0 e6 ed 0c 3f 0b 04 28 be 29 1f 2e be a0 d1 76 3e
       0.55050504 -0.16407792 -0.17004074 0.24103403
0002d0 f2 b1 d7 bd 7b e1 bd bd 72 a1 9a 3d e8 0f c9 bc
       -0.10531987 -0.092715226 0.075503245 -0.024543718
0002e0 eb b1 a0 3e 12 4c 77 be 94 d9 b5 bd e3 86 e3 bb
       0.3138574 -0.24150112 -0.0887939 -0.00694357
0002f0 50 7a e7 3c cb 84 fc 3d 5c 2c 02 be c4 1f 78 3d
       0.028256565 0.12330016 -0.12712234 0.06057717
000300 fe 65 61 3e 3a 93 16 3e 8f 93 78 3e 83 68 d1 be
       0.22011563 0.147046 0.24275039 -0.4090005
000310 f5 ed e9 be e4 f8 7a bd 0b 37 67 be 23 b7 8a bc
       -0.4568936 -0.061272517 -0.22579591 -0.01693303
000320 39 70 4a be 47 22 62 3e d1 37 e1 3d 1d bf 8f be
       -0.19769372 0.22083388 0.10996974 -0.28075495
000330 50 ae bb 3c 43 27 68 bf 59 c4 52 bf 3d 05 fe 3a
       0.022910267 -0.9068491 -0.8233085 0.0019380223
000340 58 4a 85 bf 81 6b 99 be 24 b6 a2 3f 24 4e 26 be
       -1.0413313 -0.2996483 1.2711835 -0.16240746
000350 f9 a5 22 be c5 2a 84 bd 63 f9 91 3f 2e 44 1c 3f
       -0.15883626 -0.0645347 1.1404232 0.61041534
000360 38 b8 98 3d 07 a6 69 3f f0 b9 8c 3f 7a c1 24 3f
       0.07457012 0.9126896 1.0994244 0.6435772
000370 4b de 8e 3f bb 1d d1 3e 06 30 86 be 42 f8 30 3e
       1.1161588 0.40842995 -0.26208514 0.17282203
000380 67 a7 61 3f 13 e1 2f 3b 17 6a cf be 24 f8 09 3e
       0.8814606 0.0026837036 -0.40510628 0.13473564
000390 15 b4 1e 3f e1 4c 8b be 67 0d 1c be d4 7e 31 3e
       0.61993533 -0.2720709 -0.15239488 0.17333537
0003a0 f8 d0 62 3e c5 e4 86 bd 81 12 b2 be 16 55 1a be
       0.22150028 -0.06586603 -0.34779742 -0.1507152
0003b0 d8 08 31 3e 21 67 80 3d 3f 3c 09 bf c1 d6 33 3e
       0.1728853 0.0626967 -0.53607553 0.17562391
0003c0 a5 fa 5f 3e ff 7f 00 be fc e2 af bd 91 ea 45 bd
       0.21872957 -0.12548827 -0.08588216 -0.048319403
0003d0 8e 5c a0 3e fb 3e 9c bd f2 0e d2 bc 7b a2 43 be
       0.31320614 -0.076292 -0.025641892 -0.1910495
0003e0 a8 e1 6d bf fb 35 01 3d 3d f7 85 be 93 9a 5f 3e
       -0.9292245 0.03154562 -0.2616519 0.21836309
0003f0 93 60 f7 be 98 90 9c 3e 04 c8 e8 bc 2d ba f1 bd
       -0.48315868 0.30579066 -0.028415687 -0.11803088

actor.0.bias f4 [128]
000000 21 3a 81 bd 20 68 81 be ff ee cd bd af e2 3b 3d
       -0.06309915 -0.25274754 -0.100553505 0.04587048
000010 24 1f 1d 3d 9d ac 00 be d6 ca 6f be e5 c6 1d 3d
       0.038359776 -0.12565847 -0.2341722 0.03851976
000020 3b c3 67 be 26 bb c0 bd f4 ab e6 bd 1a 5a 2d 3d
       -0.22633068 -0.09410696 -0.11263266 0.042322256
000030 e1 d1 09 be 66 df fb bd 77 01 42 bd 18 b6 1a bd
       -0.13458969 -0.12298469 -0.04736468 -0.037771314
000040 66 c8 13 3e a5 bf c9 3d 12 0f c4 3d a6 1e 90 3d
       0.14431915 0.098510064 0.09573187 0.07037096
000050 9c 67 d6 be 96 fb 8f be 32 f6 fe 3d 33 09 28 be
       -0.41875923 -0.28121632 0.12449302 -0.16409759
000060 47 ea 3b 3e f7 11 36 3e 8b 91 6f 3e 8e 10 1e 3e
       0.18351088 0.1778029 0.23395364 0.15436003
000070 7e 96 d7 3d 06 af dc 3d 69 dd cd 3e f4 93 55 3c
       0.10526751 0.107755706 0.40207985 0.013035763
000080 c5 cd 4f be 14 c1 32 3d 73 9c 0f bf 01 ef 4f 3e
       -0.20293339 0.043641165 -0.560981 0.20306017
000090 41 45 f6 3c c5 c6 29 3d 6f 03 14 be 24 33 25 bf
       0.03006232 0.041449327 -0.14454435 -0.6453116
0000a0 8f 1a 81 be 63 aa d8 bd 04 07 b3 bc ce 06 4b be
       -0.25215575 -0.10579374 -0.021853931 -0.19826815
0000b0 0d ec 2e be 28 f8 3e 3e f4 47 28 3e 95 25 4a 3c
       -0.17082234 0.18649352 0.16433698 0.012338062
0000c0 6d 1f 48 be a3 44 4c bd 57 75 04 bf 2e a5 be be
       -0.19543238 -0.049870145 -0.51741546 -0.37235397
0000d0 23 c6 63 bf 95 35 19 bf 40 9c db be 44 b4 b0 bd
       -0.8897421 -0.59847385 -0.42892647 -0.08628133
0000e0 d5 83 7d bd 5d 65 12 3e ec 2d eb 3c 81 b4 7d bd
       -0.061893303 0.1429648 0.02870842 -0.06193972
0000f0 72 77 a4 3d 0b 0b 38 be 85 5b 25 be d1 19 30 be
       0.08030595 -0.17972963 -0.16148193 -0.17197348
000100 2d 61 19 3e 64 16 48 bc 20 5f b9 bd 57 a5 83 be
       0.14978476 -0.01221237 -0.09051347 -0.25712082
000110 a0 76 7f be 2f 8b 72 be 9e 2d 75 be d5 f0 e3 3d
       -0.24947596 -0.23685907 -0.23943183 0.111299194
000120 80 13 70 be 94 2d ad bd 0f 6c 7f 3e 2c 91 93 be
       -0.23444939 -0.08455959 0.24943565 -0.28821695
000130 a3 c7 81 be 42 24 79 be 55 56 86 be ef 28 0c 3e
       -0.25347623 -0.24330238 -0.2623774 0.1368749
000140 4d a6 3a bd 45 e3 70 3d fd e9 57 3e 0a 03 4f be
       -0.045568753 0.05881049 0.21085353 -0.20216003
000150 b8 26 9a bb a7 b2 85 be 01 96 80 3e 3f ca 80 bd
       -0.0047043227 -0.26112863 0.25114444 -0.062885754
000160 e6 ee 57 3e e3 ae 58 3e 77 d2 83 bd dc cb e0 3c
       0.21087226 0.21160464 -0.06436627 0.027440958
000170 f5 f9 b7 bd dc bf 96 be c9 0d eb 3d 0a c9 57 be
       -0.089832224 -0.29443252 0.11477239 -0.21072784
000180 69 f0 8b 3e a8 e8 18 bf 3a a7 31 be b1 e2 0b be
       0.27331856 -0.59730005 -0.17348948 -0.13660695
000190 dd cd cb 3d d8 98 af 3d 6b 85 31 be ef e5 89 3e
       0.09951375 0.085740745 -0.17336051 0.26933238
0001a0 68 3d 86 be 6d 06 c0 bc 6c 33 aa 3d db 6a 0b bf
       -0.26218724 -0.023440564 0.08310589 -0.54459924
0001b0 2f f5 07 3e 73 2d 97 3c 2e d7 7b bc 16 7e 0b bf
       0.13277124 0.018454289 -0.015371127 -0.54489267
0001c0 14 06 e1 be 2d f1 f3 be 85 45 83 be d8 1e 3a 3d
       -0.4394995 -0.4764494 -0.25638977 0.04543957
0001d0 e7 3d 85 3d ac 91 7a be 0a 84 b1 3d ea 7e 95 3d
       0.065059476 -0.24469632 0.086677626 0.072995976
0001e0 c0 02 90 be 52 68 e6 be 47 94 ee 3d 0d 97 46 be
       -0.28127098 -0.45001465 0.116493754 -0.19393559
0001f0 f9 db 46 be d0 f4 d3 3d d7 73 d9 3e 1f b7 d4 be
       -0.1941985 0.10349429 0.4247119 -0.4154596

actor.2.weight f4 [128, 128]
000000 26 c0 4b be 74 da 46 3e 8c cf 92 be 84 42 c3 bd
       -0.19897518 0.19419271 -0.2867397 -0.09534171
000010 63 ce a1 be 62 50 25 3e 6e fd 87 3e 59 00 eb 3c
       -0.31602773 0.16143945 0.2656054 0.02868669
000020 d2 ab 9f be 5b 66 7a be 9c 40 95 bd 3c 00 b1 be
       -0.31185776 -0.24453108 -0.07287714 -0.3457049
000030 9a af 50 bd 40 db 8b bc 6c 52 38 be 98 81 c0 3d
       -0.050948717 -0.01707232 -0.18000191 0.09399718
000040 03 06 44 be f3 b6 46 3e 12 70 64 be 9b d4 95 3d
       -0.19142918 0.19405727 -0.22308376 0.07315942
000050 93 be 88 be b8 de 3f 3c e5 11 57 be c1 9d cc 3e
       -0.26707897 0.011710815 -0.2100292 0.39964107
000060 f9 19 01 3e ec 08 e5 be c3 18 d7 bd 7e a9 d6 bd
       0.12607564 -0.4473337 -0.1050277 -0.10481547
000070 56 b8 f8 be 8b ae 2b bf a4 b5 20 bf 67 87 8b be
       -0.48578137 -0.67063206 -0.6277716 -0.2725174
000080 cc 5f f6 be 01 c5 d2 3d 74 8d b6 3e 9b 9b ee 3d
       -0.48119962 0.10291482 0.35654795 0.11650773
000090 99 d1 0a bf 1a 2d b9 be 50 a8 3d bc 0f a1 d3 3e
       -0.5422607 -0.36167222 -0.011575773 0.41333815
0000a0 ca ae 01 be 50 88 78 3d 57 e7 5c 3e 83 e8 e5 3c
       -0.12664333 0.060676873 0.21572624 0.028064972
0000b0 b8 47 91 3e 2c 9a 94 bd fe fc 4a bf 5c ae 8e 3e
       0.2837503 -0.072559685 -0.79292285 0.278674
0000c0 23 2b db 3b 02 63 b5 be 08 ba b9 bc 08 46 57 3e
       0.006688492 -0.354271 -0.022671714 0.21022809
0000d0 88 b4 99 3e 8e 94 8e 3e e7 44 d9 3e 9c 60 84 bf
       0.30020547 0.27847713 0.4243538 -1.0341983
0000e0 2d be e6 3d b7 41 a9 bd 9e 64 b9 ba c2 18 f5 3d
       0.11266742 -0.08264487 -0.0014144366 0.11967613
0000f0 4e 6b a5 be 91 f1 eb bd 6d 75 33 3d 6e 6b 1f 3d
       -0.3230843 -0.115206845 0.043813158 0.038920812
000100 7b c8 9b be 31 ae ae be 27 60 fd 3e 83 fd 69 bd
       -0.30426392 -0.34117272 0.4948742 -0.057126533
000110 36 49 cb 3e 5a 7f 27 3e 25 67 c2 bd 53 2f fd be
       0.39704293 0.16357175 -0.094923295 -0.49450168
000120 dc 4a a7 3d 7e fb 4e be fb e7 77 3c 6c 00 6e 3e
       0.08168575 -0.20213124 0.015130992 0.23242348
000130 62 82 bc 3d b6 94 85 bd 42 1b ca bc 79 35 b9 bc
       0.09204556 -0.06522505 -0.0246712 -0.022608506
000140 55 ee 37 3e b0 8b ad bc 1a e0 6e 3e 7d 9a 57 be
       0.1796201 -0.021184772 0.23327675 -0.21055026
000150 d2 75 7a bc eb c6 33 be ae 73 8e bd 69 72 44 3e
       -0.01528688 -0.1755635 -0.06955658 0.19184269
000160 68 f8 09 be ec 87 ce bd a7 d9 43 3e c9 90 54 be
       -0.13473666 -0.10084519 0.19125997 -0.20758356
000170 85 8f 80 3e 5f f3 99 3e 90 d4 bf bd 21 f3 99 3d
       0.25109497 0.3006849 -0.09366715 0.07517076
000180 c4 8a e5 be 09 3d af 3d 1e 8f 91 3e 9a 87 9b bc
       -0.44832432 0.085565634 0.28429502 -0.018985558
000190 7b c4 a0 bd 31 69 2d 3e 72 d8 25 bc 44 4c 37 3e
       -0.07849976 0.16934659 -0.010122405 0.17900187
0001a0 cb 11 3d be 8e 01 9c 3d 41 93 eb be cb f9 41 be
       -0.18463819 0.07617484 -0.46010783 -0.18942945
0001b0 e6 b1 a6 be 10 0b a1 3d ca 93 62 3e ef d7 24 3d
       -0.325576 0.07863438 0.2212669 0.040244993
0001c0 ee 63 1f be c6 95 16 3e 5c 40 17 3d 91 2d 88 3e
       -0.15565464 0.14705572 0.036926612 0.26597264
0001d0 19 6e c0 bd bf fa 02 bf 39 47 ed 3d 4a 0d 9c be
       -0.093959995 -0.5116386 0.1158585 -0.3047889
0001e0 b5 24 81 bd bf a5 2c 3e f2 b2 64 3d 57 f7 c1 3e
       -0.063058294 0.16860102 0.055834718 0.37884018
0001f0 96 4f 41 be bf eb 22 3e 49 03 9b be 79 4c c5 3d
       -0.18878016 0.15910242 -0.30275944 0.096337266
000200 31 02 26 bd 00 42 8a 3e 08 f8 93 3d 9c 31 5c 3e
       -0.040529434 0.2700348 0.072250426 0.215033
000210 dc 8f c2 3d ab 6d 70 be a7 2b 99 3b e5 20 54 3e
       0.09500095 -0.23479335 0.004674393 0.20715673
000220 12 e2 2c 3d 81 56 cb 3d 32 7a dd bc 4e 37 ba 3d
       0.042207785 0.09928609 -0.027035806 0.0909258
000230 29 a5 a0 3d 68 10 64 bd ee 71 b1 3d 8d b9 95 be
       0.07844002 -0.05567971 0.086643085 -0.29243127
000240 96 25 0c 3e 1e 57 17 bc bb 81 cb 3d 52 45 1d 3e
       0.13686213 -0.009237079 0.099368535 0.15358475
000250 3f df da 3c 68 ab 3d 3d 5e c3 d1 3e 08 96 d7 3d
       0.02671778 0.046306044 0.40969366 0.10526663
000260 2d 1a ea bd 35 bb 98 be 8b 90 36 be ba 4c 9a be
       -0.11430774 -0.29830328 -0.17828576 -0.30136663
000270 f0 17 e0 bd ce ba f9 3e 9f f8 d2 bc ed 44 72 3c
       -0.10942066 0.48775333 -0.025753317 0.014786941
000280 89 61 9a bd 00 f1 13 be 35 98 93 3d 23 5d 9a be
       -0.075381346 -0.14447403 0.072067656 -0.30149183
000290 a2 17 93 3e e5 32 27 3e e3 d4 92 3c 0e 0f 80 be
       0.28728968 0.16328008 0.017923778 -0.25011486
0002a0 14 12 b2 3d 6b b9 05 be 63 24 83 bd de d7 1a 3e
       0.086948544 -0.13059013 -0.064034246 0.1512141
0002b0 5b fa e7 bd 21 bb 36 be e4 7e 18 3d dd e7 99 3d
       -0.113270484 -0.17844822 0.037230387 0.075149275
0002c0 3f 02 c3 bd b3 3f 85 3d 0e b1 85 3d ac ea 9d bd
       -0.09521913 0.0650629 0.06527911 -0.07710776
0002d0 49 82 78 3d af fb b2 bc 3d bf 27 bd 4d 99 10 3c
       0.060671125 -0.021848528 -0.040953863 0.008825612
0002e0 8a 72 da 3d 5e 1c db be 31 30 65 3d 91 1e 04 be
       0.10666378 -0.4279508 0.055954162 -0.12902285
0002f0 5f 73 b0 3e 7f 6c bf 3c 17 8c a5 be 1c 9b 5d 3e
       0.3446302 0.023367165 -0.32333443 0.21641201
000300 d9 0a 37 3e d9 6c 0d be b4 d7 b1 3e 8b 36 38 3e
       0.17875232 -0.13811053 0.3473488 0.17989556
000310 08 99 db 3c d2 b4 94 bd 04 72 67 be 6f fc b8 3e
       0.02680637 -0.07261051 -0.22602087 0.36130092
000320 5d 65 88 bc 4f db 8c bd 57 c6 99 3c b2 d0 3d 3d
       -0.016649896 -0.06877767 0.018771334 0.046341605
000330 c6 81 f0 3b 66 7e 09 3e 63 44 47 bb 29 9a 0d 3e
       0.007339689 0.13427123 -0.0030405752 0.13828339
000340 04 4c 6b be 23 ab 83 be fa a4 d0 3d 82 da 90 bd
       -0.22978216 -0.25716504 0.10187717 -0.07072927
000350 f1 1b c0 3d 6c 78 1f be dd 27 2a bd 33 ee 4c bc
       0.093803294 -0.15573281 -0.041541923 -0.012507963
000360 55 ba 82 3d 0a 2c 82 3d 82 0f 85 3d f7 24 84 be
       0.06383196 0.06356056 0.064970985 -0.25809452
000370 cc 99 d5 bd d9 31 07 bd 00 d1 67 3d ad 03 a1 bc
       -0.10429725 -0.033006523 0.056595802 -0.019655073
000380 04 39 49 3d 0a 20 e6 bd 2e 2a c3 bd c0 ed 4e be
       0.04912664 -0.1123658 -0.095295295 -0.20207882
000390 5b fb ab be b6 57 22 3e e7 72 7b bd f5 84 1f 3e
       -0.33590207 0.15853772 -0.061388876 0.15578063
0003a0 24 13 9b bd 83 be e1 be 73 c8 8f bc a4 47 4f be
       -0.0757201 -0.4409066 -0.017551636 -0.20242172
0003b0 bb dc 88 3d 12 12 d9 bd 1b b5 48 bd 0b 3b 57 be
       0.06682726 -0.1059915 -0.04900084 -0.21018617
0003c0 82 a9 a3 3c 89 75 27 be 33 c6 f9 ba 51 c0 98 3c
       0.019978289 -0.1635343 -0.001905626 0.018646391
0003d0 82 3c e1 bc 75 4d e8 3d 18 16 5f 3e ee 30 42 bd
       -0.027494673 0.11342899 0.21785772 -0.047409944
0003e0 ad 3d b6 bd 27 f9 b5 bd 97 09 2a be 9d f5 d0 bb
       -0.088984825 -0.08885413 -0.1660522 -0.0063769356
0003f0 6e 57 db 3d f0 ac 5c 3e 91 e4 92 3e 45 46 0a 3e
       0.10710035 0.21550345 0.28690007 0.13503368

actor.2.bias f4 [128]
000000 b0 0d c2 be ba e4 56 be 1a 5a d9 3e 68 6c 87 bd
       -0.37901068 -0.2098569 0.42451555 -0.06612474
000010 5b 1f e1 be 96 5b 39 3d 11 1a b9 be ba da 37 be
       -0.43969235 0.04525336 -0.361527 -0.17954531
000020 60 a3 96 bd bf 90 1f 3e 7b 17 e2 3d c3 7c d6 3d
       -0.0735538 0.1558256 0.11039635 0.10473015
000030 fc 49 24 bf 53 82 b4 be 54 7e e8 be 88 9f 97 be
       -0.6417539 -0.3525568 -0.4540888 -0.296139
000040 96 a9 f3 be f2 d9 95 bc a6 98 88 be 99 fb a0 be
       -0.4759032 -0.018292401 -0.26678962 -0.31441954
000050 62 6e 56 bc e4 8f 0f be b5 4f 29 be bc d9 5b be
       -0.013087841 -0.14019734 -0.16534312 -0.21469778
000060 b8 70 94 3c 1e ef e4 3c 06 11 90 3d d0 de 42 be
       0.018120155 0.027946051 0.07034497 -0.19030309
000070 fb c3 19 bd 83 d0 5f 3e 8e 4c cf bd e3 fd 14 bf
       -0.037540417 0.21856885 -0.101220235 -0.581999
000080 d8 2a 50 be 37 ae 99 be 87 9d da be 80 41 cb bd
       -0.20328844 -0.30015728 -0.4269831 -0.099246025
000090 7d 0e fc bd c3 ad d8 3d 4a 07 84 bd 0c 63 88 be
       -0.12307451 0.105800174 -0.06446703 -0.26638067
0000a0 19 0d 0e bd 97 86 29 3e ff 44 90 bd f9 66 2b be
       -0.03468046 0.16555248 -0.0704441 -0.167385
0000b0 90 fa 4d 3c 15 c9 da be e4 2a 9d be fe ea 8d be
       0.012571946 -0.42731538 -0.30696785 -0.27718347
0000c0 36 08 5a 3e e1 8b 06 bf b9 52 38 be ca 36 d9 be
       0.21292195 -0.5255719 -0.18000306 -0.42424613
0000d0 70 f8 7a be cf 32 81 be a8 f7 af 3d 0c 3d d1 3c
       -0.24508834 -0.25234076 0.085921586 0.025541805
0000e0 cb 93 cc 3c f8 63 af bd 74 6f 4c be 4a 1f 0a bf
       0.024972817 -0.085639894 -0.19964391 -0.53953993
0000f0 09 64 05 be 66 3a a1 be 42 e4 94 be c7 be 2b be
       -0.13026442 -0.31489867 -0.29080397 -0.16771995
000100 64 5c 61 be b2 f2 96 bd 09 e5 9f be 7b 7e cf be
       -0.220079 -0.07370509 -0.31229427 -0.40526184
000110 05 a5 f8 bd e5 7f 27 bf 68 6f 8c be 84 c3 01 bf
       -0.1214085 -0.65429527 -0.27428746 -0.5068896
000120 1d e4 e0 be d3 3d 8b 3d 36 54 9b bf 3c 78 cf be
       -0.43924037 0.067989014 -1.2135074 -0.4052142
000130 0f cb 4e bf 0f f1 99 3d 70 d6 a6 bd 3e f3 91 be
       -0.8077859 0.075166814 -0.081463695 -0.28505892
000140 9b 22 b3 3c f5 36 ed be 49 c7 a4 be 1a ad 43 be
       0.021867087 -0.4633099 -0.32183293 -0.19109002
000150 75 b2 6c bd b8 07 c2 be 73 e4 b0 3d 77 5c 53 be
       -0.057787377 -0.37896514 0.08637323 -0.20640741
000160 74 62 07 3e 01 86 6d be 1a e3 0d bf 42 5b 2e be
       0.1322115 -0.2319565 -0.55424654 -0.17027
000170 16 b4 05 3d 36 d9 16 bf 48 b1 00 3d 13 59 28 bf
       0.032642446 -0.5892519 0.03141907 -0.65760916
000180 04 09 2a be 32 1f 00 bf 79 3f 10 3e 51 e3 a3 3e
       -0.16605002 -0.500476 0.14086713 0.32009366
000190 3d fd 0a bf 55 f6 88 be 31 70 b7 be 40 84 82 be
       -0.5429266 -0.26750436 -0.35827783 -0.25491524
0001a0 63 3d c0 bd 4d 6e 84 bd ba 10 7e be 6d b3 79 be
       -0.093867086 -0.06466351 -0.24811068 -0.24384852
0001b0 96 c1 3a bd 02 0d b8 be 68 47 6d bd e4 75 1f be
       -0.045594774 -0.35947424 -0.057929426 -0.15572315
0001c0 3f c7 d2 bd c4 da 61 bf 36 24 07 bf 04 95 c7 3d
       -0.102919094 -0.88224435 -0.5278963 0.09745219
0001d0 3b 39 03 bf 64 5f 1d bf 75 e7 cb 3d 99 39 ee 3c
       -0.512592 -0.6147368 0.09956256 0.0290802
0001e0 f2 40 05 bf 7d c8 a3 be dc 03 8d 3d 74 26 46 be
       -0.52052224 -0.31988898 0.06885502 -0.19350606
0001f0 23 8e 0a bd 81 bb 75 bf 46 00 3b be 70 df 12 bf
       -0.03382696 -0.95989233 -0.18261823 -0.5737219

actor.4.weight f4 [128, 128]
000000 60 e1 1e 3d e2 09 9f bc c2 ba 24 be 89 d6 8b be
       0.038789153 -0.019413892 -0.16086867 -0.27312115
000010 3d bc 32 3d 3c 4a 81 bd aa 65 10 be ae 05 7a be
       0.04363655 -0.06312987 -0.14101282 -0.24416229
000020 be 14 61 3e 2e ce 89 be 80 b4 20 be db fd 41 be
       0.21980569 -0.26915115 -0.15693855 -0.18944494
000030 b9 90 9e 3e 9d e5 5d 3e 25 96 0a 3f 17 15 bf bc
       0.3096979 0.21669622 0.5413535 -0.023325486
000040 b2 a9 4d bd 4f c7 78 be f8 42 a2 bd 44 85 49 be
       -0.050210662 -0.2429478 -0.079229295 -0.19679743
000050 c7 94 c7 3d 3f ea 8d be 2c b5 cf bd 3b 42 43 be
       0.09745174 -0.27717778 -0.10141978 -0.19068234
000060 54 39 ae bd 84 d2 00 3e 34 d2 d2 3e f1 93 6c be
       -0.08507028 0.12580305 0.41175997 -0.2310331
000070 f0 43 d0 3e b6 5a bc 3c ed 9b f8 bd 7d 8c 21 3e
       0.40676832 0.022992473 -0.121391155 0.15776248
000080 53 25 6a bc d9 d2 4c 3d 2e 85 63 3e e2 aa 2d 3e
       -0.014291125 0.050005767 0.22218773 0.16959718
000090 ae ae 49 3e fd d9 2b be 6e 85 e2 bd ef da 58 be
       0.19695541 -0.16782375 -0.11060606 -0.21177267
0000a0 89 a5 8a be 64 92 ba be 70 bd 6a be 18 12 ed 3e
       -0.27079418 -0.36439812 -0.22923827 0.46302867
0000b0 18 15 2a bd b6 46 1c 3e a4 3c 27 3e 33 1b d9 3d
       -0.041524023 0.15261349 0.16331726 0.10600891
0000c0 48 85 5c bd bd bb 6e be ff 1f 75 3d 3b 93 19 3e
       -0.053838044 -0.23313804 0.059844967 0.1499757
0000d0 3e ed 7c 3e 1b 79 b4 3d e1 ad f4 bd be 7a 31 3b
       0.24699876 0.088121615 -0.11947227 0.0027081217
0000e0 fe da b0 3d de c9 43 be 04 a0 80 3d 65 9a db be
       0.086355194 -0.19119975 0.062805206 -0.4289123
0000f0 a6 42 81 bc de 7e bb bd 50 20 bd 3d 0e 51 9b 3d
       -0.01577885 -0.09155057 0.09234679 0.07583819
000100 96 9e 70 be a4 1c f1 be be 13 4f be a8 07 54 be
       -0.23497996 -0.47092164 -0.20222375 -0.20706046
000110 9c e5 7a bd 8d dd 2f 3f bc 3f 64 3e eb 4a ce bc
       -0.06125413 0.68697435 0.22289938 -0.025182208
000120 70 7e 73 be a2 e5 06 3e 1c 5e ca 3e a1 18 b0 3e
       -0.23778701 0.13173535 0.39524925 0.3439379
000130 bb a5 79 3d 03 8f 05 be ac 71 0c be b1 fb 10 be
       0.06094907 -0.13042836 -0.13715237 -0.14158513
000140 ee 4b 27 be 53 50 80 3e 5a e8 7d 3e be 5f 81 be
       -0.16337559 0.25061283 0.24795666 -0.25268358
000150 01 7d 8b be 72 27 91 3e af 55 ca 3d 44 5a 94 bd
       -0.27243808 0.28350407 0.09879624 -0.07243779
000160 36 1d 45 bd 4d 42 89 3d a2 38 99 be 1e 3e 58 be
       -0.04812356 0.06702099 -0.2992602 -0.21117446
000170 c3 b2 a7 3e fa 22 8e bc 7d 50 e3 bd c8 b6 06 3f
       0.32753572 -0.017350662 -0.11099336 0.5262265
000180 c6 07 f5 bd dd 82 df 3c b0 7e 3f 3e 9e b6 89 bc
       -0.11964373 0.02728408 0.18700671 -0.016810711
000190 63 ca 36 3d 0e 5e aa bd 6b 83 f8 3d f5 96 32 3e
       0.044626605 -0.08318721 0.12134441 0.17440398
0001a0 b6 a8 53 3e 8d d6 26 be cb 24 d1 3e a6 b4 3b 3d
       0.20669827 -0.16292782 0.40848383 0.045826577
0001b0 72 b1 c3 3d a9 20 3e bd 6f 0e d7 3c a8 cb 54 bd
       0.095553294 -0.046417866 0.026252 -0.051952034
0001c0 7f e2 4d be 80 5a c2 3e 60 92 3e 3f e2 6a 88 3c
       -0.20105933 0.3795967 0.744421 0.016652528
0001d0 a9 f0 84 3e f5 67 d3 bd 95 49 72 be 45 cb 5d be
       0.2596486 -0.103225626 -0.23660882 -0.21659572
0001e0 84 c5 94 3e d4 dd ae 3e 36 83 ae bf 94 e4 01 3d
       0.29056942 0.34153616 -1.3633792 0.03171213
0001f0 1c ac 3a 3e be 43 5f 3e d1 75 53 be 85 07 35 3e
       0.18229717 0.21803185 -0.20650412 0.1767865
000200 d8 c3 2b 3e d8 92 a3 bd 09 64 eb bb 79 fc 7e 3e
       0.16773927 -0.079869926 -0.007183556 0.24900998
000210 bb 7d 5a bc af 12 d9 be 8c 1e 33 3e 07 b2 ef bd
       -0.013335641 -0.42397067 0.17492121 -0.11703878
000220 8c 8a 80 3d 18 56 06 3d f9 8e a2 3d b4 04 9e be
       0.06276426 0.03279695 0.07937426 -0.30862963
000230 7b 29 9d bd e3 d8 d9 bd 7e 9c 1d 3d eb fa 20 3e
       -0.076739274 -0.10637071 0.03847932 0.15720718
000240 94 76 89 be cf 94 f9 3c a7 2d 03 be 71 d4 4b 3e
       -0.2684828 0.030466465 -0.12810384 0.19905259
000250 62 bc 24 be 80 66 a7 be 5d 2e d6 3c 1a 54 56 be
       -0.16087487 -0.3269539 0.026145155 -0.2093052
000260 bb 15 0a 3e 65 ed c3 3c c4 2d fc be cf 04 26 be
       0.13484852 0.02391691 -0.49253666 -0.16212772
000270 99 78 ae 3c 8a ca 06 bf 55 a3 93 bc fa 44 05 3d
       0.02129774 -0.526528 -0.018022219 0.032536484
000280 25 f4 bb 3d 95 ed 1f 3e 55 f3 98 bd bd bd 6a 3a
       0.09177426 0.15617974 -0.07468287 0.0008954665
000290 f2 4c 31 be 67 0e a7 bd d4 af 39 bd 1b 34 94 3d
       -0.17314509 -0.08157044 -0.0453337 0.07236501
0002a0 83 3e 9e bd 48 cc fd 3d 04 51 57 bd 70 fd 17 be
       -0.07726767 0.12392479 -0.052567497 -0.14842772
0002b0 52 74 08 be bb f6 ee bd 7f 56 8d be ec b9 44 be
       -0.13325623 -0.11668154 -0.27605054 -0.19211549
0002c0 ba 7e 07 3e 46 d3 7f 3d 95 a0 c7 3d d7 48 05 3e
       0.13231936 0.062457345 0.097474255 0.13016067
0002d0 c9 35 c1 3d de 0a b2 3c 7f 3c 5f 3d 65 d9 9a 3d
       0.09434087 0.021733698 0.054501053 0.07560996
0002e0 25 a1 0b 3e 8a 49 33 3e c9 de 1d bf 75 06 72 3e
       0.1363569 0.17508522 -0.6166807 0.23635276
0002f0 87 27 fd 3c e0 94 a7 3d d5 01 91 bc 8b 3e 92 be
       0.030902637 0.081826925 -0.017701069 -0.28563341
000300 54 bb 89 bc 6f 7f 24 3d e3 c4 d5 3c 0e 8d 28 be
       -0.016812958 0.040160593 0.02609486 -0.16460058
000310 cb 32 63 bd b4 f9 c4 3c 2e 0a a6 bd 91 d8 15 3e
       -0.05546836 0.024044849 -0.0810741 0.14633395
000320 12 c8 95 be 23 d0 bd 3b d5 11 74 3e a4 9a 9c bc
       -0.29254204 0.005792634 0.23834927 -0.019116707
000330 16 4e d9 3e 47 a9 21 bc 88 0a 36 3d de ed a6 3d
       0.42442387 -0.009867019 0.044443637 0.08150838
000340 cc 0d b9 bd ee 25 c9 bd dc a4 01 3e c8 c7 0e 3e
       -0.09035835 -0.09821688 0.12660545 0.13943398
000350 d5 48 43 bc f7 83 49 3d 19 48 6c be 2a 7d 2c 3d
       -0.01191922 0.049198117 -0.23074378 0.042111553
000360 30 53 a8 bd 0f d5 55 be c2 b3 12 be cf be cb bd
       -0.08218992 -0.20882057 -0.14326385 -0.09948503
000370 4c 85 bd 3c 4c 91 69 3e 01 24 33 3e f0 c8 a9 3d
       0.02313485 0.22809333 0.17494203 0.08290279
000380 03 a8 d9 3d 12 94 0b be 19 bb 54 bd a5 95 5a 3d
       0.10627749 -0.13630703 -0.051936243 0.05336537
000390 e6 0a 2c 3d 0f 61 24 3c b8 c5 9d 3c f1 2a 93 3e
       0.04200258 0.010032906 0.019259319 0.287437
0003a0 f9 c9 06 bd d6 41 fb 3d b0 fb 0d be 36 bc b1 3d
       -0.03290746 0.122684166 -0.13865542 0.086784765
0003b0 52 08 15 3e 6b 62 1c be cc 2a 95 3d 13 0f e2 3d
       0.14553955 -0.15271918 0.072835535 0.110380314
0003c0 8f a1 2c 3d d5 6f 32 3e a8 94 1a 3e ec e2 44 be
       0.04214626 0.17425473 0.1509577 -0.19227189
0003d0 92 fc 16 3e 89 ad 88 3d 41 20 34 bc b5 be b9 bd
       0.14744785 0.06673724 -0.010994018 -0.090695776
0003e0 a8 e3 2c bd 9f 33 a9 bd 81 0a 09 3e ff d8 f4 3d
       -0.042209297 -0.08261799 0.13382913 0.11955451
0003f0 61 92 0d bd ce 83 40 3e 92 83 76 bd 57 ac ca bd
       -0.034563426 0.1880028 -0.06018407 -0.098961525

actor.4.bias f4 [128]
000000 10 66 07 bf 29 65 87 be 53 f6 46 be 79 9a 0c be
       -0.5289011 -0.26444367 -0.19429903 -0.13730802
000010 a8 b3 9c be a5 6b 0e bf 54 18 47 be b6 c7 41 be
       -0.30605817 -0.55633 -0.19442874 -0.1892384
000020 e3 8c bd be 09 ad e0 bd cd c6 75 be fe 6b 34 be
       -0.3702155 -0.10970504 -0.24001618 -0.17619321
000030 ca 68 fc bd a2 cb 0e bf fd 79 9d be 17 cd 48 bc
       -0.123246744 -0.5577947 -0.30757132 -0.0122559285
000040 ba 5b 47 bf fc c9 da be a9 fa 8d be 12 e6 68 be
       -0.7787434 -0.42732227 -0.277303 -0.22744015
000050 0c fc 9b be aa 4e 0a bf 3a 06 8c 3d 37 55 bf bd
       -0.30465734 -0.5402628 0.06837125 -0.09342425
000060 38 c9 ab bd 78 81 a9 3c 09 66 9b bd d6 e2 10 bd
       -0.08387989 0.020691618 -0.07587821 -0.035372578
000070 ba 12 f0 be 38 ef 4c be 80 d3 b6 be c4 c9 15 be
       -0.46889287 -0.2001313 -0.35708237 -0.14627749
000080 7c ff 84 be 1a e6 f3 be 1e 39 53 be 6a a6 9f be
       -0.2597617 -0.4763649 -0.20627257 -0.3118165
000090 d7 a0 c0 bd 8a 2f fc bd b0 04 3d be 68 38 24 be
       -0.09405678 -0.12313755 -0.1845882 -0.16037142
0000a0 a4 36 df bc ed 4b 09 be f1 8b 7f be 19 42 cd be
       -0.027247734 -0.1340787 -0.24955727 -0.4008949
0000b0 59 66 20 bf 72 cf 0f be ce 59 7f be cc 80 14 bd
       -0.6265617 -0.14043978 -0.24936602 -0.036255643
0000c0 c1 bc c1 bd be e8 b0 be b6 a8 88 be b2 1c 84 bf
       -0.0945983 -0.34552568 -0.26691216 -1.0321257
0000d0 5d 97 5b be 7a e3 87 be 82 32 45 be c8 74 ae bd
       -0.2144446 -0.26540738 -0.19257548 -0.08518368
0000e0 ac f1 a7 be 4b 38 99 be 39 22 e1 be 54 e2 b1 bc
       -0.32801569 -0.2992576 -0.43971422 -0.021714367
0000f0 9d 5e dc be b8 38 7d be 70 c4 f8 be 40 df 7e be
       -0.43040934 -0.24728668 -0.4858737 -0.2488985
000100 ff d0 63 bb 8e c8 17 be 71 c5 02 be 44 99 3b be
       -0.0034762023 -0.148226 -0.1277063 -0.18320185
000110 65 69 88 bd 65 31 a8 be ee 7a 9d be f6 8e a8 be
       -0.066607274 -0.32850185 -0.3075785 -0.3292157
000120 ff c8 32 be 30 56 3d be 92 82 2a be 61 b8 6a be
       -0.17459486 -0.18489909 -0.16651371 -0.22921897
000130 ba 66 24 be bf 2d 39 be a9 82 df 3c a5 e6 69 be
       -0.16054812 -0.18083857 0.027283983 -0.2284189
000140 cc 6e 8e be 6f 1e 2c be 8f ab 31 be 43 6f 44 be
       -0.27818906 -0.16808484 -0.173506 -0.19183068
000150 9a 2d 88 be aa b2 23 be 58 c4 5d be f4 40 06 ba
       -0.2659729 -0.15986124 -0.2165693 -0.0005121373
000160 70 0a 02 be 2d 7d 08 be d1 4c 2a be 65 14 d3 bd
       -0.12699294 -0.13329001 -0.16630866 -0.10306624
000170 80 7c b5 be 4c 7b f6 be f2 0f f8 bd 13 29 07 be
       -0.35446548 -0.48140943 -0.12112416 -0.13199262
000180 35 9f a9 be db 71 85 bd 88 fc d5 be 20 71 15 bf
       -0.33129278 -0.06515857 -0.4179423 -0.5837574
000190 74 7e 22 bf a6 da 7f be 63 73 c8 bd e2 b4 ac be
       -0.634742 -0.24985752 -0.09787633 -0.33731753
0001a0 b1 e4 02 bf 9f 91 5f be 94 96 53 be 0e 15 89 be
       -0.51130205 -0.21832894 -0.2066291 -0.26773876
0001b0 c2 b6 b5 be 00 46 86 be a6 a5 83 be 94 d0 65 be
       -0.35490996 -0.2622528 -0.25712317 -0.22442847
0001c0 4d 24 17 bf d7 cb 3f be 33 7a 05 bf 34 75 0c be
       -0.59039766 -0.18730102 -0.52139586 -0.13716584
0001d0 ac aa 0a be 62 ad 06 be a2 71 8b be fd 16 88 be
       -0.13541669 -0.13152078 -0.27235132 -0.2658004
0001e0 0d c8 2c be 21 8f 03 be ac 51 f0 be e3 2d 8c be
       -0.16873188 -0.12847568 -0.4693731 -0.2737876
0001f0 19 6b 58 be 9a 49 32 bf 31 19 19 be 3f 5c bf bd
       -0.21134605 -0.6964356 -0.14951016 -0.093437664

actor.6.weight f4 [12, 128]
000000 39 c3 0a 3d 46 87 12 bd ae a8 e5 bb cc 1a 11 3c
       0.033877585 -0.035773538 -0.0070086336 0.0088564865
000010 9b 2b 1e 3d c5 90 32 bd f0 b0 87 3c 4d 58 25 3b
       0.038615804 -0.043595094 0.016563863 0.0025229633
000020 ed 42 00 3c 1f 2b f9 3b ae 13 13 3b ed 38 b1 3a
       0.007828456 0.0076040174 0.002244215 0.0013520994
000030 b7 e5 20 3c ac be 4b bc df 07 1f bc e4 33 0a 3c
       0.009820393 -0.012435596 -0.009706466 0.008435223
000040 e1 73 20 bd 44 06 4b bd 35 49 c9 3c de af a5 3c
       -0.03917301 -0.049566522 0.02457104 0.020225462
000050 5c 21 c8 bc aa 79 54 bd 9f 3b c0 3b e3 9a 0f bc
       -0.02442997 -0.05187384 0.0058664824 -0.008764955
000060 76 00 20 3c 5a 17 69 bb 8d ce 6b 3c 45 20 00 3b
       0.009765735 -0.0035566897 0.014392507 0.0019550484
000070 c7 d9 ab bc 50 53 51 bc 67 6c c7 bb 03 58 27 3c
       -0.020977868 -0.012776211 -0.0060859206 0.010213855
000080 f1 d7 30 3b 3e 66 3b bc 24 8e 21 3d 2d 12 df bb
       0.002698418 -0.011437951 0.039442196 -0.0068075866
000090 68 17 d8 bb 68 e9 ef 3b 9c 09 ce bc d9 a1 8f 3c
       -0.006594587 0.0073215254 -0.025151066 0.01753323
0000a0 89 0d 61 bc 03 cd 0e 3d 87 40 a1 3c aa 44 0e bb
       -0.013736137 0.034863483 0.01968409 -0.0021708407
0000b0 9c 77 ad 3c 47 25 c1 b8 00 7d 57 3d ff 43 3f 3c
       0.021175198 -9.2099006e-05 0.052609444 0.011673926
0000c0 53 2d fc 3c a1 aa 24 3c aa 2d a8 bc d8 18 68 bd
       0.030783331 0.010050447 -0.020529587 -0.056664318
0000d0 cd 14 b2 bb 33 ed 05 bb 75 d8 94 39 d0 57 2b bb
       -0.0054346086 -0.0020435571 0.00028390033 -0.002614487
0000e0 03 e7 af 3c ef 60 a7 3c fb cd b5 bb dd b3 61 bc
       0.02147246 0.020431964 -0.0055482364 -0.013775793
0000f0 07 b8 6b bc a9 c1 16 bc 64 a0 1d 3c c8 6c 75 bc
       -0.014387137 -0.009201446 0.00962076 -0.014979549
000100 7d f8 ad bc 03 71 91 3b ff c0 d2 3c 96 23 fd 3b
       -0.021236653 0.004438521 0.025726793 0.0077251894
000110 f2 7a c9 3c cf 44 56 3d 9c fd aa 3c 62 49 30 3c
       0.024594758 0.052311715 0.020872883 0.010759683
000120 ee d6 f7 bb 22 32 19 3c 23 88 1b bd 42 c9 6c bc
       -0.0075634634 0.0093503315 -0.037971627 -0.0144522805
000130 29 67 42 3b 01 f0 ba bd 72 7c 1f bd cd 06 44 3c
       0.002966354 -0.09127808 -0.03893704 0.011964512
000140 81 fa ed bc 19 6f 83 3b a7 e3 8e bc 0a b5 56 bc
       -0.029050114 0.0040110466 -0.017442537 -0.0131046865
000150 5b ab a9 bb 42 0a 75 bc 66 58 14 3d 51 c3 b7 3c
       -0.005177898 -0.014956059 0.036217116 0.022432001
000160 dd 29 24 3d c7 84 8e bb d2 30 3c bd 54 35 18 bc
       0.040078986 -0.0043493244 -0.045944996 -0.009290058
000170 8d ea 64 bc d7 97 70 bb 5e 4c e6 bc cc dd 92 3a
       -0.013971937 -0.0036711597 -0.028112587 0.0011205017
000180 9c 5f 14 3d 5a 9f 3d 3c 81 84 6b bc d1 d2 c4 3c
       0.036223993 0.011573637 -0.014374853 0.024026306
000190 f1 9e e6 bc 35 12 90 3b 5a 96 19 bc 72 6e 83 bc
       -0.028151961 0.0043967017 -0.0093742255 -0.016043875
0001a0 57 ea 95 bc 6e bf 29 3c 67 7c 83 bb bf a5 c8 3b
       -0.018300219 0.010360582 -0.0040126326 0.006123274
0001b0 90 1b a6 bb 22 99 4c 3c e1 2d 05 3d 04 16 c7 3c
       -0.0050692037 0.012487682 0.032514457 0.02430249
0001c0 c3 ef 3c bc 24 a0 aa bc 12 36 3c bc 7c 09 8a 3c
       -0.011531773 -0.020828314 -0.011487501 0.016850226
0001d0 4f 18 ff 3c a1 02 85 bc 49 48 f4 bc 00 de e1 bc
       0.03113952 -0.016236605 -0.029819624 -0.027571678
0001e0 79 4f c0 3c 56 7b 2e 3d 3e 6e d7 3c 5f fb bf 3b
       0.023475396 0.04259809 0.026297685 0.005858823
0001f0 f8 a5 bd 3c ab 17 87 bc 96 dc 21 bd e5 7b c9 bb
       0.02315043 -0.016490778 -0.039517008 -0.0061488026
000200 3b 07 f8 3c a4 f9 e9 3a 0e 46 95 ba e6 39 f8 bc
       0.030276885 0.0017850888 -0.0011388676 -0.030301046
000210 1e 9c c5 3c 13 86 30 3d c6 5b 1d 3d e9 f1 71 bb
       0.024122294 0.043096613 0.0384176 -0.0036917871
000220 d6 4a 61 bc 21 27 af 3c ce 09 7f bc 45 95 bc 3c
       -0.013750752 0.021380963 -0.015566302 0.023020396
000230 23 fa e3 3a e1 90 88 bc a2 db 8d 3b 34 4b 1e 3b
       0.0017393272 -0.016670646 0.004329161 0.0024153711
000240 4e dd 61 bb 3a 31 31 bd 1b ef 23 3c e8 0a 37 bb
       -0.0034464183 -0.043259837 0.010005738 -0.0027930085
000250 56 69 fe 3b a4 e6 ac 3b 86 9d 56 3c 41 fc 89 3c
       0.007764022 0.005276518 0.01309908 0.016843917
000260 a7 3a 79 ba 8a 57 2d 3d 83 1e ba 3c 56 8a bb 3c
       -0.0009507336 0.042319812 0.022719627 0.022893112
000270 b6 de 24 3c de cf 92 3c 24 91 67 bc bb 4d 8b 3c
       0.010062864 0.017921384 -0.014133725 0.017004838
000280 e8 51 82 bd 6b a4 df bb 10 56 93 bc ef fd 89 bc
       -0.063632786 -0.00682502 -0.017985374 -0.016844718
000290 2e 73 ea bb d3 2f a0 bc a9 2a 34 3c bc ff d1 ba
       -0.007154844 -0.019554054 0.010996499 -0.0016021649
0002a0 d7 46 b8 bc 01 57 30 3c 79 be 80 bc 8a a3 0b bc
       -0.022494717 0.010762931 -0.015715824 -0.0085228775
0002b0 2c 04 a9 bc c3 7a de bb c1 29 8f bc 20 6b 18 bc
       -0.020631872 -0.0067895367 -0.017475965 -0.009302884
0002c0 f2 b6 90 bc 66 47 4f 38 fb 24 6c bb 27 a6 4b be
       -0.01766536 4.941914e-05 -0.0036032784 -0.19887601
0002d0 d1 29 ba bc cf 0f ee 3c 4d 5c ca 3b 19 06 d4 bc
       -0.022725018 0.029060272 0.006175554 -0.025881814
0002e0 a6 24 06 bb fc f4 2c 3c a9 9a 91 3c 8a e1 c0 3c
       -0.0020468622 0.010556456 0.017773943 0.023545045
0002f0 cc 81 04 bc 9c cd 92 3c e0 74 2c 3c 46 2b 4d bc
       -0.008087587 0.017920308 0.010525912 -0.012522524
000300 32 ae 6d 3a 57 9e ba 3b 37 62 1a 3c b5 ca 93 3d
       0.00090667896 0.005695145 0.00942283 0.07216398
000310 b3 a7 3d 3c e6 16 61 3d f0 1b 58 bd 8b 6f 50 3b
       0.011575627 0.05495348 -0.05276102 0.0031804766
000320 8c ac 3a bc 2e a8 23 bd 49 2e c3 bc 11 0a 46 3b
       -0.011393677 -0.03995531 -0.023825781 0.0030218402
000330 28 9a 40 bc f5 ea 91 bd c8 29 0b 3c 2d c4 ad bb
       -0.011755504 -0.071248926 0.008493848 -0.005302927
000340 da 8d ba bc 91 2b 4f 3c 17 e1 6b 3a d8 09 d5 bc
       -0.022772718 0.012644664 0.00089980796 -0.02600567
000350 95 6a fa 3b de e3 1d 3d 76 db 4e bc 9b a6 e4 3b
       0.0076421 0.03854739 -0.012625566 0.0069778687
000360 eb 37 1e bb 27 86 28 bc ab 44 39 3c 6a b7 8e bc
       -0.0024142216 -0.010285891 0.011307876 -0.017421443
000370 ef f7 74 bc 81 0d 5f 3d ef 42 9b 3c a7 9d 72 bc
       -0.01495169 0.054456238 0.018952815 -0.014808095
000380 1c a8 06 bd 23 50 63 ba 33 bf 1e 3a 0b 17 4c ba
       -0.032875165 -0.0008671304 0.00060557126 -0.0007785416
000390 39 86 88 3c 93 f5 e6 ba 60 33 ee 3c 40 aa 33 bd
       0.016665565 -0.0017620794 0.029077232 -0.043863535
0003a0 d2 45 4f 3a 4c 21 b4 3b 45 18 18 3d b6 de d2 3c
       0.00079068274 0.0054971334 0.03713252 0.025740962
0003b0 e9 cd 7e 3c 2d 8d f5 3c 4c 7b 2e 3d 01 2b 40 bc
       0.0155520225 0.029974544 0.042598054 -0.011729003
0003c0 b7 3a 63 bd 1b 6a af bc 18 6c 27 bd 59 90 3f 3d
       -0.055475917 -0.0214129 -0.04087457 0.04676852
0003d0 b6 13 59 3d ae 6c b1 3c 45 d5 2c 3c aa 1a cb 3c
       0.052997313 0.021658268 0.010548894 0.024792988
0003e0 90 4b 33 bd be 14 78 3c 48 c3 78 3c a9 9b 1d 3d
       -0.043773234 0.015141664 0.015183277 0.038478527
0003f0 17 23 4e bc f9 6a b5 ba 8f d1 40 3c 5e 7d a2 bc
       -0.012581608 -0.0013841084 0.011768713 -0.01983517

actor.6.bias f4 [12]
000000 f3 15 18 3e 0f 84 31 3e 08 06 49 3d 3c bb 8e 3e
       0.14852123 0.17335533 0.049078017 0.27877223
000010 28 7c e1 b9 02 c5 3d 3d e1 0b 9e 3d 79 47 f3 3c
       -0.00043007848 0.04633046 0.077171095 0.029697167
000020 1b 2c 9c 3e e6 72 e4 3d 98 30 77 3e 22 ac 8d 3e
       0.305024 0.11154728 0.24139631 0.2767039
